p1_navigation/data/model_weights.pth (torch_old, 88493 bytes, 6 tensors)

fc1.weight f4 [128, 37]
00000000: 9a36 81be a29e 0b3d c828 a63c 342b b8be
00000010: 8f76 4fbe f226 13bf 4bb9 e03d 4a4c a03e
00000020: 9bab 763d 5d89 f3bc c021 9fbc 8b2c 00bf
00000030: 3fac 3d3d d2f6 2f3d 6eaf d7bd d5bc 1dbf
00000040: fe87 a43d 6f16 b73d 2c53 983e f446 bcbe
00000050: c3ee 813d b11a 523e 60d8 86be 3afd 253e
00000060: 8bed a13c 9b1c 94be 6d73 0a3e 2c9c f13a
00000070: e174 f6bc 7242 16be 8d5d 95be 3c88 8b3e
00000080: 0525 e8bd e46e 27be 242d 22bd b81a 7ebe
00000090: 7d29 693d dccf 71be af32 193e d5ca 153e
000000a0: 53d0 803e 1b94 89be 2701 8c3d 7556 ebbb
000000b0: 0b8d bcbe fc0b 8cbe aa81 89bf edd3 02bc
000000c0: 5194 893e 1196 12be 11e5 d1bd ea72 973e
000000d0: ed2b c2bc 4db6 a2bb 001a 10be cb03 863e
000000e0: 0903 a0bb 21e9 96bd 9e6e dabd 342e a5be
000000f0: a67e ab3e 8803 13ba e64c 62be d712 173e
00000100: 1d46 233e e75d b63d ddcb 8a3e fdfc 27bc
00000110: 2468 a53c 9c53 1f3e 7502 0abd a9a2 a1be
00000120: ace5 bf3a 8aa9 123d 9744 523e 89d7 983d
00000130: ff23 8a3d cc23 dc3d e882 a03d 8874 8c3e
00000140: 47b7 1abe 209c 033b 5f44 ffbe dbf0 c2bf
00000150: 9b85 cc3a 9a0b ec3d 11e5 a8bd 31de 113e
00000160: e53f 8f3d dbc4 dabc 47fe 683d cbe8 f03d
00000170: 9cb1 163e fe51 733e 2510 07bd f8ae ea3c
00000180: d40f de3d d427 a0bd 8293 f6bc 77b2 823d
00000190: 8dfc b93c 669d 303e c2f8 733e 275f 273d
000001a0: 50fe 1bbd 4f1d 9e3d ca14 37be 8d17 60bc
000001b0: 792e e23d 45c6 2d3d 98fa 90bc d6e1 6b3e
000001c0: 7dc6 77bd 1d33 193e 4a04 75be f9c4 b1be
000001d0: b849 663e 6e3b aabd 6986 8fbe 1cd6 65be
000001e0: b06d 03bf 2ee5 ed3c 320a 15be d2e5 1d3e
000001f0: bd6d 073d 8a11 13be f835 903b fff3 00be
00000200: 9910 babd 4a5b 90bd 8cbd 37be 2cd9 553d
00000210: eca4 8b3d db69 e93b 4450 873d c148 b6bd
00000220: 11d4 513e 5b57 67be 0e8f a73c 2868 eebc
00000230: f1be 6ebd ce32 403e 8424 0a3e e218 f5bd
00000240: 3f52 4b3d 169e 59be a310 4b3c d2c4 46bd
00000250: fb0c 8ebd 58e2 adbc eebf 86bc 8a93 29bd
00000260: 1018 77bd ad0f 033f 8e75 4fbf cc5f 4fbf
00000270: 8733 e2be 0c7c 03c0 7112 223d 71c3 c23d
00000280: 8a5b 983d e0a4 14bd acde 52bc bef9 e7bc
00000290: bff2 a93d 0080 273d b96a 7bbc 662c 583c
000002a0: c082 7a3d 094d c43d 80b7 ea3d 4e6b ef3d
000002b0: 9509 1d3e 47b3 5e3e d234 1b3e 3d05 f23d
000002c0: 7ee1 28bc 367a 13be 2a91 243e 54f8 423e
000002d0: 4096 213e b705 4c3e c9be e43c e219 9abc
000002e0: 24b3 afba 24dc 29be 4330 97be 9131 813e
000002f0: fa47 2dbd 0e47 9cbc 4fc3 483e 0917 6e3e
00000300: ff93 0abf 2b6f d2ba 59b8 85bf 544f a4be
00000310: 5be3 20be 327d 6b3e 0226 8e3d 565b d93c
00000320: 677e 09be 7aab 573e f458 6f3d 1a35 25be
00000330: 57b9 c33d ca78 06bd 3c61 36bd 50c0 9d3e
00000340: c5b5 2d3e 33fc 51be 4c15 3cbe 2f29 ed3c
00000350: 1152 b83e 531a 5a3d d5e4 dfbd 0c5e fb3d
00000360: acf8 f4be 7b12 c1be 0ce4 883e 6242 93bf
00000370: 7bb0 edbd 1191 f63c 059b 183e c7d7 babd
00000380: 1205 ee3d 30db c7bd cba9 a1be d01b 90bd
00000390: e966 21bd c72a 80bd 66d5 5f3e 797e c23e
000003a0: 420c eb3d 0e0a aabb c75b c53c 608f 5c3e
000003b0: 2eab b7bd 6bf6 e83c 7230 b3bd 6bb5 a53d
000003c0: 8598 50be dfa0 f7bc 482b 8f3c fb34 45be
000003d0: fcff 013e db26 133d 95b6 643e 06e1 cebe
000003e0: 42e4 783e f51f 4e3d 3235 cabc 2eac 333e
000003f0: 596a 573e 6108 f3bd da20 bcbd 7ea6 5dbd
-0.2523697 0.03408683 0.020283118 -0.3597046 -0.2026007 -0.574813 0.10972842 0.31308204
0.06022225 -0.029728586 -0.019425273 -0.5006797 0.046306845 0.042959996 -0.105315074 -0.6161626
0.08033751 0.08939826 0.29750955 -0.36772883 0.06344368 0.20517994 -0.26336956 0.1620988
0.01976659 -0.28928074 0.13520594 0.0018433384 -0.03008503 -0.14673784 -0.29172936 0.27252376
-0.11335186 -0.16350895 -0.03959383 -0.2481488 0.056924332 -0.23614448 0.1496074 0.14628156
0.2515894 -0.26870808 0.06836157 -0.0071819373 -0.36826357 -0.27352893 -1.0742695 -0.007985097
0.2687097 -0.14315058 -0.10248769 0.2957986 -0.023702586 -0.0049655796 -0.14072418 0.2617477
-0.0048831743 -0.073686846 -0.1066563 -0.32261813 0.33495063 -0.0005608131 -0.22099647 0.1475328
0.15944715 0.08904629 0.2710866 -0.010253188 0.02019126 0.15559238 -0.03369375 -0.31569412
0.0014640591 0.035806216 0.20533977 0.07462985 0.06745147 0.10749015 0.078374684 0.27432656
-0.15108977 0.0020082071 -0.4985685 -1.5229753 0.0015603782 0.1152565 -0.08246816 0.14244916
0.06994609 -0.026705196 0.056883123 0.11763152 0.1471619 0.23761746 -0.03297438 0.028647885
0.10842863 -0.078200966 -0.030099634 0.06381696 0.022703433 0.17247543 0.23825362 0.04086223
-0.03808433 0.07720434 -0.17879024 -0.01367749 0.1104402 0.042425413 -0.017697617 0.23035368
-0.060492028 0.14960904 -0.23927417 -0.3472059 0.22489059 -0.083121166 -0.28032234 -0.22444957
-0.51339245 0.029039945 -0.1455467 0.154197 0.03306364 -0.1436216 0.004400965 -0.12593077
-0.09085197 -0.07048662 -0.179434 0.052209064 0.06818566 0.0071232147 0.06607106 -0.089005955
0.20491053 -0.22591917 0.020453956 -0.0291024 -0.058287565 0.1876938 0.13490492 -0.11967637
0.049638983 -0.21251711 0.012394103 -0.048527546 -0.069360696 -0.021226093 -0.016448941 -0.04140047
-0.060325682 0.51195794 -0.8103875 -0.8100555 -0.44179937 -2.0544462 0.03956837 0.09509934
0.07439335 -0.03629005 -0.012870472 -0.028317329 0.08298253 0.040893555 -0.015345269 0.013194179
0.06115985 0.09585006 0.11460781 0.116903886 0.15335687 0.21748076 0.15156868 0.118174054
-0.010307668 -0.14402089 0.16071 0.19040042 0.15779972 0.19924055 0.027923005 -0.01881117
-0.0013404828 -0.16587883 -0.29529008 0.2523313 -0.04230497 -0.01907685 0.19605754 0.23250975
-0.54132074 -0.0016054859 -1.0446883 -0.32091773 -0.15711729 0.22996977 0.06940843 0.02653281
-0.13427125 0.21061507 0.05843444 -0.16133538 0.09556835 -0.032830037 -0.044526324 0.30810785
0.16963871 -0.20506363 -0.18367499 0.028950302 0.36000112 0.05324776 -0.10932318 0.122737974
-0.47845972 -0.37709412 0.26736486 -1.1504633 -0.116059266 0.03009847 0.14902885 -0.091231875
0.11622061 -0.097586036 -0.31574854 -0.07036555 -0.039404783 -0.06258159 0.21858749 0.37987116
0.11476947 -0.005189187 0.024091614 0.21539068 -0.08968197 0.028437814 -0.087494746 0.08091243
-0.20370682 -0.030228077 0.017476693 -0.19258492 0.12695307 0.035925727 0.22335275 -0.40406054
0.24305823 0.050323445 -0.024683569 0.1754615 0.21036662 -0.118668325 -0.091859534 -0.054113857

fc1.bias f4 [128]
00000000: fd53 b4bd b2eb 0c3d db8d 713c a7ed 95bc
00000010: 466d 3e3e 1f13 a2bd e1f6 0e3e 201c a53d
00000020: 62a7 bcbd b9f3 833d c146 5fbd 6196 b7bd
00000030: 1b2b 20bd 2bc4 04bd 584d 79bd 00bf 3d3d
00000040: c851 f93d 4e9b b6bc 10b2 32be 09c1 b8bd
00000050: 7bf1 95bd 9251 d63d 7e2b 8c3e 9209 c4bd
00000060: ec7b 5fbb 9584 2a3e 7b36 473e ba78 1abe
00000070: 9ae5 38bc f7e5 3fbe cb4a 283e 09e6 8a3d
00000080: bfa7 1ebe e27b 883c cc3c febd b2d0 eebd
00000090: f545 523d e700 7f3d 162e b13d 52e3 4abc
000000a0: 4e7e 42bd 628d 8b3d c7ff 4b3d ca6f 713d
000000b0: 74ac a1bb 5cb8 1fbd c525 f0bb 1934 cbbd
000000c0: 1d7d 3dbd fa42 7b3d 68c4 193c e3a5 7a3d
000000d0: 9495 fa3c 8abb 683d 44b8 633d c88a 003e
000000e0: 3c76 c8bd 74e9 5cbd 7791 8a3d 6730 8abd
000000f0: 58d3 03be e389 023d 51b8 613d d45b 02be
00000100: 91d3 113e 3819 ce3d 9661 b23d 03dd 19bd
00000110: 7797 6cbe 00d5 d9bd 5145 b0bb 1539 96bd
00000120: 8f86 2d3e aaa7 88bd 1911 57bd 019a 5b3d
00000130: 44d1 4d3e 58db 1fbe 04f5 c13d 5a30 fabc
00000140: 048a 5b3b 3c05 e43d 0395 09bb 9217 b3bd
00000150: 3964 8fbd 4b56 183e 1cf4 133e 5b1a 4dbe
00000160: 2452 efba 8073 8a3d 8648 183e f782 04be
00000170: f4b0 2dbe 5576 40be e90a b3bd 8c5e 22bd
00000180: ef2d 30bc 030e d0bd 0b59 07bd eced 123e
00000190: e8e2 ecbd 66ee 09be 4511 9a3c 3d51 3c3e
000001a0: bac0 bcbe ca36 40be 9896 96be 13dd 9c3d
000001b0: 27bf ecbd 6d98 453d 8977 cabc 2bbf 363d
000001c0: efaf cfbd 8813 40be 41d5 2dbd 73ca 6b3e
000001d0: f753 b53d 2dbb 1a3e 664d 803c 42b4 ed3c
000001e0: 67e1 833c f3f1 023e d1da 97bd c90a 6abe
000001f0: d784 cc3d 4274 2cbc 681f 143e d199 273d
-0.08805082 0.034404464 0.014743294 -0.018301798 0.18596372 -0.07913803 0.13961364 0.08062005
-0.09211613 0.06442971 -0.054510836 -0.089642294 -0.03910361 -0.032413643 -0.060864776 0.04632473
0.12173802 -0.022290852 -0.17450738 -0.090211935 -0.07321449 0.10464777 0.27376932 -0.09572138
-0.0034100963 0.16652139 0.19454376 -0.15085116 -0.01128521 -0.18740068 0.16434781 0.06782157
-0.15493678 0.016660634 -0.1241394 -0.11660899 0.051336247 0.06225672 0.08651368 -0.012383299
-0.047483735 0.06814076 0.049804475 0.0589445 -0.004933888 -0.03899418 -0.007328721 -0.09922046
-0.046261895 0.06134317 0.009385206 0.06119336 0.030588903 0.056819476 0.05559565 0.12552941
-0.097881764 -0.053933576 0.067660265 -0.06747513 -0.1287359 0.03186978 0.05510742 -0.12730342
0.14240862 0.10063404 0.08710019 -0.03756429 -0.23104654 -0.1063633 -0.005379357 -0.07335106
0.16945861 -0.066726044 -0.05250654 0.053613666 0.2009936 -0.15611017 0.09470561 -0.030540634
0.0033499012 0.11133811 -0.002099336 -0.0874473 -0.07001538 0.14876668 0.14448589 -0.20029585
-0.0018258733 0.06760311 0.14871415 -0.12940584 -0.16962034 -0.1879514 -0.08742315 -0.03964095
-0.010753139 -0.101589225 -0.033043902 0.14348572 -0.115667164 -0.13469848 0.018807063 0.18390365
-0.3686579 -0.187709 -0.2941177 0.07659354 -0.11559897 0.048241068 -0.024715202 0.044615906
-0.101409785 -0.1875745 -0.042439703 0.23026447 0.08853906 0.15110464 0.015661906 0.029016618
0.016098691 0.12787609 -0.07414783 -0.22855677 0.09986275 -0.010525765 0.14465106 0.040918175

fc2.weight f4 [128, 128]
00000000: 2751 23be 985e d4bd 9516 fbbd 2304 2f3e
00000010: 66eb b53e d7c8 5c3d 6a09 c93d 034d 813d
00000020: cf50 163e 8ea6 963d 5af4 fb3d 8f57 6c3c
00000030: 2a9b 9b3d 5809 9a3c d1f4 633d e016 61bb
00000040: acfd a4bd 95a5 1bbc e446 88bd f672 9cbe
00000050: 33c4 3d3e f381 603d 79d6 383e a8a1 aebc
00000060: fdac 20bd 07b3 173e f1b6 33bc ff32 fb3d
00000070: 1918 453d 144e 53be 7992 ef3c 0bbd f8bc
00000080: 8a95 273d 1736 dd3c fcb0 e4bd 4192 ebbd
00000090: 5b6b 163e 39ad 4e3d 0e76 d6bc 049d 6a3d
000000a0: f779 6bbd a51f 38be 783b f9bc 0427 4e3e
000000b0: f52e c63d 7d5b 443c 2ac4 a1bc 0b4c 1dbe
000000c0: f570 173d 9a72 e1bd 25e0 44bd 8279 f83c
000000d0: 2486 033c 9523 8d3d 5648 c33d 4f99 b83d
000000e0: 7cb1 a6bd d4c1 a73a 63c5 a83d d9c1 b43b
000000f0: 693e d3bc cd4d e1bc c42d 163d 7a8a 26bd
00000100: 829f dd3d 653e ed3d bca3 7dbd 06a5 a5bd
00000110: ff53 25be 18c4 07bd 3539 5d3d e5c7 2f3c
00000120: 5adb f83d 1b76 2abe 68b1 a73d 9cc7 0e3e
00000130: cce1 3abd 5007 04bd 047b 7a3d 2a91 7b3d
00000140: f16f f33d 6c17 943e f3ba 413d 3e78 a83c
00000150: fdea ee3c 3781 a0bd a628 933d 4e63 d33c
00000160: 4d25 67bd be19 ec3d e66e 453c bc62 72bd
00000170: b22a 6e3b d3a6 11be d952 403d f09e b2be
00000180: d30d a33d c121 e6b9 9813 66bd 47b9 3abd
00000190: 400e 863d 62e7 c7bd ee87 05bd 36c3 0e3c
000001a0: 0493 a23d 7c46 a43d 1c5e 3d3d 3a4b 8abc
000001b0: 3630 713d bdce 83bc a0ee a53c 6f21 9dbd
000001c0: 6797 843d 52c3 8bbe a59f 10bd b75d 09bd
000001d0: 4621 313e 7077 063c 8286 953b d3d0 a13d
000001e0: 02ed 483e b094 f8bd 5133 3e3d 05e7 49bd
000001f0: 1c45 3b3e a53f 85bd 0ff9 133d 09fc 183d
00000200: 9c7a 3dbe 5064 1a3e 645b d43d dd66 663d
00000210: da5b 9f3c 793e 1d3e f522 88bd e539 bebd
00000220: 6ddb 89bd 16a3 b4bd 2cdf c3bc 5f87 3e3e
00000230: a0a4 63bd b52e 003c 5050 1dbd 416e dbbc
00000240: 540e 853e 8c83 a23d cca5 cdbe 16e7 a53d
00000250: b447 d4bc 6602 d93d a6c5 883d 6478 90bd
00000260: 05fe 1f3e 6838 90bd 9d7c da3d ef80 623c
00000270: 6410 f63c f4b2 993e c805 36be 34db 8d3d
00000280: ceca 0ebe 3517 773c 99fc adbe 2818 33be
00000290: a4ae c13d 130c 7b3e c045 abbd 9bca 1bbe
000002a0: fc24 75be c21e 19bc de63 32be 5175 fd3d
000002b0: b292 59be 2086 f03d a8a3 01be 984e 183e
000002c0: 6223 f9bd 78ba 173d 3933 5abc 9d27 ac3d
000002d0: 96a4 9c3d 9c90 503e 881b c43c 0594 1cbe
000002e0: 5c2a 383e 0a3a 973d c31e 77bd cdb4 fabd
000002f0: 4e2c a5bd 49e6 08bd f1b5 173e 9d69 533d
00000300: ccd6 c53d 6319 673d 04f7 a9bd 8781 bb3c
00000310: 96be 18be 637d 0f3e 718a b4bd 82bb 51be
00000320: 356f 803c e246 5ebe feba 833e c34b cf3d
00000330: b60f 603e 89ac 1a3d e045 9d3d 8d20 563e
00000340: 8124 253e 19e7 d43e e202 66be dcbd fcbc
00000350: 552a ddbd 34b9 a63d 6718 e83d 8ce3 debd
00000360: 4c02 7b3e 0762 fe3b 85a7 0dbe 75b4 60be
00000370: f455 35be 5165 693c b12e 4cbe 6423 67bd
00000380: 6993 1b3c cbdc 133d f718 5d3e 623c 383c
00000390: 6b53 053f dbe2 5b3e 0408 bd3d a4a9 b33d
000003a0: 0ed6 853d e0f9 76be a08e c1bd bf51 a13d
000003b0: e9b7 b7bd 2dd7 53bd 384c 9c3c 7a6d c8be
000003c0: 7cb8 b7be e581 403e 5b89 05bd f1b4 2ebd
000003d0: 5d7e 6bbc d39d fb3d 78f9 713e 48a5 ffbd
000003e0: 16a9 8abc 7b80 17bd 8352 253d 8a4e 97bd
000003f0: eb24 1fbd 4051 88bd e885 05be 7895 053c
-0.15948926 -0.10369605 -0.122601666 0.17091422 0.35531157 0.053902473 0.09816249 0.06313517
0.14679264 0.073559865 0.12302466 0.0144251725 0.075979546 0.018803284 0.055653397 -0.003434591
-0.080561966 -0.009499927 -0.06654146 -0.30556458 0.18531875 0.05481143 0.18050565 -0.021317318
-0.039227474 0.14814387 -0.01096891 0.12265586 0.048118684 -0.20635253 0.029244648 -0.03036358
0.040914096 0.027003331 -0.111665696 -0.11502505 0.1468939 0.050458167 -0.02617934 0.057278648
-0.05748936 -0.17980821 -0.030423865 0.20132071 0.09676925 0.011984703 -0.019746859 -0.1536104
0.03697296 -0.11008187 -0.048065323 0.030331377 0.008027587 0.06891552 0.09535281 0.09013616
-0.08139321 0.0012798854 0.082407735 0.0055162725 -0.025786595 -0.027502919 0.03666474 -0.040659405
0.10821439 0.115841664 -0.061923727 -0.08088116 -0.16145323 -0.033145994 0.054009635 0.010728811
0.12151213 -0.16646616 0.081881344 0.13943332 -0.045625493 -0.032233536 0.061152473 0.061417736
0.118865855 0.2892412 0.04729743 0.020565148 0.029164786 -0.07837146 0.071854874 0.025804188
-0.056432057 0.115283474 0.012050366 -0.05917619 0.0036341366 -0.14223795 0.04695401 -0.34886885
0.07961621 -0.00043894167 -0.05617103 -0.04558685 0.06545687 -0.0976093 -0.032600336 0.008713534
0.07938197 0.08021256 0.046232328 -0.016881574 0.05888387 -0.016089791 0.020255387 -0.076723926
0.0647419 -0.27297455 -0.0353085 -0.03353664 0.17297849 0.008207187 0.0045631537 0.07901158
0.19621661 -0.12137735 0.046435658 -0.049292583 0.18288082 -0.0650628 0.036126193 0.037349734
-0.18503803 0.15077329 0.10368994 0.05625044 0.019452978 0.15355863 -0.066472925 -0.09288386
-0.06731305 -0.08820169 -0.023910128 0.18606327 -0.05557692 0.007823636 -0.03840667 -0.026785972
0.25987494 0.07935247 -0.40165555 0.08100717 -0.025913097 0.105961606 0.066783234 -0.07054213
0.15624245 -0.07042009 0.10668299 0.0138246855 0.030037113 0.30019343 -0.17775643 0.06926575
-0.13944551 0.015081217 -0.3398178 -0.17489684 0.09457138 0.24516325 -0.08362913 -0.15214007
-0.2393989 -0.009345712 -0.17420909 0.12375892 -0.21247366 0.11744332 -0.12660086 0.14873731
-0.12164952 0.037043065 -0.0133178765 0.08405993 0.0764858 0.20367664 0.02393891 -0.1529084
0.17984909 0.07384117 -0.06033207 -0.12241516 -0.08065091 -0.033422742 0.14815499 0.051614393
0.0966011 0.056420695 -0.082990676 0.022888912 -0.14916453 0.14012675 -0.08815468 -0.20481685
0.015678028 -0.21706727 0.257286 0.10121872 0.21880993 0.0377622 0.07679343 0.20910855
0.16127206 0.41582564 -0.22462037 -0.03085225 -0.1079909 0.081407934 0.113327794 -0.10883245
0.24512595 0.0077631506 -0.13833435 -0.21943839 -0.1770857 0.014245347 -0.19939686 -0.056430236
0.009495595 0.036099236 0.21591555 0.011244865 0.5208041 0.21473257 0.092300445 0.08772591
0.06534968 -0.24118757 -0.09451032 0.0787692 -0.08970625 -0.05171888 0.019079313 -0.39146024
-0.35882938 0.18799551 -0.032601696 -0.042653028 -0.014373389 0.12285962 0.23630321 -0.12482697
-0.01692633 -0.036987763 0.040361892 -0.07388027 -0.038853567 -0.06656122 -0.13039362 0.008153312

fc2.bias f4 [128]
00000000: dd87 eb3e ecbd 1bbe a8f3 16bd cba9 043e
00000010: 5400 e3bd 11cf cc3d 8bd2 463d b4b3 14bd
00000020: 7c36 85bd dd52 e13d 10ef 213b 6968 fc3c
00000030: 35fd e9bd 1b69 abbc a288 973d 41b1 b8bd
00000040: 2477 27be 7e3c 5fbc faca d6bd 9c4b 54be
00000050: ed7c a3bd 18f8 95bd 3a0c b8bd 7139 103d
00000060: d707 13bd 3aa6 91bd 0482 f5bd d60d 8cbd
00000070: 860e 1fbe 7313 ad3d 292f 1bbe 8a54 113b
00000080: d866 233b 4090 883d 7a7f 3a3d 9b21 b43d
00000090: 9fad d73d d54f 093d 5e0c 17bd e789 4c3e
000000a0: 59e6 b8bd 9d18 4a3e 3567 ff3c 8397 11bd
000000b0: abab cdbd 2290 6c3d 2738 bebd d7a7 dc3e
000000c0: 549e 5e3e e62d 0fbe 226b 333e 9379 6dbd
000000d0: 56f4 01be 66a2 afbd fd98 c53d 6c46 fb3d
000000e0: c2dd ec3c 6c25 4bbc 422f 953d a020 dd3d
000000f0: 82c8 80bc 7b45 c3bd face b4bd c976 c5bd
00000100: 89ff 003e 798e 133b a1ce 99bd f899 c4bd
00000110: 5d21 6b3e a236 88bc c31c ba3c f5d8 a7bc
00000120: eb91 10bd 24ef e13e 9a53 c4bd 15ea 1c3e
00000130: 1365 3ebd 1aac 53bc b2e9 0ebe 483e 08be
00000140: 1cfd 47be f6a6 3bbd 6d72 e13e 5762 d7bd
00000150: 47b4 303e cd96 14bd a097 0abe 85ab 153d
00000160: 978e aa3e 7bdd 8b3c af50 f03d 8755 ed3d
00000170: 99d0 17be 1921 823d cd6a 27bc 678d 8abd
00000180: 968e c9bc dd07 febd 83b8 a7bd 0477 cabd
00000190: 47d5 573d 0024 7e3c b473 d9bd f984 9ebd
000001a0: 6488 8bbd 9052 9d3c e011 dc3b 2e2d e63e
000001b0: 0817 c1bd 534a c2bd 11fa 2bbd ae57 f1bd
000001c0: a379 4f3d e7f7 33bd b65a 4fbc adda c93d
000001d0: 8c51 683b 0214 06bd 0ceb 1ebd 2ec3 823c
000001e0: 5b40 b93d 475e 463d 348e 3dbd 8810 9b3d
000001f0: 955b 8c3c a7fa dfbd b0be 8a3d 2f3c 5abb
0.46002093 -0.15209168 -0.036853462 0.12955396 -0.11084047 0.10000432 0.048540633 -0.03630419
-0.06504533 0.11002133 0.0024709143 0.030811505 -0.114252485 -0.020924142 0.073991075 -0.090181835
-0.16354042 -0.013625262 -0.104879335 -0.20731968 -0.07982812 -0.07322711 -0.08986707 0.03521103
-0.03589615 -0.07111783 -0.11987689 -0.068385765 -0.15532884 0.08450975 -0.15154709 0.0022175633
0.0024933126 0.066681385 0.045531727 0.08795472 0.105311625 0.0335234 -0.03687703 0.1997448
-0.0902831 0.19735952 0.031177143 -0.035544883 -0.10042509 0.057754643 -0.09288054 0.43096802
0.21740085 -0.13982353 0.17521337 -0.05797727 -0.12690863 -0.08575897 0.09648321 0.12269291
0.028914336 -0.012399059 0.07284404 0.10797238 -0.01572061 -0.09534737 -0.0882854 -0.09641797
0.12597479 0.002251534 -0.075101145 -0.0959968 0.22961946 -0.016627613 0.022718793 -0.020489195
-0.03529541 0.44127762 -0.09586258 0.1532367 -0.04648311 -0.01291945 -0.13956335 -0.13305008
-0.19530147 -0.045813523 0.44032612 -0.10516804 0.1725627 -0.036276627 -0.13534403 0.036540527
0.33311912 0.017073384 0.11734139 0.11588579 -0.14825667 0.06353969 -0.010218334 -0.067652516
-0.024604123 -0.124038436 -0.0818949 -0.09885982 0.05269363 0.015511513 -0.10617772 -0.07740206
-0.06813124 0.019204408 0.006715998 0.44956344 -0.09428221 -0.094868325 -0.04198653 -0.11784302
0.05065311 -0.04393759 -0.0126559045 0.09856162 0.0035448996 -0.032733925 -0.038798377 0.01596221
0.09045478 0.048429754 -0.046278194 0.075715125 0.017133513 -0.1093648 0.06774652 -0.0033300032

fc3.weight f4 [4, 128]
00000000: 9911 2e3e 7f07 17be 6092 f93d 86ca 7d3e
00000010: 9438 2a3d 122e 483e 63b8 e7be 0f87 d9bd
00000020: e8f3 ad3e 4035 c23e 1a67 bbbd cd73 19be
00000030: 8b6c d8bd 81da eebd 98f0 a33e 09c2 7d3e
00000040: e175 3c3e dabb 633d 072a e0bd 0e4e 3dbf
00000050: 11e2 693c feb4 a73d bebf b83e 9395 bc3d
00000060: cfce a23e 77ae 643e dd17 50be 1c6b 69be
00000070: 07e0 97be 0d73 b13d 199a 24bd 548d 2cbe
00000080: 27cd a9bd 2507 9e3d e6cd d9be 5556 863d
00000090: 7d0b fc3d c326 f5be ffbf 08bf f6f3 463e
000000a0: 0fc2 e53c f2cc 1c3e ba0f 3ebf c08d d1be
000000b0: f2c7 c0bb 6679 9e3e 84ab 133a 3a30 bd3d
000000c0: 2131 af3d 8115 ffbd 65c6 1c3d a4ed 6f3e
000000d0: 56d5 e8be dc12 973b e30f 553e b0f7 2b3e
000000e0: 4db0 2b3e 6033 b6be 8155 0abf 25b9 513e
000000f0: e464 a4be ede1 80be 0252 fbbd 8adb 3bbb
00000100: 6ade 593e 88ba 713e dd9f 7c3e 582b d23d
00000110: 0850 3f3e f48c e43e 0252 c53e 27b3 583e
00000120: 4899 1e3e 9f95 d53d 0edb b2be 1c9f 113e
00000130: 61f3 00bf 1a74 2e3e 4301 20bd 5a5f f1be
00000140: 1f54 4fbe b045 29be a253 193e 5604 843c
00000150: 5e02 e93d dd14 983e 0dbb 813e 3815 d63b
00000160: e347 1c3e 59dd 6abd 23f9 0e3e 6721 c43d
00000170: 1570 2f3e a7fa 573e 88ca 8c3e 9ae1 00bf
00000180: 7fba 3f3e a025 cebe 6ca0 1b3e acf1 0ebe
00000190: 61b8 bc3c da05 003d e2ce 17be d1f0 5039
000001a0: f6f7 e3be 4adf 0fbe 6031 043e a8bd 1f3e
000001b0: bad2 80bc 7acc dbbe 521c d53e 286a e2be
000001c0: 8843 1a3e a2f8 a73e 8679 153d bc5a d4be
000001d0: 8db2 47be 385b 68be 8bb6 e13d 66b3 133d
000001e0: f3d9 0b3e 18eb ab3e 9fea 13be 27bb 4e3e
000001f0: 3c3e 683d 573d 56be 8cb5 9bbe 9e09 c8be
00000200: cc4d df3d a5ea fabd ae3a 913d d4bc ac3e
00000210: 524e 5c3e 1d09 563c b13b 033d 7709 473e
00000220: 985f 2d3f ce97 7b3e 1830 6dbe 2215 99be
00000230: d050 453d eac1 86be 9574 b53e b549 7e3e
00000240: 927d 05bc 212d 74bd ccbe 693d 95d8 fdbc
00000250: b789 a3bd 9019 923d a113 983e 1338 84bd
00000260: dae1 373e 402d a03c a3dc dfbd ff39 4e3e
00000270: 9178 59be f795 7a3d 7504 853b c29a ed3d
00000280: 8556 e2bd 28f3 ae3d 2f7b 68be 551d b53c
00000290: 805a e33d d1b5 b73d 419f 62be cf5d 0d3e
000002a0: e338 0e3e 9052 263d 624a 9a3d b23e c6bd
000002b0: f391 a1bc 44b6 7b3e 2b42 9bbe 2143 b13d
000002c0: 515d 323d 1d9a d23d 5439 1f3e ff88 113e
000002d0: 154b bdbd 8491 53be f7e2 823e 0f4a b73d
000002e0: e557 0abc 2751 83bd 879b be3d d1c2 6b3e
000002f0: 588b 3e3d 8ab6 02bc 88d2 76be f9ea 8bbd
00000300: fefb 2e3e 0e12 803e 8504 833e 868a 993d
00000310: 24b1 583e 63bf ae3e 0dde 97bd d3f1 c03e
00000320: dd3d b13e abad 193e a6a2 15be 6e63 313e
00000330: 9e16 cf3d b956 603e faed 343c 3fb6 25be
00000340: 62a7 10be 5346 71bd e5ce 053e d098 46be
00000350: 2020 c73d a6c0 823e 0b1c 563e cb9d cd3d
00000360: ad08 ea3d 273c b53b b3e1 253d db20 de3c
00000370: e66d 603d dffa 783e ea62 853e f6a9 1cbe
00000380: 0b4a 84bd 020e 133d b9d3 43be 62a7 7e3d
00000390: 45f3 bb3d c23f 2fbc 7885 043e 8bcf 323e
000003a0: 5118 99bc a4ca 503d 7896 4c3e e420 283e
000003b0: 9d33 d03d c512 e53e be23 9a3e aefc b3bc
000003c0: c1d5 3b3e f6a6 393e f5f8 6ebe ddcc 3bbd
000003d0: 8520 82be 60e4 0a3d b388 543e 8f45 0cbe
000003e0: a232 143e be07 3f3e 4fc6 bcbd d430 313e
000003f0: 2bbd e4bb 8785 99be 68a3 0e3e e214 53be
0.169989 -0.14748953 0.12186122 0.24784288 0.041557863 0.19548824 -0.45257863 -0.106214635
0.33975148 0.37931252 -0.091505244 -0.1498558 -0.10567578 -0.1166277 0.32019496 0.2478105
0.18404342 0.05559907 -0.10945516 -0.73947227 0.01427509 0.081888184 0.36083788 0.092082165
0.31798407 0.22332178 -0.20321603 -0.22794765 -0.29663107 0.08664522 -0.04018602 -0.16850787
-0.08291083 0.077162065 -0.425399 0.06559435 0.12306879 -0.47881135 -0.5341796 0.19429001
0.028046636 0.15312555 -0.74242747 -0.4092846 -0.0058832103 0.30951995 0.0005633163 0.09237714
0.085542925 -0.124552734 0.03827514 0.23430496 -0.45475262 0.0046104025 0.20806842 0.16793704
0.16766472 -0.3558607 -0.5403672 0.20480783 -0.32108223 -0.25172368 -0.12271501 -0.002866479
0.2127625 0.23606312 0.24670358 0.102621734 0.18682873 0.4463879 0.3853913 0.21162091
0.1548816 0.104289286 -0.3493275 0.14220852 -0.50371367 0.17036477 -0.039063703 -0.4714306
-0.20246933 -0.1653049 0.1497331 0.016115349 0.11377405 0.29703417 0.2533802 0.006533291
0.15261798 -0.05734 0.13962226 0.095766835 0.171326 0.2109171 0.2749827 -0.5034424
0.18723486 -0.4026308 0.15197915 -0.13959378 0.023037137 0.03125558 -0.14825013 0.00019926137
-0.44525117 -0.14050022 0.1290946 0.15599692 -0.015725482 -0.4292944 0.4162317 -0.44221616
0.15064824 0.3280688 0.036492847 -0.41475475 -0.19501705 -0.22691047 0.110211454 0.03605976
0.1365736 0.335778 -0.1444497 0.2018858 0.056699976 -0.20921837 -0.30411947 -0.39069837
0.109035105 -0.12251786 0.070912704 0.33737814 0.21514252 0.013063696 0.032039348 0.19437204
0.6772399 0.24569628 -0.23162878 -0.29898936 0.048172772 -0.2631982 0.35440508 0.24832805
-0.008147614 -0.05961335 0.057066724 -0.030987063 -0.079852514 0.07133782 0.29702476 -0.06456008
0.1795725 0.019552827 -0.10930755 0.20139311 -0.21237399 0.061178174 0.004059369 0.11601783
-0.110516585 0.08542472 -0.22703241 0.022108713 0.11101246 0.089702256 -0.22131063 0.13805316
0.13888888 0.04060608 0.07533719 -0.09679927 -0.019722914 0.24581248 -0.3032392 0.08655382
0.043546025 0.10283301 0.15549213 0.14212416 -0.092428364 -0.20660979 0.25563785 0.089496724
-0.008443807 -0.06411963 0.09307008 0.23023535 0.046519607 -0.007978091 -0.24103749 -0.06831927
0.17088315 0.25013775 0.25589386 0.074971244 0.21161324 0.3413039 -0.074154 0.37684497
0.3461751 0.15007655 -0.14612827 0.17323086 0.10111736 0.21908082 0.011043066 -0.16182803
-0.14126351 -0.058904957 0.13067205 -0.19394231 0.09722924 0.25537604 0.20909135 0.10039862
0.11427436 0.0055308524 0.040498447 0.027115276 0.054792307 0.2431445 0.26052028 -0.1529921
-0.06459435 0.03590203 -0.19123735 0.062171347 0.09177259 -0.010696353 0.1294154 0.17461984
-0.018688353 0.050974503 0.19979274 0.16418797 0.101660945 0.44740883 0.30105394 -0.021971073
0.1834326 0.18130097 -0.23337157 -0.04584967 -0.25415435 0.0339092 0.20755272 -0.1369841
0.1447244 0.18655297 -0.09217512 0.17303783 -0.0069805584 -0.29984686 0.13929522 -0.20613435

fc3.bias f4 [4]
00000000: 0eea 9c3e 27ef 6b3e ad56 983e 7cce 903e
0.3064732 0.23040448 0.29753628 0.28282535
