p3_collaboration_and_competition/actor_1_solved.pth (torch_old, 51773 bytes, 18 tensors)

fc1.weight f4 [128, 24]
0	0xbdc7cb32	-0.09755553
1	0x3df71896	0.12065236
2	0x3c094b3a	0.008379752
3	0x3e289147	0.16461669
4	0xbcd6dc58	-0.026228115
5	0x3bfe8586	0.007767382
6	0x3c5903c1	0.013245524
7	0x3dcaf902	0.09910776
8	0xbd99be2a	-0.07506974
9	0x3d998f80	0.074980736
10	0x3d78047b	0.060551148
11	0xbd450f4e	-0.0481103
12	0xbc8cb1db	-0.017174652
13	0xbc8c5dee	-0.017134633
14	0xbd3aa312	-0.045565672
15	0x3c3ec0b8	0.011642627
16	0xbb8631c7	-0.0040952894
17	0x3df492e8	0.11942083
18	0x3d88230b	0.06647309
19	0xbd494eff	-0.049147602
20	0xbdf6c683	-0.12049582
21	0x3e0bf9e9	0.13669552
22	0xbcce042d	-0.025148476
23	0xbd8f91f8	-0.07010263
24	0xbb9ae76f	-0.004727296
25	0x3da2bc6e	0.07946096
26	0xbd9ad750	-0.07560599
27	0x3cc30477	0.02380584
28	0xbc4cdc8b	-0.012503753
29	0xbddc8d38	-0.10769123
30	0x3d9ad28a	0.075596884
31	0x3d3b2fcc	0.04569988
32	0x3bbed310	0.0058235005
33	0x3de11862	0.10990979
34	0x3acbcb52	0.0015548265
35	0x3ced4712	0.028964553
36	0xbcd3842d	-0.025819862
37	0xbe239d9d	-0.15978093
38	0x3b5de038	0.0033855569
39	0xbcc85d8e	-0.024458673
40	0x39d9e3d9	0.00041559225
41	0x3e1481fa	0.14502707
42	0x3ca60512	0.02026609
43	0xbd60bacc	-0.054865643
44	0xbbc83790	-0.006110139
45	0x39fcf12b	0.0004824487
46	0xbc6e6e9e	-0.01455274
47	0xbdb4f54f	-0.088358514
48	0xbc6fbdc1	-0.014632643
49	0x3d01a241	0.031648878
50	0xbd12412f	-0.035706695
51	0x3cd64b22	0.026158873
52	0x3deedb33	0.11662903
53	0xbc4dcfaf	-0.012561723
54	0x3d11541d	0.035480607
55	0xbc3c3424	-0.011487041
56	0xbbb49ad1	-0.0055116196
57	0x3db11c1c	0.086479396
58	0xbb78fa56	-0.0037991009
59	0xbca3ef37	-0.020011527
60	0xbcf71320	-0.030160487
61	0x3d9a4e64	0.07534483
62	0x3beecd02	0.0072876224
63	0x3d03617f	0.0320754
64	0xbc77eeb0	-0.015132591
65	0x3d3cd652	0.04610283
66	0xbd4a040c	-0.049320266
67	0x3d7e9be5	0.06216039
68	0xbe22946e	-0.15876934
69	0xbda931ec	-0.08261475
70	0x3d4c5364	0.049884215
71	0xbd8ff666	-0.07029419
72	0xbd409e2c	-0.047025844
73	0xbd8949fe	-0.06703566
74	0xbd247d70	-0.04015869
75	0xbc7ed197	-0.0155529
76	0x3d821573	0.06351747
77	0xbe136753	-0.14394884
78	0x3d34aa5c	0.04410778
79	0x3d6418e6	0.055687808
80	0x3d18b18a	0.03727869
81	0x3bef3efe	0.0073012104
82	0x3c30486a	0.010759452
83	0x3ce0a16a	0.027420718
84	0x3d114126	0.03546252
85	0x3d1cafa7	0.038253453
86	0xbd6558c8	-0.05599287
87	0xbddd4c42	-0.10805561
88	0xbddb7b6b	-0.107168995
89	0x3c81dbc0	0.015851855
90	0x3d91caa1	0.071187265
91	0xbcb8dd7e	-0.022566553
92	0x3d9893d6	0.074500725
93	0x3d3a2bd6	0.04545196
94	0xbd8e6611	-0.06953061
95	0xbe1cf734	-0.15328676
96	0x3c21fb6f	0.009886607
97	0xbbc39b96	-0.005969475
98	0x3d3cb474	0.04607053
99	0x3b8332c8	0.0040038563
100	0x3d13ef43	0.03611685
101	0x3d81171b	0.06303235
102	0x3d28a352	0.04117138
103	0x3cda5af3	0.026654696
104	0xbdc72ae1	-0.097249754
105	0xbcd1594e	-0.02555528
106	0x3d9b36ba	0.07578798
107	0x3d2882c0	0.041140318
108	0x3e004f4d	0.12530251
109	0x3ca2c5b6	0.019869667
110	0x3c96156a	0.018320758
111	0x3e117701	0.14205553
112	0x3b84b275	0.004049594
113	0xbdc2cf26	-0.09512167
114	0x3dc7e886	0.09761147
115	0xba467e7c	-0.0007571948
116	0x3c1a2d4b	0.009410213
117	0xbd005d35	-0.03133889
118	0x3d7052d3	0.058672737
119	0xbd8c0d6d	-0.06838498
120	0x3cc82202	0.024430279
121	0xbd6aa567	-0.057286646
122	0xbcb5f96a	-0.022213656
123	0x3d062e4d	0.032759
124	0x3e0881f6	0.13330826
125	0xbd7d3443	-0.06181742
126	0x3c3718d6	0.011175355
127	0xbc446b19	-0.011988425
128	0x3c4bf2ed	0.012448055
129	0xbd83151a	-0.06400509
130	0xbd821adb	-0.063527785
131	0x3cd86cad	0.026419008
132	0x3debc270	0.115116954
133	0x3cb43ac8	0.022000685
134	0x3d80117e	0.06253336
135	0x3cff46e8	0.03116174
136	0x3d9909f5	0.07472602
137	0x3c99eba4	0.01878912
138	0xbd3a2d96	-0.04545363
139	0xbc37cc5b	-0.011218156
140	0x3c4a9708	0.01236511
141	0x3e1432b5	0.14472468
142	0x3d42f114	0.04759319
143	0x3da8b8fe	0.082384095
144	0xbd2b0ad9	-0.041758392
145	0x3c60986a	0.013708213
146	0x3d3ad864	0.045616522
147	0x3daa3f76	0.083128855
148	0x3d931db6	0.07183401
149	0x3cf7919c	0.0302208
150	0xbc5457fc	-0.01296043
151	0x3dcc455e	0.09974168
152	0xbc8d09d8	-0.017216608
153	0xbddda34a	-0.108221605
154	0xbcc755fe	-0.024332996
155	0x3dcf5ea6	0.10125475
156	0x3caad6be	0.02085435
157	0xbd7b7d81	-0.061398987
158	0x3ad64c4a	0.001634964
159	0x3df333a2	0.118750826
160	0x3cb5dcf7	0.02220009
161	0xbdd77ba7	-0.10521632
162	0x3d04bf42	0.03240896
163	0x3d5078b8	0.050896376
164	0x3d6b7796	0.057487093
165	0xbd82deca	-0.0639015
166	0xbdbb865f	-0.091564886
167	0x3dd8ca3a	0.10585447
168	0xbdafe8c4	-0.085893184
169	0x3c3ff561	0.011716218
170	0xbd2c0560	-0.041997313
171	0xbd981f4e	-0.07427846
172	0x3c9a4c9b	0.018835356
173	0x3db7abda	0.08968325
174	0xbcd4f49a	-0.025995541
175	0xbb73202e	-0.0037098038
176	0xbda4ac4b	-0.08040675
177	0xbdcb16de	-0.09916471
178	0x3d93d9f0	0.07219303
179	0xbe1192dd	-0.1421618
180	0xbd68c4df	-0.056828376
181	0x3e12fb58	0.14353693
182	0x3d977eb6	0.07397215
183	0xbbdddefb	-0.006770966
184	0x3b7c715d	0.0038519718
185	0xbc09a6b2	-0.00840156
186	0x3cfa960b	0.030589124
187	0xbdc9dacf	-0.098561876
188	0xba7439b1	-0.0009316458
189	0x3d8183cd	0.06323967
190	0x3d4c4d0e	0.049878173
191	0xbd53433d	-0.051577795
192	0x3d291dd5	0.041288216
193	0x3dac98e6	0.084276006
194	0xbb31345a	-0.002703926
195	0x3dd6efa1	0.10494924
196	0xbd6da758	-0.05802092
197	0x3d3f4bcc	0.046703145
198	0x3d22a596	0.039708696
199	0xbcd6752d	-0.02617892
200	0x3dce656f	0.10077941
201	0xbd5f864b	-0.05457143
202	0x3d6ca4cc	0.05777435
203	0xbd0c8e00	-0.03431511
204	0xbd6342c4	-0.055483595
205	0x3dbeb48a	0.09311779
206	0xbd8f8e5f	-0.07009577
207	0xbd1db8be	-0.038506262
208	0xbd1a5c60	-0.037685752
209	0x3d2598a4	0.040428773
210	0xbce56a55	-0.028004805
211	0x3c5edd8e	0.013602627
212	0xbdfb525f	-0.122715704
213	0x3e0be1ed	0.13660403
214	0x3b91611b	0.0044366247
215	0xbd85835d	-0.06519196
216	0x3d15ec67	0.036602404
217	0x3d515ab0	0.051111877
218	0x3c4d3dea	0.0125269685
219	0xbcff5f79	-0.031173455
220	0xbe1b23ea	-0.15150419
221	0xbd8236cd	-0.06358109
222	0xbc4a5720	-0.012349874
223	0x3ca2f164	0.019890495
224	0x3d519e57	0.051176395
225	0x3c7d8d6f	0.015475615
226	0xbd67b059	-0.056564663
227	0x3d0a6f2e	0.033797435
228	0xbb194c15	-0.0023391296
229	0x3da6ea8a	0.081502035
230	0x3d614cb1	0.05500478
231	0x3c998905	0.018742094
232	0xbd6c0423	-0.057621133
233	0x3d18056b	0.037114542
234	0x3d797d28	0.060910374
235	0xbc9ae102	-0.01890612
236	0x3cf535ae	0.029932823
237	0x3dcb028c	0.09912595
238	0xbd57b738	-0.052664965
239	0x3c7cd8da	0.015432561
240	0xbcab371d	-0.020900303
241	0x3df69315	0.120397724
242	0xbd6e4848	-0.0581744
243	0xbccbf058	-0.024894878
244	0x3d250989	0.040292297
245	0xbe032d16	-0.12810168
246	0xbc4e2bcf	-0.012583687
247	0x3cc3a220	0.023881018
248	0xbd66f664	-0.05638732
249	0xbcce9c62	-0.025221054
250	0xbd1fe7a2	-0.03903926
251	0xbc2f879e	-0.010713486
252	0xbd3bfc8a	-0.045895137
253	0x3d133d90	0.035947382
254	0xbcd54b2f	-0.026036827
255	0x3d0f6c58	0.035015434

fc1.bias f4 [128]
0	0xbe040d64	-0.12895733
1	0x3e428434	0.18995744
2	0xbe8a3f95	-0.27001634
3	0x3c16bd81	0.009200455
4	0xbd0506d2	-0.032477207
5	0x3d5ed4ac	0.05440204
6	0x3d8129fb	0.06306835
7	0xbddb4a34	-0.107075125
8	0xbc14f78b	-0.009092222
9	0xbe5c1644	-0.21492869
10	0xbe1b25ca	-0.15151134
11	0xbb372b64	-0.0027949447
12	0x3e4385e6	0.19094047
13	0x3e4ac67e	0.19802281
14	0x3e3ae232	0.18250349
15	0x3da35db7	0.07976859
16	0x3e3f1275	0.18659385
17	0x3c6e6974	0.014551509
18	0x3cfdf5be	0.031000968
19	0xbd9f491c	-0.077776164
20	0xbe0325ec	-0.12807435
21	0xbe2eee91	-0.17083193
22	0x3d990075	0.0747079
23	0x3e0ef150	0.13959241
24	0xbe3dd8ab	-0.18539684
25	0xbe0806aa	-0.13283792
26	0x3e2cce17	0.16875492
27	0x3dbeeafc	0.093221635
28	0xbe389e66	-0.18029174
29	0xbe37f2b3	-0.17963676
30	0xbd8a5666	-0.067547604
31	0xbe10c803	-0.14138798
32	0x3d778049	0.060425077
33	0xbd9a0507	-0.0752049
34	0x3c850aae	0.016240444
35	0x3d4ca605	0.049963016
36	0x3df8621a	0.121280864
37	0xbde43ea6	-0.11144762
38	0x3d3da6ce	0.046301655
39	0xbd8a7c05	-0.06761936
40	0x3d28890d	0.041146327
41	0xbdf4f622	-0.119610086
42	0x3d82c797	0.06385725
43	0xbdc93030	-0.09823644
44	0x3e4416d1	0.19149329
45	0xbdaf4126	-0.08557348
46	0x3e278e4f	0.1636288
47	0xbe9c08ac	-0.30475366
48	0xbe071f7d	-0.13195606
49	0xbe046b50	-0.12931561
50	0xbd9cd7d9	-0.07658357
51	0x3d80ad53	0.06283059
52	0xbc1666b1	-0.009179757
53	0xbdad8b17	-0.08473795
54	0x3dfc2ab5	0.12312833
55	0xbddd67d6	-0.10810821
56	0x3d8ec156	0.0697047
57	0x3c129e41	0.0089488635
58	0x3e23371f	0.15938996
59	0xbb33f779	-0.0027460738
60	0xbdd24289	-0.10266597
61	0x3da38aae	0.079854354
62	0x3e729eaa	0.23693338
63	0xbe286fc2	-0.16448882
64	0xbdf8f92a	-0.12156899
65	0xbcb30dd9	-0.021857189
66	0xbde2e72e	-0.1107925
67	0xbe2f69ea	-0.17130247
68	0xbe618bfc	-0.22026056
69	0x3e2558e5	0.16147192
70	0xbd10a919	-0.035317514
71	0x3db574c3	0.08860161
72	0x3e3b8b60	0.18314886
73	0xbdbd659a	-0.092478946
74	0x3d83b555	0.06431071
75	0x3e4a2a82	0.19742778
76	0x3ee6d892	0.45087105
77	0xbe1ef750	-0.1552403
78	0x3d8e0c55	0.06935946
79	0x3cf27ac1	0.02959955
80	0x3e04b32a	0.1295897
81	0xbcb4739f	-0.022027789
82	0xbd942095	-0.07232777
83	0xbd52b171	-0.051438753
84	0x3c55979d	0.013036636
85	0x3cac5687	0.021037353
86	0xbdae0f63	-0.084990285
87	0xbe6e0d14	-0.23247176
88	0x3db682a7	0.08911639
89	0xbe14e951	-0.14542128
90	0xbd06309d	-0.032761205
91	0xbde91317	-0.11380594
92	0xbd2c658d	-0.042089034
93	0xbe010c18	-0.1260227
94	0xbdc4aaef	-0.096029155
95	0x3d80e5ce	0.06293832
96	0x3e52aae5	0.20573004
97	0x3d0701e6	0.032960795
98	0xbde5c8f8	-0.11219972
99	0xbd6c5572	-0.057698674
100	0xbe49b20a	-0.19696823
101	0xbc9df8ac	-0.019283615
102	0xbe3f85fa	-0.18703452
103	0xbe3244bf	-0.17409037
104	0xbe1bfce8	-0.15233195
105	0x3e2629be	0.16226861
106	0xbdbc32bf	-0.091893665
107	0xbd42cdaf	-0.047559436
108	0xbd93f3bf	-0.07224225
109	0x3e016824	0.12637383
110	0xbd6849c3	-0.05671097
111	0x3ca1767f	0.019709824
112	0x3e906baa	0.2820714
113	0x3d6ed0b1	0.058304492
114	0x3e70cc08	0.23515332
115	0xbe0ef8c5	-0.13962086
116	0x3e01acff	0.12663649
117	0xbe81a033	-0.25317535
118	0xbe46cba9	-0.19413628
119	0xbc10fa2e	-0.00884871
120	0xb9334f1a	-0.00017100238
121	0xbdb85261	-0.090000875
122	0x3e21898d	0.15775128
123	0x3c94100a	0.018074054
124	0xbdbd2c27	-0.09236937
125	0xbdad6bff	-0.08467864
126	0x3bd92876	0.006627138
127	0x3d451338	0.04811403

bn1.weight f4 [128]
0	0x3f3d924b	0.7405135
1	0x3e77f357	0.2421392
2	0x3f30718a	0.68923247
3	0x3f5c0032	0.859378
4	0x3ebeae74	0.37242472
5	0x3f3cd550	0.7376299
6	0x3edbaf93	0.4290739
7	0x3f5f8aed	0.8732136
8	0x3eea9d93	0.45823345
9	0x3f747fb7	0.9550738
10	0x3ea3de23	0.32005414
11	0x3dae5f9f	0.08514332
12	0x3ea1d22f	0.3160567
13	0x3f4bda4d	0.79629976
14	0x3eefc5d9	0.46830633
15	0x3ef5d57c	0.48014438
16	0x3f50b4f5	0.8152612
17	0x3e70b140	0.23505116
18	0x3e527d3d	0.20555587
19	0x3f334966	0.7003387
20	0x3f639b9e	0.8890933
21	0x3f21e760	0.63243675
22	0x3e8a47e2	0.27007967
23	0x3f2a491c	0.66517806
24	0x3f533d68	0.82515574
25	0x3e49ed75	0.19719489
26	0x3f694825	0.9112571
27	0x3f25ae8d	0.6471947
28	0x3eab5121	0.33460334
29	0x3e1f00f0	0.15527701
30	0x3f112410	0.5669565
31	0x3ecbeb7d	0.398281
32	0x3f03e932	0.515277
33	0x3e4d3a48	0.20041764
34	0x3f1aa67f	0.604103
35	0x3e7af892	0.24508885
36	0x3f5c81c4	0.86135507
37	0x3f0ad558	0.54231787
38	0x3f2b6060	0.6694393
39	0x3f4376e5	0.76353294
40	0x3f5d6eac	0.86496997
41	0x3f0ef147	0.5583691
42	0x3f6c9759	0.9241844
43	0x3e2c1d3a	0.16808024
44	0x3f4098a1	0.75232893
45	0x3f36c756	0.7139791
46	0x3e947598	0.28995967
47	0x3e9d4e88	0.30723977
48	0x3f4e9f1f	0.8071155
49	0x3f6e60d5	0.93116504
50	0x3e61bbe2	0.22044328
51	0x3f0cd790	0.5501642
52	0x3e777773	0.2416666
53	0x3f3c8860	0.7364559
54	0x3e11b379	0.1422862
55	0x3e9f2da1	0.310895
56	0x3f804e23	1.0023845
57	0x3f525244	0.8215678
58	0x3f6750d6	0.9035772
59	0x3f0e942c	0.5569484
60	0x3dc477b8	0.09593147
61	0x3f3e3ac6	0.7430843
62	0x3f4968ea	0.7867571
63	0x3f55f449	0.83575875
64	0x3f38cc22	0.7218648
65	0x3f0aef53	0.5427143
66	0x3f2b8a3a	0.6700779
67	0x3f15dd68	0.58540964
68	0x3e96c507	0.29447195
69	0x3f49b9e5	0.7879928
70	0x3e949629	0.29020813
71	0x3f3052b3	0.6887619
72	0x3eeb6a2d	0.45979443
73	0x3ec2a5ed	0.38017216
74	0x3f1816d6	0.59409845
75	0x3ed09b50	0.40743494
76	0x3f29e356	0.6636251
77	0x3e603932	0.21896818
78	0x3de3d949	0.11125428
79	0x3f20cd21	0.62813
80	0x3efaba7f	0.4897041
81	0x3e8a85ef	0.27055308
82	0x3e2e78c6	0.17038259
83	0x3f1aacd5	0.6041997
84	0x3ee2a8ac	0.4426931
85	0x3f4633f7	0.7742304
86	0x3e77296d	0.24136896
87	0x3ee25a1c	0.44209373
88	0x3eed15cd	0.46305695
89	0x3f048ee2	0.5178052
90	0x3e077fd4	0.13232356
91	0x3f38ccfb	0.72187775
92	0x3e7cd991	0.2469237
93	0x3e8e360f	0.27775618
94	0x3f1cb7a2	0.612177
95	0x3eb6d177	0.35706684
96	0x3efefd31	0.49802545
97	0x3e590f04	0.21197134
98	0x3eb28c96	0.34872884
99	0x3f5c6d62	0.86104405
100	0x3f15a548	0.58455324
101	0x3f28ad9a	0.65889895
102	0x3f44314c	0.7663772
103	0x3f3f9e30	0.7485075
104	0x3f281a27	0.65664905
105	0x3ebdc1f6	0.37062043
106	0x3eb0a8ab	0.34503683
107	0x3e9b4bfe	0.30331415
108	0x3f1d63c1	0.6148034
109	0x3effe53b	0.49979576
110	0x3e8c6cd8	0.2742679
111	0x3f4cae08	0.7995305
112	0x3f1f6e9f	0.6227817
113	0x3f1102c7	0.5664486
114	0x3ea5a3a2	0.32351404
115	0x3e295b61	0.16538765
116	0x3f6a9adc	0.91642547
117	0x3e66fc6c	0.22557229
118	0x3e2ab21a	0.16669503
119	0x3f18b4ce	0.59650886
120	0x3eb1153b	0.3458651
121	0x3f48228e	0.78177726
122	0x3edb91ae	0.42884582
123	0x3eb068d0	0.34454966
124	0x3ec31fa6	0.38110083
125	0x3ee5a577	0.44852802
126	0x3ed2e461	0.41189864
127	0x3ebee47a	0.3728369

bn1.bias f4 [128]
0	0xbcc042ef	-0.023469416
1	0xbd680ff5	-0.056655843
2	0x3df01d89	0.117243834
3	0xbc0fdee1	-0.008781166
4	0xbdc39957	-0.09550732
5	0x3df0058b	0.11719807
6	0xbcc8e50e	-0.024523284
7	0xbd9e5507	-0.077310614
8	0xbd4b8acd	-0.049692918
9	0x3d8ba09a	0.06817742
10	0x3d744ab7	0.059641566
11	0xbe46cd21	-0.19414188
12	0x3d034520	0.032048345
13	0xbd024309	-0.03180221
14	0x3c83e84b	0.016101977
15	0x3da2a114	0.079408795
16	0x3d37fa97	0.044916715
17	0x3ddbae06	0.10726552
18	0xbd9af215	-0.07565705
19	0x3e39dcad	0.18150587
20	0xbe1596fd	-0.14608379
21	0xbe2823c2	-0.1641989
22	0xbdb2b7df	-0.08726477
23	0xbd56e399	-0.052463148
24	0x3d654aa2	0.05597938
25	0xbd5e73e6	-0.054309748
26	0xbcc84ba7	-0.024450136
27	0x3c4e4852	0.012590485
28	0x3d84a86b	0.06477436
29	0x3e52a546	0.2057086
30	0x3d921c5d	0.07134316
31	0x3dd96e94	0.10616794
32	0x3de01596	0.10941617
33	0xbd25f7de	-0.040519588
34	0xbbfac1f7	-0.007652517
35	0x3df2e9e5	0.11861018
36	0x3de13003	0.10995486
37	0x3e132474	0.14369375
38	0x3d827715	0.06370369
39	0x3d0b5d91	0.03402478
40	0x3e47adf7	0.19499956
41	0x3c46e337	0.012139133
42	0xbc8c1ef7	-0.017104609
43	0xbcc77607	-0.024348272
44	0xbe05cbec	-0.13066071
45	0xbdebb1cd	-0.11508522
46	0x3bc4e8f1	0.006009214
47	0x3ceafcf2	0.028685067
48	0xbdb20477	-0.08692258
49	0xbaf9250f	-0.0019008237
50	0x3c27c257	0.010239205
51	0x3d419a16	0.04726609
52	0x3d46185c	0.048363075
53	0x3da440ba	0.08020158
54	0xbd68875b	-0.05676971
55	0x3c10c3e5	0.008835767
56	0x3c0797b8	0.008275919
57	0x3e045e81	0.12926675
58	0xbd89f449	-0.06736047
59	0x3de78f32	0.11306609
60	0xbe1bf1ba	-0.1522893
61	0xbdf4cdaa	-0.1195329
62	0xbc3b264e	-0.011422707
63	0xbc84c659	-0.01620786
64	0xbd6147a1	-0.05499995
65	0xbd0248f5	-0.03180786
66	0x3d810d9f	0.06301426
67	0xbd86f50d	-0.065897085
68	0x3e0bece7	0.1366459
69	0x384f2720	4.9389084e-05
70	0xbd5ebc47	-0.054378774
71	0x3e19d838	0.15023887
72	0x3d67cc32	0.05659122
73	0x3c88846d	0.016664708
74	0xbe15f562	-0.14644387
75	0x3d0af213	0.033922266
76	0xbde1f3d5	-0.110328354
77	0x3d9de793	0.07710185
78	0xbe555e7e	-0.20836827
79	0x3d5a58c1	0.0533073
80	0xbd0f05d8	-0.034917682
81	0x3d266489	0.04062322
82	0x3cfa969a	0.03058939
83	0x3e1f6fe9	0.15570034
84	0x3d0a3abe	0.033747427
85	0x3dce7533	0.10080948
86	0xbdb554cc	-0.08854064
87	0xbd1456fc	-0.036215767
88	0xbe1e7097	-0.15472637
89	0x3da1bab1	0.07896937
90	0xbe2cd5c4	-0.1687842
91	0x3e1c6dba	0.15276232
92	0x3d1cff0c	0.03832917
93	0x3e320314	0.17383987
94	0x3cf91f42	0.030410413
95	0x3c9e2a5b	0.019307306
96	0xbd82ebfd	-0.063926674
97	0x3e0a4704	0.13503653
98	0x3e05ac9a	0.13054124
99	0x3cef7b28	0.02923353
100	0x3d7c460a	0.061590232
101	0x3daea4fc	0.08527562
102	0xbe49c113	-0.19702558
103	0x3c9df11e	0.019280013
104	0xbdb93484	-0.0904322
105	0x3bc90ed7	0.0061358023
106	0x3db7da28	0.08977157
107	0x3e0fd357	0.14045464
108	0x3d79d9ab	0.0609986
109	0xbb7244e7	-0.0036967339
110	0x3e0c88be	0.13724038
111	0x3e0e3738	0.13888252
112	0x3c90a4c2	0.017656688
113	0x3d369ecb	0.04458503
114	0x3e1b3208	0.15155804
115	0x3d515540	0.05110669
116	0x3cd97dc3	0.026549226
117	0xbe1378da	-0.1440157
118	0x3c120f9c	0.008914854
119	0xb9336e38	-0.0001711183
120	0x3e25d02f	0.16192697
121	0xbd791de5	-0.060819525
122	0xbd8efbd1	-0.06981624
123	0xbced7fc5	-0.02899159
124	0x3d1993ca	0.03749446
125	0x3dedec06	0.116172835
126	0x3d0826f6	0.03324028
127	0xbdd14d41	-0.10219813

bn1.running_mean f4 [128]
0	0x3fd9976e	1.6999338
1	0x3da0e205	0.0785561
2	0x3e26ad22	0.16276982
3	0x3f791503	0.97297686
4	0x401681e4	2.351678
5	0x3efaef20	0.49010563
6	0x3f5bbf1d	0.8583849
7	0x4035ca22	2.8404622
8	0x3f2c0122	0.6718923
9	0x3e814ee6	0.25255507
10	0x3fb6ba09	1.4275523
11	0x3fbca7eb	1.4738744
12	0x3f98e0d4	1.1943612
13	0x3f5d17a8	0.8636422
14	0x401965de	2.3968425
15	0x3e89e474	0.26932108
16	0x3ec6885d	0.38775912
17	0x3f5b8938	0.85756254
18	0x3eb59748	0.3546698
19	0x3e5b7a95	0.2143348
20	0x3fb0295e	1.3762624
21	0x3ff4f3aa	1.913686
22	0x3fc3a9d1	1.5286199
23	0x3f8db322	1.1070292
24	0x3e7eaa8c	0.24869746
25	0x3e352c0c	0.17692584
26	0x3fa3d472	1.2799208
27	0x3e9f3067	0.31091616
28	0x3eebb7f2	0.46038777
29	0x3f801c87	1.0008706
30	0x3dbedbb2	0.09319247
31	0x3f040eba	0.5158497
32	0x401e1ec2	2.4706273
33	0x3d1ff451	0.039051358
34	0x3fe021a4	1.7510266
35	0x3e44c3b3	0.19215278
36	0x3f36a72b	0.7134883
37	0x3feda4e8	1.856595
38	0x3f170674	0.5899422
39	0x3e5190c8	0.20465386
40	0x3e555dce	0.20836565
41	0x3ff27974	1.8943315
42	0x3f19548a	0.5989462
43	0x3f4e2667	0.8052735
44	0x3f78c8a2	0.9718114
45	0x3f42d0fa	0.7610012
46	0x3e6a54b4	0.22883874
47	0x3e229967	0.15878831
48	0x3fb52708	1.4152536
49	0x3ea5db42	0.32393843
50	0x3e792758	0.24331415
51	0x3e5cb831	0.21554638
52	0x3e1215d6	0.14266142
53	0x3fac8897	1.3479184
54	0x4021f210	2.5303993
55	0x3e9c0d8a	0.3047908
56	0x3f4fc342	0.81157315
57	0x3ffbbe17	1.9667386
58	0x3ede4deb	0.43418822
59	0x3f01a68e	0.5064477
60	0x3fd5a7d0	1.6691837
61	0x3f756e3c	0.9587133
62	0x3f88cf46	1.0688255
63	0x3ffbfc37	1.9686345
64	0x3f8e6bb3	1.1126617
65	0x3f39b730	0.72545147
66	0x3f8c473d	1.095924
67	0x3fa1c5be	1.2638471
68	0x3f4c2970	0.7975073
69	0x3f410602	0.7539979
70	0x4023a430	2.5568962
71	0x3e418df7	0.18901812
72	0x3f46ee31	0.777072
73	0x3f5c16cf	0.85972303
74	0x403620bc	2.845748
75	0x3f3758ce	0.7161988
76	0x4045e37c	3.0920095
77	0x3e00bbd7	0.12571655
78	0x3eb26b04	0.3484727
79	0x3e3c1c28	0.18370116
80	0x3dd3cb00	0.103414536
81	0x3fa14d96	1.2601802
82	0x3ed5cd89	0.41758373
83	0x3f83eddc	1.0306964
84	0x3da76a4b	0.08174571
85	0x3ea44365	0.32082668
86	0x3d4d205a	0.05007968
87	0x3f604e1a	0.87619174
88	0x3f5cf919	0.8631759
89	0x3f9da4c0	1.2315903
90	0x3e1fd935	0.15610202
91	0x3f3a687d	0.72815686
92	0x3e47f9cc	0.19528884
93	0x3f6cc8ab	0.92493695
94	0x3f28a82c	0.6588161
95	0x3fa596a5	1.2936598
96	0x3f74f57a	0.9568707
97	0x3e32adfe	0.17449185
98	0x3d03eed1	0.032210175
99	0x3ec6fc97	0.38864586
100	0x3ed613cc	0.4181198
101	0x3f2e0f9d	0.67992574
102	0x3e8696db	0.2628697
103	0x3f385069	0.71997696
104	0x3f0c68ba	0.548473
105	0x3f0758db	0.5286996
106	0x3c493747	0.012281246
107	0x3ef03633	0.4691635
108	0x3f62bbf1	0.88568026
109	0x3ea254b0	0.31705236
110	0x3f5ce3c7	0.8628506
111	0x3f498d28	0.7873101
112	0x3ec2ef07	0.38072988
113	0x3f86b666	1.0524414
114	0x3eacebca	0.33773643
115	0x3fd16a78	1.6360617
116	0x401184eb	2.2737377
117	0x3d4945c4	0.0491388
118	0x3c745a21	0.0149140665
119	0x3fb34c94	1.4007745
120	0x3eaeba13	0.34126338
121	0x3f947507	1.1598214
122	0x3ed4f4c5	0.41592994
123	0x3f7274c6	0.9470943
124	0x3f1df0a4	0.61695313
125	0x3fa42262	1.2822993
126	0x3f40a90f	0.7525796
127	0x3f88aeb1	1.0678312

bn1.running_var f4 [128]
0	0x3feb8dd1	1.8402654
1	0x3d76f15e	0.06028878
2	0x3d92d318	0.07169169
3	0x3f896d39	1.0736457
4	0x410a83a7	8.657142
5	0x3f0fb00d	0.5612801
6	0x3fc5780e	1.5427263
7	0x40b53b87	5.6635165
8	0x3f5a172c	0.8519161
9	0x3defb39c	0.1170418
10	0x405f9db5	3.4940007
11	0x3ff7e1b2	1.9365752
12	0x403e392f	2.9722402
13	0x3f87a970	1.0598583
14	0x4075a2ec	3.838069
15	0x3e13b259	0.14423503
16	0x3ea79a44	0.32734883
17	0x3f3f725d	0.7478388
18	0x3f36f506	0.71467626
19	0x3e20baa1	0.15696193
20	0x3f94c8a2	1.1623728
21	0x3f9787a1	1.1838266
22	0x407d2124	3.9551477
23	0x3f1044fb	0.56355256
24	0x3e007eaf	0.12548326
25	0x3e60983a	0.2193307
26	0x40079daf	2.1189992
27	0x3e0c15b2	0.13680151
28	0x3e7d4e7e	0.24736974
29	0x3fa8b4d6	1.3180187
30	0x3d965000	0.073394775
31	0x3efe5182	0.4967156
32	0x409b95b2	4.8620234
33	0x3d30cf3c	0.043166384
34	0x3fd9b4ae	1.7008264
35	0x3e7542af	0.23951219
36	0x3f56e52d	0.83943444
37	0x3fcaa9f9	1.5833122
38	0x3f8a1c9c	1.0789981
39	0x3e2967e1	0.16543533
40	0x3e556b91	0.20841815
41	0x401fa18e	2.4942355
42	0x3ea9ed13	0.33188686
43	0x3f8745f7	1.0568227
44	0x3f3583d9	0.7090431
45	0x3fcc91d6	1.5982006
46	0x3e9e6f8b	0.30944476
47	0x3db68ccc	0.089135736
48	0x4009dad1	2.1539805
49	0x3da14b7d	0.07875726
50	0x3d87d000	0.0663147
51	0x3e142570	0.14467406
52	0x3dd6314c	0.104586214
53	0x401a6ead	2.413005
54	0x3f7a0f5c	0.97679687
55	0x3ebedfb9	0.37280062
56	0x3f91a697	1.1378964
57	0x403c3e8d	2.9413178
58	0x3eb5934c	0.3546394
59	0x3f5ec578	0.87020063
60	0x40a37607	5.1081576
61	0x3f57274c	0.8404434
62	0x400b73ed	2.1789505
63	0x3ff552fe	1.9165952
64	0x3f9d8524	1.2306256
65	0x3f65bd56	0.8974203
66	0x3ff98967	1.9495057
67	0x3fbd5f01	1.4794618
68	0x4001fa79	2.0309126
69	0x3f4df803	0.8045656
70	0x407cbbd3	3.9489639
71	0x3e081264	0.13288265
72	0x3f70b7ec	0.9403064
73	0x3f8b45ba	1.0880654
74	0x40cc165b	6.377729
75	0x3fdf57dd	1.7448689
76	0x3fe60693	1.7970756
77	0x3dc9821b	0.09839269
78	0x3f150c23	0.58221644
79	0x3dd7f08d	0.10543928
80	0x3daeb01e	0.085296854
81	0x405124ca	3.2678704
82	0x3ed884ac	0.4228872
83	0x3fd265f7	1.6437367
84	0x3d85f3e8	0.06540662
85	0x3f3f2dde	0.7467936
86	0x3d00eece	0.031477742
87	0x3ebcb0f7	0.36853763
88	0x3faa2e59	1.3295394
89	0x3fdefe27	1.7421311
90	0x3e1b2bc7	0.15153418
91	0x3fa41b5d	1.2820851
92	0x3d49aea7	0.049238827
93	0x402bbd5a	2.683432
94	0x3f4cad84	0.79952264
95	0x405aae2a	3.4168801
96	0x3ee5d235	0.44886938
97	0x3e0e9187	0.13922702
98	0x3cb2e838	0.021839246
99	0x3ef9607f	0.48706433
100	0x3f1a4611	0.6026316
101	0x3f3894b5	0.7210191
102	0x3e7aeb45	0.2450381
103	0x3f304d3e	0.6886786
104	0x3f16e026	0.58935773
105	0x3f1752d1	0.5911074
106	0x3ba68f6e	0.005083016
107	0x3ee7aa88	0.45247293
108	0x3f890d58	1.0707197
109	0x3eefdca1	0.46848014
110	0x3f99b278	1.2007589
111	0x3f58343d	0.8445471
112	0x3f153ba4	0.5829413
113	0x3f5ad1d4	0.8547642
114	0x3f1dfa68	0.61710215
115	0x409a015d	4.8126664
116	0x3fa4d7cb	1.2878355
117	0x3cf4d1e8	0.029885247
118	0x3c0fa729	0.008767881
119	0x3f5c41d1	0.8603793
120	0x3ef29552	0.47379547
121	0x3fc86d30	1.5658321
122	0x3f1f77ff	0.62292475
123	0x3fab2168	1.336957
124	0x3f50f163	0.81618327
125	0x3f7fbb33	0.9989502
126	0x3f926c81	1.1439363
127	0x3fa1ce6a	1.2641118

fc2.weight f4 [64, 128]
0	0x3c01e394	0.007927794
1	0x3e51b64c	0.20479697
2	0x3d71be09	0.059019122
3	0x3d5dd68f	0.054159697
4	0x3a06df41	0.0005144962
5	0xbc619f10	-0.013770834
6	0xbc6fec81	-0.014643789
7	0x3e12511a	0.1428875
8	0x3c72a76a	0.014810422
9	0xbda9ddaa	-0.08294232
10	0xbe0e467d	-0.13894077
11	0x3cc5fa1a	0.02416711
12	0xbd4b28fa	-0.049599625
13	0x3d03edda	0.032209255
14	0xbe052cdd	-0.13005395
15	0x3c44d4e9	0.012013652
16	0xbce1439c	-0.027498059
17	0x3db79f62	0.08965947
18	0xbde070c6	-0.1095901
19	0x3bcf4ef2	0.0063265497
20	0xbc3e08be	-0.011598764
21	0x3d549dfa	0.05190847
22	0x3da078b5	0.07835523
23	0x3d39aa52	0.045328446
24	0x3d014ac2	0.031565435
25	0xbd3efab1	-0.046625797
26	0xbd7bf093	-0.061508726
27	0x3d8d4d11	0.06899465
28	0xbe3563dc	-0.17713875
29	0x3d779c18	0.060451597
30	0xbcc164f8	-0.023607716
31	0xbddc26df	-0.107496016
32	0x3db1f141	0.08688594
33	0x3db501c9	0.08838231
34	0xbd8db49a	-0.06919213
35	0x3d04d0b4	0.032425597
36	0xbb30dc84	-0.0026986906
37	0x3d011df7	0.031522717
38	0x3da2a70f	0.0794202
39	0xbda1f156	-0.07907359
40	0x3d8478d0	0.06468356
41	0x3dc71b5a	0.09722014
42	0x3d6139b3	0.054986667
43	0xbe02643d	-0.1273355
44	0xbd5462a2	-0.051851876
45	0x3d4ec08f	0.050476607
46	0xbcce8b4b	-0.025212904
47	0xbe3dcbd2	-0.18534783
48	0xbcdd4aa9	-0.02701314
49	0xbd9a99bb	-0.07548853
50	0x3e3f817c	0.18701738
51	0xbdefa32d	-0.11701045
52	0xbc9644a7	-0.018343283
53	0x3b61b7ec	0.0034441901
54	0xbe198498	-0.14991987
55	0xbc6dacb4	-0.014506508
56	0x3c821ed0	0.015883833
57	0x3d83afa1	0.06429983
58	0xbdd24a08	-0.102680266
59	0xbce9a64e	-0.028521683
60	0x3d964845	0.07338003
61	0xbd4e6016	-0.050384603
62	0x3a367b28	0.0006961101
63	0x3df27ba3	0.11839988
64	0xbe075626	-0.13216457
65	0x3cc8e880	0.024524927
66	0xbd1307c7	-0.03589609
67	0x3d929ff0	0.07159412
68	0xbd4b5627	-0.04964271
69	0xbe2478e7	-0.16061746
70	0xbde319d3	-0.1108891
71	0xbce6ffdf	-0.02819818
72	0xbd909737	-0.07060092
73	0xbd97908e	-0.074006185
74	0xbd2998c9	-0.041405473
75	0x3e02fe78	0.12792385
76	0x3b646c0b	0.0034854438
77	0x3e385c79	0.18004026
78	0x3caf5d2a	0.021406729
79	0xbbab7109	-0.0052319807
80	0x3dcf94db	0.10135814
81	0xbc52b078	-0.012859456
82	0x3b4fb9d1	0.0031696449
83	0x3d7a8988	0.061166316
84	0xbe4fbd6a	-0.202871
85	0xbcf9bcb0	-0.030485481
86	0x3d8c560c	0.0685235
87	0x3baf28b0	0.0053454265
88	0x3d2f4609	0.0427914
89	0x3d5c9e41	0.05386186
90	0x3ddf85a2	0.1091416
91	0x3d1158a6	0.035484932
92	0x3c80e432	0.015733812
93	0x3c77fa73	0.015135395
94	0xbd29b45f	-0.04143178
95	0xbd63eef2	-0.055647798
96	0xbd1025a0	-0.035192132
97	0xbe18a8ce	-0.14908144
98	0xbcc8b6a4	-0.024501152
99	0x3ce21329	0.027597027
100	0x3ce4bd5f	0.02792233
101	0x3d58444f	0.05279952
102	0xbcd07dfc	-0.025450699
103	0xbd39a040	-0.045318842
104	0xbe0319fd	-0.12802882
105	0xbcee8368	-0.029115394
106	0x3e118ed0	0.14214635
107	0xbd82af40	-0.063810825
108	0x3d22cc33	0.03974552
109	0xbd5f9aee	-0.05459111
110	0xbd180e29	-0.03712288
111	0xbdbc9167	-0.09207421
112	0x3d02be16	0.03191956
113	0x3c90eaba	0.017690051
114	0xbd94f315	-0.07272927
115	0xbd5f42e4	-0.05450715
116	0xbe194d53	-0.14970903
117	0xbb76af18	-0.0037640985
118	0x3d2bad35	0.04191323
119	0x3df0dc23	0.11760738
120	0x3a34e553	0.0006900627
121	0xbdfcc8d5	-0.12342993
122	0xbcf7f59a	-0.03026848
123	0xbdedeff5	-0.11618034
124	0xbdb6ed0c	-0.08931932
125	0xbe1f83be	-0.155776
126	0xbd8cddcf	-0.06878244
127	0xbdeb812e	-0.114992484
128	0x3d58d075	0.052933175
129	0xbdd4305a	-0.10360785
130	0xbd1ac2ce	-0.037783436
131	0x3d22ab54	0.039714172
132	0x3df38e25	0.11892346
133	0xbe5e1b66	-0.21690139
134	0x3d5458d3	0.051842522
135	0xbc5fd2c0	-0.013661087
136	0xbd5baf43	-0.05363394
137	0xbc4a9fa1	-0.01236716
138	0x3e021446	0.12703046
139	0xbd584991	-0.052804533
140	0x3da13f49	0.07873399
141	0x3e22df6e	0.15905544
142	0x3d591c99	0.05300579
143	0x3c5d8098	0.013519429
144	0xbcc8e2e6	-0.024522256
145	0xbdcc1068	-0.09964067
146	0xbcd585d9	-0.0260648
147	0x3bb59128	0.0055409856
148	0xbd5089a6	-0.05091252
149	0x3bab3d49	0.0052258116
150	0x3ccf2868	0.025287822
151	0xbda3986a	-0.07988055
152	0x3d871a8a	0.06596859
153	0x3e1fd8df	0.15610074
154	0x3dd2c395	0.102912106
155	0xbd5c764d	-0.053823758
156	0x3cf94e4c	0.030432843
157	0xbd9202e9	-0.07129461
158	0x3d89cebb	0.06728884
159	0x3d569677	0.05238959
160	0xbd978b84	-0.07399657
161	0x3e005827	0.12533627
162	0xbd12fcf1	-0.035885755
163	0x3d8c7cf0	0.068597674
164	0xbdbf201f	-0.093322985
165	0x3d64fc6f	0.055904802
166	0xbd42b379	-0.04753444
167	0xbc3e3a9b	-0.011610652
168	0x3d102c29	0.035198364
169	0x3d3b805c	0.04577671
170	0x3e193df9	0.14965047
171	0xbd85ccca	-0.06533201
172	0x3d506339	0.050875876
173	0x3daeda56	0.08537738
174	0xbd5d9301	-0.054095272
175	0xbda9c1de	-0.0828893
176	0x3d0fffc6	0.035156034
177	0x3c27c56f	0.010239943
178	0x3e0dfc59	0.13865794
179	0x3d1ca6bb	0.038244944
180	0xbda86977	-0.08223241
181	0xbd8ae0c1	-0.0678115
182	0xbe0447fd	-0.12918086
183	0x3bf4af17	0.0074671614
184	0xbd006f19	-0.03135595
185	0xbd6f06b6	-0.05835601
186	0x3ca964b5	0.020677904
187	0xbd9e5e56	-0.07732837
188	0xbd7fb059	-0.062424038
189	0xbdb0289b	-0.08601495
190	0x3be8e271	0.007107072
191	0xbc3bea07	-0.011469371
192	0xbd46d813	-0.04854591
193	0xbd390f28	-0.04518047
194	0x3d890ee2	0.06692292
195	0xbcae17e0	-0.021251619
196	0x3d6437d8	0.05571732
197	0xbcc6e511	-0.02427915
198	0x3c83b83a	0.016079057
199	0xbe5a0f71	-0.21294953
200	0x3e0b16a6	0.13582858
201	0x3ccf467b	0.025302162
202	0x3d573544	0.052541032
203	0xbd841072	-0.06448449
204	0xbe10d2b0	-0.14142871
205	0x3ded6e9e	0.11593364
206	0x3e12eb7d	0.14347644
207	0x3c7213e5	0.014775251
208	0x3e019df7	0.12657915
209	0x3dda64df	0.10663771
210	0x3e0f854a	0.1401569
211	0xbd84a08f	-0.064759366
212	0x3db93f02	0.09045221
213	0xbab98b31	-0.0014155862
214	0xbdde069f	-0.108411066
215	0x3ca81899	0.020519542
216	0x3de03ac1	0.109487064
217	0xbd4be75e	-0.049781196
218	0x3e034ff5	0.1282347
219	0x3abb819a	0.0014305592
220	0x3d12c874	0.0358357
221	0xbdd666e0	-0.104688406
222	0xbd33bd6f	-0.04388183
223	0xbdbf3586	-0.09336381
224	0x3dd1a428	0.102363884
225	0x3c336148	0.010948487
226	0xbd6013f9	-0.054706547
227	0x3d3f5af2	0.04671759
228	0xbe090f1e	-0.13384673
229	0x3daaa8da	0.08332987
230	0x3d72c495	0.059269506
231	0xbceb663f	-0.028735278
232	0x3c0c005b	0.008545007
233	0xbbf5c943	-0.007500799
234	0x3d7e2805	0.062049884
235	0x3e07dae0	0.13267088
236	0xbd8f9f5d	-0.07012818
237	0xbdceab6e	-0.10091291
238	0x3d950818	0.072769344
239	0x3dab107b	0.08352753
240	0x3da39d42	0.07988979
241	0x3d597497	0.053089704
242	0x3d1e3b66	0.038630866
243	0xbcac05d4	-0.020998873
244	0xbd6deef4	-0.05808921
245	0x3c0d9449	0.008641311
246	0xbe044e71	-0.12920548
247	0xbda140ad	-0.07873664
248	0xbd752a8a	-0.05985502
249	0xbdb79937	-0.0896477
250	0xbd39bebb	-0.04534791
251	0xbd88ed04	-0.06685832
252	0x3d1ffdbc	0.03906034
253	0x3d2f0417	0.04272851
254	0xbe123804	-0.14279181
255	0xbd5e0af1	-0.054209653

fc2.bias f4 [64]
0	0xbd559eee	-0.05215352
1	0x3d8c1197	0.068392925
2	0xbe03d904	-0.12875754
3	0xbdfe5938	-0.12419361
4	0x3cca618a	0.024704713
5	0xbcb44860	-0.022007167
6	0x3d7eb804	0.06218721
7	0x3d354fb4	0.044265464
8	0xbe0d4d17	-0.13798939
9	0x3d323540	0.043507814
10	0xbd13f7ad	-0.036124874
11	0xbb907366	-0.004408288
12	0xbdfb3c5b	-0.12267371
13	0xbd68fef1	-0.056883756
14	0xbd1f98b5	-0.038963992
15	0xbdd92228	-0.10602218
16	0xbd4b818f	-0.049684104
17	0xbe0f263e	-0.13979432
18	0xbe2e7c0f	-0.17039512
19	0x3ba37c0b	0.0049891523
20	0xbd80222d	-0.062565185
21	0xbdd68269	-0.104740925
22	0xbdf895f0	-0.12137973
23	0xbd9c49b3	-0.076312445
24	0x3cb637b9	0.022243368
25	0xbd1ee03c	-0.038788065
26	0x3ce8ac1a	0.028402377
27	0x3d5dcd2b	0.05415074
28	0xbd0e2e4a	-0.034712113
29	0x3de08830	0.10963476
30	0xbc7e6b20	-0.01552847
31	0xbe0fa1ce	-0.14026567
32	0xbe224f8a	-0.15850654
33	0xbdca04eb	-0.09864219
34	0x3b533aac	0.0032231016
35	0xbda41052	-0.08010925
36	0xbd9011ea	-0.07034667
37	0xbd4d17dd	-0.050071586
38	0xbdc65a1d	-0.096851565
39	0xbd473ef2	-0.048644014
40	0xbdb54246	-0.08850531
41	0xbc8c530d	-0.017129445
42	0xbd913b3a	-0.07091375
43	0xbe02e607	-0.12783061
44	0x3d0d857a	0.03455112
45	0x3c96898e	0.018376138
46	0x3db4ba7b	0.08824631
47	0x3d4128fc	0.047158226
48	0xbc9505e5	-0.018191287
49	0xbdffe668	-0.124951184
50	0xbdb324a4	-0.08747223
51	0xbd38e78d	-0.0451427
52	0xbdff99ac	-0.124804825
53	0xbe161192	-0.1465514
54	0xbe180782	-0.14846614
55	0x3c660184	0.014038447
56	0xbdca02ea	-0.09863837
57	0xbe328613	-0.17433958
58	0xbba09d88	-0.0049015917
59	0xbd05e91e	-0.03269302
60	0xbdd35d94	-0.10320583
61	0xbe0004a0	-0.12501764
62	0xbdd34241	-0.10315371
63	0xbd143f7f	-0.036193367

bn2.weight f4 [64]
0	0x3f7dcec2	0.9914361
1	0x3f28b34a	0.65898573
2	0x3f1e8c82	0.6193315
3	0x3f411e0d	0.7543648
4	0x3f4409c5	0.7657741
5	0x3f1ec5bd	0.62020475
6	0x3f1c952d	0.61165124
7	0x3f503a82	0.81339276
8	0x3e11c647	0.14235793
9	0x3e8cccb1	0.27499917
10	0x3ef233f7	0.4730527
11	0x3f4fd07a	0.81177485
12	0x3f53b6b8	0.8270068
13	0x3ebe501a	0.37170488
14	0x3e2faf50	0.1715672
15	0x3f6926a2	0.91074574
16	0x3e6a8821	0.22903492
17	0x3ef06e81	0.46959308
18	0x3ecae3a9	0.39626816
19	0x3f60b214	0.87771726
20	0x3e65e05b	0.22448866
21	0x3e157251	0.1459439
22	0x3e5cbef5	0.2155722
23	0x3edd92f2	0.43276173
24	0x3e9ac7d4	0.30230582
25	0x3f5c3d20	0.8603077
26	0x3f1575b9	0.58382756
27	0x3f468fac	0.77562976
28	0x3de96e01	0.11397935
29	0x3ea31bee	0.31857246
30	0x3f23b5ff	0.6394958
31	0x3e95b1df	0.29237267
32	0x3e10d356	0.14143118
33	0x3f3065f5	0.68905574
34	0x3e092b1b	0.1339535
35	0x3f2b349d	0.66877156
36	0x3f4cbaf3	0.7997276
37	0x3ec774c7	0.38956282
38	0x3dc77721	0.09739519
39	0x3e30023e	0.17188355
40	0x3e99b562	0.30021197
41	0x3f2206ae	0.6329144
42	0x3f59447b	0.8487012
43	0x3f6513d6	0.8948339
44	0x3e1405b4	0.144553
45	0x3f52c49a	0.8233124
46	0x3f2c6692	0.6734401
47	0x3ec51dbc	0.38499248
48	0x3f0cda4e	0.55020607
49	0x3f70a4fc	0.94001746
50	0x3f3455d0	0.7044344
51	0x3f02444e	0.50885475
52	0x3e8dd8bd	0.2770442
53	0x3e38b3b1	0.18037297
54	0x3eb0341c	0.34414756
55	0x3e6a69c0	0.22891903
56	0x3f4ecab6	0.8077806
57	0x3ef47953	0.47748813
58	0x3f20c00b	0.62793034
59	0x3e53202e	0.20617744
60	0x3f087356	0.5330099
61	0x3f6950e1	0.91139036
62	0x3e90c1f8	0.28272986
63	0x3f1322c8	0.57474947

bn2.bias f4 [64]
0	0x366adada	3.4996106e-06
1	0x352b80e5	6.389003e-07
2	0xb6641520	-3.3986944e-06
3	0x361ae16e	2.3079006e-06
4	0x36a32fce	4.8633437e-06
5	0xb71a567e	-9.199253e-06
6	0xb51d19d5	-5.852465e-07
7	0x33f953af	1.1610188e-07
8	0x3704a0f0	7.905284e-06
9	0xb5bb13e3	-1.3938374e-06
10	0xb6f3a8b3	-7.2616035e-06
11	0x33e6717a	1.0730851e-07
12	0xb79b3b5f	-1.8505087e-05
13	0xb7991cb8	-1.8252395e-05
14	0x37a0a795	1.9151523e-05
15	0x36ea9483	6.9910325e-06
16	0xb621a3aa	-2.4086135e-06
17	0x3661c6d2	3.3643341e-06
18	0xb6ddd0cc	-6.6106204e-06
19	0xb6025f36	-1.942693e-06
20	0x37a474e6	1.9604759e-05
21	0xb7598091	-1.2964142e-05
22	0x366d9ec5	3.5408168e-06
23	0x36d7125e	6.4096375e-06
24	0x35b13a13	1.320443e-06
25	0x33b9301c	8.623485e-08
26	0x371ec7de	9.464069e-06
27	0xb6b3a536	-5.353849e-06
28	0x3698e93f	4.5571064e-06
29	0x37169db7	8.977418e-06
30	0x3690dded	4.31737e-06
31	0xb78ee771	-1.7035492e-05
32	0xb7ba7a72	-2.2229946e-05
33	0x36908b27	4.307734e-06
34	0xb7b3ecfa	-2.1448814e-05
35	0xb5c766f6	-1.4856621e-06
36	0xb72639a1	-9.907789e-06
37	0xb7540c25	-1.2639012e-05
38	0xb8895a59	-6.5494976e-05
39	0xb6e94109	-6.951512e-06
40	0x37ca82b3	2.4141138e-05
41	0x371aef59	9.234843e-06
42	0x36d9d611	6.4920246e-06
43	0x36605197	3.3426093e-06
44	0x381872cf	3.6346548e-05
45	0xb6a63066	-4.95282e-06
46	0x3672d748	3.618612e-06
47	0xb6e5f8ca	-6.8536947e-06
48	0xb5f9ee5a	-1.8621315e-06
49	0xb6506567	-3.105344e-06
50	0x35b90cb6	1.3787273e-06
51	0xb648c2cd	-2.9915711e-06
52	0x37962d8e	1.7902606e-05
53	0xb7f8cac4	-2.9658324e-05
54	0x35eca018	1.7629964e-06
55	0xb6c4fb57	-5.870515e-06
56	0xb70b2151	-8.292803e-06
57	0xb748923f	-1.19549795e-05
58	0xb6ba6264	-5.554686e-06
59	0x386f3e3e	5.7040008e-05
60	0x36d16447	6.240359e-06
61	0xb68221b8	-3.8782273e-06
62	0xb7ec5f60	-2.8177805e-05
63	0xb66adb27	-3.499628e-06

bn2.running_mean f4 [64]
0	0x3e78f2b4	0.24311334
1	0x3e03c15c	0.1286673
2	0x3cdffa6d	0.027341092
3	0x3dba0259	0.09082479
4	0x3e74b7c7	0.2389823
5	0x3e000cf0	0.12504935
6	0x3ead1e24	0.33812058
7	0x3e947dbe	0.29002184
8	0x3e111c05	0.14170845
9	0x3e9252cb	0.2857879
10	0x3e019da0	0.12657785
11	0x3e137ef8	0.14403903
12	0x3c738bab	0.014864842
13	0x3da1893b	0.07887503
14	0x3d92205a	0.07135077
15	0x3e28eef0	0.16497397
16	0x3ddfdaba	0.10930391
17	0x3d0cf7f0	0.03441614
18	0x3b2835e0	0.0025666878
19	0x3ded5c72	0.11589898
20	0x3daa787f	0.08323764
21	0x3d7ecc3a	0.062206484
22	0x3d393827	0.045219567
23	0x3d62ab31	0.055339042
24	0x3e360084	0.17773634
25	0x3db61f96	0.08892743
26	0x3de130cc	0.109956354
27	0x3ebace52	0.36485535
28	0x3e39e54c	0.18153876
29	0x3eaa183a	0.33221608
30	0x3eaa15af	0.33219668
31	0x39edc4ba	0.00045350735
32	0x3b8acb2c	0.0042356458
33	0x3d00f623	0.031484734
34	0x3ea10999	0.31452635
35	0x3d546492	0.051853724
36	0x3ce17fa1	0.027526679
37	0x3e1dc2e3	0.15406375
38	0x3d5c4962	0.05378092
39	0x3dbbb4ad	0.091653205
40	0x38982aad	7.255874e-05
41	0x3e0c2a0a	0.13687912
42	0x3de404fa	0.11133762
43	0x3d2f4f0e	0.0428
44	0x3ea12e97	0.31480858
45	0x3e90ebcc	0.283049
46	0x3e01e39e	0.12684485
47	0x3e81e306	0.25368518
48	0x3d3bbf7e	0.045836918
49	0x3e11abc5	0.14225681
50	0x3e93399b	0.28754887
51	0x3df4d9f6	0.11955635
52	0x3dc934f5	0.09824554
53	0x3d76f22f	0.060289558
54	0x3d6d5b44	0.057948366
55	0x3e313ff6	0.17309555
56	0x3dc53425	0.096290864
57	0x3d13aa1c	0.0360509
58	0x3e107f00	0.14110947
59	0x3d90c6d6	0.07069175
60	0x3d8cd99e	0.06877445
61	0x3bc4ed52	0.006009736
62	0x3d933792	0.071883336
63	0x3d910ae4	0.07082155

bn2.running_var f4 [64]
0	0x3dc908ec	0.09816155
1	0x3d1f0938	0.03882715
2	0x3c145f34	0.009055901
3	0x3d55b033	0.05216999
4	0x3dcd6880	0.100296974
5	0x3d8b7b93	0.06810679
6	0x3e52088f	0.20511077
7	0x3e20f8d7	0.15719925
8	0x3db52c20	0.08846307
9	0x3df824c6	0.12116389
10	0x3d3eea30	0.046610057
11	0x3d8d4485	0.06897835
12	0x3b8a7111	0.0042249043
13	0x3c939a14	0.018017806
14	0x3c7b477c	0.015336867
15	0x3ddc9e72	0.107724085
16	0x3d4b32e1	0.04960907
17	0x3c1edf5a	0.009696806
18	0x39ba6f34	0.00035559537
19	0x3d01b724	0.031668797
20	0x3d183639	0.037161086
21	0x3cd71aa3	0.026257819
22	0x3ca0bfeb	0.019622764
23	0x3c809bd6	0.015699308
24	0x3d917f27	0.071043305
25	0x3ca06e44	0.019583829
26	0x3d22cf22	0.03974832
27	0x3dee6946	0.11641173
28	0x3d2a2340	0.041537523
29	0x3e254d58	0.16142786
30	0x3dff7b8b	0.12474736
31	0x3809d132	3.2858174e-05
32	0x3a07281a	0.0005155817
33	0x3bbc0ec6	0.005739066
34	0x3e1e5c8f	0.15464996
35	0x3c2d01e3	0.010559532
36	0x3c18ec8f	0.009333744
37	0x3d28ad98	0.041181177
38	0x3c7ac116	0.015304824
39	0x3cdd95a7	0.027048899
40	0x367b1f56	3.7420155e-06
41	0x3d7f0e62	0.062269576
42	0x3d15026b	0.03637926
43	0x3c98143a	0.018564332
44	0x3e18ee23	0.14934592
45	0x3e1d19b9	0.15341844
46	0x3d44d466	0.04805412
47	0x3e01df0d	0.12682743
48	0x3c76acf3	0.015055883
49	0x3d5e665b	0.054296833
50	0x3e511350	0.20417523
51	0x3d1806ec	0.037115976
52	0x3d127c98	0.035763353
53	0x3c8aca39	0.01694213
54	0x3c951946	0.018200528
55	0x3e033c33	0.12815933
56	0x3d273110	0.040818274
57	0x3c3e5599	0.011617088
58	0x3d514205	0.05108835
59	0x3ca5096f	0.0201461
60	0x3cd63ba9	0.026151495
61	0x3a56a1bb	0.0008187552
62	0x3ccb2597	0.024798198
63	0x3c889d8d	0.016676689

fc3.weight f4 [2, 64]
0	0x3cd9af11	0.026572736
1	0x3c962960	0.018330276
2	0xbaf5178c	-0.0018699034
3	0xbc8766f8	-0.016528592
4	0xbce729e8	-0.028218225
5	0x3ccd1177	0.025032742
6	0x3bebd8e6	0.007197487
7	0xbccb0bb9	-0.024785863
8	0x3cfab311	0.030602964
9	0xbd0f1a4e	-0.034937195
10	0xbcd5c3a6	-0.026094269
11	0xbbc94643	-0.006142409
12	0x3cde75f8	0.027155861
13	0xbd78161c	-0.06056796
14	0x3cf0aa04	0.029377945
15	0x3babad8c	0.0052391943
16	0xbc4563d0	-0.012047723
17	0xbc8cdd3f	-0.017195342
18	0x3d0d3fbe	0.034484617
19	0xbba15104	-0.004922988
20	0x3c8ddd73	0.01731751
21	0x3e0c2a82	0.1368809
22	0x3b8d44c5	0.0043111765
23	0xbd41b328	-0.047289997
24	0x3cfd3398	0.03090839
25	0xbc185430	-0.009297416
26	0xbcb65a7e	-0.022259947
27	0xbbe25384	-0.0069069285
28	0xbd2ed705	-0.042685527
29	0x3d25dae0	0.04049194
30	0x3ca3e803	0.020008093
31	0xbc23d287	-0.009998924
32	0x3d7fab84	0.06241943
33	0xbcd6ec22	-0.026235644
34	0xbd1a4da1	-0.03767169
35	0x3cc217f9	0.023693072
36	0xbc84b92f	-0.016201584
37	0x3d45f188	0.048326045
38	0x3db2dd4d	0.08733616
39	0xbd097352	-0.033557244
40	0x3d51b531	0.05119819
41	0x3c536dc5	0.012904589
42	0x3bd9bd95	0.0066449144
43	0x3c28e185	0.010307674
44	0x3db88ede	0.09011625
45	0xbbc21d33	-0.005923891
46	0x3cd75fe4	0.026290841
47	0xbcca7c07	-0.024717344
48	0xbc0df67e	-0.008664725
49	0x3ba5d888	0.005061213
50	0x3a562213	0.00081685296
51	0x3c17c462	0.00926313
52	0xbd88ce82	-0.06680013
53	0xbdb3c3c7	-0.08777576
54	0x3c242b53	0.010020095
55	0x3c485510	0.012227312
56	0x3c16c412	0.00920202
57	0xbcd4eb68	-0.025991157
58	0x3cf46934	0.029835321
59	0xbdbad3e4	-0.09122446
60	0x3b81e9bb	0.0039646304
61	0xbd548263	-0.05188216
62	0xbcaa20f6	-0.02076767
63	0xbbce1b66	-0.0062898872
64	0x3cd76a86	0.026295912
65	0xbcb01bb4	-0.021497585
66	0x3d15b625	0.03655066
67	0xbd196bbb	-0.037456255
68	0x3be50e8a	0.0069902586
69	0x3d4b061b	0.04956637
70	0x3cfa3e7d	0.030547375
71	0xbc2d947e	-0.010594485
72	0xbd51fc13	-0.051265787
73	0x3bcdfb87	0.006286088
74	0xbc9bf8e5	-0.01903958
75	0xbc84ec17	-0.016225858
76	0xbb75f03f	-0.003752723
77	0xbcb60357	-0.02221839
78	0x3d355751	0.044272725
79	0xbcf5680b	-0.029956838
80	0xbd9d4ea9	-0.07681019
81	0x3cd7435a	0.026277233
82	0x3aa0f23a	0.001227922
83	0xbd01c6a0	-0.031683564
84	0x3d17b058	0.03703341
85	0xbd7c378a	-0.061576404
86	0x3d995f78	0.07488912
87	0x3c7ec3be	0.015549598
88	0xbd0c4e0a	-0.03425411
89	0xbc23a19c	-0.009987261
90	0xbcb1f0f8	-0.021721348
91	0xbd00e944	-0.03147246
92	0x3df28be7	0.118430905
93	0x3cb993e9	0.022653537
94	0x3d1bd29e	0.038042657
95	0xbc781fbb	-0.015144284
96	0x3d5b2442	0.053501375
97	0x3cbddfea	0.02317806
98	0x3c745523	0.014912876
99	0xbc65eae0	-0.014033049
100	0x3b96a8a8	0.004597742
101	0x3c17741d	0.009243992
102	0x3d06fce4	0.03295602
103	0x3da7db31	0.08196104
104	0xbc43d359	-0.011952245
105	0xbcf712b5	-0.030160287
106	0x3c810290	0.015748292
107	0xbb40202c	-0.002931605
108	0x39ec290b	0.00045044007
109	0x3cd56f60	0.026054084
110	0x3c405c93	0.011740821
111	0x3d3046e8	0.04303637
112	0x3cf9fbb4	0.03051553
113	0xbce5aa80	-0.028035402
114	0xbc13c674	-0.009019483
115	0x3c2990bf	0.010349452
116	0xbbca3d75	-0.006171877
117	0x3d65ea42	0.05613161
118	0xbd4d2f94	-0.050094202
119	0x3d26704a	0.04063443
120	0x3d0854c3	0.03328396
121	0xbcb2fc6f	-0.021848885
122	0x3c63254c	0.013863873
123	0xbc7debd3	-0.015498119
124	0x3c56fba5	0.01312152
125	0xbbb21bd9	-0.0054354486
126	0x3c66e724	0.014093194
127	0x3cb6fd34	0.022337534

fc3.bias f4 [2]
0	0xbd854f6d	-0.0650929
1	0xb926e5df	-0.00015916627

bn3.weight f4 [2]
0	0x402a6a55	2.66274
1	0x404b08b6	3.1724067

bn3.bias f4 [2]
0	0xbe4361b7	-0.19080244
1	0xbf19727b	-0.5994031

bn3.running_mean f4 [2]
0	0xbd85544e	-0.065102205
1	0xb933ca95	-0.00017146238

bn3.running_var f4 [2]
0	0x3c3601aa	0.011108795
1	0x3b8f0f47	0.004365835
