p3_collaboration_and_competition/critic_1_solved.pth (torch_old, 52380 bytes, 17 tensors)

bn0.weight f4 [24]
0.33886746 0.2660593 0.17985168 0.18560857 1.0926231 0.75063974 0.028489036 0.0029794886
0.23998538 0.0075822207 0.13327953 0.074237846 0.67599016 0.71708643 0.14957884 0.23235576
0.5898781 0.367083 0.12990895 0.2608956 0.9796225 0.7741375 0.19533412 0.3317079
00000000: 0980 ad3e ed38 883e 0a2b 383e 2c10 3e3e
00000010: 13db 8b3f ed29 403f d761 e93c 8643 433b
00000020: babe 753e 4774 f83b 6e7a 083e 030a 983d
00000030: b10d 2d3f fa92 373f 322b 193e abee 6d3e
00000040: 4002 173f 4ef2 bb3e da06 053e 1c94 853e
00000050: 8ac8 7a3f e02d 463f ab05 483e 9ed5 a93e

bn0.bias f4 [24]
0.05696978 0.04110307 -0.01750907 -0.0826533 0.12612255 0.0353265 -0.004713339 0.06153661
-0.048976455 0.083467916 0.019207992 -0.0086085405 0.30759278 0.007657349 -0.016712427 -0.095627345
-0.046529945 0.039467826 -0.007333289 -0.0683735 0.21118571 0.022689033 -0.02065517 -0.09653512
00000000: 2559 693d b15b 283d 2e6f 8fbc 2246 a9bd
00000010: 4526 013e 85b2 103d 5a72 9abb d00d 7c3d
00000020: 899b 48bd 3af1 aa3d 145a 9d3c d60a 0dbc
00000030: cd7c 9d3e 80ea fa3b 80e8 88bc 45d8 c3bd
00000040: 2f96 3ebd 04a9 213d 164c f0bb 6807 8cbd
00000050: 1141 583e 5ade b93c 0835 a9bc 34b4 c5bd

bn0.running_mean f4 [24]
-7.3217516 -0.5585354 2.1707902 0.023586065 0.0035911654 2.9610426 2.1707902 0.023586065
-7.456287 -0.5769865 2.2649493 -0.01014947 0.010834318 2.9626656 2.2649493 -0.01014947
-7.6097198 -0.5941043 2.0284991 -0.033833284 0.0041413703 2.9418 2.0284991 -0.033833284
00000000: ca4b eac0 2dfc 0ebf 3aee 0a40 9037 c13c
00000010: c259 6b3b b981 3d40 3aee 0a40 9037 c13c
00000020: e799 eec0 63b5 13bf eef4 1040 f649 26bc
00000030: 6c82 313c 509c 3d40 eef4 1040 f649 26bc
00000040: d382 f3c0 3817 18bf eed2 0140 c594 0abd
00000050: 55b4 873b 7446 3c40 eed2 0140 c594 0abd

bn0.running_var f4 [24]
13.34334 1.041659 258.88818 12.065328 31.636816 3.3008633 258.88818 12.065328
12.477406 1.0637261 262.80136 12.1837845 33.326633 3.4004629 262.80136 12.1837845
11.545682 1.0834548 267.3178 12.562595 35.070255 3.617755 267.3178 12.562595
00000000: 527e 5541 1555 853f b071 8143 950b 4141
00000010: 3318 fd41 5841 5340 b071 8143 950b 4141
00000020: 74a3 4741 2d28 883f 9366 8343 c8f0 4241
00000030: 794e 0542 2fa1 5940 9366 8343 c8f0 4241
00000040: 1dbb 3841 a6ae 8a3f aea8 8543 6400 4941
00000050: f147 0c42 4c89 6740 aea8 8543 6400 4941

fcs1.weight f4 [128, 24]
0.04183854 -0.099517845 0.008498321 -0.07595264 1.2566277 -0.10407563 0.061581504 -0.12111164
-0.07521067 -0.13183694 -0.060783356 0.00064221607 1.0633739 0.02661659 0.03769188 0.015982075
-0.0023623484 0.087542616 0.040478926 -0.09000285 0.8723421 0.12015292 -0.031414688 0.019823678
-0.0941129 -0.13129963 0.08596015 0.09916695 0.041408673 -0.02769071 0.12892939 -0.13386166
0.04771148 -0.16262378 -0.41075128 -0.20279522 -0.10737015 0.10194321 -0.23949382 -0.118259385
-0.12613255 0.055782918 -0.41407883 -0.008810356 -0.60357183 0.052545037 -0.42925078 0.056623895
0.27921164 0.12451387 -0.044730302 0.016538076 0.21537377 0.04423395 -0.057242755 -0.18320374
0.23968247 -0.27515993 -0.042923976 0.089016534 0.15426818 -0.26000044 -0.046282332 0.25603238
0.10084212 -0.2657915 0.41226628 0.023107074 -0.33177617 0.06758553 0.38016656 0.054099236
-0.088996716 -0.08804777 0.1288944 0.09780552 -0.00324627 0.29187527 0.040793493 -0.29768845
-0.039861627 -0.45044452 0.34534702 -0.047298297 0.11015305 -0.1268932 0.3245896 0.12387766
-0.34705552 -0.21569839 -0.43303156 -0.19896348 -0.06315963 -0.14489086 -0.5380592 -0.20728078
0.09942007 0.22618233 0.025060885 0.061832573 0.35639957 -0.34057742 -0.041662823 -0.035199575
-0.058051832 0.19375819 0.08401177 0.40539023 0.3043271 -0.2599763 0.12025724 0.34836984
0.10590658 0.14305778 -0.058706038 -0.09743802 -0.68222517 0.54708457 -0.043729763 -0.1905495
-0.17602274 0.3922651 -0.2258437 -0.27831706 0.15428513 -0.07423472 -0.0783413 -0.29689592
0.19785802 -0.11845689 -0.0818893 -0.030789481 -0.028567363 0.14417492 0.017436 -0.04392178
-0.08317367 0.23449142 -0.09089229 0.109519824 -0.14175715 -0.62621915 -0.09067355 0.13698797
-0.12185578 0.3556582 0.47165617 -0.2347638 -0.08814913 -0.030663874 0.4340834 -0.19602802
0.31436062 -0.12095045 0.4844892 -0.029099118 0.18600512 -0.05351457 0.50284266 0.08002246
0.018070055 -0.042195335 0.032019194 -0.1512045 0.026955279 -0.25404626 0.0008754559 -0.11077764
-0.12251301 -0.09667292 0.16195634 0.2668653 -0.03953373 0.017436644 0.2074272 -0.20967591
0.0011664749 -0.2966244 0.17782612 0.23269984 -0.28951222 -0.017448304 0.17548531 0.33551243
-0.022133088 -0.07109385 0.00093637186 -0.008409702 -0.29778883 0.39019978 0.081986725 0.09179771
-0.059573177 0.20644319 -0.02849281 -0.0035564147 0.06613013 0.012266212 -0.10309645 -0.19643725
0.2012054 -0.044858616 0.10114101 0.06668687 0.27566224 -0.49606475 0.16940807 -0.023995604
-0.1347163 0.038964905 -0.019744458 -0.076070845 0.09448658 0.335741 -0.05462529 -0.09297339
0.059294943 -0.23066327 -0.46331555 0.017739633 0.12769458 0.011974786 -0.3946055 -0.07200276
0.042812534 -0.07283529 -0.44148695 0.026764205 0.063358665 -0.031926792 -0.44184685 -0.04233024
0.1291514 0.13723347 0.22216016 0.14528053 -0.26610756 -0.057969853 0.1504531 0.16935024
0.0074277148 -0.15413748 -0.36270568 0.11042723 -0.06764446 -0.053651303 -0.35265887 -0.20003337
-0.085679896 -0.1130354 0.3023881 0.29208177 -0.017690226 -0.18878943 0.40639302 0.43840662
00000000: e45e 2b3d 03d0 cbbd 8b3c 0b3c 0f8d 9bbd
00000010: 2dd9 a03f 9b25 d5bd e33c 7c3d 6109 f8bd
00000020: 0d08 9abd 4300 07be f8f7 78bd 645a 283a
00000030: a31c 883f 090b da3c cd62 1a3d d7ec 823c
00000040: a1d1 1abb 8b49 b33d 3bcd 253d 6a53 b8bd
00000050: d051 5f3f bc12 f63d b0ac 00bd 4465 a23c
00000060: 44be c0bd 6973 06be e00b b03d 0b18 cb3d
00000070: 249c 293d a1d7 e2bc 1106 043e 0813 09be
00000080: 1d6d 433d d986 26be fe4d d2be 8da9 4fbe
00000090: e2e4 dbbd 9ac7 d03d de3d 75be fa31 f2bd
000000a0: e428 01be a17c 643d 2402 d4be 5059 10bc
000000b0: af83 1abf 7739 573d c2c6 dbbe 75ee 673d
000000c0: d4f4 8e3e 2101 ff3d 1f37 37bd dc7a 873c
000000d0: f18a 5c3e a92e 353d 6177 6abd c399 3bbe
000000e0: 526f 753e c3e1 8cbe 0dd1 2fbd 4d4e b63d
000000f0: 7af8 1d3e c71e 85be 8b92 3dbd ad16 833e
00000100: 5086 ce3d d315 88be 9114 d33e 0c4b bd3c
00000110: 91de a9be 486a 8a3d 31a5 c23e 2997 5d3d
00000120: e943 b6bd 6452 b4bd e5fc 033e 434e c83d
00000130: 5fbf 54bb ad70 953e 1417 273d 9f6a 98be
00000140: f245 23bd aaa0 e6be 53d1 b03e dcbb 41bd
00000150: ec97 e13d 4bf0 01be 9c30 a63e 92b3 fd3d
00000160: 43b1 b1be 0ae0 5cbe 50b6 ddbe 15bd 4bbe
00000170: d659 81bd 455e 14be 3fbe 09bf 6a41 54be
00000180: c09c cb3d 579c 673e 7c4c cd3c 2744 7d3d
00000190: 017a b63e 2a60 aebe a3a6 2abd 6e2d 10bd
000001a0: c2c7 6dbd 8c68 463e 5d0e ac3d 4f8f cf3e
000001b0: c3d0 9b3e 9d1b 85be 6e49 f63d 885d b23e
000001c0: 8de5 d83d bd7d 123e be75 70bd 968d c7bd
000001d0: 4fa6 2ebf bc0d 0c3f fb1d 33bd 681f 43be
000001e0: 4e3f 34be f9d6 c83e 9243 67be 937f 8ebe
000001f0: ecfc 1d3e 5f08 98bd 6771 a0bd be02 98be
00000200: 4b9b 4a3e 8799 f2bd 94b5 a7bd 393a fcbc
00000210: 1a06 eabc 97a2 133e f1d5 8e3c 53e7 33bd
00000220: f556 aabd 851e 703e bd25 babd ee4b e03d
00000230: c928 11be e64f 20bf 0eb3 b9bd 9346 0c3e
00000240: 868f f9bd d518 b63e eb7c f13e ec65 70be
00000250: 8887 b4bd ce32 fbbc 2e40 de3e 92bb 48be
00000260: e0f3 a03e dfb4 f7bd f80e f83e 4661 eebc
00000270: 2078 3e3e 1832 5bbd 4cba 003f d1e2 a33d
00000280: a707 943c 04d5 2cbd 8f26 033d 5ad5 1abe
00000290: 51d1 dc3c 5a12 82be da7e 653a 63df e2bd
000002a0: 1ae8 fabd 74fc c5bd e2d7 253e 92a2 883e
000002b0: 1fee 21bd 4bd7 8e3c cc67 543e 48b5 56be
000002c0: 67e4 983a 27df 97be 0d18 363e de48 6e3e
000002d0: f23a 94be bfef 8ebc 6cb2 333e 49c8 ab3e
000002e0: 7350 b5bc a799 91bd da76 753a d9c8 09bc
000002f0: c777 98be 44c8 c73e a8e8 a73d 7000 bc3d
00000300: 0103 74bd d865 533e c169 e9bc bd12 69bb
00000310: 3c6f 873d 39f8 483c 3b24 d3bd d926 49be
00000320: ca08 4e3e abbd 37bd 0523 cf3d 2093 883d
00000330: 9a23 8d3e 33fc fdbe 4f79 2d3e 6e92 c4bc
00000340: 12f3 09be aa99 1f3d 21bf a1bc 08cb 9bbd
00000350: 2e82 c13d 3fe6 ab3e c5be 5fbd d568 bebd
00000360: 41df 723d fe32 6cbe b237 edbe b552 913c
00000370: 5ec2 023e e531 443c bb09 cabe 2f76 93bd
00000380: 325c 2f3d ab2a 95bd 940a e2be 9b40 db3c
00000390: 30c2 813d abc5 02bd c039 e2be 7962 2dbd
000003a0: 4440 043e ee86 0c3e f47d 633e 6bc4 143e
000003b0: 403f 88be cc71 6dbd 6110 1a3e 266a 2d3e
000003c0: 3064 f33b 37d6 1dbe 8fb4 b9be ac27 e23d
000003d0: 2e89 8abd 78c1 5bbd b48f b4be 8cd5 4cbe
000003e0: f178 afbd 1b7f e7bd 9dd2 9a3e be8b 953e
000003f0: 18eb 90bc 0452 41be bf12 d03e d576 e03e

fcs1.bias f4 [128]
-0.33573613 -0.4013632 -0.10676132 -0.2437044 -0.20741391 -0.53282756 -0.37619355 -0.32131746
-0.10621733 -0.1756765 -0.16803291 -0.16709147 -0.08793334 -0.027080841 -0.0465472 -0.0727602
-0.23473448 -0.31349576 -0.2719204 -0.20018716 -0.030045707 -0.09551033 -0.046413317 -0.084742144
-0.19210927 -0.13611178 -0.051286932 -0.23310766 -0.36767426 -0.18349111 0.019558467 -0.19556889
-0.21549995 -0.14396477 0.1452493 -0.116091244 -0.15321508 0.19371428 -0.04485274 -0.43359992
-0.23607929 -0.16567266 -0.28378958 -0.2186407 -0.1730069 -0.10851203 -0.07256187 -0.28201994
0.16555555 -0.28623837 -0.03568057 -0.0958485 0.10607765 -0.09904005 -0.27167317 0.005621777
0.2794926 0.064942434 -0.17500706 -0.067946784 -0.104874924 0.092209555 -0.2467181 -0.29043734
-0.114048615 -0.2175888 -0.08413575 -0.08948989 -0.13294177 -0.5210475 -0.1750473 -0.06014646
-0.1366764 0.08918338 -0.17202072 -0.11674177 -0.36963472 -0.47342184 -0.053862616 -0.17438944
-0.13365982 0.07152231 -0.20398632 -0.20403744 -0.14943185 -0.12699257 -0.062514946 -0.1786594
-0.047755763 0.07955803 0.13542145 -0.29047155 -0.10260306 -0.23562618 -0.12364859 -0.047177862
0.1456393 -0.117597654 0.11379575 -0.32828268 -0.28157333 -0.3510368 -0.1315755 -0.15351245
-0.043206293 -0.3007063 0.035417367 -0.1650969 -0.06269778 -0.022071945 -0.063508466 -0.013166355
-0.09686929 -0.21752687 0.08498018 -0.25561702 -0.15752272 0.0027622273 -0.3730551 -0.060619093
0.12620096 -0.011410277 -0.28470165 0.036531556 0.11931424 -0.11524938 -0.26987097 -0.14429386
00000000: 9be5 abbe 7a7f cdbe aea5 dabd a58d 79be
00000010: 5064 54be 6367 08bf 719c c0be b983 a4be
00000020: 7988 d9bd 8ae4 33be d210 2cbe 071a 2bbe
00000030: 6516 b4bd a4d8 ddbc 47a8 3ebd 4d03 95bd
00000040: 3c5e 70be 8482 a0be 2739 8bbe ddfd 4cbe
00000050: 6a22 f6bc eb9a c3bd e41b 3ebd 4a8d adbd
00000060: 4bb8 44be e360 0bbe 3f12 52bd c6b3 6ebe
00000070: cd3f bcbe 18e5 3bbe 1439 a03c 3643 48be
00000080: 05ac 5cbe 806b 13be 3cbc 143e 3fc1 edbd
00000090: 6ae4 1cbe 095d 463e 82b7 37bd cf00 debe
000000a0: c5be 71be 18a6 29be de4c 91be 59e3 5fbe
000000b0: b928 31be 8e3b debd 519b 94bd eb64 90be
000000c0: 6587 293e d68d 92be ca25 12bd 384c c4bd
000000d0: 3d3f d93d 82d5 cabd bf18 8bbe e236 b83b
000000e0: a719 8f3e 8a00 853d 0d35 33be af27 8bbd
000000f0: aac8 d6bd 5dd8 bc3d aba3 7cbe 34b4 94be
00000100: 5292 e9bd 99cf 5ebe 5d4f acbd 7a46 b7bd
00000110: e321 08be 5e63 05bf 993f 33be 225c 76bd
00000120: e6f4 0bbe c7a5 b63d 3326 30be 4f16 efbd
00000130: c340 bdbe 5964 f2be 0c9f 5cbd 2593 32be
00000140: 1fde 08be 4a7a 923d cae1 50be 31ef 50be
00000150: aa04 19be 570a 02be d607 80bd 7df2 36be
00000160: 8c9b 43bd 52ef a23d ecab 0a3e b0b8 94be
00000170: 8e21 d2bd fd47 71be 793b fdbd 933d 41bd
00000180: 7822 153e 0ad7 f0bd bf0d e93d ab14 a8be
00000190: 612a 90be 18bb b3be babb 06be 5e32 1dbe
000001a0: 15f9 30bd 2df6 99be cd11 113d 290f 29be
000001b0: b267 80bd 39d0 b4bc ba10 82bd b2b7 57bc
000001c0: 6863 c6bd 5dbf 5ebe 170a ae3d 3ce0 82be
000001d0: a34d 21be 7c06 353b 1401 bfbe ba4b 78bd
000001e0: d33a 013e 2cf2 3abc 6ac4 91be 1da2 153d
000001f0: 065b f43d de07 ecbd 872c 8abe c5c1 13be

bn1.weight f4 [128]
0.7362621 0.07816011 0.9383106 0.54106367 0.2929057 0.011740923 0.6183132 0.37092113
0.6051383 0.108314335 0.6939437 0.11806762 0.89661855 0.5309273 0.7436002 0.7968599
0.9508872 0.57692045 0.90147835 0.0843752 0.85901797 0.8667845 0.24256366 0.24080169
0.91256285 0.90182006 0.08384377 0.5053613 0.12396443 0.7698043 0.08070928 0.2569245
0.8799546 0.92167634 0.9430595 0.55164206 0.05762911 0.81458986 0.91329724 0.88530093
0.81443197 0.46012712 0.7511611 0.6094376 0.26485664 0.82488257 0.3150196 0.7926201
0.45443058 0.45509934 0.71208644 0.43441296 0.70653087 0.06613469 0.015452802 0.5665074
0.39324194 0.28304958 0.0519647 0.54840106 0.25551856 0.9520653 0.1145581 0.32255465
0.40455323 0.5903559 0.040970623 0.77431124 0.031635344 0.23352563 0.59931934 0.42632204
0.56097007 0.0033860803 0.14826709 0.8335193 0.694631 0.71797585 0.78077203 0.8496471
0.74625695 0.34643435 0.2512437 0.15917951 0.64784795 0.48612684 0.2597785 0.8051587
0.5203931 0.4465714 0.37141216 0.13699514 0.9129163 0.013384163 0.042457223 0.60010797
0.2750054 0.87127334 0.4827246 0.26490992 0.5003192 0.42134666 0.42101896 0.44462878
0.1708101 0.3411227 0.017875493 0.1781134 0.5366669 0.827599 0.4772014 0.89023525
0.105183005 0.67875445 0.6185899 0.29819876 0.70543754 0.18458867 0.5350491 0.6703089
0.26778722 0.14768279 0.8207227 0.0964455 0.99335116 0.31893492 0.4217698 0.23429203
00000000: ac7b 3c3f 6812 a03d 2035 703f 2683 0a3f
00000010: bcf7 953e 005d 403c c649 1e3f 60e9 bd3e
00000020: 58ea 1a3f e8d3 dd3d 4ba6 313f 70cd f13d
00000030: cb88 653f daea 073f 955c 3e3f 03ff 4b3f
00000040: 586d 733f 0fb1 133f 49c7 663f e8cc ac3d
00000050: 9ae8 5b3f 97e5 5d3f 9c62 783e b894 763e
00000060: b89d 693f aedd 663f 48b6 ab3d 5c5f 013f
00000070: 10e1 fd3d e511 453f e84a a53d 9c8b 833e
00000080: b444 613f fbf2 6b3f 596c 713f 6a38 0d3f
00000090: 800c 6c3d f688 503f d9cd 693f 15a3 623f
000000a0: 9d7e 503f c895 eb3e 184c 403f 1a04 1c3f
000000b0: 4a9b 873e 812b 533f 404a a13e 27e9 4a3f
000000c0: 20ab e83e c802 e93e 4c4b 363f 606b de3e
000000d0: 35df 343f a071 873d c02d 7d3c a106 113f
000000e0: 0257 c93e e0eb 903e f0d8 543d 0364 0c3f
000000f0: 54d3 823e 8dba 733f 709d ea3d e225 a53e
00000100: 9a21 cf3e 9021 173f d0d0 273d 4339 463f
00000110: 1094 013d 5821 6f3e fe6c 193f e246 da3e
00000120: bc9b 0f3f 00e9 5d3b 54d3 173e 8561 553f
00000130: 56d3 313f 44cd 373f ade0 473f 7982 593f
00000140: b20a 3f3f d85f b13e 04a3 803e f4ff 223e
00000150: 5dd9 253f 9ee5 f83e b001 853e e11e 4e3f
00000160: 7b38 053f 02a5 e43e bc29 be3e 7448 0c3e
00000170: e2b4 693f 4049 5b3c a0e7 2d3d ada0 193f
00000180: 82cd 8c3e c50b 5f3f ae27 f73e 46a2 873e
00000190: eb14 003f c0ba d73e cc8f d73e 62a6 e33e
000001a0: d8e8 2e3e a2a7 ae3e a06f 923c 5c63 363e
000001b0: 0163 093f 87dd 533f be53 f43e 75e6 633f
000001c0: 306a d73d dac2 2d3f e85b 1e3f 82ad 983e
000001d0: 8e97 343f d004 3d3e faf8 083f 5d99 2b3f
000001e0: 681b 893e 283a 173e e21a 523f 3885 c53d
000001f0: 434c 7e3f 704b a33e 36f2 d73e 40ea 6f3e

bn1.bias f4 [128]
0.0 0.0 0.0 0.0 0.0 0.0 0.0 0.0
0.0 0.0 0.0 0.0 0.0 0.0 0.0 0.0
0.0 0.0 0.0 0.0 0.0 0.0 0.0 0.0
0.0 0.0 0.0 0.0 0.0 0.0 0.0 0.0
0.0 0.0 0.0 0.0 0.0 0.0 0.0 0.0
0.0 0.0 0.0 0.0 0.0 0.0 0.0 0.0
0.0 0.0 0.0 0.0 0.0 0.0 0.0 0.0
0.0 0.0 0.0 0.0 0.0 0.0 0.0 0.0
0.0 0.0 0.0 0.0 0.0 0.0 0.0 0.0
0.0 0.0 0.0 0.0 0.0 0.0 0.0 0.0
0.0 0.0 0.0 0.0 0.0 0.0 0.0 0.0
0.0 0.0 0.0 0.0 0.0 0.0 0.0 0.0
0.0 0.0 0.0 0.0 0.0 0.0 0.0 0.0
0.0 0.0 0.0 0.0 0.0 0.0 0.0 0.0
0.0 0.0 0.0 0.0 0.0 0.0 0.0 0.0
0.0 0.0 0.0 0.0 0.0 0.0 0.0 0.0
00000000: 0000 0000 0000 0000 0000 0000 0000 0000
00000010: 0000 0000 0000 0000 0000 0000 0000 0000
00000020: 0000 0000 0000 0000 0000 0000 0000 0000
00000030: 0000 0000 0000 0000 0000 0000 0000 0000
00000040: 0000 0000 0000 0000 0000 0000 0000 0000
00000050: 0000 0000 0000 0000 0000 0000 0000 0000
00000060: 0000 0000 0000 0000 0000 0000 0000 0000
00000070: 0000 0000 0000 0000 0000 0000 0000 0000
00000080: 0000 0000 0000 0000 0000 0000 0000 0000
00000090: 0000 0000 0000 0000 0000 0000 0000 0000
000000a0: 0000 0000 0000 0000 0000 0000 0000 0000
000000b0: 0000 0000 0000 0000 0000 0000 0000 0000
000000c0: 0000 0000 0000 0000 0000 0000 0000 0000
000000d0: 0000 0000 0000 0000 0000 0000 0000 0000
000000e0: 0000 0000 0000 0000 0000 0000 0000 0000
000000f0: 0000 0000 0000 0000 0000 0000 0000 0000
00000100: 0000 0000 0000 0000 0000 0000 0000 0000
00000110: 0000 0000 0000 0000 0000 0000 0000 0000
00000120: 0000 0000 0000 0000 0000 0000 0000 0000
00000130: 0000 0000 0000 0000 0000 0000 0000 0000
00000140: 0000 0000 0000 0000 0000 0000 0000 0000
00000150: 0000 0000 0000 0000 0000 0000 0000 0000
00000160: 0000 0000 0000 0000 0000 0000 0000 0000
00000170: 0000 0000 0000 0000 0000 0000 0000 0000
00000180: 0000 0000 0000 0000 0000 0000 0000 0000
00000190: 0000 0000 0000 0000 0000 0000 0000 0000
000001a0: 0000 0000 0000 0000 0000 0000 0000 0000
000001b0: 0000 0000 0000 0000 0000 0000 0000 0000
000001c0: 0000 0000 0000 0000 0000 0000 0000 0000
000001d0: 0000 0000 0000 0000 0000 0000 0000 0000
000001e0: 0000 0000 0000 0000 0000 0000 0000 0000
000001f0: 0000 0000 0000 0000 0000 0000 0000 0000

bn1.running_mean f4 [128]
0.0 0.0 0.0 0.0 0.0 0.0 0.0 0.0
0.0 0.0 0.0 0.0 0.0 0.0 0.0 0.0
0.0 0.0 0.0 0.0 0.0 0.0 0.0 0.0
0.0 0.0 0.0 0.0 0.0 0.0 0.0 0.0
0.0 0.0 0.0 0.0 0.0 0.0 0.0 0.0
0.0 0.0 0.0 0.0 0.0 0.0 0.0 0.0
0.0 0.0 0.0 0.0 0.0 0.0 0.0 0.0
0.0 0.0 0.0 0.0 0.0 0.0 0.0 0.0
0.0 0.0 0.0 0.0 0.0 0.0 0.0 0.0
0.0 0.0 0.0 0.0 0.0 0.0 0.0 0.0
0.0 0.0 0.0 0.0 0.0 0.0 0.0 0.0
0.0 0.0 0.0 0.0 0.0 0.0 0.0 0.0
0.0 0.0 0.0 0.0 0.0 0.0 0.0 0.0
0.0 0.0 0.0 0.0 0.0 0.0 0.0 0.0
0.0 0.0 0.0 0.0 0.0 0.0 0.0 0.0
0.0 0.0 0.0 0.0 0.0 0.0 0.0 0.0
00000000: 0000 0000 0000 0000 0000 0000 0000 0000
00000010: 0000 0000 0000 0000 0000 0000 0000 0000
00000020: 0000 0000 0000 0000 0000 0000 0000 0000
00000030: 0000 0000 0000 0000 0000 0000 0000 0000
00000040: 0000 0000 0000 0000 0000 0000 0000 0000
00000050: 0000 0000 0000 0000 0000 0000 0000 0000
00000060: 0000 0000 0000 0000 0000 0000 0000 0000
00000070: 0000 0000 0000 0000 0000 0000 0000 0000
00000080: 0000 0000 0000 0000 0000 0000 0000 0000
00000090: 0000 0000 0000 0000 0000 0000 0000 0000
000000a0: 0000 0000 0000 0000 0000 0000 0000 0000
000000b0: 0000 0000 0000 0000 0000 0000 0000 0000
000000c0: 0000 0000 0000 0000 0000 0000 0000 0000
000000d0: 0000 0000 0000 0000 0000 0000 0000 0000
000000e0: 0000 0000 0000 0000 0000 0000 0000 0000
000000f0: 0000 0000 0000 0000 0000 0000 0000 0000
00000100: 0000 0000 0000 0000 0000 0000 0000 0000
00000110: 0000 0000 0000 0000 0000 0000 0000 0000
00000120: 0000 0000 0000 0000 0000 0000 0000 0000
00000130: 0000 0000 0000 0000 0000 0000 0000 0000
00000140: 0000 0000 0000 0000 0000 0000 0000 0000
00000150: 0000 0000 0000 0000 0000 0000 0000 0000
00000160: 0000 0000 0000 0000 0000 0000 0000 0000
00000170: 0000 0000 0000 0000 0000 0000 0000 0000
00000180: 0000 0000 0000 0000 0000 0000 0000 0000
00000190: 0000 0000 0000 0000 0000 0000 0000 0000
000001a0: 0000 0000 0000 0000 0000 0000 0000 0000
000001b0: 0000 0000 0000 0000 0000 0000 0000 0000
000001c0: 0000 0000 0000 0000 0000 0000 0000 0000
000001d0: 0000 0000 0000 0000 0000 0000 0000 0000
000001e0: 0000 0000 0000 0000 0000 0000 0000 0000
000001f0: 0000 0000 0000 0000 0000 0000 0000 0000

bn1.running_var f4 [128]
1.0 1.0 1.0 1.0 1.0 1.0 1.0 1.0
1.0 1.0 1.0 1.0 1.0 1.0 1.0 1.0
1.0 1.0 1.0 1.0 1.0 1.0 1.0 1.0
1.0 1.0 1.0 1.0 1.0 1.0 1.0 1.0
1.0 1.0 1.0 1.0 1.0 1.0 1.0 1.0
1.0 1.0 1.0 1.0 1.0 1.0 1.0 1.0
1.0 1.0 1.0 1.0 1.0 1.0 1.0 1.0
1.0 1.0 1.0 1.0 1.0 1.0 1.0 1.0
1.0 1.0 1.0 1.0 1.0 1.0 1.0 1.0
1.0 1.0 1.0 1.0 1.0 1.0 1.0 1.0
1.0 1.0 1.0 1.0 1.0 1.0 1.0 1.0
1.0 1.0 1.0 1.0 1.0 1.0 1.0 1.0
1.0 1.0 1.0 1.0 1.0 1.0 1.0 1.0
1.0 1.0 1.0 1.0 1.0 1.0 1.0 1.0
1.0 1.0 1.0 1.0 1.0 1.0 1.0 1.0
1.0 1.0 1.0 1.0 1.0 1.0 1.0 1.0
00000000: 0000 803f 0000 803f 0000 803f 0000 803f
00000010: 0000 803f 0000 803f 0000 803f 0000 803f
00000020: 0000 803f 0000 803f 0000 803f 0000 803f
00000030: 0000 803f 0000 803f 0000 803f 0000 803f
00000040: 0000 803f 0000 803f 0000 803f 0000 803f
00000050: 0000 803f 0000 803f 0000 803f 0000 803f
00000060: 0000 803f 0000 803f 0000 803f 0000 803f
00000070: 0000 803f 0000 803f 0000 803f 0000 803f
00000080: 0000 803f 0000 803f 0000 803f 0000 803f
00000090: 0000 803f 0000 803f 0000 803f 0000 803f
000000a0: 0000 803f 0000 803f 0000 803f 0000 803f
000000b0: 0000 803f 0000 803f 0000 803f 0000 803f
000000c0: 0000 803f 0000 803f 0000 803f 0000 803f
000000d0: 0000 803f 0000 803f 0000 803f 0000 803f
000000e0: 0000 803f 0000 803f 0000 803f 0000 803f
000000f0: 0000 803f 0000 803f 0000 803f 0000 803f
00000100: 0000 803f 0000 803f 0000 803f 0000 803f
00000110: 0000 803f 0000 803f 0000 803f 0000 803f
00000120: 0000 803f 0000 803f 0000 803f 0000 803f
00000130: 0000 803f 0000 803f 0000 803f 0000 803f
00000140: 0000 803f 0000 803f 0000 803f 0000 803f
00000150: 0000 803f 0000 803f 0000 803f 0000 803f
00000160: 0000 803f 0000 803f 0000 803f 0000 803f
00000170: 0000 803f 0000 803f 0000 803f 0000 803f
00000180: 0000 803f 0000 803f 0000 803f 0000 803f
00000190: 0000 803f 0000 803f 0000 803f 0000 803f
000001a0: 0000 803f 0000 803f 0000 803f 0000 803f
000001b0: 0000 803f 0000 803f 0000 803f 0000 803f
000001c0: 0000 803f 0000 803f 0000 803f 0000 803f
000001d0: 0000 803f 0000 803f 0000 803f 0000 803f
000001e0: 0000 803f 0000 803f 0000 803f 0000 803f
000001f0: 0000 803f 0000 803f 0000 803f 0000 803f

fc2.weight f4 [64, 130]
-1.5780668 0.1159263 -0.30482325 0.54948044 -0.12781376 0.23658022 0.03055995 0.4432484
-0.6908452 0.39013737 -0.28859508 -0.05423309 -1.3294824 -0.06040548 0.30537507 0.23690966
-0.40818232 -0.145109 -0.121423714 -0.07670365 0.18297985 0.12666176 0.22969966 0.17703204
0.04109186 -0.44179127 -0.08216967 -0.18355335 0.29657248 -0.340006 0.2879074 -0.46538147
0.1427897 0.011551873 0.08947991 -0.43935323 -0.85189503 0.15338092 -0.20376647 0.1003712
-0.1017677 0.12604588 -0.05897479 -0.2989074 0.069348626 0.10056212 -0.37419003 -0.057027847
0.05775846 0.52518344 0.021170732 -0.11948708 -0.12132593 0.22819182 0.04618047 -0.062166266
0.010818634 0.026220463 -0.3507341 0.07093084 0.07032695 0.007888412 0.008308075 -0.65076977
-0.54248804 0.018407842 0.16372314 0.023638038 0.12580827 0.6574766 -0.122399405 -0.31086498
-0.017243015 -0.04563022 -0.19656557 -0.038474187 -0.07969501 0.68048996 0.009523582 0.4352984
-0.0048140315 -0.1484503 -0.4287488 -0.19297683 0.079484396 0.47412634 -1.2263919 0.09974463
0.31381792 -0.28535318 0.026601844 -0.2558673 -0.007890802 -0.14783967 -0.19629289 -0.116807714
-0.119705826 0.11568009 -0.28022274 -0.005436551 -0.1432574 -0.0906641 0.14115717 -0.47981113
0.024254564 0.17522237 0.027684836 -0.12911625 -0.10418183 -0.40748185 -0.11989621 -0.120716944
-0.013034609 0.22037408 0.25000304 0.2644489 0.23728642 0.27480653 -0.34750792 -0.31510693
0.18316194 0.07899348 0.07162133 -0.21808924 -0.04068245 0.14758018 -0.68371665 -0.038985275
-0.05243037 -0.012385663 -0.07676827 -0.12457812 -0.2822393 -0.013751454 0.39698017 0.018555898
-0.23463681 0.14639582 -0.2376324 -0.25105456 0.06191744 0.23656818 0.063134365 0.13145319
-0.13308305 0.41300762 -0.18348628 0.07258998 0.03061554 -0.24113306 0.031911954 -0.36350647
-0.20771259 0.18800996 0.43598616 -0.017153038 -0.105160646 0.11858747 -0.13881569 0.04544705
-0.14472736 -0.46657982 -0.40281007 0.06354152 -0.35229895 -0.12891927 -0.09638578 0.07885941
0.23685496 -0.35775295 -0.502829 0.07587181 -0.3338967 0.02291331 -0.63694257 0.20739716
-0.11478093 -0.6441786 0.19354132 -0.2579847 -0.3494704 -0.069707334 0.011179432 -0.16545933
-0.03283444 -0.22673228 -0.1535772 0.13042739 0.021401888 -0.19872719 0.36460593 0.09526103
0.118540436 -0.26606146 0.27627715 -0.44988427 -0.2526794 0.050844733 -0.13125026 -0.10153889
0.0038970078 -0.2825086 -0.0029673495 0.027997285 -0.10298168 0.046683628 0.70607215 -0.46256688
0.1331868 -0.23495087 -0.09523009 -0.24933238 0.31033126 -0.19334432 -0.11709675 0.08982115
0.05510495 -0.08379901 0.13544461 0.018975232 0.34491912 0.14989893 -0.121501 -0.16675861
0.267095 -0.14962058 0.17777254 0.4051867 -0.7027449 0.20881537 0.16074118 -0.011319957
-0.057824068 -0.0741159 0.22298336 0.2267987 -0.16799177 -0.68110305 -0.06701051 0.022061728
-0.0035016614 0.094456695 -0.4602273 -0.33750457 -0.19098903 0.035002813 -0.091364734 0.016334191
0.10810611 -0.074497506 0.017586518 0.20283662 0.5832019 -0.13859068 -0.14780103 0.48667386
00000000: 18fe c9bf c56a ed3d cb11 9cbe c0aa 0c3f
00000010: 9ce1 02be 1642 723e dc58 fa3c 74f1 e23e
00000020: 3bdb 30bf 16c0 c73e bcc2 93be 8423 5ebd
00000030: 7b2c aabf bd6b 77bd 1f5a 9c3e 7298 723e
00000040: 46fd d0be 7497 14be ffac f8bd ce16 9dbd
00000050: 125f 3b3e 9fb3 013e 6336 6b3e e347 353e
00000060: f04f 283d 7732 e2be 9248 a8bd 69f5 3bbe
00000070: 59d8 973e 4415 aebe 9968 933e 7b46 eebe
00000080: 7737 123e 1144 3d3c 3e41 b73d e8f2 e0be
00000090: cb15 5abf e30f 1d3e 28a8 50be 6a8f cd3d
000000a0: 956b d0bd 2c12 013e 8d8f 71bd 640a 99be
000000b0: a706 8e3d 83f3 cd3d d695 bfbe 0896 69bd
000000c0: 2394 6c3d 6c72 063f 3e6e ad3c a4b5 f4bd
000000d0: bb79 f8bd 1eab 693e bc27 3d3d 0ea2 7ebd
000000e0: a440 313c 4ccc d63c 6c93 b3be 3044 913d
000000f0: 9307 903d 663e 013c 981e 083c d998 26bf
00000100: 7fe0 0abf 0bcc 963c 0aa7 273e 8fa4 c13c
00000110: e2d3 003e 6350 283f 8aac fabd b229 9fbe
00000120: 3941 8dbc c1e6 3abd 7c48 49be 1c97 1dbd
00000130: 2337 a3bd 9734 2e3f cc08 1c3c 6fdf de3e
00000140: 06bf 9dbb 5b03 18be f684 dbbe b89b 45be
00000150: b7c8 a23d b0c0 f23e 69fa 9cbf ea46 cc3d
00000160: beac a03e d019 92be 1cec d93c 0a01 83be
00000170: 6c48 01bc 4863 17be 0101 49be e238 efbd
00000180: 5428 f5bd afe9 ec3d 5b79 8fbe 1825 b2bb
00000190: 11b2 12be 1aae b9bd 818b 103e cea9 f5be
000001a0: 82b1 c63c 7e6d 333e 4fcb e23c 0d37 04be
000001b0: 495d d5bd 76a1 d0be 258c f5bd 723a f7bd
000001c0: 1d8f 55bc bea9 613e 6600 803e d965 873e
000001d0: 36fb 723e 71b3 8c3e 8fec b1be b255 a1be
000001e0: ce8e 3b3e 55c7 a13d 34ae 923d c952 5fbe
000001f0: a4a2 26bd 421f 173e 0e08 2fbf 06af 1fbd
00000200: 3ac1 56bd 3ced 4abc af38 9dbd d022 ffbd
00000210: ab81 90be c74d 61bc fc40 cb3e 8a02 983c
00000220: a244 70be c9e8 153e e855 73be 398a 80be
00000230: 249d 7d3d ee3e 723e 974c 813d aa9b 063e
00000240: ec46 08be bc75 d33e d4e3 3bbe 0eaa 943d
00000250: 71cd fa3c 96eb 76be 1cb6 023d 851d babe
00000260: 9cb2 54be af85 403e 9439 df3e 8784 8cbc
00000270: 775e d7bd fddd f23d b325 0ebe b026 3a3d
00000280: 6933 14be 8de3 eebe 1f3d cebe 0e22 823d
00000290: 8760 b4be 6a03 04be e865 c5bd 0b81 a13d
000002a0: 1b8a 723e 652b b7be 67b9 00bf ae62 9b3d
000002b0: 82f4 aabe b2b4 bb3c ab0e 23bf ec5f 543e
000002c0: 4412 ebbd e4e8 24bf b22f 463e 9216 84be
000002d0: c9ed b2be b8c2 8ebd f029 373c 2c6e 29be
000002e0: 687d 06bd 822c 68be 5743 1dbe c28e 053e
000002f0: 0353 af3c 247f 4bbe a1ad ba3e 3718 c33d
00000300: 54c5 f23d 3539 88be 3374 8d3e 3b57 e6be
00000310: 325f 81be 9142 503d 7866 06be 9ff3 cfbd
00000320: f164 7f3b f8a4 90be dd77 42bb 905a e53c
00000330: 0fe8 d2bd 5537 3f3d 25c1 343f 91d5 ecbe
00000340: 1f62 083e f696 70be fe07 c3bd fd50 7fbe
00000350: bde3 9e3e 0efc 45be 6cd0 efbd 27f4 b73d
00000360: bab5 613d d19e abbd feb1 0a3e f271 9b3c
00000370: 3d99 b03e 1b7f 193e 84d5 f8bd c5c2 2abe
00000380: adc0 883e 2336 19be 010a 363e a274 cf3e
00000390: 17e7 33bf b2d3 553e 5699 243e 5777 39bc
000003a0: eed8 6cbd 14ca 97bd c055 643e eb3d 683e
000003b0: 0906 2cbe c55c 2ebf ce3c 89bd ccba b43c
000003c0: 217c 65bb 8372 c13d eaa2 ebbe 66cd acbe
000003d0: a192 43be 1c5f 0f3d 6f1d bbbd 48cf 853c
000003e0: bc66 dd3d 2692 98bd 9a11 903c 67b4 4f3e
000003f0: b84c 153f b7ea 0dbe 2759 17be 512d f93e

fc2.bias f4 [64]
0.045494348 0.2163861 -0.018931266 -0.0108697945 0.0074476996 -0.026292406 0.042678487 -0.06202988
-0.015972376 0.10939859 0.060529187 -0.03375649 0.2853697 0.16019744 0.10939332 -0.05587182
0.09093732 0.094578944 -0.04795458 0.070340075 0.13609411 0.23515762 -0.11053805 0.1446395
-0.06937175 0.15362337 -0.05026317 -0.057344865 0.019248983 0.059790395 0.067697495 -0.14936149
0.003946192 -0.15506582 0.1284331 -0.08477837 -0.13196419 0.04650958 0.14619058 0.048546456
-0.094675444 -0.111951 -0.13992506 0.040939614 0.08781484 0.1341178 0.13055347 -0.047113653
-0.107553564 0.054104235 -0.16705604 0.050375044 -0.010809591 -0.026178516 0.082548216 0.060364313
0.1391281 0.05740574 -0.00050058146 -0.07439026 0.08092689 0.111819685 0.05686965 -0.12495778
00000000: 4858 3a3d 5194 5d3e be15 9bbc 3917 32bc
00000010: d50b f43b 2c63 d7bc a3cf 2e3d 0b13 7ebd
00000020: 80d8 82bc 5e0c e03d 74ed 773d 3f44 0abd
00000030: fa1b 923e cc0a 243e 9b09 e03d d9d9 64bd
00000040: 583d ba3d 9bb2 c13d 066c 44bd 750e 903d
00000050: 415c 0b3e 29cd 703e c661 e2bd 611c 143e
00000060: c712 8ebd 724f 1d3e c1e0 4dbd 73e2 6abd
00000070: 0bb0 9d3c c6e6 743d fca4 8a3d 38f2 18be
00000080: 0f4f 813b 93c9 1ebe f783 033e 48a0 adbd
00000090: 9f21 07be d480 3e3d fcb2 153e a6d8 463d
000000a0: 33e5 c1bd 9146 e5bd 8448 0fbe 4cb0 273d
000000b0: 44d8 b33d 2d56 093e cfaf 053e 3ffa 40bd
000000c0: 0b45 dcbd 679c 5d3d bd10 2bbe 1056 4e3d
000000d0: b61a 31bc 5474 d6bc 0a0f a93d 9240 773d
000000e0: 9977 0e3e 4822 6b3d 7439 03ba ec59 98bd
000000f0: ffbc a53d b801 e53d 26f0 683d dde9 ffbd

bn2.weight f4 [64]
0.07650322 0.07985687 0.61497766 0.29874754 0.46930546 0.1772964 0.6382538 0.9239647
0.23453248 0.5419225 0.45251274 0.44170445 0.018893301 0.10555488 0.36317867 0.7458509
0.5233525 0.04870099 0.9639989 0.29387403 0.083226144 0.5301105 0.22364289 0.9442522
0.30555087 0.5575096 0.12364787 0.023725808 0.41311795 0.94809914 0.8667161 0.5533272
0.6262891 0.63242584 0.5163468 0.36477733 0.30064583 0.13498509 0.15854508 0.614472
0.23219323 0.5024174 0.53915673 0.6155925 0.17129755 0.910133 0.865035 0.9800789
0.2015338 0.24397385 0.8925603 0.6095002 0.008752167 0.54814893 0.60131395 0.45129454
0.3555845 0.036441445 0.0010269284 0.7893067 0.27406317 0.8553119 0.8508043 0.23799723
00000000: b8ad 9c3d 008c a33d 2d6f 1d3f 70f5 983e
00000010: ce48 f03e 308d 353e 9a64 233f f388 6c3f
00000020: 4829 703e 6fbb 0a3f c0af e73e 1627 e23e
00000030: 20c6 9a3c 282d d83d 8ef2 b93e 16f0 3e3f
00000040: 6efa 053f b07a 473d a2c8 763f a876 963e
00000050: 7872 aa3d 52b5 073f a402 653e 83ba 713f
00000060: 2a71 9c3e f3b8 0e3f 183b fd3d a05c c23c
00000070: 3284 d33e a0b6 723f 1be1 5d3f daa6 0d3f
00000080: 7c54 203f a9e6 213f 4e2f 043f 18c4 ba3e
00000090: 40ee 993e 8839 0a3e a459 223e 094e 1d3f
000000a0: 10c4 6d3e 6d9e 003f 2d06 0a3f 7897 1d3f
000000b0: a068 2f3e 7afe 683f ef72 5d3f 73e6 7a3f
000000c0: e05e 4e3e 48d4 793e d57e 643f 3508 1c3f
000000d0: 4065 0f3c 7d53 0c3f b6ef 193f 1410 e73e
000000e0: 2c0f b63e a043 153d 009a 863a 0110 4a3f
000000f0: 0252 8c3e b8f5 5a3f 50ce 593f 8cb5 733e

bn2.bias f4 [64]
0.0 0.0 0.0 0.0 0.0 0.0 0.0 0.0
0.0 0.0 0.0 0.0 0.0 0.0 0.0 0.0
0.0 0.0 0.0 0.0 0.0 0.0 0.0 0.0
0.0 0.0 0.0 0.0 0.0 0.0 0.0 0.0
0.0 0.0 0.0 0.0 0.0 0.0 0.0 0.0
0.0 0.0 0.0 0.0 0.0 0.0 0.0 0.0
0.0 0.0 0.0 0.0 0.0 0.0 0.0 0.0
0.0 0.0 0.0 0.0 0.0 0.0 0.0 0.0
00000000: 0000 0000 0000 0000 0000 0000 0000 0000
00000010: 0000 0000 0000 0000 0000 0000 0000 0000
00000020: 0000 0000 0000 0000 0000 0000 0000 0000
00000030: 0000 0000 0000 0000 0000 0000 0000 0000
00000040: 0000 0000 0000 0000 0000 0000 0000 0000
00000050: 0000 0000 0000 0000 0000 0000 0000 0000
00000060: 0000 0000 0000 0000 0000 0000 0000 0000
00000070: 0000 0000 0000 0000 0000 0000 0000 0000
00000080: 0000 0000 0000 0000 0000 0000 0000 0000
00000090: 0000 0000 0000 0000 0000 0000 0000 0000
000000a0: 0000 0000 0000 0000 0000 0000 0000 0000
000000b0: 0000 0000 0000 0000 0000 0000 0000 0000
000000c0: 0000 0000 0000 0000 0000 0000 0000 0000
000000d0: 0000 0000 0000 0000 0000 0000 0000 0000
000000e0: 0000 0000 0000 0000 0000 0000 0000 0000
000000f0: 0000 0000 0000 0000 0000 0000 0000 0000

bn2.running_mean f4 [64]
0.0 0.0 0.0 0.0 0.0 0.0 0.0 0.0
0.0 0.0 0.0 0.0 0.0 0.0 0.0 0.0
0.0 0.0 0.0 0.0 0.0 0.0 0.0 0.0
0.0 0.0 0.0 0.0 0.0 0.0 0.0 0.0
0.0 0.0 0.0 0.0 0.0 0.0 0.0 0.0
0.0 0.0 0.0 0.0 0.0 0.0 0.0 0.0
0.0 0.0 0.0 0.0 0.0 0.0 0.0 0.0
0.0 0.0 0.0 0.0 0.0 0.0 0.0 0.0
00000000: 0000 0000 0000 0000 0000 0000 0000 0000
00000010: 0000 0000 0000 0000 0000 0000 0000 0000
00000020: 0000 0000 0000 0000 0000 0000 0000 0000
00000030: 0000 0000 0000 0000 0000 0000 0000 0000
00000040: 0000 0000 0000 0000 0000 0000 0000 0000
00000050: 0000 0000 0000 0000 0000 0000 0000 0000
00000060: 0000 0000 0000 0000 0000 0000 0000 0000
00000070: 0000 0000 0000 0000 0000 0000 0000 0000
00000080: 0000 0000 0000 0000 0000 0000 0000 0000
00000090: 0000 0000 0000 0000 0000 0000 0000 0000
000000a0: 0000 0000 0000 0000 0000 0000 0000 0000
000000b0: 0000 0000 0000 0000 0000 0000 0000 0000
000000c0: 0000 0000 0000 0000 0000 0000 0000 0000
000000d0: 0000 0000 0000 0000 0000 0000 0000 0000
000000e0: 0000 0000 0000 0000 0000 0000 0000 0000
000000f0: 0000 0000 0000 0000 0000 0000 0000 0000

bn2.running_var f4 [64]
1.0 1.0 1.0 1.0 1.0 1.0 1.0 1.0
1.0 1.0 1.0 1.0 1.0 1.0 1.0 1.0
1.0 1.0 1.0 1.0 1.0 1.0 1.0 1.0
1.0 1.0 1.0 1.0 1.0 1.0 1.0 1.0
1.0 1.0 1.0 1.0 1.0 1.0 1.0 1.0
1.0 1.0 1.0 1.0 1.0 1.0 1.0 1.0
1.0 1.0 1.0 1.0 1.0 1.0 1.0 1.0
1.0 1.0 1.0 1.0 1.0 1.0 1.0 1.0
00000000: 0000 803f 0000 803f 0000 803f 0000 803f
00000010: 0000 803f 0000 803f 0000 803f 0000 803f
00000020: 0000 803f 0000 803f 0000 803f 0000 803f
00000030: 0000 803f 0000 803f 0000 803f 0000 803f
00000040: 0000 803f 0000 803f 0000 803f 0000 803f
00000050: 0000 803f 0000 803f 0000 803f 0000 803f
00000060: 0000 803f 0000 803f 0000 803f 0000 803f
00000070: 0000 803f 0000 803f 0000 803f 0000 803f
00000080: 0000 803f 0000 803f 0000 803f 0000 803f
00000090: 0000 803f 0000 803f 0000 803f 0000 803f
000000a0: 0000 803f 0000 803f 0000 803f 0000 803f
000000b0: 0000 803f 0000 803f 0000 803f 0000 803f
000000c0: 0000 803f 0000 803f 0000 803f 0000 803f
000000d0: 0000 803f 0000 803f 0000 803f 0000 803f
000000e0: 0000 803f 0000 803f 0000 803f 0000 803f
000000f0: 0000 803f 0000 803f 0000 803f 0000 803f

fc3.weight f4 [1, 64]
0.07676869 -0.04015419 -0.29801604 0.060526885 0.10617211 -0.115944296 0.097924985 -0.0023227045
-0.22720358 -0.05515592 -0.24820338 0.043898664 -0.03662709 0.10300621 -0.09709988 -0.032320663
-0.0760937 0.18912168 -0.057192832 -0.054174285 0.13993068 -0.18106872 -0.17120129 -0.07501533
-0.037403088 -0.045078143 0.21251114 -0.16748708 -0.08438216 0.18045714 0.25398976 -0.26199263
-0.06460314 -0.18053205 -0.11117786 -0.07892865 -0.10929993 -0.29236883 -0.095860295 0.34401655
-0.08404886 -0.0992228 0.029982977 0.19641796 0.14439891 0.12505335 0.09860719 0.11805073
-0.026559662 -0.30812925 -0.13745548 0.23844755 -0.2830404 0.3106751 -0.0687054 0.15951674
-0.24115795 0.08828512 -0.052291103 -0.053561825 0.10850258 -0.07572763 -0.042206723 0.1288117
00000000: e738 9d3d b878 24bd 8f95 98be 0aeb 773d
00000010: c370 d93d 3474 edbd e58c c83d 8438 18bb
00000020: 0ea8 68be 2deb 61bd 0729 7ebe 16cf 333d
00000030: 4a06 16bd ebf4 d23d 4ddc c6bd ac62 04bd
00000040: 04d7 9bbd 1da9 413e 0843 6abd dbe5 5dbd
00000050: fd49 0f3e 146a 39be 644f 2fbe a3a1 99bd
00000060: fb33 19bd dca3 38bd 859c 593e bc81 2bbe
00000070: 8ed0 acbd c2c9 383e f20a 823e e623 86be
00000080: a74e 84bd 65dd 38be 38b1 e3bd 58a5 a1bd
00000090: a4d8 dfbd 5eb1 95be 6752 c4bd f022 b03e
000000a0: cf21 acbd 5335 cbbd dc9e f53c ca21 493e
000000b0: 4fdd 133e fc0d 003e 91f2 c93d 95c4 f13d
000000c0: a693 d9bc 1ec3 9dbe 21c1 0cbe 982b 743e
000000d0: acea 90be cf10 9f3e 6bb5 8cbd 5b58 233e
000000e0: 1cf2 76be d4ce b43d 322f 56bd a563 5bbd
000000f0: 9a36 de3d 1617 9bbd f5e0 2cbd 37e7 033e
