p3_collaboration_and_competition/weights/actor_1_900.pth (torch_old, 51773 bytes, 18 tensors)

fc1.weight f4 [128, 24]
00000000: 32e1 c5bd 3430 f93d 8387 303c e6a2 243e
00000010: 1ba5 f6bc f027 5c3c 0620 803c 261c c33d
00000020: 0d41 97bd 4cf5 9a3d 838c 803d be91 49bd
00000030: 71d3 99bc ac14 83bc 6d8e 31bd f7b6 2c3c
00000040: 8def b4bb 0366 f83d 0273 883d f53d 3dbd
00000050: 464d f7bd 61ad 0d3e 4fc4 ccbc 5589 89bd
00000060: 6e2e 22ba dc13 a33d 8fdb 9bbd 548b bf3c
00000070: 1605 4cbc 9f29 cdbd 4bce 993d 3073 393d
00000080: ab75 213c 471f e43d e357 3d3b 71cc f93c
00000090: c849 dcbc 4430 25be 4ca9 9a3b 2fd8 bbbc
000000a0: 66d5 7b3b 287f 153e 6f2d 9e3c 1e79 60bd
000000b0: 1bc2 0bbc 673d 11bb c41d 7ebc 8fd4 b4bd
000000c0: d092 6cbc ce37 093d 43ff 11bd 5fd0 d13c
000000d0: e98b e73d 9eb8 43bc 0996 113d b229 45bc
000000e0: a354 b1bb 3487 b33d 547f 72bb 60ce 9cbc
000000f0: ce4a 03bd 27bd 9b3d 810a f23b c6f1 063d
00000100: 6853 62bc 0672 3d3d 2b7a 4abd d245 763d
00000110: 7437 22be 76ce a9bd 45dd 4b3d 8521 94bd
00000120: 34c5 3fbd c4c2 99bd 7a38 20bd 9a99 a6bc
00000130: d569 7d3d 18b8 11be 52ef 383d 7c80 503d
00000140: 5f04 123d 339d bab8 ac64 423c 023f e93c
00000150: e609 153d 7c54 1e3d c4d1 60bd d624 dbbd
00000160: d39b dbbd ddd0 233c 3482 903d efeb bcbc
00000170: 30fd 9d3d 4aad 293d 7eae 8fbd 0279 1dbe
00000180: 5e3a a33b a688 74bb a532 2e3d 2a01 e23b
00000190: 6960 e33c 1233 853d 8321 1a3d 800e f23c
000001a0: 9cad d1bd 3b38 d6bc 72a1 a03d 41e1 293d
000001b0: 9afe f03d fdf7 b63c 86c0 ab3c adce 113e
000001c0: 492c 8fba 1a67 c3bd a821 d03d 6902 96ba
000001d0: 4c96 2d3b 1a58 edbc 9962 803d 69d8 8cbd
000001e0: 3091 cc3c 5de1 24bd f202 a5bc a430 1d3d
000001f0: 552e 073e 4bed 69bd d005 593c 94c3 d0bb
00000200: 356f 423c d4ee 45bd f535 88bd c9d0 ef3c
00000210: a513 f33d 0356 c53c bbec 733d 7a55 0b3d
00000220: 8fe7 9a3d a221 163d f9da 2ebd df14 43bc
00000230: 2bcf 853c 5859 103e b143 4e3d e14f a73d
00000240: 9576 3ebd 31a5 3c3c 099f 453d 1dd8 963d
00000250: dea8 953d 6fe0 023d 963d 29bc 05de b83d
00000260: c1d9 b7bc 20b7 e4bd 64f1 ccbc 9d4f c43d
00000270: 422d b13c 9a22 7dbd ca29 793a 9924 e83d
00000280: dfea 833c ceae e0bd 85ea fc3c 4df0 443d
00000290: 2641 6d3d d214 87bd 50ab bebd 1606 d33d
000002a0: c763 b4bd 9ccd 723c bfc0 29bd c6ed 8fbd
000002b0: 1c59 a83c 3910 b43d 4e6b d0bc 2d89 9839
000002c0: 5f96 a9bd 07e5 c7bd f4af 8c3d 9e1d 13be
000002d0: 6c54 5fbd ec30 173e ba54 903d 2f9b 07bc
000002e0: bc13 d33a 3460 f1bb f5e7 023d ed03 d0bd
000002f0: ec3e 473a 94b5 8f3d eae9 513d 6495 5fbd
00000300: fb20 2b3d f6be ac3d 2d04 0dbb 4942 df3d
00000310: 4ba9 69bd 7f93 3e3d 95e8 243d 782a b5bc
00000320: f08e cf3d ca6b 5bbd e5fe 6d3d be8a febc
00000330: 2bed 5ebd 555f bb3d 57e1 8ebd 1870 10bd
00000340: 2916 19bd afd6 283d 4dda 07bd 49e0 3e3c
00000350: 934a f7bd 988d 063e 7a3f 3eba 0f83 89bd
00000360: 7794 1f3d 0568 483d 7bbf 413c 7650 f7bc
00000370: ce72 19be 4916 81bd 8fd5 55bc 6e00 ab3c
00000380: 8926 5d3d 2784 5f3c a6ae 63bd c0c4 113d
00000390: 722b b4b9 127b a53d 644e 653d 3c34 a83c
000003a0: 0086 65bd a567 0e3d 7ffb 783d d9c5 a4bc
000003b0: e4a2 033d e58e be3d e138 58bd 450f 693c
000003c0: da1c d4bc 68da ed3d a47b 71bd 247f cdbc
000003d0: d483 233d 1609 00be 48f9 5abc 5413 c23c
000003e0: 7354 77bd 7f30 f0bc b46a 16bd e48b 53bc
000003f0: 0d70 44bd e364 1d3d 8d51 c2bc 426b 063d
-0.09662093 0.12167397 0.010774496 0.16077766 -0.030108025 0.013437256 0.01564027 0.09526853
-0.07385454 0.07566318 0.062768005 -0.049211256 -0.018777581 -0.016001068 -0.04334872 0.010541669
-0.0055217207 0.12128832 0.06662561 -0.046201665 -0.120752856 0.1383567 -0.024995951 -0.06715647
-0.0006186728 0.07962772 -0.07610237 0.023381867 -0.012452384 -0.10017704 0.075100504 0.045275867
0.009854714 0.11138778 0.0028891496 0.030492993 -0.02689065 -0.16131693 0.004719889 -0.022930233
0.0038426756 0.14599288 0.019308774 -0.054803006 -0.008530165 -0.0022161843 -0.015510026 -0.08829605
-0.0144393 0.033500485 -0.035643827 0.025612054 0.113059826 -0.011945872 0.035543475 -0.012033867
-0.005411701 0.08766022 -0.0037002163 -0.019141376 -0.03205376 0.07604437 0.007386506 0.032945417
-0.013813831 0.04625132 -0.049432915 0.06012518 -0.15841466 -0.082913324 0.049771566 -0.07232956
-0.046818927 -0.07507852 -0.03911636 -0.020336915 0.061868507 -0.14230382 0.04515011 0.050903782
0.0356487 -8.898452e-05 0.011864822 0.028472427 0.036386393 0.03865479 -0.054887548 -0.10700385
-0.107230805 0.009998527 0.07056084 -0.02306172 0.07714307 0.041425027 -0.070157036 -0.15378192
0.004981323 -0.0037312894 0.042528767 0.0068971114 0.027755933 0.065038815 0.037629616 0.02954793
-0.102381915 -0.02614986 0.07843293 0.041474584 0.117673114 0.022335047 0.020965826 0.14238997
-0.0010923232 -0.095411494 0.101626694 -0.001144481 0.002648729 -0.028972674 0.06268806 -0.068772145
0.024971575 -0.040253986 -0.020143006 0.038376465 0.13201268 -0.057111066 0.013246015 -0.006370971
0.011867334 -0.048323467 -0.066509165 0.029274361 0.11868981 0.024088865 0.059551936 0.034017064
0.075636975 0.03665317 -0.042689297 -0.0119068315 0.016334137 0.14096582 0.050357524 0.081695326
-0.046499807 0.011513994 0.04824737 0.07365439 0.073075995 0.031952318 -0.010329625 0.09026722
-0.0224427 -0.11167741 -0.025017448 0.095854975 0.021628026 -0.061800577 0.0009504823 0.113351054
0.016103206 -0.10970841 0.030873546 0.04808073 0.05792346 -0.06595768 -0.09310019 0.10303895
-0.088080935 0.014819529 -0.041443583 -0.070277736 0.020550303 0.08792157 -0.025441792 0.00029093903
-0.08280634 -0.097604804 0.06869498 -0.14366767 -0.05452387 0.14764756 0.0704741 -0.008276745
0.0016103904 -0.0073662046 0.031959493 -0.10156999 0.00076006236 0.07017055 0.05124847 -0.05458583
0.0417795 0.084348604 -0.0021517382 0.10901315 -0.057046216 0.046527382 0.04026087 -0.022114977
0.10134685 -0.053569593 0.058104414 -0.031072017 -0.0544254 0.091490425 -0.06976574 -0.03526315
-0.03737465 0.041220363 -0.033167172 0.011650153 -0.12074771 0.13139951 -0.00072573835 -0.067144506
0.038959946 0.048927326 0.011825438 -0.030189734 -0.14985201 -0.06303079 -0.013051405 0.020874228
0.053991828 0.013642347 -0.05558648 0.035588026 -0.00034364645 0.080801144 0.055982962 0.02053272
-0.056035995 0.034766812 0.06078672 -0.020113872 0.032137766 0.09304599 -0.05278862 0.014224832
-0.025892664 0.11613923 -0.058955804 -0.02508504 0.039920643 -0.12503466 -0.013365097 0.023690857
-0.06038327 -0.02932 -0.036722854 -0.0129117705 -0.047958422 0.03842629 -0.023720527 0.032817133

fc1.bias f4 [128]
00000000: b378 09be 5a2f 3d3e ac1b 8abe 03b7 b73b
00000010: 5151 9ebc 2d14 6d3d 3cff 893d 15d0 d9bd
00000020: 0590 03bc 7a55 5cbe bf29 13be 23ff 6b3a
00000030: 10bd 463e 752a 493e c7ad 3a3e 696a a33d
00000040: 0b48 3d3e b856 513c f04d 013d cafa 93bd
00000050: a85a 02be 70c7 23be 3406 af3d 24f0 103e
00000060: ce62 3cbe 5fd3 05be 5759 2e3e 76ea c43d
00000070: d73c 36be b3fc 34be 9832 85bd abe6 0fbe
00000080: 01db 823d 9bac a4bd 5c91 953c b850 4e3d
00000090: c970 fe3d fce9 d7bd 5080 523d 9654 8cbd
000000a0: 0fdc 2d3d a8f5 e7bd 8a17 7b3d 3415 c6bd
000000b0: f62d 493e 8505 aabd b65c 283e 9acf 9abe
000000c0: ef48 09be b70b 03be 7c17 96bd f65e 823d
000000d0: 308d 30bb 9f01 aabd 694e 003e 7d83 e0bd
000000e0: f70b 913d fcb9 3d3c fb22 263e 0478 53ba
000000f0: 6e5c cabd 9bfa a33d 4d63 723e 46bf 2cbe
00000100: ad2d 0abe acb1 ddbc 7865 e9bd 2da3 2abe
00000110: 998c 5fbe d03f 1e3e 047f 22bd 08db b63d
00000120: a10a 393e 6f37 c2bd d21d 7d3d 0c0d 4e3e
00000130: cdfb eb3e 10ef 18be a58c 8d3d 34a7 c23c
00000140: 4057 fc3d 9f92 a4bc bf49 94bd d9aa 54bd
00000150: 2c88 8f3c 3fe9 9e3c 790c b1bd 7fb9 6bbe
00000160: 383f b83d 7236 16be 61ef ffbc 21cb eebd
00000170: 2078 40bd 2dc0 06be 7b15 bbbd 2e1c 7f3d
00000180: 9261 4d3e a881 233d 23d7 e2bd 235f 77bd
00000190: 3a13 4bbe 1392 85bc 3a15 39be 6d8c 31be
000001a0: 0150 18be 2405 273e f3bd b7bd f17f 57bd
000001b0: 7775 91bd ffe8 f93d 6112 60bd 054f 793c
000001c0: c839 923e 4e7d 733d ff2d 703e 276f 11be
000001d0: 2ab4 073e bc87 80be 262b 45be 561a fdb8
000001e0: aef7 a43a 71e8 c3bd 84a3 213e 98c4 e73c
000001f0: 3be9 bbbd 7058 a3bd 065f 06bb 5043 6c3d
-0.1342495 0.18475094 -0.26974237 0.0056065335 -0.019325884 0.05788057 0.06738135 -0.106353916
-0.008029942 -0.21516982 -0.14371394 0.0009002557 0.19408059 0.19645102 0.18230353 0.079792805
0.18484513 0.012777023 0.031568468 -0.072255686 -0.12729895 -0.15994048 0.08546105 0.14154106
-0.18397066 -0.13068913 0.17026268 0.096150324 -0.17796646 -0.17674522 -0.065037906 -0.14052837
0.06389428 -0.080407344 0.01825779 0.05036995 0.12423856 -0.10542676 0.0513919 -0.06852071
0.042446192 -0.11326152 0.061301745 -0.09672013 0.19646439 -0.08301834 0.16441616 -0.30236512
-0.13406728 -0.12797438 -0.07328698 0.063657686 -0.0026939623 -0.083010904 0.12529911 -0.109625794
0.0708236 0.011579987 0.16224281 -0.0008066895 -0.09880911 0.080067836 0.23670693 -0.1686984
-0.13493986 -0.02706226 -0.11396307 -0.16663809 -0.21830977 0.1545403 -0.039671913 0.08928496
0.18070461 -0.09483229 0.061796017 0.20122164 0.46090546 -0.14934945 0.069115914 0.02376137
0.12321329 -0.020089446 -0.072406285 -0.051920746 0.017520986 0.01939833 -0.08644957 -0.2301998
0.08996433 -0.14669207 -0.031242074 -0.116598375 -0.04698956 -0.13159247 -0.091349564 0.062282734
0.20056751 0.03991857 -0.1107619 -0.060393464 -0.19831553 -0.016305005 -0.18074504 -0.17338724
-0.14874269 0.16310555 -0.08971777 -0.05261225 -0.07102483 0.122026436 -0.054705027 0.015216594
0.2855971 0.05944567 0.23455046 -0.14202558 0.13252321 -0.25103557 -0.19254741 -0.000120688856
0.0012586021 -0.09565819 0.15785033 0.028291985 -0.091753446 -0.079758525 -0.0020503416 0.05768138

bn1.weight f4 [128]
00000000: ca9a 3d3f bbf4 733e 858c 303f f9e7 5c3f
00000010: 62e5 be3e 7542 3c3f 81c9 d83e a460 603f
00000020: a5ef eb3e 381a 743f 26b6 a23e e90c a33d
00000030: ee0e a13e 6ca4 4b3f 29ba ee3e 5c8b f33e
00000040: f43d 523f 1185 743e 6b78 4e3e 85f0 323f
00000050: 3c71 643f 336e 213f a302 893e c6ff 293f
00000060: 0f4e 533f 75b0 4b3e d87b 683f 4ad3 233f
00000070: c3bc a83e 2b27 1e3e 1c9e 0e3f 5489 cd3e
00000080: ea80 043f 20f4 433e 92ad 1a3f 842e 7e3e
00000090: e686 5d3f d3a0 0a3f ed5c 2c3f 2401 443f
000000a0: a26b 5e3f 6c7b 0f3f 54f4 6c3f 6c6f 253e
000000b0: 4aad 413f 22ff 373f 0ac9 963e d464 9d3e
000000c0: 4f5d 4f3f 79f0 6f3f b183 5e3e cb56 0d3f
000000d0: 91f9 743e 3641 3c3f 64dc 113e 588e 9d3e
000000e0: 6b28 803f e225 513f cb9f 673f 01f7 0e3f
000000f0: 79dd bb3d 596c 3e3f 0cf9 493f 6bd2 553f
00000100: bf41 3a3f d2d1 0a3f d532 2c3f 8c97 153f
00000110: 813e 933e 1a11 493f eb3c 943e d929 313f
00000120: f615 ee3e 2ab6 c33e ad66 183f 1911 ce3e
00000130: e7da 283f 418f 5b3e 6cd1 df3d 6e6d 213f
00000140: 7b59 fa3e 2385 8c3e 0fc0 2d3e 2af5 193f
00000150: c9e8 e43e bc48 473f d024 7c3e b4b4 de3e
00000160: ab89 ec3e 5020 043f 1279 033e afe5 393f
00000170: b9a6 783e cec6 913e 6bda 1c3f 66c3 b63e
00000180: 1c36 013f 22b4 553e 0319 b43e cc4c 5c3f
00000190: 41c1 153f ca17 293f c2df 443f bab4 3f3f
000001a0: c7cc 273f 819b bc3e 4975 b03e 7ec2 973e
000001b0: 50e0 1e3f 06ce 003f 40c9 893e 9b7b 4e3f
000001c0: d746 1f3f 0eb9 113f 1a07 a73e 8fcb 263e
000001d0: 15df 6b3f 5bee 623e ce14 283e b52c 183f
000001e0: 2f14 b23e b7a8 483f 823c dc3e 15a8 ae3e
000001f0: 3961 c23e be04 e53e d8b9 d13e df0c bd3e
0.74064314 0.23823826 0.68964416 0.8629146 0.3728438 0.73538905 0.42341235 0.8764746
0.46081272 0.95352507 0.31779593 0.07961447 0.31456703 0.7954776 0.46626404 0.4756726
0.8212578 0.23878886 0.20163123 0.69898254 0.8923528 0.63058776 0.26759824 0.66405904
0.8254098 0.19891532 0.9081397 0.63994277 0.32956514 0.15444629 0.55710006 0.40143836
0.5175921 0.19136095 0.604211 0.24822432 0.86533964 0.5415165 0.67329293 0.7656424
0.86882985 0.560477 0.92560315 0.16155785 0.75655043 0.71873677 0.29450256 0.30740988
0.8100175 0.9372631 0.21729924 0.5521056 0.23923327 0.73537004 0.14244229 0.30772662
1.0012335 0.8169843 0.904782 0.5584565 0.09173102 0.74384075 0.7889564 0.835242
0.7275657 0.5422641 0.67265064 0.5843437 0.28758624 0.7854172 0.28952727 0.6920448
0.4650113 0.38224918 0.5953167 0.4024742 0.6595902 0.21441366 0.10928616 0.630576
0.48896393 0.27445325 0.16967796 0.60139716 0.4470885 0.7784536 0.24623418 0.4349724
0.46198782 0.51611805 0.12839153 0.72616094 0.2428235 0.28471988 0.6127078 0.35695952
0.5047319 0.20869496 0.35175332 0.8605468 0.5849801 0.66051924 0.7690393 0.7488514
0.6554684 0.3683739 0.3446448 0.29640573 0.62061024 0.50314367 0.26911354 0.80657357
0.6221747 0.56922996 0.32622606 0.16288589 0.9213727 0.22161238 0.16414186 0.5944322
0.34781024 0.7838244 0.43014914 0.3411261 0.379648 0.4473018 0.409621 0.36923882

bn1.bias f4 [128]
00000000: 5951 adbc 6de4 6fbd ebd5 e63d 3859 d2bb
00000010: b74c c0bd 8329 f13d be35 bdbc 03c2 90bd
00000020: 951e 51bd e379 953d b448 623d 4c9c 43be
00000030: 1e89 0d3d 3c5a 0dbd 211c 953c c6da 983d
00000040: 8ef4 263d 2a87 d93d b859 9ebd cb4e 343e
00000050: a29e 17be 7fea 23be 4561 a9bd 1dc3 59bd
00000060: 6f91 623d 8439 65bd bd7c c4bc 2acb 3d3c
00000070: 4e8e 853d c10e 523e 63d8 933d 9d67 cd3d
00000080: f04a f43d 5bb6 1dbd 067a d5bb 4cd1 ec3d
00000090: 962c db3d 8131 163e 0643 833d 45cb fc3c
000000a0: dd6c 453e 5a16 b23c dda2 80bc 56a5 d7bc
000000b0: fb84 05be 3d39 e5bd 173a 333c a0c8 c33c
000000c0: 2d6a a7bd a095 deba bb92 8a3c 99ec 433d
000000d0: 94b2 3e3d 04a5 a73d b299 63bd 0c8f ba3b
000000e0: 905d ef3b c87d 013e 74b3 88bd d9c8 e73d
000000f0: 1b2c 1ebe 4dba e9bd eb54 28bc f8d9 64bc
00000100: 5f7c 62bd 703c 04bd 2471 803d 2447 7ebd
00000110: df3e 0d3e 397c 3abb 039b 52bd d0d4 163e
00000120: 6b67 5a3d 7f10 4c3c fb3d 15be 0fb7 063d
00000130: e80e e3bd d547 a13d 1ca7 54be ebb5 5d3d
00000140: 348f 07bd b709 1f3d efc2 e83c 3322 1d3e
00000150: 7569 f73c 792c cb3d 0b5a b8bd c217 1fbd
00000160: 336e 1ebe a071 a63d d0ad 2bbe 8414 1d3e
00000170: 4a04 213d 9451 2f3e d467 f43c 3549 9f3c
00000180: 8285 73bd 91dc 053e fdcb fe3d 2411 e03c
00000190: 3daa 793d b1dd a23d 5a52 44be 8396 b33c
000001a0: ee58 babd efda d53b ea39 b13d 7130 103e
000001b0: 7bb2 6e3d f83e adbb d4c2 043e 4ec2 093e
000001c0: 7c7a 943c b5dd 4b3d 3eb7 173e b34b 533d
000001d0: 574f d03c 11dc 0fbe 6d22 293c 3fa6 ad3a
000001e0: b76e 203e 9569 6dbd b408 9abd acf9 02bd
000001f0: e7e8 0a3d 4345 f43d 3de4 003d ae1e d4bd
-0.021156954 -0.058567453 0.1127127 -0.006419327 -0.09389632 0.11775496 -0.023096915 -0.07068255
-0.051054556 0.07298639 0.055245116 -0.19102591 0.034554593 -0.034509882 0.01820189 0.07463603
0.04076057 0.106214836 -0.07731956 0.17608182 -0.14806607 -0.16007422 -0.08270506 -0.05316459
0.055314478 -0.055963054 -0.023985261 0.011584083 0.06521283 0.2051344 0.07219007 0.10029528
0.11928356 -0.038503986 -0.0065147905 0.11563358 0.107018635 0.14667322 0.06409268 0.030858645
0.1927981 0.021739174 -0.01570266 -0.026323956 -0.1303901 -0.11192558 0.010939143 0.023899376
-0.08174548 -0.0016981848 0.01691567 0.04783306 0.046557024 0.08185771 -0.055566497 0.005693322
0.0073048547 0.12645638 -0.06674853 0.113176055 -0.15446512 -0.11412487 -0.010274152 -0.013967983
-0.05529439 -0.0322842 0.0627158 -0.062079564 0.13793515 -0.002845539 -0.051417362 0.14729619
0.053321283 0.012455105 -0.14574425 0.032889422 -0.110868275 0.07875029 -0.20766872 0.05412857
-0.033095554 0.038827624 0.028413264 0.15345077 0.030201653 0.09920592 -0.09001549 -0.038841017
-0.15471725 0.08127141 -0.16765523 0.15339857 0.03931073 0.17120963 0.029834665 0.019444088
-0.059453495 0.1307242 0.124412514 0.027351923 0.060953368 0.079524405 -0.1917204 0.021922356
-0.09098993 0.006526343 0.08653624 0.14080979 0.05827568 -0.0052870475 0.12964946 0.13453028
0.018124811 0.049771983 0.14815995 0.051585864 0.025428457 -0.14048792 0.010323149 0.0013248398
0.15667234 -0.05796202 -0.07521191 -0.031976387 0.03391352 0.11927273 0.031467665 -0.10357414

bn1.running_mean f4 [128]
00000000: f6cd da3f 11c6 8c3d c3d6 2b3e 53ff 7e3f
00000010: d6a9 1a40 eb1e 063f a33a 733f 51bb 3540
00000020: 2f55 2d3f a113 5e3e afff be3f 28a7 bb3f
00000030: edd8 a33f bd9a 513f 4d23 1540 53cd 843e
00000040: 9910 c93e a488 653f 8a33 ca3e 1047 653e
00000050: cea6 aa3f 97c7 0040 8a3a ce3f 59b7 963f
00000060: 3c03 903e 6634 423e 3404 aa3f bffa 9b3e
00000070: 5629 f63e 7059 7c3f e593 b13d 5ca6 073f
00000080: 98b8 1e40 174f 373d bf44 dc3f cf71 533e
00000090: 3ec4 393f 20df fb3f 20d6 173f b773 5b3e
000000a0: 0385 5e3e 6f89 ed3f 938e 1c3f bdf4 3a3f
000000b0: 48c7 703f a6f6 513f f92b 673e 8a46 453e
000000c0: 90d1 ae3f f8de ac3e 12dd 893e 3c1f 873e
000000d0: 5ee1 253e bc9f a63f 30c2 2040 aad5 803e
000000e0: 0d30 473f 40ea fb3f 5009 e63e 82a2 003f
000000f0: 4fb5 dc3f 46c1 833f 1730 793f db9b f93f
00000100: 699a 833f 56cf 393f b677 843f 54e9 a83f
00000110: e8b8 513f 21ff 343f 4b45 1e40 4d41 3c3e
00000120: 5792 3b3f bf7b 603f ffee 3240 2d8f 483f
00000130: 2b8e 4640 ad97 113e 64db de3e 4d2b 243e
00000140: 6ff8 c43d 9090 aa3f f87f d03e ea2e 873f
00000150: f92b b23d d822 a53e b16e 293d 069f 613f
00000160: 87b6 663f e7e1 973f 3aa7 4b3e e65e 313f
00000170: 42ad 6a3e 40b9 5c3f 8246 203f 767d a23f
00000180: 6588 713f de38 4c3e 5e13 203d 0270 c53e
00000190: 21aa b63e aa0b 3b3f d529 933e b075 2e3f
000001a0: 6c77 133f 174c 103f f2dc 6b3c b559 fb3e
000001b0: ad25 5b3f e2c2 903e 629c 643f 72fb 463f
000001c0: ef55 ca3e bef3 883f bd97 b93e b166 ca3f
000001d0: 2514 1940 ce13 423d 5ad0 893c 445d bb3f
000001e0: b7d5 a53e b201 883f 6072 cd3e 8e2f 773f
000001f0: 43b9 283f 0280 af3f 9c86 353f bcbc 8a3f
1.7094104 0.06873716 0.16781144 0.99608344 2.416616 0.5239093 0.9501135 2.839558
0.67708105 0.21687175 1.4921778 1.4660387 1.2800575 0.81876737 2.3302796 0.259379
0.39270476 0.8966162 0.39492446 0.2239039 1.3332155 2.012182 1.6111615 1.1774703
0.28127468 0.18965301 1.3282533 0.30464742 0.48078412 0.9857397 0.08670787 0.5298822
2.4800167 0.04475316 1.720848 0.20648883 0.72565067 1.9677467 0.59311104 0.2143086
0.21730427 1.8557566 0.6115505 0.7302969 0.9405408 0.8201698 0.22575368 0.1926519
1.3657703 0.33763862 0.26926476 0.26391017 0.16199252 1.3017497 2.5118523 0.25163013
0.77807695 1.9680862 0.4492898 0.5024797 1.7242831 1.0293357 0.97339004 1.9500688
1.0281497 0.72581995 1.0349033 1.3196206 0.8192277 0.70701796 2.4729793 0.18384285
0.7327017 0.8768882 2.7958372 0.7834347 3.1024272 0.14218016 0.43526757 0.16032143
0.096176974 1.3325367 0.40722632 1.0561192 0.08699793 0.32253146 0.04136533 0.88133276
0.90122265 1.1865815 0.1988801 0.6928543 0.22917655 0.8622017 0.62607586 1.2694538
0.94348747 0.19943568 0.03908097 0.38562018 0.35676673 0.7306467 0.28742853 0.68148327
0.576041 0.56366104 0.014395939 0.4909188 0.85604364 0.28273684 0.8930112 0.77727425
0.39518687 1.0699384 0.3624858 1.5812589 2.3918545 0.04738217 0.016822983 1.4637837
0.32389614 1.0625517 0.40126324 0.9655694 0.65907687 1.371094 0.7090852 1.0838847

bn1.running_var f4 [128]
00000000: 9460 f83f 8ea8 533d 1bfd 993d fc15 8d3f
00000010: b9c2 0741 3c90 1e3f 50e0 d83f e355 b040
00000020: 6f36 683f e493 c23d 5573 5f40 d45c 0340
00000030: de48 5040 506b 803f 2186 7a40 3fec 0e3e
00000040: 48bd a33e 8a39 493f c22f 5b3f 4182 223e
00000050: e30e 943f bcec 963f 5341 8340 d970 1c3f
00000060: 34df 153e e5e7 793e 9a7e 0b40 20f6 143e
00000070: d80d 9a3e 7f61 a53f 643e 903d 2045 0e3f
00000080: ce38 8e40 621e 493d 7325 d63f 57c3 8a3e
00000090: dd55 533f d129 d93f 8d4c 8b3f 07be 373e
000000a0: 612e 583e 1bcf 1b40 3394 b03e ecf7 783f
000000b0: d982 293f 64b9 d53f 9577 a13e 0a5c e63d
000000c0: b4ea 0740 d73c a13d 9766 963d 215f 353e
000000d0: c778 ff3d 9b51 1640 829c 5f3f d433 8a3e
000000e0: 11c6 8a3f 5748 3c40 0614 be3e dadc 573f
000000f0: 90bd ad40 f7b1 623f 3fe8 fa3f cf2b ed3f
00000100: 213c 943f 92fc 703f cecb f43f fa7b c33f
00000110: 8c39 0a40 a244 423f 296d 7240 0b7d 043e
00000120: 7b2d 603f 4d0c 913f b0f8 c940 2249 0540
00000130: e008 ed3f 5271 ed3d 7f71 573f cbf5 bb3d
00000140: 7382 9d3d e516 4f40 c4b5 d73e 1c7f db3f
00000150: 9fec 963d e314 3d3f d1bf d33c a34c c33e
00000160: 4f85 b63f 9502 d53f bac8 573e 1db9 9e3f
00000170: f2c0 703d 54fd 1840 51d4 443f 0b0b 6240
00000180: 0d0c eb3e 9a19 223e 5433 d33c d58c ee3e
00000190: 8684 003f 2c97 3e3f 0b07 8c3e 8305 273f
000001a0: f781 213f 5865 1f3f 9d27 c93b 8b90 f83e
000001b0: 6d0e 7f3f 3533 d53e 8a22 a63f 1372 4c3f
000001c0: 1b52 183f 7701 603f 2942 3a3f 72a5 9740
000001d0: 0645 a63f eddb ee3c 5946 243c 8390 5d3f
000001e0: dd2e da3e 4bc2 b93f 51c1 193f 9da5 b03f
000001f0: 33bd 643f 18d1 813f d1d9 8c3f 26a9 9d3f
1.9404473 0.05167442 0.07518979 1.1022334 8.48504 0.61938834 1.6943455 5.510484
0.9070806 0.09500864 3.4914143 2.0525408 3.2544475 1.0032749 3.9144366 0.13957308
0.31980348 0.7860342 0.8561975 0.1587 1.1567043 1.1790996 4.101724 0.6110969
0.14635926 0.24404867 2.1796021 0.14547014 0.30088687 1.2920378 0.0704315 0.55574226
4.444434 0.04910124 1.6730179 0.27102157 0.8255289 1.6965886 1.0882736 0.17943583
0.21111442 2.4345157 0.34488067 0.972533 0.6621528 1.6697202 0.31536546 0.11248024
2.1237001 0.078729324 0.07343786 0.1771207 0.12474208 2.3487308 0.87348187 0.26992667
1.0841695 2.9419153 0.37124652 0.8432137 5.42939 0.885528 1.9602126 1.8528994
1.158085 0.9413539 1.9124696 1.527221 2.1597624 0.75885975 3.7879126 0.12938325
0.875694 1.1331879 6.3116074 2.0825887 1.8518333 0.1159388 0.84157556 0.09177741
0.07690897 3.2357724 0.42130864 1.7148166 0.07369351 0.73859996 0.025848301 0.38144407
1.4259433 1.6641413 0.21072665 1.2400242 0.058777757 2.390462 0.7688647 3.531924
0.45907632 0.15830079 0.025781311 0.4659182 0.50202215 0.7444942 0.27349123 0.65242785
0.63088936 0.62264013 0.0061387555 0.48547778 0.99631387 0.4164063 1.297929 0.79861563
0.59500283 0.87502235 0.727572 4.738946 1.2989814 0.029157603 0.010026538 0.8654863
0.4261388 1.4512419 0.600606 1.3800541 0.89351195 1.0141935 1.1003972 1.2317245

fc2.weight f4 [64, 128]
00000000: 6111 0b3c c8bc 3e3e 4399 7e3d 471d 643d
00000010: 8553 7aba ef30 54bc 805f 35bc 4b9f 133e
00000020: 5346 533c 1e0d b6bd dd35 0cbe 7980 b73c
00000030: 5fdc 39bd d58f c03c 7dda 06be b38c 603c
00000040: b82b 11bd ef22 b13d 2ce9 d3bd 5bd5 c93b
00000050: 6aec 87bc e629 403d 3d7f a73d fab3 3a3d
00000060: f82a e73c 210f 6dbd aa5e 75bd 298e 4a3d
00000070: 99da 33be d4be 733d 0cd2 cbbc fdd4 cabd
00000080: 728b b63d 34ac b03d c344 86bd 39a0 903c
00000090: a28f 42bc afb0 ec3c 43cb a33d ae9c a6bd
000000a0: 901f 833d 11d4 be3d 146d 313d e833 fcbd
000000b0: a5a4 54bd a602 313d fe7f 00bd 7d72 44be
000000c0: 1357 fdbc 37a7 93bd 5c6a 463e f021 fabd
000000d0: 9c2d 60bc 8c56 b83b 5a0e 1cbe 3908 c8bc
000000e0: 02b9 983c 0830 7f3d 0d3a e0bd 7237 0bbd
000000f0: 10bb 8d3d 9ef6 5cbd e718 013c c661 ff3d
00000100: af9d 03be c29a db3c f0c4 06bd 4bb2 903d
00000110: 1f42 36bd cf52 23be bbea f0bd 4225 0ebd
00000120: 52b5 8ebd 90cd 8fbd 751a 3cbd 2877 023e
00000130: a848 e13a 4871 3e3e 5491 943c 50a5 35bc
00000140: 56d8 ae3d ea70 6cbc dfb5 293c 85a1 8e3d
00000150: 1fc1 50be 41a8 07bd 2f29 4e3d 1ad5 463b
00000160: d026 353d 1873 4e3d 635a c63d 8fdf 353d
00000170: 26c6 b63c ec64 d93c d374 e7bc 0b1f 5dbd
00000180: 7507 0fbd cd44 0ebe e7ff e5bc b6ec dd3c
00000190: f0ec cf3c 8209 5d3d c945 f1bc 339c 50bd
000001a0: 5fa8 05be f57d e2bc cd1f 123e b348 4abd
000001b0: d8f4 373d 42f3 7abd cb8c 03bd 18ab cfbd
000001c0: ad95 203d e6c1 8b3c 1c74 95bd 3a59 77bd
000001d0: 3578 16be 1620 acbb 8e5b 313d 571f e33d
000001e0: aa71 fb3b 46c6 06be 272a 09bd 66de e2bd
000001f0: a352 c0bd 1112 1bbe 4f5f 89bd 7215 edbd
00000200: 9ed0 583d 43ba c6bd 7647 07bd bc86 283d
00000210: 3de6 fa3d 5240 59be 4ef4 533d c054 54bc
00000220: c999 63bd 62ec e6bb 929a fa3d 1c17 52bd
00000230: c4b8 963d e7e7 253e b5bd 573d 68fd 953c
00000240: 44bc c5bc 5617 c1bd 3632 dfbc bfb3 583c
00000250: 33a7 63bd e529 f63b af9b e23c b6af a5bd
00000260: ea27 513d 9b3f 243e 305e d93d 761d 59bd
00000270: b360 e93c cca0 8dbd 6813 893d 1e60 633d
00000280: dab1 99bd 8a29 023e 8a7d 0dbd c192 7d3d
00000290: dee7 cabd 4637 6c3d 7a7d 43bd ffbb 89bc
000002a0: 7867 2a3d 4e6f 513d 3074 173e 7e35 9cbd
000002b0: 85cd 403d 3d7b a63d 3fbc 78bd 3096 aebd
000002c0: c757 1c3d ff3c 283c dea1 063e 65d1 073d
000002d0: 74b6 afbd 90b3 84bd 56e4 febd abc5 ff3b
000002e0: 2ee7 07bd 3bd4 7ebd 0a0a bf3c c9f6 91bd
000002f0: 9e4d 75bd c5c1 a5bd d47d 9d3b e083 dbbb
00000300: 6044 50bd fe34 2abd 71c4 883d 2bba dfbc
00000310: 5020 463d 9ee7 f6bc 4f1f 843c 8b67 59be
00000320: 9354 073e 2f4c d03c 03f1 613d 4427 80bd
00000330: 206e 10be b56a e93d c425 153e f2a7 e83b
00000340: eae8 053e 3f22 d23d aa91 0b3e 31e1 89bd
00000350: d1e9 ba3d 1e41 633a 5e32 ecbd 0bba a63c
00000360: 4fe8 dc3d 2bb0 3abd 8668 003e 2d76 ceba
00000370: cb93 f73c cc26 d8bd 7458 24bd c9e4 bdbd
00000380: d194 dc3d 8c71 993c 3cb6 4abd b060 5e3d
00000390: 1a75 0cbe 9876 9e3d 67af 623d f28d c9bc
000003a0: 3259 263c d9cc 7cbb 21de 973d d5b3 063e
000003b0: 16bc 98bd 5c39 d4bd b658 853d dbd5 af3d
000003c0: 0843 9b3d f60f 713d f686 453d caa5 b7bc
000003d0: ba1b 5dbd f413 2d3c 6288 f0bd 9c82 a8bd
000003e0: 7698 7dbd dab3 b8bd ec1a 32bd 0625 83bd
000003f0: b9e6 053d 8f0f 283d 91a4 15be 1339 4abd
0.00848803 0.18626702 0.06215788 0.055691984 -0.00095491885 -0.01295112 -0.011070132 0.14416234
0.012895185 -0.08889221 -0.13692422 0.022400128 -0.045376178 0.023506084 -0.13169284 0.01370542
-0.035442084 0.08649241 -0.103472084 0.006159467 -0.016592223 0.046914957 0.08178566 0.045581795
0.028218731 -0.057875756 -0.05990473 0.04945198 -0.17563857 0.05950816 -0.024880432 -0.099039055
0.08913316 0.08626595 -0.06556084 0.017654525 -0.011875065 0.028892843 0.079977535 -0.08135353
0.064025044 0.09317792 0.043316916 -0.12314588 -0.05191483 0.043215416 -0.031372063 -0.19184299
-0.03092531 -0.07209628 0.1937651 -0.12213504 -0.013682749 0.0056255516 -0.1523985 -0.024417983
0.018642906 0.062301666 -0.10948572 -0.033988424 0.06920445 -0.05394613 0.007879472 0.12469821
-0.1285312 0.026807193 -0.032902658 0.07065257 -0.04449665 -0.15949558 -0.11763521 -0.0347035
-0.06968178 -0.0702163 -0.04592367 0.12740767 0.0017187791 0.18597901 0.018135704 -0.011086777
0.085373566 -0.014431218 0.010358303 0.06964401 -0.2038617 -0.033119444 0.050332244 0.003033942
0.044226468 0.05040273 0.09685209 0.044402655 0.022311281 0.026537381 -0.028253948 -0.053984683
-0.03491922 -0.13893433 -0.028076125 0.027090412 0.025381535 0.053964145 -0.029452221 -0.050930213
-0.1305251 -0.027647952 0.14269944 -0.049385738 0.044911236 -0.061267145 -0.032116693 -0.101400554
0.039205242 0.017060231 -0.07297537 -0.060387827 -0.14694293 -0.0052528484 0.043300204 0.11089962
0.007673462 -0.13161573 -0.033487465 -0.110775754 -0.09390762 -0.1514361 -0.06707632 -0.11576356
0.052933328 -0.09703495 -0.033027135 0.041144118 0.12250946 -0.21215943 0.05174666 -0.012959659
-0.055566583 -0.007047222 0.12236513 -0.05129157 0.0735946 0.16201745 0.052671153 0.01830931
-0.024137624 -0.09428279 -0.027245622 0.013226449 -0.055579375 0.0075123184 0.027662126 -0.08090155
0.051063456 0.16039889 0.10613668 -0.05300661 0.028488493 -0.06915435 0.066931546 0.055511586
-0.075046256 0.12711158 -0.03454355 0.061907534 -0.099075064 0.0576699 -0.047727086 -0.016813276
0.04160258 0.05113154 0.14790416 -0.0762739 0.047071 0.081289746 -0.0607264 -0.0852474
0.03816965 0.010268449 0.13147685 0.03315868 -0.08579722 -0.06479561 -0.124458954 0.0078055463
-0.033179455 -0.062214117 0.023320217 -0.07127149 -0.059888475 -0.08093599 0.0048062596 -0.0066990703
-0.050846457 -0.041554444 0.06678093 -0.027310451 0.04837066 -0.03013974 0.01612821 -0.21230905
0.13215856 0.025426952 0.055161487 -0.06257489 -0.1410451 0.11397306 0.14565188 0.0071000988
0.13077131 0.10260438 0.13629785 -0.06732405 0.09126628 0.0008669066 -0.11533044 0.020352384
0.10786497 -0.045578163 0.12539873 -0.0015751772 0.03022184 -0.10554275 -0.040123418 -0.09272153
0.10770572 0.018730901 -0.0494902 0.054291427 -0.13716546 0.07737464 0.055343058 -0.024603818
0.010153102 -0.0038574247 0.074154146 0.13154538 -0.074577495 -0.10362503 0.06511061 0.085857116
0.075811446 0.058853112 0.048224412 -0.022417922 -0.05398152 0.010563839 -0.11744763 -0.08228037
-0.061912976 -0.09018679 -0.043482706 -0.06403546 0.032690737 0.041030463 -0.14613558 -0.049370836

fc2.bias f4 [64]
00000000: e279 40bd 479f 8a3d baeb fcbd 5681 ffbd
00000010: c55d e83c dff0 bcbc be80 683d 8648 2a3d
00000020: 43cd 0fbe 7d5c 453d 78ef 13bd 76b1 0dbc
00000030: e94c f7bd 5285 77bd 2b6b 35bd 66df e9bd
00000040: 696d 55bd e284 10be 24c5 2bbe 293a 243c
00000050: 5fed 7dbd 1b2e dabd 7468 edbd 66d3 9dbd
00000060: 1256 aa3c 9245 20bd c656 ea3c 10d3 6c3d
00000070: 7ecd ecbc 9562 d23d 2972 b0bc 87b8 0fbe
00000080: 5c1b 20be 11d2 ccbd a457 a03a ca23 9abd
00000090: 5cae 93bd 1e0f 56bd 2bc9 c8bd 945f 3fbd
000000a0: 8d6c b4bd 0246 91bc d5bb 88bd 38a8 f7bd
000000b0: 8ec9 f53c f7d3 753c 3730 b73d ffc0 1f3d
000000c0: e00d 57bc 79c0 f3bd fb44 b5bd 2d11 35bd
000000d0: 58c7 01be eebc 16be 8098 1bbe 5f0e c53c
000000e0: 9bc2 cdbd 440b 2fbe d7a6 15bc 11df 11bd
000000f0: 9e9d d1bd aa2f f8bd f6a0 d4bd 24f6 17bd
-0.046991237 0.06768661 -0.12349649 -0.12475841 0.028365025 -0.023064075 0.056763403 0.04157307
-0.14043145 0.048183907 -0.036117047 -0.008648267 -0.12075216 -0.06042988 -0.044291656 -0.11419563
-0.052106295 -0.14113191 -0.16774422 0.010023632 -0.061993953 -0.10653325 -0.115921885 -0.07706337
0.020792995 -0.039128847 0.02860583 0.057818472 -0.02890658 0.10272709 -0.02153881 -0.14035235
-0.15635437 -0.100010045 0.001223315 -0.075263575 -0.07210991 -0.05226051 -0.09803995 -0.04672201
-0.08809767 -0.017733578 -0.06676451 -0.12092632 0.030003335 0.01500415 0.08944743 0.039002415
-0.013125867 -0.119019456 -0.088510476 -0.044205833 -0.126737 -0.14720508 -0.15194893 0.024054704
-0.10046884 -0.17094141 -0.009134016 -0.035613123 -0.10235141 -0.12118466 -0.10382263 -0.037099972

bn2.weight f4 [64]
00000000: f59a 7d3f bd20 283f dd8d 1e3f 0596 403f
00000010: 482d 443f e27f 1e3f 4236 1d3f 995b 503f
00000020: 996c 103e 1cdf 8b3e 83fc f03e 8349 4f3f
00000030: 8317 543f a160 bd3e 45c9 2f3e 1484 693f
00000040: 25ec 6a3e b045 f03e 9671 c93e 96d7 603f
00000050: 3252 663e affb 143e a40b 5e3e d2e2 dc3e
00000060: 1e82 9c3e 5140 5c3f 17be 153f dffb 463f
00000070: 3b25 e13d fa97 a33e b305 243f eebe 963e
00000080: 93e1 153e 30b6 2f3f d217 093e bd64 2b3f
00000090: 020d 4d3f 0526 c83e e50e c73d 1341 2c3e
000000a0: 82f1 9a3e 9595 213f fa8a 593f c822 653f
000000b0: 8b41 173e f02a 533f e5fc 2b3f 35e8 c63e
000000c0: ce27 0d3f 478a 703f fff2 343f e885 023f
000000d0: ea36 8e3e ba51 3e3e 5094 af3e d2a7 693e
000000e0: 4fb4 4f3f 3f6f f23e a46b 213f 5ac7 4c3e
000000f0: 08d9 083f ef44 673f 45ed 8e3e 18d6 133f
0.9906457 0.65674955 0.61935216 0.7522891 0.76631594 0.61913884 0.61410916 0.81389767
0.14103927 0.27318656 0.4706765 0.80971545 0.82848376 0.36987785 0.17166622 0.9121716
0.22941644 0.46928167 0.39344472 0.8782896 0.22492293 0.14549135 0.21684128 0.431418
0.30568022 0.8603564 0.5849318 0.77728075 0.10993429 0.31951886 0.64071196 0.29442543
0.14636831 0.6863737 0.13387993 0.6695059 0.80097973 0.39091507 0.09719638 0.16821699
0.3026238 0.6311887 0.84977686 0.89506197 0.14771096 0.8248739 0.6718276 0.38849035
0.5513886 0.93960994 0.7068328 0.50985575 0.2777627 0.18585864 0.3429284 0.22817925
0.81134504 0.473505 0.6305487 0.19997922 0.53456163 0.9033956 0.27915397 0.57748556

bn2.bias f4 [64]
00000000: c0de e136 868d aeb5 082d 1cb6 795f aab3
00000010: 5b98 9836 0f37 06b7 4971 c9b4 4239 7934
00000020: d5e5 ac36 d722 bbb5 ad8d e3b6 ec90 3db5
00000030: 02d5 a6b7 d30d aeb7 01cb c037 e1ee d936
00000040: abd6 d1b6 ec43 9c36 fa1e efb6 a60f 26b6
00000050: 4942 a337 c946 c3b7 83f2 bf36 1484 0737
00000060: e9ff 68b5 5aea 5235 1736 0637 8877 d8b6
00000070: 2c96 7436 eb99 2937 2793 5f36 2752 8cb7
00000080: d9ad a4b7 bba3 8736 8fd1 aeb7 5128 e1b5
00000090: a4dc 21b7 abcf 40b7 a80d 95b8 2d7a 38b6
000000a0: 0135 b137 9cd6 0537 7694 cb36 b803 7a36
000000b0: 9fe1 fc37 c0f8 82b6 7dd8 3236 d565 adb6
000000c0: 9bb9 a834 9721 7cb6 562c aa35 e991 1cb6
000000d0: b5aa ab37 82b4 e4b7 9a11 a935 e29d 83b6
000000e0: d14e f3b6 d22f 46b7 32fd 79b6 c328 7a38
000000f0: 2ac4 de36 7751 fdb5 45ee e6b7 0cd7 2cb6
6.731454e-06 -1.3005199e-06 -2.3272023e-06 -7.933608e-08 4.5476895e-06 -7.999842e-06 -3.7521593e-07 2.3210762e-07
5.1527554e-06 -1.3942725e-06 -6.7816204e-06 -7.0618876e-07 -1.9887932e-05 -2.0748854e-05 2.2982715e-05 6.494913e-06
-6.253676e-06 4.6570694e-06 -7.126361e-06 -2.4745036e-06 1.946198e-05 -2.3278773e-05 5.7204757e-06 8.077379e-06
-8.6799133e-07 7.857212e-07 7.999616e-06 -6.451217e-06 3.6446245e-06 1.0109022e-05 3.3315243e-06 -1.6727556e-05
-1.9631278e-05 4.0423743e-06 -2.084e-05 -1.677554e-06 -9.64772e-06 -1.1492443e-05 -7.107417e-05 -2.7489252e-06
2.1124726e-05 7.977385e-06 6.0671546e-06 3.7255068e-06 3.0145804e-05 -3.90326e-06 2.665008e-06 -5.1676566e-06
3.1427484e-07 -3.7570478e-06 1.267889e-06 -2.3330742e-06 2.046428e-05 -2.7263774e-05 1.2596604e-06 -3.922484e-06
-7.25114e-06 -1.1812854e-05 -3.725127e-06 5.9642607e-05 6.638952e-06 -1.8873678e-06 -2.752909e-05 -2.575517e-06

bn2.running_mean f4 [64]
00000000: 21f4 8f3e 70e6 023e 5286 233d 4ea7 b03d
00000010: 3342 863e 5166 073e 5290 a73e e4d7 923e
00000020: e646 133e 1790 953e 72f6 fd3d ced0 103e
00000030: 15f9 7c3c f320 8f3d ae85 973d e35c 193e
00000040: fd40 cf3d 9ad9 0c3d c31c 1e3b 46eb 063e
00000050: a6e7 ac3d cb64 753d 22c5 2c3d 66ff 653d
00000060: d437 2f3e f98a ac3d 4076 de3d cdcd b83e
00000070: 49dc 493e 7ff1 a53e 9420 a73e 6529 753a
00000080: 485d 983b 46b9 013d 9724 a23e 5d0b 7b3d
00000090: 8203 ee3c 79bc 183e 11c7 613d 56bf c23d
000000a0: 5447 3a38 a30c 0b3e c964 f53d 4738 423d
000000b0: 9d3e a13e 0cd7 8a3e a7e0 043e f5c8 673e
000000c0: 38d4 513d e281 203e 0396 933e 34e0 f03d
000000d0: b454 af3d a418 673d d9ad 583d d028 3f3e
000000e0: 79c3 cd3d 58d7 233d bbd8 0b3e cf3b 943d
000000f0: 2489 903d b708 e93b 92e0 8c3d b8dd 853d
0.28115943 0.12783217 0.03992302 0.08625661 0.2622238 0.13222624 0.32727295 0.28680336
0.14382514 0.29211494 0.12400521 0.14142153 0.015440245 0.069887064 0.07398544 0.1497684
0.101198174 0.03438721 0.002412603 0.13175687 0.08442621 0.059910577 0.042180188 0.05615177
0.1711114 0.084249444 0.10862398 0.36094514 0.19712938 0.3241081 0.32642043 0.00093521766
0.004649792 0.03167083 0.3166854 0.061290134 0.029054407 0.14915647 0.055121485 0.09509151
4.4412285e-05 0.1357904 0.11982114 0.04741695 0.31493083 0.27117193 0.12976323 0.22635253
0.05122778 0.15674546 0.28825387 0.11761513 0.08561078 0.056419984 0.05290017 0.18667912
0.10047049 0.04000029 0.13656895 0.0723797 0.070574075 0.0071116346 0.06878771 0.0653643

bn2.running_var f4 [64]
00000000: b55e 013e d265 213d 1574 743c f8aa 3e3d
00000010: c8ee e03d d1a8 943d b36b 423e 1bd5 203e
00000020: f3a8 b23d e03a fb3d 0ea1 3c3d 3b71 883d
00000030: 99bb 8b3b 53dd 743c c509 943c 6420 c03d
00000040: fdb3 343d 746e 173c 122b a939 b463 103d
00000050: a849 263d 8d65 bd3c a910 8d3c ebc8 893c
00000060: ff93 873d c158 903c 382d 2b3d f4e3 d03d
00000070: 71de 443d 480c 293e 4c1f 023e ae27 c738
00000080: ead6 103a 6683 bf3b 08dc 253e bf90 503c
00000090: 09de 273c d38c 1e3d b95f 803c 0600 fe3c
000000a0: 46f7 3536 dd52 7b3d 61a0 183d 13fd a53c
000000b0: e364 1d3e bfbf 0f3e 0072 493d 4c6b ea3d
000000c0: 1b1e 863c 3f73 793d 5a0a 543e 77de 163d
000000d0: 9c2f 053d 228c 7c3c d7cf 773c 3ae5 0a3e
000000e0: 1826 313d eeb5 693c 22a9 553d edea b23c
000000f0: 3200 e43c 9b90 933a b131 c93c 320a 7f3c
0.12633784 0.039403744 0.014920254 0.046549767 0.10983044 0.07258762 0.18986396 0.15706293
0.08723631 0.12267089 0.04605203 0.06662222 0.0042643067 0.014945346 0.018071065 0.09381178
0.044116963 0.009242643 0.00032266282 0.035251334 0.040597588 0.023119712 0.017219858 0.016819438
0.06620025 0.017620446 0.04179117 0.101997286 0.0480637 0.16508591 0.12707251 9.4964504e-05
0.0005525189 0.0058445213 0.16197217 0.012729823 0.010245808 0.03870852 0.015670644 0.03100587
2.7115034e-06 0.06135832 0.037262324 0.020262277 0.15370516 0.14037989 0.049180984 0.114462465
0.016371777 0.060900923 0.20707074 0.036833253 0.032516107 0.01541427 0.0151252365 0.13564005
0.04324922 0.014264567 0.05216325 0.021840537 0.027832124 0.0011258306 0.024559828 0.015566396

fc3.weight f4 [2, 64]
00000000: 4586 c83c 89d5 8d3c 30f3 36bb 5748 87bc
00000010: 5f99 e6bc e5b1 bc3c fcba f23b 1287 cebc
00000020: 4a67 033d c5df 06bd c046 cabc ad7e 84bb
00000030: db9d e63c 12c9 6bbd 5c2d fc3c 6393 b33b
00000040: 168a 40bc 582a 92bc 6eb7 fd3c 6dbf a6bb
00000050: 2963 623c 7a6a 0d3e a41d 193b bc92 3bbd
00000060: 55ae 083d 7832 0ebc 42ab afbc 8923 e9bb
00000070: d756 2abd 262f 283d 2b69 a23c c896 3bbc
00000080: 8452 853d 0aa3 d0bc 38a1 19bd 5b93 c03c
00000090: f679 87bc 5fc8 483d 0df1 b23d 5696 07bd
000000a0: 5ecc 5d3d 3791 493c fd37 d83b 9d99 113c
000000b0: 0acc be3d 6672 00bc 6e2a c83c 85ad e4bc
000000c0: 560d 17bc 3fb0 853b da24 d33a 6ed9 113c
000000d0: 61d9 89bd 08cf bdbd 5d83 143c 8004 2b3c
000000e0: ff77 2f3c ccd5 a5bc 96c7 033d 3562 adbd
000000f0: 9119 793b 4108 37bd 820c 92bc 6477 febb
00000100: 76d1 e93c dc45 80bc 2dec 113d c52a 0bbd
00000110: 0ad4 133c c541 493d d4dd 043d c152 d0bb
00000120: ba35 42bd 659d 6e3b 9c3d 69bc 5d38 59bc
00000130: fa90 b0b9 343e d7bc 77c5 2a3d 4ff9 f8bc
00000140: 39a1 9dbd e6aa c43c 8848 783a ed32 febc
00000150: 7e25 203d 5684 59bd a273 9b3d 518e 603c
00000160: 42cd 15bd 1e95 f6bb 6fa3 c5bc c0b4 03bd
00000170: 8708 e83d de37 be3c b321 213d 0359 83bc
00000180: bf93 6f3d 54b9 913c b185 593c f463 7dbc
00000190: ecd5 953b 34b1 453c c32f fb3c 943a 9d3d
000001a0: c6e9 fabb 4175 e4bc c81c 793c 1392 37bb
000001b0: 5cb6 4dbb dbf8 cd3c 8f6d 263c fa13 333d
000001c0: 6d48 fa3c 92e3 dcbc e8b6 efbb 1fbf 223c
000001d0: f858 e4bb 8a63 6d3d 0138 47bd c8d8 243d
000001e0: df29 143d 38c9 b2bc d37d 633c 8389 96bc
000001f0: 203c 5c3c 26ac ccbb ea17 e53b 42bc bd3c
0.024478087 0.017313736 -0.0027915947 -0.016513987 -0.028149305 0.023034045 0.007407544 -0.02521089
0.032080926 -0.032928247 -0.02469194 -0.0040434212 0.028151443 -0.057564802 0.030783348 0.0054802164
-0.011751672 -0.017842457 0.030971255 -0.0050887377 0.013817587 0.13810149 0.0023363614 -0.045794234
0.03336938 -0.008679025 -0.021443967 -0.007114832 -0.041586723 0.04106059 0.019825539 -0.011449523
0.06509879 -0.025468368 -0.037507266 0.023507765 -0.016537648 0.049019214 0.08737383 -0.033102356
0.054149978 0.012302688 0.006598471 0.008886722 0.09316261 -0.007839775 0.024434295 -0.027914772
-0.009219488 0.004079848 0.0016109005 0.008901937 -0.06730915 -0.09268004 0.009064523 0.010438085
0.010709762 -0.020243548 0.03217276 -0.08465997 0.0038009624 -0.044685606 -0.01782823 -0.0077656973
0.028542262 -0.015658312 0.035625625 -0.033976335 0.009022722 0.04913499 0.032438114 -0.0063575213
-0.04741452 0.0036409732 -0.01423588 -0.013258067 -0.00033677352 -0.026274778 0.041692223 -0.030392317
-0.076967664 0.024007272 0.0009471257 -0.031030143 0.039098255 -0.05310472 0.075904146 0.013705806
-0.036572702 -0.0075251004 -0.024125783 -0.0321548 0.113297515 0.023219999 0.03933878 -0.016033655
0.05849051 0.017788567 0.013276503 -0.015465725 0.0045726206 0.012066174 0.030662423 0.076771885
-0.0076572625 -0.027887942 0.015204616 -0.002801065 -0.0031389212 0.025143078 0.010157957 0.043720223
0.030552113 -0.026963983 -0.0073155053 0.009933262 -0.0069686137 0.057956256 -0.048637394 0.0402458
0.036172744 -0.021824464 0.013884979 -0.018376118 0.013442069 -0.0062461076 0.006991376 0.023161057

fc3.bias f4 [2]
00000000: b373 86bd 08de 32b8
-0.065650366 -4.264529e-05

bn3.weight f4 [2]
00000000: 9361 2640 1a8f 4640
2.5997055 3.1024842

bn3.bias f4 [2]
00000000: 7288 6cbe 140b 0dbf
-0.23098925 -0.5509503

bn3.running_mean f4 [2]
00000000: cf73 86bd 4ad4 2fb8
-0.065650575 -4.192096e-05

bn3.running_var f4 [2]
00000000: 1897 273c dff4 7f3b
0.010228895 0.0039055867
