p3_collaboration_and_competition/weights/actor_1_1100.pth (torch_old, 51773 bytes, 18 tensors)

fc1.weight f4 [128, 24]
0.0046658632 0.11898846 0.033482324 0.092410274 -0.0834423 -0.00724073 0.03834844 0.026901029
-0.025972728 0.061250765 0.039580304 0.07762133 -0.08371664 -0.045340016 -0.0665365 0.1373738
-0.0017924432 0.125002 0.041194227 -0.0058106068 -0.16140483 0.11729038 -0.050427873 -0.02676529
0.065147616 0.04591044 -0.08688749 -0.13314837 0.017240232 -0.025814949 0.06431507 -0.111254305
0.064883195 0.05910107 -0.011275773 0.045185834 0.001971885 -0.05620531 -0.009445022 -0.008237412
0.04309942 0.03207489 0.03673951 -0.06424201 -0.0037194213 0.05912043 0.0019203682 -0.09773604
-0.002141943 -0.008425744 -0.03325236 0.06519851 0.031441674 -0.06851839 0.03793508 0.027552493
-0.0060914126 0.038148362 -0.0019106221 0.0025764622 -0.05102669 -0.032251157 0.009176088 0.054662723
-0.032490943 0.010154794 -0.040640146 0.07155603 -0.09358346 -0.22128703 0.058564365 -0.060897894
-0.04658195 -0.062418163 -0.10419192 -0.02752055 0.030074932 -0.07874994 -0.01992529 0.043720305
0.08134448 0.05954694 0.02541557 0.057676442 -0.0029497864 0.044872507 -0.04133662 -0.07779996
-0.10043265 0.037994325 0.054505624 0.06932677 0.026028078 0.024696475 -0.086212315 -0.061392598
0.14801912 -0.0982902 0.006301954 -0.12059878 -0.099465564 0.022766214 0.0014029945 -0.097947806
-0.003192346 -0.12741122 0.0139917 -0.07432476 0.029961083 0.025632095 -0.04347589 0.026590442
0.07479112 -0.19543785 0.039286617 0.018293275 -0.048084762 -0.0017533646 0.00034837407 -0.04933491
0.02567206 0.05843442 -0.0014288645 0.04493142 0.07599917 -0.046282448 0.031960055 0.0001844279
0.028280014 0.04710099 -0.0681565 0.002968162 0.08004352 0.09919367 0.05790519 0.007710777
0.07738374 0.12741181 -0.045164756 -0.03411148 0.019185472 0.17444532 0.04788214 0.059491623
-0.04117459 0.037771028 -0.07643057 -0.021158718 0.038819827 0.06087804 -0.13500836 -0.0045455904
-0.04340798 -0.096117936 -0.03733608 0.03775962 -0.01754926 -0.004707844 -0.0113680465 0.05525582
0.009705081 -0.07334511 0.02710938 -0.012311306 0.019245315 0.0060214107 -0.0968636 0.042647023
-0.030317055 0.16488831 -0.07034426 -0.02249883 0.00601036 0.0049026804 -0.054343022 0.048070014
-0.08701978 0.018363355 0.021678803 -0.07751476 -0.08384405 0.22807753 0.023458129 0.057876818
-0.004072042 0.09937514 0.016427314 -0.062238876 -0.05410518 0.17737493 0.035716783 -0.015254734
-0.06785241 0.104102805 -0.037108757 0.04116558 -0.03021348 0.03959968 0.0053036897 -0.08996369
-0.004483535 -0.0543933 0.045778356 -0.10593147 -0.02169896 0.054702688 -0.08209164 -0.11012272
-0.12286232 0.04727096 -0.04076552 -0.1038507 -0.07880942 -0.009803271 -0.008324166 -0.18264689
0.050781354 -0.07178266 0.005444781 -0.0027081675 -0.048748013 -0.067941405 -0.019432142 0.048355583
0.07204676 -0.11734964 -0.056073867 0.0041316794 0.074750245 0.007950116 0.05549532 -0.010923814
-0.051136553 -0.056964725 0.028784331 0.024648318 0.10731932 0.037466627 -0.08479044 0.05898743
-0.008028189 0.1483315 0.03265492 -0.02821657 -0.003521269 -0.091405615 0.078246236 0.020559233
-0.052419405 -0.021200804 -0.022170387 -0.07487641 -0.07691969 0.094413966 -0.009168241 -0.029147258
00000000: 19e4 983b 39b0 f33d c324 093d 9941 bd3d
00000010: cce3 aabd a543 edbb 4113 1d3d 8c5f dc3c
00000020: c2c4 d4bc 15e2 7a3d f51e 223d eff7 9e3d
00000030: a173 abbd 74b6 39bd 4a44 88bd b8ab 0c3e
00000040: 6af0 eaba 8600 003e 47bb 283d e766 bebb
00000050: 4f47 25be f035 f03d 758d 4ebd e242 dbbc
00000060: 1d6c 853d 960c 3c3d 11f2 b1bd 0c58 08be
00000070: 633b 8d3c df79 d3bc 9fb7 833d 4cd9 e3bd
00000080: 7be1 843d f713 723d 05be 38bc c814 393d
00000090: be3a 013b 8a37 66bd 4bbf 1abc 36f6 06bc
000000a0: 0489 303d f660 033d 2b7c 163d 5191 83bd
000000b0: 89c1 73bb 4428 723d ddb4 fb3a d529 c8bd
000000c0: d75f 0cbb 220c 0abc a033 08bd cc86 853d
000000d0: fcc8 003d 5f53 8cbd d061 1b3d c4b5 e13c
000000e0: 799a c7bb 7541 1c3d d76d faba ddd9 283b
000000f0: 5d01 51bd ca19 04bd 4d57 163c 05e6 5f3d
00000100: 3915 05bd 4b60 263c 4876 26bd f88b 923d
00000110: afa8 bfbd 1199 62be 30e1 6f3d 1270 79bd
00000120: b7cc 3ebd 30aa 7fbd 9362 d5bd c772 e1bc
00000130: b45f f63c a647 a1bd 5d3a a3bc 1014 333d
00000140: ef97 a63d 7ee7 733d 5034 d03c 223e 6c3d
00000150: 3451 41bb 3ccc 373d 9650 29bd 9655 9fbd
00000160: a2af cdbd f09f 1b3d 4a41 5f3d 32fb 8d3d
00000170: d638 d53c 4350 ca3c 1590 b0bd ce76 7bbd
00000180: 5392 173e 5f4c c9bd 9f80 ce3b 7efc f6bd
00000190: 9ab4 cbbd 3680 ba3c afe4 b73a dc98 c8bd
000001a0: ae36 51bb 1678 02be 713d 653c 9437 98bd
000001b0: f270 f53c 66fa d13c c613 32bd 33d4 d93c
000001c0: 162c 993d dc20 48be 01eb 203d c7db 953c
000001d0: 87f4 44bd 27d1 e5ba faa5 b639 6713 4abd
000001e0: 364e d23c ee58 6f3d bd48 bbba 020a 383d
000001f0: 74a5 9b3d aa92 3dbd 8ce8 023d fd62 4139
00000200: 7dab e73c f8ec 403d a395 8bbd 7f85 423b
00000210: dbed a33d 0d26 cb3d fe2d 6d3d b0aa fc3b
00000220: 5e7b 9e3d 3e78 023e aefe 38bd 7bb8 0bbd
00000230: da2a 9d3c cba1 323e 1020 443d 7dad 733d
00000240: b0a6 28bd cbb5 1a3d a187 9cbd 0c55 adbc
00000250: 8a01 1f3d 405b 793d a23f 0abe 2df3 94bb
00000260: 91cc 31bd 7bd9 c4bd b8ed 18bd d5a9 1a3d
00000270: 77c3 8fbc 4244 9abb 0b41 3abc ed53 623d
00000280: 0f02 1f3c f635 96bd 7e14 de3c 5cb5 49bc
00000290: 5aa8 9d3c 414f c53b 6c60 c6bd a5ae 2e3d
000002a0: 795b f8bc 7bd8 283e a710 90bd 774f b8bc
000002b0: 8ef2 c43b aaa6 a03b ca96 5ebd 10e5 443d
000002c0: 6d37 b2bd bf6e 963c bf97 b13c 0fc0 9ebd
000002d0: 6eb6 abbd 288d 693e 432b c03c 3e10 6d3d
000002e0: c46e 85bb 3285 cb3d 9392 863c 31ee 7ebd
000002f0: 659d 5dbd c6a1 353e c34b 123d feee 79bc
00000300: 34f6 8abd da33 d53d 5aff 17bd 3d9d 283d
00000310: 4382 f7bc 4633 223d 93ca ad3b e23e b8bd
00000320: 9eea 92bb 82cb 5ebd 1682 3b3d 99f2 d8bd
00000330: 04c2 b1bc ed0f 603d a91f a8bd 0588 e1bd
00000340: 3d9f fbbd 329f 413d bff9 26bd adaf d4bd
00000350: d566 a1bd e69d 20bc 1562 08bc c907 3bbe
00000360: 1c00 503d ca02 93bd 226a b23b 837b 31bb
00000370: ffab 47bd dd24 8bbd 2830 9fbc 8110 463d
00000380: 408d 933d 0255 f0bd b6ad 65bd 0a63 873b
00000390: a816 993d 3441 023c 104f 633d ccf9 32bc
000003a0: 9074 51bd d853 69bd 1ecd eb3c 45eb c93c
000003b0: 3bca db3d 9b76 193d 9ca6 adbd ce9c 713d
000003c0: aa88 03bc 36e4 173e 2ac1 053d 7026 e7bc
000003d0: 17c5 66bb de32 bbbd 903f a03d d66b a83c
000003e0: bbb5 56bd 4fad adbc ac9e b5bc ce58 99bd
000003f0: 1288 9dbd 1c5c c13d 6436 16bc 3bc6 eebc

fc1.bias f4 [128]
-0.16749975 0.020776689 -0.1819181 -0.045872394 -0.017418895 0.09418898 0.109964184 -0.11374858
-0.0005928521 -0.043881364 -0.12418635 -0.018692028 0.16956373 0.12563203 0.14154725 0.01062
0.18175131 0.039273906 0.15180749 -0.22110672 -0.05374155 -0.28166887 0.050355546 0.12197143
-0.19807085 -0.18372506 0.088990726 0.14249131 -0.09300186 -0.23668292 -0.079397865 -0.14088023
0.08700525 -0.13506469 0.016147783 0.092935756 0.0752393 -0.06570403 0.023711978 0.05196714
0.17180137 -0.007938472 0.01379157 -0.14853033 0.15423778 -0.13589774 0.021619182 -0.18820211
-0.09323863 -0.10121719 0.035718422 0.015875727 0.030287478 -0.02818858 0.07129921 -0.14750488
0.09869143 0.011753744 0.25958133 -0.005328256 -0.09174095 0.105680935 0.20641762 -0.16700643
-0.10105138 -0.0097907465 -0.17236526 -0.008946442 -0.13827588 0.06549049 -0.12231976 0.06395585
0.09508487 -0.19449876 -0.0066773132 0.12788163 0.15764809 -0.07282689 0.072980724 0.049958684
0.10997338 -0.026732884 -0.07220436 -0.07676139 0.00190663 -0.0007144154 -0.14203034 -0.17552908
0.27195504 -0.22387935 -0.113855466 -0.12752637 -0.09850794 -0.20624226 -0.08668334 0.02030122
0.1572686 0.090282425 -0.13566136 -0.1972319 -0.2135955 -0.1657921 -0.08158662 -0.17643137
-0.017993703 0.14777145 -0.09442386 -0.18564628 0.0049144495 0.10547541 -0.12350389 -0.050426707
0.142144 0.1195066 0.1809 -0.18441732 0.20186056 -0.103291124 -0.14020425 0.012167147
0.03846996 -0.032549653 0.22434998 -0.08209979 -0.14810126 -0.12169826 -0.06104412 0.15091187
00000000: 0e85 2bbe e033 aa3c bd48 3abe b1e4 3bbd
00000010: 12b2 8ebc 27e6 c03d e734 e13d 04f5 e8bd
00000020: a269 1bba f2bc 33bd 6a55 febd 0620 99bc
00000030: 1da2 2d3e afa5 003e c3f1 103e 82ff 2d3c
00000040: 041d 3a3e addd 203d 6c73 1b3e cd69 62be
00000050: 1920 5cbd e736 90be 9e41 4e3d 28cc f93d
00000060: 16d3 4abe 6c22 3cbe c540 b63d 3ee9 113e
00000070: c277 bebd 025d 72be 599b a2bd e842 10be
00000080: cf2f b23d 664e 0abe 5b48 843c 1a55 be3d
00000090: 1017 9a3d d68f 86bd 9f3f c23c 7fdb 543d
000000a0: b3ec 2f3e 5d10 02bc 0af6 613c 5618 18be
000000b0: 82f0 1d3e c728 0bbe b61a b13c 0eb8 40be
000000c0: e5f3 bebd f54a cfbd 7b4d 123d d00d 823c
000000d0: 721d f83c bdeb e6bc 5205 923d 850b 17be
000000e0: bc1e ca3d c792 403c d8e7 843e a798 aebb
000000f0: aee2 bbbd 3f6f d83d 245f 533e bc03 2bbe
00000100: 07f4 cebd 5e69 20bc 8580 30be 1994 12bc
00000110: 3198 0dbe e11f 863d c882 fabd 49fb 823d
00000120: dbbb c23d af2a 47be 5dcd dabb 67f3 023e
00000130: 806e 213e 4426 95bd eb76 953d 7aa1 4c3d
00000140: b939 e13d ecfe dabc e1df 93bd 1335 9dbd
00000150: e3e7 f93a 9b47 3bba 6770 11be e5bd 33be
00000160: b13d 8b3e a140 65be 0e2d e9bd 4696 02be
00000170: 88be c9bd 2c31 53be 0987 b1bd be4e a63c
00000180: 050b 213e fee5 b83d d0ea 0abe 29f7 49be
00000190: c7b8 5abe 67c5 29be e316 a7bd 6daa 34be
000001a0: 8867 93bc 6651 173e 4c61 c1bd 0f1a 3ebe
000001b0: 6409 a13b 7e03 d83d 9cef fcbd 3c8c 4ebd
000001c0: 328e 113e e0bf f43d d93d 393e e5d7 3cbe
000001d0: 89b4 4e3e 4c8a d3bd b491 0fbe b758 473c
000001e0: ad92 1d3d c952 05bd 00bc 653e ef23 a8bd
000001f0: dba7 17be f03c f9bd 6609 7abd a488 1a3e

bn1.weight f4 [128]
0.72621816 0.21692863 0.5593791 0.86189955 0.41304758 0.71327084 0.38968265 0.90253145
0.5057015 0.7692447 0.3200965 0.075757645 0.32935593 0.8099936 0.57673526 0.54239273
0.85546535 0.17183386 0.33959064 0.71235305 0.9433893 0.68676186 0.3161254 0.7209081
0.68396467 0.18336616 0.9039542 0.5628356 0.262393 0.09523557 0.64819354 0.40814745
0.54194224 0.20669807 0.70652217 0.28395483 0.89799017 0.57167065 0.60285306 0.8047356
0.8519071 0.52407956 0.90560454 0.20948271 0.82499737 0.8328882 0.2968911 0.3218557
0.9089436 0.92693144 0.24946833 0.5714412 0.16152447 0.7292572 0.12456903 0.3637562
0.8601838 0.88793623 0.899127 0.5789099 0.076104596 0.7751397 0.80134565 0.85847145
0.69834507 0.4853083 0.724015 0.6182519 0.2669546 0.7340882 0.3746262 0.8819157
0.47288528 0.3958529 0.6779979 0.39328888 0.6910634 0.16242056 0.092890054 0.58341897
0.40513203 0.2769992 0.25026494 0.54817796 0.26025608 0.8686096 0.14051811 0.32014212
0.39380482 0.5295618 0.14237164 0.8882502 0.21675232 0.29342705 0.62490565 0.41629565
0.5305886 -0.11592289 0.24193487 0.7960035 0.68896604 0.68543553 0.7282663 0.84946126
0.7290841 0.41510022 0.39749599 0.2594334 0.6359325 0.43537632 0.2796612 0.75397646
0.58672297 0.46036226 0.41857234 0.1612147 0.92541516 0.17903404 0.1424927 0.56734574
0.39260495 0.68808055 0.40456963 0.3518077 0.45313326 0.43770126 0.38981557 0.41164973
00000000: 6fe9 393f 8a22 5e3e 7833 0f3f 73a5 5c3f
00000010: f97a d33e eb98 363f 7c84 c73e 4d0c 673f
00000020: a775 013f 38ed 443f b0e3 a33e d326 9b3d
00000030: 57a1 a83e be5b 4f3f eca4 133f 40da 0a3f
00000040: c7ff 5a3f 37f5 2f3e d3de ad3e c55c 363f
00000050: f681 713f a0cf 2f3f 30db a13e 6f8d 383f
00000060: 4f18 2f3f 57c4 3b3e 8b69 673f fe15 103f
00000070: 6058 863e de0a c33d 03f0 253f b4f8 d03e
00000080: babc 0a3f a9a8 533e a3de 343f 8762 913e
00000090: afe2 653f 0259 123f 9454 1a3f 2703 4e3f
000000a0: 9516 5a3f 142a 063f b3d5 673f a382 563e
000000b0: 0733 533f 2938 553f 1c02 983e 45ca a43e
000000c0: 87b0 683f 614b 6d3f a074 7f3e f849 123f
000000d0: ac66 253e 9ab0 3a3f 0c1e ff3d 413e ba3e
000000e0: 0135 5c3f ca4f 633f 302d 663f 7033 143f
000000f0: badc 9b3d 8e6f 463f fd24 4d3f c9c4 5b3f
00000100: bec6 323f 547a f83e 0c59 393f c245 1e3f
00000110: 46ae 883e 34ed 3b3f 01cf bf3e 3ac5 613f
00000120: 051e f23e 3bad ca3e 4591 2d3f 295d c93e
00000130: 88e9 303f 9351 263e 243d be3d f25a 153f
00000140: 776d cf3e d7d2 8d3e ba22 803e 6455 0c3f
00000150: 4940 853e 335d 5e3f fbe3 0f3e abe9 a33e
00000160: c9a0 c93e 5d91 073f dfc9 113e 5d64 633f
00000170: 52f4 5d3e 123c 963e d1f9 1f3f b424 d53e
00000180: a8d4 073f fb68 edbd c6bd 773e e3c6 4b3f
00000190: 1460 303f b478 2f3f a96f 3a3f 4b76 593f
000001a0: 41a5 3a3f 0488 d43e 9884 cb3e 74d4 843e
000001b0: 79cc 223f a5e9 de3e c12f 8f3e 9a04 413f
000001c0: 7a33 163f 9ab4 eb3e 1d4f d63e 7715 253e
000001d0: 02e8 6c3f b354 373e 9be9 113e 923d 113f
000001e0: 8403 c93e 0c26 303f c023 cf3e 2420 b43e
000001f0: 1501 e83e 611a e03e e895 c73e c1c3 d23e

bn1.bias f4 [128]
-0.062002476 -0.01774967 0.064966515 -0.061854336 -0.032549717 0.09070935 0.017679453 0.039400104
0.009220312 -0.010365689 0.0034041929 -0.07349787 0.047312196 -0.014086376 -0.005607062 0.070955835
-0.041561067 0.14029442 0.0779196 0.09978627 0.07226406 0.07053775 0.0032246008 -0.0060560214
0.03827974 -0.012770776 0.051852897 -0.08927698 0.00043501373 0.19845276 0.08612005 -0.027634192
0.15017262 0.04696697 -0.047138568 0.048809517 0.088537395 0.09533389 0.10151397 0.09944191
-0.06954722 0.028536487 0.02112674 0.117748044 -0.031592432 0.04968099 0.0048017446 0.025775574
-0.008908758 0.04208109 0.08264139 0.0901209 0.08666692 0.13548253 -0.14590219 0.06590765
0.07862794 0.13776852 -0.090810776 0.0071458956 -0.02081174 -0.034683444 0.004601427 -0.0045065866
-0.0675928 -0.008527564 0.09110361 -0.08698442 -0.07300991 0.081128575 0.10016921 0.09590806
0.071025185 -0.07326267 0.01989625 0.021536376 -0.014369145 0.11792945 -0.2099538 -0.028070763
-0.06406198 0.029656103 0.011226571 0.09492476 -0.016197706 0.16041717 -0.04434269 -0.043301187
-0.12119359 0.11525353 -0.076117314 0.11318573 -0.13169704 -0.0025269797 0.055375732 0.10956538
0.020892067 0.12273006 0.22815399 0.09160605 0.068344556 -0.06765601 -0.06050982 0.107170686
-0.13847764 0.01437461 0.038637973 0.1006718 0.035675574 0.028027143 0.060090452 0.1615316
-0.016718367 -0.058724903 0.14277564 0.0442385 0.031760875 -0.12458636 -0.07840381 0.0177134
0.094309136 -0.020143759 -0.052082688 0.042180467 0.14089261 -0.0047017564 0.05230631 -0.0043604146
00000000: 4ff6 7dbd c267 91bc 2a0d 853d f95a 7dbd
00000010: da52 05bd d3c5 b93d 80d4 903c 0162 213d
00000020: cb10 173c dad4 29bc e118 5f3b 0d86 96bd
00000030: 6fca 413d 8bca 66bc 72bb b7bb 4b51 913d
00000040: f03b 2abd 57a9 0f3e 5094 9f3d be5c cc3d
00000050: 2eff 933d 1976 903d d353 533b 9771 c6bb
00000060: 37cb 1c3d 843c 51bc b463 543d d9d6 b6bd
00000070: 8e12 e439 3337 4b3e b55f b03d 1a61 e2bc
00000080: dac6 193e 7060 403d 5f14 41bd 7dec 473d
00000090: 1853 b53d 6a3e c33d 8ee6 cf3d 33a8 cb3d
000000a0: c66e 8ebd 5ac5 e93c fc11 ad3c e325 f13d
000000b0: 1167 01bd 4b7e 4b3d f457 9d3b 4c27 d33c
000000c0: 0af6 11bc 395d 2c3d e43f a93d 4e91 b83d
000000d0: 6d7e b13d efbb 0a3e 6267 15be 97fa 863d
000000e0: af07 a13d 3113 0d3e 00fb b9bd 1e28 ea3b
000000f0: 627d aabc 3a10 0ebd 91c7 963b fdab 93bb
00000100: 186e 8abd 32b7 0bbc 8894 ba3d e324 b2bd
00000110: 3886 95bd bd26 a63d 8425 cd3d 726b c43d
00000120: a775 913d bd0a 96bd 76fd a23c 0e6d b03c
00000130: 906c 6bbc ff84 f13d 21fe 56be a8f4 e5bc
00000140: ed32 83bd 5bf1 f23c a7ef 373c ea67 c23d
00000150: 0db1 84bc 6644 243e aea0 35bd 965c 31bd
00000160: 5834 f8bd 0b0a ec3d 65e3 9bbd eccd e73d
00000170: 97db 06be af9b 25bb aad1 623d d063 e03d
00000180: d725 ab3c e659 fb3d 33a1 693e f49b bb3d
00000190: 3bf8 8b3d 3c8f 8abd 25d9 77bd 4e7c db3d
000001a0: 15cd 0dbe 7c83 6b3c da42 1e3d 042d ce3d
000001b0: 8d20 123d 2e99 e53c 6821 763d 8a68 253e
000001c0: f5f4 88bc 8689 70bd c733 123e 6e33 353d
000001d0: b117 023d 2227 ffbd 2d92 a0bd b11b 913c
000001e0: 2625 c13d 8604 a5bc a854 55bd 6dc5 2c3d
000001f0: 2746 103e 3111 9abb 243f 563d cfe1 8ebb

bn1.running_mean f4 [128]
1.2270632 0.15757543 0.13126811 0.6982689 0.3707274 0.81805634 1.2580714 1.9075704
1.4451072 0.23372659 1.2525215 2.5739486 0.70907176 0.86321783 0.48963022 0.06268747
1.0438634 3.2537508 0.08080055 0.39760083 0.84164166 1.0569116 2.0318727 0.5062345
0.43096298 0.42220503 0.44479445 0.6781837 1.7399209 0.507208 0.89777815 0.47428948
1.260703 0.947043 0.55155486 0.08537499 1.0580109 1.2345049 0.7722354 0.23479617
0.86846435 0.98003846 0.2721653 0.19556847 0.5331893 0.37632105 1.0973921 0.044443358
1.5354936 0.18041448 0.22381684 0.06571195 0.77458245 2.7788267 0.30999872 0.35929784
0.79253983 1.0792828 1.0750511 0.9557229 1.7229917 0.82217276 1.4975549 2.2742398
0.88258517 0.3890363 0.9148814 0.57742715 0.7943131 0.45140803 0.58427703 0.48521838
0.3156513 0.74599034 1.0460141 1.6660405 0.8531588 0.4567178 0.21940064 0.3876628
0.20268154 0.982829 0.029052626 0.6157986 1.4294533 0.6917125 0.73743755 1.233954
0.82785 0.83800346 0.29741603 0.37222534 0.091464534 0.701307 0.1872888 0.64209473
2.695874 0.48153788 0.8205106 0.90036654 0.34358704 0.24991179 0.41865113 0.67498523
1.4377408 0.2202571 0.03495116 0.1937421 1.9584273 1.923243 0.58835036 0.48829353
0.1325751 0.5795454 0.089189865 0.6980664 2.8716412 0.0524575 0.15614516 1.8396978
0.08127488 0.9459259 1.3963865 0.21721596 0.74472904 0.5685321 0.33906713 1.6967267
00000000: 6810 9d3f 745b 213e 266b 063e c0c1 323f
00000010: fbcf bd3e 246c 513f 7c08 a13f 442b f43f
00000020: 46f9 b83f 0656 6f3e a052 a03f 93bb 2440
00000030: ba85 353f d8fb 5c3f d0b0 fa3e 4a62 803d
00000040: 519d 853f 743d 5040 c27a a53d 5692 cb3e
00000050: d475 573f e148 873f 340a 0240 9698 013f
00000060: 2ea7 dc3e 422b d83e 19bc e33e 729d 2d3f
00000070: bab5 de3f 62d8 013f cad4 653f 12d6 f23e
00000080: b75e a13f 6971 723f b332 0d3f 15d9 ae3d
00000090: e76c 873f 4204 9e3f 38b1 453f 686e 703e
000000a0: ae53 5e3f cde3 7a3f 4059 8b3e 1a43 483e
000000b0: 187f 083f 27ad c03e 5877 8c3f 3d0a 363d
000000c0: 0e8b c43f 93be 383e 3e30 653e fd93 863d
000000d0: 094b 463f 4cd8 3140 27b8 9e3e e3f5 b73e
000000e0: e4e3 4a3f f025 8a3f 469b 893f 42aa 743f
000000f0: fe8a dc3f ea79 523f e1af bf3f 258d 1140
00000100: 1af1 613f c42f c73e ab35 6a3f 44d2 133f
00000110: 1a58 4b3f f41e e73e 2e93 153f 8b6e f83e
00000120: 0c9d a13e 39f9 3e3f cae3 853f d140 d53f
00000130: 9d68 5a3f ead6 e93e 90aa 603e bd7b c63e
00000140: c08b 4f3e ae9a 7b3f c6ff ed3c faa4 1d3f
00000150: 53f8 b63f 1214 313f b5c8 3c3f 34f2 9d3f
00000160: faed 533f 6587 563f ea46 983e 5294 be3e
00000170: c251 bb3d db88 333f a3c8 3f3e 5260 243f
00000180: 3389 2c40 228c f63e fc0c 523f 6c7e 663f
00000190: a4ea af3e e0e8 7f3e 7159 d63e d5cb 2c3f
000001a0: e407 b83f 148b 613e f328 0f3d 5464 463e
000001b0: bfad fa3f d42c f63f 219e 163f 9c01 fa3e
000001c0: c4c1 073e 165d 143f 2da9 b63d 7bb4 323f
000001d0: f8c8 3740 addd 563d 84e4 1f3e 387b eb3f
000001e0: 7273 a63d 3328 723f cbbc b23f dc6d 5e3e
000001f0: 90a6 3e3f 528b 113f 359a ad3e 572e d93f

bn1.running_var f4 [128]
2.3133025 0.16737638 0.113398045 1.6854773 0.56183726 1.0270338 5.7420115 3.7705743
3.048732 0.296226 1.741326 4.639368 0.9840906 1.34021 0.5532152 0.053206615
0.98509926 9.881019 0.060420357 0.33898312 0.33232114 1.0414721 5.780864 0.32132143
0.5958931 0.4581728 0.59071195 0.50266033 1.319052 0.50046426 1.2203485 0.5663814
1.3834164 0.57227063 0.64889187 0.026549578 1.0080534 1.5841817 3.8680506 0.11417639
1.0805354 1.4221559 0.25679725 0.2038014 0.5386539 0.27750584 2.218152 0.02975311
0.68202394 0.051838 0.118933365 0.03844412 0.93936217 4.2679806 0.31415278 0.40984434
1.1173917 1.5238795 1.9029437 1.6410141 3.1538448 1.2373382 3.4647565 1.9782226
1.4222031 0.3904314 0.7023035 0.7029465 1.0876138 1.0170927 0.5943112 0.34899232
0.40867126 0.99491787 2.0596685 3.0064876 1.3389653 0.6044408 0.27704448 0.33138946
0.23958918 1.3592829 0.019660726 1.3295124 2.936481 1.0637958 0.80793786 1.4783597
0.5710334 1.2548957 0.43187368 0.44604918 0.07239128 0.9834188 0.13360746 0.73229593
3.1335576 0.59748036 1.4262785 1.3731304 0.26881456 0.30917433 0.66057914 0.85294867
2.131191 0.14533505 0.016741132 0.26183453 2.6223783 3.0876565 0.8105387 0.3916852
0.12823707 0.60291773 0.084318735 3.084197 3.057323 0.031477936 0.16869201 5.241419
0.063712716 3.0342042 1.7941811 0.25446856 1.6919848 0.68062747 0.5790896 2.989288
00000000: 260d 1440 b764 2b3e 3c3d e83d b8bd d73f
00000010: 91d4 0f3f d875 833f 8fbe b740 1751 7140
00000020: 6d1e 4340 efaa 973e c5e3 de3f b475 9440
00000030: 5ded 7b3f 008c ab3f 839f 0d3f 2eef 593d
00000040: 772f 7c3f a718 1e41 567b 773d 328f ad3e
00000050: ff25 aa3e f54e 853f d6fc b840 3e84 a43e
00000060: 738c 183f a095 ea3e e638 173f 59ae 003f
00000070: b2d6 a83f 6d1e 003f 6134 9c3f 5ffe 103f
00000080: ca13 b13f 5480 123f c71d 263f 807e d93c
00000090: e507 813f 77c6 ca3f 248e 7740 50d5 e93d
000000a0: fc4e 8a3f 3409 b63f ee7a 833e 50b1 503e
000000b0: 39e5 093f 3f15 8e3e 34f6 0d40 cbbc f33c
000000c0: 1f99 2e3f 1554 543d 5693 f33d 9577 1d3d
000000d0: 0a7a 703f 4c93 8840 a2d8 a03e 1ed7 d13e
000000e0: b106 8f3f 7c0e c33f a993 f33f c00c d23f
000000f0: 98d8 4940 1961 9e3f 92be 5d40 6636 fd3f
00000100: c00a b63f a0e6 c73e 2aca 333f 4df4 333f
00000110: ee36 8b3f 1830 823f c724 183f 1faf b23e
00000120: 5c3d d13e f0b2 7e3f 9cd1 0340 4b6a 4040
00000130: 3763 ab3f a2bc 1a3f c6d8 8d3e e1ab a93e
00000140: de56 753e fbfc ad3f 880f a13c 762d aa3f
00000150: 4eef 3b40 762a 883f 04d5 4e3f e43a bd3f
00000160: 3f2f 123f 6ca0 a03f 8c1e dd3e 8f60 e43e
00000170: e141 943d 56c1 7b3f 65d0 083e bf77 3b3f
00000180: 358c 4840 79f4 183f 4b90 b63f bdc2 af3f
00000190: 10a2 893e 194c 9e3e b71b 293f d85a 5a3f
000001a0: 6f65 0840 b6d2 143e b324 893c 2d0f 863e
000001b0: 0cd5 2740 2a9c 4540 777f 4f3f f68a c83e
000001c0: 9450 033e d158 1a3f 4daf ac3d 7c63 4540
000001d0: 2eab 4340 02ef 003d 99bd 2c3e b4b9 a740
000001e0: d07b 823d 6730 4240 baa7 e53f b449 823e
000001f0: f592 d83f 9a3d 2e3f 373f 143f 7f50 3f40

fc2.weight f4 [64, 128]
-0.011770369 0.23857942 0.03395692 0.07175785 0.016907807 -0.043366905 -0.010387588 0.08843238
0.1333925 0.016859137 -0.034358833 0.041365527 0.04532363 0.0029745684 -0.10281102 0.045634434
0.029105935 -0.049480148 0.0046356814 0.031279244 -0.06033165 0.046705015 0.067656614 0.04258428
-0.052735955 -0.0958602 0.018678574 -0.028112365 -0.07780972 0.021443235 0.0030075181 -0.030996555
0.08458487 0.1482789 -0.08501264 0.10781251 -0.013367557 0.034723382 0.09724769 -0.071287684
0.0648831 0.1317308 -0.033014875 -0.18923233 -0.043935042 0.02992383 -0.02517644 0.042024404
-0.008355343 -0.17847648 0.122975394 0.020000381 -0.040344976 0.04550958 -0.08283435 -0.11314399
-0.009128533 0.10491809 -0.081722245 0.024137955 0.04875939 -0.02922279 0.056014445 0.1458958
-0.10012728 0.05026093 -0.09515816 0.07240385 -0.02633458 -0.08482311 -0.024806648 -0.1162988
-0.08882004 -0.011020767 -0.004072449 0.08293882 0.033479627 -0.080786064 0.057311676 -0.028199771
0.04846242 -0.098921716 0.11369333 0.040778227 -0.19759198 -0.098052666 0.0026247143 -0.03350817
0.07538438 0.015262464 -0.0074615637 -0.082349345 0.15122147 0.07652905 -0.013040712 -0.08202472
0.024496384 -0.096882865 -0.05772894 0.076547444 0.018908488 0.008987966 0.07063389 -0.00022073906
-0.085903056 -0.08470185 0.15969305 0.17465375 0.057044666 -0.11287583 -0.055004183 -0.11762426
-0.028903859 0.08803104 0.103638195 -0.108359344 -0.16378534 0.12648329 0.07375655 0.014561568
-0.034979835 -0.055157114 0.018399287 -0.09980584 -0.07123132 -0.16245818 -0.011717058 -0.11480097
0.030217385 -0.13129605 -0.043092314 0.060771506 0.051752415 -0.12356635 0.07139088 0.02590142
-0.119413786 -0.03349014 0.036190554 -0.0044951476 -0.0077727186 0.15142724 0.13059899 -0.04235822
0.050555583 -0.11243442 -0.098197095 -0.033351384 -0.026547488 -0.035245724 -0.030082315 -0.014177673
0.017034896 0.089004055 0.07537293 -0.11089241 0.016237011 -0.09351167 0.06260554 0.09468774
-0.039843258 0.070530385 0.0039176377 0.09942497 -0.12620066 0.094469 -0.12395393 -0.028029535
0.026967768 -0.032279465 0.071872115 0.04466369 0.1012499 0.08866356 -0.013092599 0.05503924
-0.061998554 -0.063430935 0.016790163 0.05709139 -0.09392354 -0.063759185 -0.06388802 0.043532327
-0.06887864 -0.12656163 -0.06332678 -0.027766993 -0.07907687 -0.024326606 -0.009345419 0.1176516
-0.057131317 0.03770324 0.0034077622 -0.024602873 0.08848799 0.02130443 -0.065587126 -0.112265624
0.045693155 0.073177055 0.027035963 -0.0773239 -0.10492746 0.060406636 0.1882024 -0.14103666
0.07769956 -0.0041591036 0.0017052352 -0.085439384 0.04153046 -0.044886507 -0.12592871 0.05467928
0.079909466 0.0030630343 0.06416158 -0.001929164 0.07758771 -0.036481347 -0.02578897 -0.09271925
0.11840338 -0.19664578 -0.12753361 0.050714623 -0.08947719 0.10132094 0.08865847 -0.05456594
-0.02838106 0.02974428 0.05759079 0.065374285 -0.022834465 -0.013197533 0.03161572 0.052510444
0.09016824 0.07110915 -0.043736815 -0.100797154 -0.055637866 -0.04287545 -0.043560516 -0.12050275
-0.050549705 -0.13947429 -0.07282325 -0.050570827 0.061249238 0.10527914 -0.1346229 -0.1118154
00000000: 81d8 40bc 2a4e 743e 6916 0b3d c8f5 923d
00000010: 3e82 8a3c 7fa1 31bd b430 2abc 091c b53d
00000020: 0b98 083e 2c1c 8a3c d9bb 0cbd e66e 293d
00000030: 45a5 393d faf0 423b 968e d2bd 2ceb 3a3d
00000040: 926f ee3c b2ab 4abd eae6 973b aa1e 003d
00000050: 521e 77bd c24d 3f3d 8d8f 8a3d db6c 2e3d
00000060: a801 58bd 5a52 c4bd cf03 993c e74b e6bc
00000070: b45a 9fbd b9a9 af3c c819 453b 7dec fdbc
00000080: d53a ad3d 6dd6 173e 1b1b aebd cecc dc3d
00000090: 9903 5bbc 1b3a 0e3d cc29 c73d 47ff 91bd
000000a0: 6ee1 843d 70e4 063e 9b3a 07bd 1fc6 41be
000000b0: 3bf5 33bd d222 f53c d23e cebc c821 2c3d
000000c0: d9e4 08bc 8ac2 36be 86da fb3d d7d7 a33c
000000d0: c640 25bd 4168 3a3d 0ea5 a9bd 09b8 e7bd
000000e0: d88f 15bc 4cdf d63d fe5d a7bd f6bc c53c
000000f0: edb7 473d a264 efbc 676f 653d b565 153e
00000100: 880f cdbd 68de 4d3d 48e2 c2bd 7848 943d
00000110: 9ebb d7bc bdb7 adbd 5037 cbbc 112e eebd
00000120: 48e7 b5bd 7290 34bc 2e72 85bb d4db a93d
00000130: ef21 093d 2a73 a5bd a6bf 6a3d 3503 e7bc
00000140: 8880 463d 7897 cabd 0cd8 e83d 1207 273d
00000150: 8d55 4abe d6cf c8bd 6603 2c3b dd3f 09bd
00000160: 2063 9a3d 6a0f 7a3c 2280 f4bb c6a6 a8bd
00000170: cdd9 1a3e 43bb 9c3d b6a8 55bc 94fc a7bd
00000180: a4ac c83c 866a c6bd 2e75 6cbd e8c4 9c3d
00000190: f9e5 9a3c 4342 133c 80a8 903d 3176 67b9
000001a0: f1ed afbd 2a78 adbd 9386 233e 6fd8 323e
000001b0: aba7 693d 712b e7bd 114c 61bd fde4 f0bd
000001c0: c9c7 ecbc 9e49 b43d 4340 d43d 81eb ddbd
000001d0: 58b7 27be d684 013e ad0d 973d a593 6e3c
000001e0: 0447 0fbd 6dec 61bd 1aba 963c 0167 ccbd
000001f0: bae1 91bd 705b 26be e7f8 3fbc c51c ebbd
00000200: 738a f73c 7972 06be 9181 30bd 8beb 783d
00000210: 57fa 533d 5b10 fdbd 6235 923d 372f d43c
00000220: 378f f4bd f52c 09bd 8c3c 143d 084c 93bb
00000230: 4ab2 febb be0f 1b3e bebb 053e d07f 2dbd
00000240: 5f13 4f3d 0444 e6bd 8f1b c9bd 769b 08bd
00000250: 1e7a d9bc d25d 10bd 306f f6bc 7849 68bc
00000260: c48c 8b3c c247 b63d 1f5d 9a3d 8f1b e3bd
00000270: 7b03 853c 0c83 bfbd 5537 803d a5eb c13d
00000280: af32 23bd 3c72 903d 875f 803b 529f cb3d
00000290: bf3a 01be f778 c13d 8fdb fdbd 329e e5bc
000002a0: 82eb dc3c 7937 04bd b031 933d 46f1 363d
000002b0: 1c5c cf3d 3e95 b53d 5782 56bc d370 613d
000002c0: 32f2 7dbd 14e8 81bd 868b 893c a9d8 693d
000002d0: fc5a c0bd 2d94 82bd b9d7 82bd f44e 323d
000002e0: 3f10 8dbd 5f99 01be 79b1 81bd 9b77 e3bc
000002f0: 0ef3 a1bd 9748 c7bc 871d 19bc 52f3 f03d
00000300: 8702 6abd b66e 1a3d c354 5f3b f78b c9bc
00000310: 3139 b53d a186 ae3c 8b52 86bd 85eb e5bd
00000320: bf28 3b3d dadd 953d 867a dd3c fe5b 9ebd
00000330: 35e4 d6bd f36c 773d 21b8 403e ea6b 10be
00000340: f220 9f3d 1749 88bb 3382 df3a d8fa aebd
00000350: d81b 2a3d eada 37bd 75f3 00be 61f7 5f3d
00000360: 93a7 a33d 30bd 483b 2567 833d 01dc fcba
00000370: 4ee6 9e3d 776d 15bd 6443 d3bc 97e3 bdbd
00000380: 797d f23d 835d 49be 2c98 02be 23ba 4f3d
00000390: d13f b7bd 5a81 cf3d 9292 b53d 8980 5fbd
000003a0: 667f e8bc 47aa f33c 52e4 6b3d f4e2 853d
000003b0: 580f bbbc 773a 58bc 7c7f 013d 3115 573d
000003c0: 20aa b83d ada1 913d 6025 33bd bd6e cebd
000003d0: 88e4 63bd 2b9e 2fbd 836c 32bd 25ca f6bd
000003e0: 350d 4fbd 59d2 0ebe 5b24 95bd 5b23 4fbd
000003f0: 7be0 7a3d 979c d73d 96da 09be 79ff e4bd

fc2.bias f4 [64]
-0.11698644 -0.025126722 -0.007866291 -0.08177484 0.02417073 0.023366548 0.1281053 0.022219123
-0.14551368 0.047851186 -0.03405061 0.026236113 0.036176816 -0.014908283 -0.05111263 -0.063016206
0.067334406 -0.05804477 -0.15038523 0.06910409 -0.099075094 -0.09265622 0.08780948 -0.096108824
0.012813778 -0.007855598 0.008000383 -0.08547289 -0.13824207 0.03313564 -0.112634726 -0.086475246
-0.14910771 -0.13552858 -0.13986579 -0.14844164 -0.08206847 -0.13158529 -0.16480018 -0.073384546
-0.072265916 -0.097784266 -0.10928736 -0.10132596 -0.01681546 -0.04184469 0.08485341 0.019181134
-0.05947376 -0.12187618 -0.1335375 -0.07158751 -0.060626164 -0.12891118 -0.09634194 -0.03621918
-0.14911589 -0.06018882 0.038199138 -0.08769008 -0.04917445 -0.16670398 -0.08586828 -0.043519523
00000000: 9696 efbd 8ed6 cdbc 9ee1 00bc 9179 a7bd
00000010: b201 c63c 346b bf3c 092e 033e e104 b63c
00000020: 8a01 15be 9bff 433d a778 0bbd 1eed d63c
00000030: 242e 143d df41 74bc 7a5b 51bd a40e 81bd
00000040: 9fe6 893d 5ac0 6dbd 96fe 19be 7286 8d3d
00000050: e2e7 cabd 8bc2 bdbd 75d5 b33d b4d4 c4bd
00000060: e1f0 513c c4b4 00bc 0a14 033c 690c afbd
00000070: 548f 0dbe 3db9 073d 09ad e6bd ef19 b1bd
00000080: b1af 18be 01c8 0abe fa38 0fbe 1601 18be
00000090: 8413 a8bd 4bbe 06be 61c1 28be a34a 96bd
000000a0: 2700 94bd 1e43 c8bd 0dd2 dfbd fc83 cfbd
000000b0: 93c0 89bc 5665 2bbd a0c7 ad3d c121 9d3c
000000c0: c29a 73bd 389a f9bd 0ebe 08be 799c 92bd
000000d0: 2453 78bd 4b01 04be ec4e c5bd 905a 14bd
000000e0: d6b1 18be 8d88 76bd b376 1c3d db96 b3bd
000000f0: 266b 49bd 73b4 2abe b5db afbd 8741 32bd

bn2.weight f4 [64]
0.92124677 0.6402798 0.58899224 0.7460007 0.75851905 0.6204554 0.5899038 0.82042056
0.15527087 0.27663028 0.47352642 0.831505 0.8383786 0.31596714 0.19475174 0.88536614
0.19793832 0.4623791 0.40751356 0.8690699 0.27318776 0.09218906 0.20209672 0.40783572
0.28267515 0.8900535 0.5731999 0.7915707 0.10588027 0.32189393 0.6497739 0.29308742
0.13788375 0.7082671 0.2254956 0.6493445 0.8115862 0.36600238 0.12618238 0.1428882
0.31188422 0.6284734 0.8496475 0.92815244 0.11762247 0.8422778 0.6624437 0.3695335
0.57162243 0.95301133 0.74028474 0.5495321 0.2295686 0.11689456 0.36259192 0.2713382
0.79393005 0.47545218 0.6495551 0.16902953 0.57019675 0.86227363 0.3342358 0.6094267
00000000: d4d6 6b3f 61e9 233f 32c8 163f e7f9 3e3f
00000010: 4e2e 423f 2ad6 1e3f ef03 173f 1507 523f
00000020: 54ff 1e3e 7ca2 8d3e 0e72 f23e 83dd 543f
00000030: fb9f 563f 72c6 a13e 006d 473e 5ba7 623f
00000040: 58b0 4a3e f4bc ec3e 9ea5 d03e 5d7b 5e3f
00000050: 44df 8b3e 9ecd bc3d 71f2 4e3e d8cf d03e
00000060: ccba 903e 8cda 633f 3bbd 123f 61a4 4a3f
00000070: c1d7 d83d 48cf a43e 9557 263f 8e0f 963e
00000080: 6631 0d3e fe50 353f 52e8 663e 713b 263f
00000090: 1dc4 4f3f aa64 bb3e f435 013e 4951 123e
000000a0: 4aaf 9f3e a2e3 203f 8082 593f 669b 6d3f
000000b0: 0de4 f03d 859f 573f e995 293f 7f33 bd3e
000000c0: d955 123f 8df8 733f 4d83 3d3f 23ae 0c3f
000000d0: 0814 6b3e 6a66 ef3d a6a5 b93e d7ec 8a3e
000000e0: 003f 4b3f 786e f33e 3e49 263f 1416 2d3e
000000f0: 6af8 113f f7bd 5c3f f420 ab3e 6303 1c3f

bn2.bias f4 [64]
7.914262e-06 -1.6304373e-05 3.283774e-07 4.045933e-06 1.3651805e-05 -1.0150575e-05 -6.2288277e-06 1.6054871e-06
-5.2124626e-05 1.5444878e-06 -1.45333825e-05 3.0948573e-07 -7.0494543e-06 8.824176e-06 -1.957948e-05 -2.3178015e-06
-4.3383448e-06 -1.3548749e-05 4.8273605e-06 3.363847e-06 8.771673e-06 -5.9935137e-06 -2.215791e-05 -1.30940025e-05
-4.715546e-05 8.6199094e-07 -6.1095534e-06 2.4765682e-06 3.7414793e-05 -2.8003487e-05 1.420138e-05 -3.2889857e-05
-1.2866376e-06 -6.48318e-06 -2.2027396e-05 -3.0574447e-06 3.466164e-06 -1.224856e-05 2.1331129e-05 4.706855e-06
2.687324e-07 1.1324141e-06 -4.7551985e-06 4.6102814e-06 -2.4526444e-05 1.6867107e-05 2.0193234e-05 -1.3056689e-05
-5.654609e-06 -8.1464295e-06 -1.4145021e-06 -9.1604015e-06 -1.7396274e-05 -3.4438694e-05 6.389678e-06 1.9287963e-05
6.9212906e-06 -2.3457162e-05 -5.183736e-05 -1.9272018e-06 1.1367693e-05 1.455774e-05 1.8228771e-05 -3.8940475e-06
00000000: 7fc7 0437 60c5 88b7 d94b b034 4dc2 8736
00000010: 0e0a 6537 634c 2ab7 3901 d1b6 1e7c d735
00000020: 64a0 5ab8 324c cf35 67d4 73b7 6527 a634
00000030: 5a8a ecb6 8c0b 1437 9d3e a4b7 878b 1bb6
00000040: 1992 91b6 6f4f 63b7 b6fa a136 74be 6136
00000050: 0c2a 1337 e41b c9b6 c0df b9b7 50ae 5bb7
00000060: cac8 45b8 9163 6735 aa00 cdb6 1e33 2636
00000070: d4ed 1c38 08e9 eab7 7642 6e37 37f3 09b8
00000080: 88b0 acb5 188a d9b6 79c7 b8b7 802e 4db6
00000090: 3e9c 6836 2a7f 4db7 40f0 b237 94ef 9d36
000000a0: 4d46 9034 74fd 9735 d88e 9fb6 04b2 9a36
000000b0: 23be cdb7 d67d 8d37 a464 a937 0d0e 5bb7
000000c0: b9bc bdb6 a6ac 08b7 ecd9 bdb5 a0af 19b7
000000d0: 37ee 91b7 4472 10b8 eb66 d636 96cc a137
000000e0: 6f3d e836 dfc5 c4b7 f16b 59b8 1355 01b6
000000f0: dfb7 3e37 043d 7437 fde9 9837 9da9 82b6

bn2.running_mean f4 [64]
0.15392101 0.09043776 0.15241058 0.022197315 0.22377259 0.13574466 0.37101042 0.16285327
0.018595288 0.1935473 0.18160181 0.23042956 0.17216176 0.19507644 0.10613166 0.21423097
0.23538052 0.14079444 0.002252971 0.3512025 0.0377945 0.08951016 0.31667775 0.032442108
0.27827603 0.248243 0.05201627 0.027981263 0.058888964 0.17050086 0.06918242 0.007388468
0.036181286 0.08248244 0.006440918 0.056579113 0.026585342 0.13148302 0.04249742 0.035069928
0.08987669 0.13454732 0.10509564 0.23764546 0.08204517 0.08125519 0.22463392 0.05169212
0.10567703 0.16845486 0.13705036 0.24412124 0.24415754 0.08993925 0.029375555 0.08505644
0.11601156 0.08250512 0.037388425 0.096916914 0.19302545 0.016643452 0.1999528 0.0853863
00000000: 789d 1d3e 6f37 b93d 8511 1c3e 25d7 b53c
00000010: a424 653e a600 0b3e 14f5 bd3e 02c3 263e
00000020: 2555 983c 4331 463e d3f5 393e baf5 6b3e
00000030: 2c4b 303e 1ec2 473e 8e5b d93d 5d5f 5b3e
00000040: 9707 713e 6b2c 103e 95a6 133b d0d0 b33e
00000050: 68ce 1a3d 1a51 b73d 9623 a23e 04e2 043d
00000060: 327a 8e3e 6a33 7e3e 030f 553d f638 e53c
00000070: 8e35 713d c797 2e3e 83af 8d3d f61a f23b
00000080: d432 143d 8eec a83d 560e d33b 80bf 673d
00000090: 81c9 d93c 7ca3 063e c611 2e3d 7ca5 0f3d
000000a0: 4511 b83d c6c6 093e 623c d73d 5559 733e
000000b0: 4c07 a83d 1f69 a63d 6f06 663e 1ebb 533d
000000c0: 336d d83d 6e7f 2c3e ee56 0c3e ebfa 793e
000000d0: 6f04 7a3e 1232 b83d 01a5 f03c 1232 ae3d
000000e0: 7897 ed3d 72f8 a83d 9b24 193d 607c c63d
000000f0: 77a8 453e d957 883c 6dc0 4c3e 03df ae3d

bn2.running_var f4 [64]
0.074036404 0.045085646 0.044493474 0.004796259 0.08696449 0.030274794 0.097502604 0.06926842
0.004769922 0.07042963 0.067258395 0.100209855 0.04914642 0.10939696 0.026470125 0.10902931
0.08135301 0.09286226 0.00019725754 0.14990224 0.0079154195 0.030446459 0.1387776 0.008646534
0.11747022 0.12536131 0.018829381 0.006418049 0.019011939 0.05777915 0.027774293 0.0011536845
0.008359438 0.04355924 0.0009549136 0.020585338 0.008676104 0.08515182 0.016112423 0.008403908
0.03191983 0.06937952 0.04893564 0.11467979 0.01810892 0.018559286 0.10221824 0.010553323
0.03777665 0.079796664 0.05796873 0.13056178 0.0875259 0.026520126 0.0064272303 0.029007835
0.05410445 0.024167344 0.006844422 0.03705799 0.09783 0.0041892445 0.078444056 0.033062585
00000000: 66a0 973d baab 383d ca3e 363d f029 9d3b
00000010: 701a b23d d802 f83c 72af c73d 9adc 8d3d
00000020: 014d 9c3b 693d 903d c5be 893d d33a cd3d
00000030: c24d 493d 830b e03d e0d7 d83c c24a df3d
00000040: 689c a63d 922e be3d ebd6 4e39 f97f 193e
00000050: adaf 013c da6a f93c b71b 0e3e 31aa 0d3c
00000060: 3a94 f03d b75e 003e 1340 9a3c 7f4e d23b
00000070: edbe 9b3c d4a9 6c3d ea86 e33c 3a37 973a
00000080: 06f6 083c 2c6b 323d 2b53 7a3a 95a2 a83c
00000090: 3826 0e3c 1464 ae3d 33fe 833c 8cb0 093c
000000a0: 5ebe 023d da16 8e3d bd70 483d 3ddd ea3d
000000b0: 2859 943c a509 983c cc57 d13d d8e7 2c3c
000000c0: b0bb 1a3d 6f6c a33d 9e70 6d3d fdb1 053e
000000d0: c740 b33d bc40 d93c 849b d23b d7a1 ed3c
000000e0: a19c 5d3d 98fa c53c 2c47 e03b 1eca 173d
000000f0: 185b c83d ee45 893b 47a7 a03d a26c 073d

fc3.weight f4 [2, 64]
-0.0058294246 0.015179548 -0.009880105 0.020152409 0.011020328 0.03178974 0.0009858476 -0.013962944
-0.04539289 -0.027093649 0.004975148 0.010618518 -0.020259736 -0.00561228 0.07576944 -0.008051453
0.03284684 -0.0019572773 -0.059010208 0.0032353883 0.052723236 0.072237335 0.033316437 -0.011176253
-0.00311232 -0.010840433 0.011174685 0.019627487 0.080382094 0.054696493 0.023746688 -0.0152210845
-0.09317258 -0.02405989 -0.08731497 -0.012649838 -0.039436255 -0.025053486 0.012578078 -0.046009623
-0.023051567 -0.012326102 -0.013025005 0.012082797 0.07670779 -0.014221072 0.014791418 -0.008843286
0.0003071437 -0.0010116848 0.00957245 -0.015042892 0.026176477 -0.0051423004 0.044124167 -0.019537626
-0.0076095066 -0.021256428 -0.04541107 0.04301352 0.015511388 0.000982826 0.059799757 -0.040704634
0.0127873495 -0.010268645 0.013523145 0.013257944 -0.009558128 0.008175092 0.01345261 -0.038269375
0.020534672 0.028685767 0.025799459 -0.0092569385 0.014698732 -0.03463678 -0.022155315 0.0044933353
0.010601332 0.03881572 0.0070953015 -0.01779966 0.0043317135 -0.05434563 0.046101186 0.029934414
0.0426595 0.0052343453 0.023954185 0.03079013 0.06443566 0.03458092 -0.018301819 0.020489754
-0.06727996 -0.013840254 -0.035343852 0.0029530139 0.002160243 -0.0006248182 -0.091102056 -0.0010569507
-0.071768895 -0.003253913 0.020080049 0.00082803593 0.02003054 -0.0069484366 -0.017384985 0.025573045
0.046483375 0.016047034 -0.024465816 0.022371741 0.017515903 0.07971715 -0.0073908637 -0.04996137
-0.014901187 -0.0011926276 -0.0074989693 0.07954924 -0.030038347 -0.022456964 0.005688223 -0.020573355
00000000: c204 bfbb a4b3 783c 2ae0 21bc aa16 a53c
00000010: 9b8e 343c f535 023d 8e37 813a d5c4 64bc
00000020: e5ed 39bd 80f3 ddbc 9106 a33b 4bf9 2d3c
00000030: bff7 a5bc 38e7 b7bb 022d 9b3d 3eea 03bc
00000040: 688a 063d aa45 00bb b0b4 71bd cf08 543b
00000050: 52f4 573d 2bf1 933d d176 083d 9a1c 37bc
00000060: 11f8 4bbb 129c 31bc 0716 373c d3c9 a03c
00000070: 5e9f a43d 6e09 603d 6a88 c23c db61 79bc
00000080: 44d1 bebd 3f19 c5bc 31d2 b2bd 4441 4fbc
00000090: e987 21bd f83c cdbc 4814 4e3c 9674 3cbd
000000a0: a4d6 bcbc 6bf3 49bc d566 55bc ecf6 453c
000000b0: f918 9d3d 80ff 68bc b457 723c 6ee3 10bc
000000c0: 2108 a139 829a 84ba c4d5 1c3c 7676 76bc
000000d0: 0d70 d63c be80 a8bb 8bbb 343d 5f0d a0bc
000000e0: 2b59 f9bb f621 aebc f500 3abd f22e 303d
000000f0: 7a23 7e3c 2bd2 803a 97f0 743d e7b9 26bd
00000100: 0882 513c d23d 28bc 2e90 5d3c d937 593c
00000110: b299 1cbc d2f0 053c 5668 5c3c 59c0 1cbd
00000120: 5438 a83c 6afe ea3c 6359 d33c 6aaa 17bc
00000130: f3d2 703c 4cdf 0dbd 107f b5bc d43c 933b
00000140: 36b1 2d3c 3bfd 1e3d b47f e83b 98d0 91bc
00000150: 0cf1 8d3b 8699 5ebd 99d4 3c3d 0439 f53c
00000160: babb 2e3d df84 ab3b 913b c43c 953b fc3c
00000170: d8f6 833d b9a4 0d3d b2ed 95bc 21da a73c
00000180: 13ca 89bd 3cc2 62bc b7c4 10bd 5a87 413b
00000190: dd92 0d3b d7ca 23ba b793 babd 6189 8aba
000001a0: 92fb 92bd 9a3f 55bb ea7e a43c 8d10 593a
000001b0: 1617 a43c b6af e3bb f56a 8ebc 907e d13c
000001c0: 5a65 3e3d 1275 833c 896c c8bc f144 b73c
000001d0: 837d 8f3c bf42 a33d 0f2f f2bb 4ba4 4cbd
000001e0: 1c24 74bc f151 9cba eab9 f5bb b6ea a23d
000001f0: fb12 f6bc abf7 b7bc 4664 ba3b 7489 a8bc

fc3.bias f4 [2]
-0.069245696 0.0010384759
00000000: b0d0 8dbd 781d 883a

bn3.weight f4 [2]
2.7349043 2.485217
00000000: ac08 2f40 cc0d 1f40

bn3.bias f4 [2]
-0.14233097 -0.19739735
00000000: 36bf 11be 8822 4abe

bn3.running_mean f4 [2]
-0.06922051 0.0010304654
00000000: 7cc3 8dbd ae10 873a

bn3.running_var f4 [2]
0.0069508436 0.004830419
00000000: e7c3 e33b 7e48 9e3b
