p3_collaboration_and_competition/weights/actor_1_700.pth (torch_old, 51773 bytes, 18 tensors)

fc1.weight f4 [128, 24]
0	0xbdb59b47	-0.088675074
1	0x3d863b76	0.0655431
2	0x3c06469d	0.008195546
3	0x3def0cef	0.11672389
4	0xbd83e62f	-0.064403884
5	0x3b3ebfe4	0.0029106075
6	0x3c55ff0b	0.013061295
7	0x3d51c5ed	0.051214147
8	0xbdc444a1	-0.095834024
9	0x3c0216b1	0.00793998
10	0x3d4e853f	0.050420042
11	0xbcf14d1a	-0.02945571
12	0xbd448569	-0.047978792
13	0xbd42b664	-0.047537223
14	0xbd64220d	-0.055696536
15	0x3cf83140	0.030296922
16	0xbd092126	-0.03347888
17	0x3d53cedd	0.051710952
18	0x3dcd57b0	0.10026491
19	0xbd5e41bc	-0.054261908
20	0xbdede46f	-0.11615836
21	0x3dbc3a8a	0.09190853
22	0x3c0d9c70	0.008643255
23	0xbd9a0b13	-0.075216435
24	0x3b3a6a26	0.0028444617
25	0xbd37c4c4	-0.044865385
26	0xbdbe45d3	-0.09290662
27	0xbc5f2909	-0.013620623
28	0x3cec73d2	0.028863821
29	0xbe092c33	-0.13395767
30	0x3d6ec7ef	0.05829614
31	0x3c078d87	0.008273489
32	0x3c064878	0.008195989
33	0xb9a25f67	-0.00030970128
34	0xbbfa9c92	-0.007648059
35	0x3d811821	0.0630343
36	0xbbe7dcce	-0.0070758825
37	0xbe2b4702	-0.16726306
38	0xbbbe9f67	-0.005817342
39	0x3c1d7703	0.009610894
40	0xbc8c944a	-0.017160553
41	0x3cf145a3	0.02945215
42	0x3c078fd1	0.008274035
43	0xbd1e41b6	-0.038636886
44	0xbc0dfcd0	-0.008666232
45	0xbc3fa054	-0.01169594
46	0xbcd9746a	-0.026544768
47	0xbd93b8bc	-0.0721297
48	0xbbe7751d	-0.0070635215
49	0x3bd8ad3e	0.006612449
50	0xbd1a90c2	-0.037735708
51	0x3cbfa571	0.023394318
52	0x3dab28f6	0.08357422
53	0xbd0cda94	-0.03438814
54	0x3d09048a	0.033451594
55	0xbc698036	-0.014251759
56	0xbc3bbb99	-0.011458301
57	0x3d444dc7	0.047925737
58	0xbb15007b	-0.0022735882
59	0xbba82b6a	-0.0051321285
60	0xbd5f3ef2	-0.05450339
61	0x3d3f8604	0.046758667
62	0x3c1064ff	0.008813142
63	0x3d405379	0.046954606
64	0xbccea00b	-0.025222799
65	0x3c90ad9f	0.017660914
66	0xbd520017	-0.051269617
67	0x3d907894	0.070542485
68	0xbe19a155	-0.1500295
69	0xbdf356e7	-0.1188181
70	0x3d445759	0.047934864
71	0xbd7d97db	-0.0619124
72	0xbd334937	-0.043770995
73	0xbde8677f	-0.11347865
74	0xbd52b83d	-0.051445235
75	0xbd518bde	-0.05115878
76	0x3cfc4eed	0.030799353
77	0xbdfb3b2b	-0.12267145
78	0x3d066f8f	0.032821234
79	0x3ca4831c	0.02008205
80	0x3d5a986e	0.053368025
81	0xbc9ed4e1	-0.019388618
82	0x3ad7a4f2	0.0016452356
83	0x3cbad7ab	0.022807917
84	0x3cc26119	0.02372794
85	0x3d1bda13	0.03804977
86	0xbd8556f3	-0.06510725
87	0xbde6bef5	-0.11266891
88	0xbda39e6d	-0.07989202
89	0xbc1e7168	-0.009670593
90	0x3d9852ae	0.07437645
91	0x3bbd69d8	0.00578044
92	0x3dafd8b5	0.085862555
93	0x3c18235d	0.009285775
94	0xbd87de04	-0.06634143
95	0xbdffe067	-0.12493973
96	0x3d7c7cd6	0.06164249
97	0x3ccac3d0	0.024751574
98	0x3d46fc57	0.048580494
99	0x3b05ca4f	0.0020414775
100	0x3b2e2719	0.0026573597
101	0x3c2f147a	0.010686034
102	0x3d32eb4f	0.04368144
103	0x3cca475e	0.024692234
104	0xbd7c666a	-0.061621107
105	0xbc5dc088	-0.013534673
106	0x3d820f2d	0.06350551
107	0x3ce68de2	0.028143827
108	0x3ddf7336	0.109106466
109	0x3c43790e	0.011930717
110	0x3bc5dc18	0.0060382
111	0x3e04280a	0.12905899
112	0x3d475085	0.048660774
113	0xbd985580	-0.07438183
114	0x3df4975b	0.11942931
115	0x3c214596	0.009843251
116	0x3c3eba06	0.011641031
117	0xbd42b7d6	-0.0475386
118	0x3da4d85b	0.08049079
119	0xbd6cafa3	-0.057784688
120	0x3d3d3ab0	0.046198547
121	0xbd159dd7	-0.03652748
122	0xbbe5d271	-0.007013612
123	0x3cc47673	0.023982262
124	0x3d775328	0.06038204
125	0xbd0d78ae	-0.034538917
126	0x3cd81142	0.026375417
127	0xbcaa1b65	-0.020765016
128	0x3c86ac3b	0.016439548
129	0xbd826c0a	-0.06368263
130	0xbd7c744e	-0.061634354
131	0x3ca8b882	0.020595793
132	0x3da51437	0.08060496
133	0x3dcb7cf9	0.09935946
134	0x3d83f22a	0.064426735
135	0x3ccf92a4	0.025338478
136	0x3da9de1e	0.082943186
137	0x3d280b9d	0.0410267
138	0xbd2da0fe	-0.042389862
139	0xbc421317	-0.011845372
140	0x3d284a61	0.04108656
141	0x3e1304b9	0.1435727
142	0x3d4f7dac	0.05065696
143	0x3da77055	0.081757225
144	0xbd0bcd75	-0.034131486
145	0x3d5ce9c9	0.053933892
146	0x3ce1d1db	0.027565887
147	0x3d0d53d4	0.034503773
148	0x3d89e68b	0.06733426
149	0x3d74d3c0	0.059772253
150	0xbcfe0af0	-0.031011075
151	0x3d515f96	0.05111655
152	0xbc72fbfa	-0.014830584
153	0xbd69ad4e	-0.05705004
154	0xbd28c71d	-0.041205514
155	0x3de61c04	0.11235812
156	0x3c9f18cb	0.019421002
157	0xbd2f1163	-0.04274119
158	0xbc79a6da	-0.015237534
159	0x3e04f87f	0.12985419
160	0x3ce8c591	0.02841452
161	0xbd082d44	-0.033246294
162	0x3d1fa7b3	0.03897829
163	0x3d82714c	0.06369266
164	0x3d786791	0.060645644
165	0xbd279285	-0.040911216
166	0xbdae122f	-0.08499562
167	0x3df2ff14	0.118650585
168	0xbd299717	-0.041403856
169	0x3d2a4114	0.04156597
170	0xbd801470	-0.06253898
171	0xbd6e98cf	-0.0582512
172	0x3cb48b0f	0.022038965
173	0x3dbd773a	0.09251256
174	0xbd3e9dc2	-0.04653717
175	0x3c49cf10	0.012317434
176	0xbd85795f	-0.0651729
177	0xbd8ff941	-0.07029963
178	0x3d7b1d32	0.06130714
179	0xbe029d11	-0.12755229
180	0xbd83fd1d	-0.06444762
181	0x3e2d3777	0.1691569
182	0x3d81336b	0.06308635
183	0x3c006c55	0.007838328
184	0x3ca8f7e6	0.02062602
185	0x3cbda4e7	0.02314992
186	0x3cf4074b	0.029788634
187	0xbd845eb0	-0.06463373
188	0xbc2810b6	-0.01025789
189	0x3d81e06f	0.063416354
190	0x3d4905ce	0.0490778
191	0xbc909613	-0.017649686
192	0x3ce39868	0.027782634
193	0x3d8bd5ca	0.068278864
194	0xba5bda76	-0.000838674
195	0x3dedd266	0.11612396
196	0xbd674272	-0.05645985
197	0x3db3e206	0.08783345
198	0x3d2a4939	0.041573737
199	0xbc75d5ab	-0.015004556
200	0x3db37f44	0.08764508
201	0xbd934a4d	-0.07191906
202	0x3dbb5532	0.09147109
203	0xbd366334	-0.0445282
204	0xbd2b935b	-0.041888576
205	0x3daa6aec	0.08321175
206	0xbd151764	-0.03639926
207	0xbd478dfa	-0.048719384
208	0xbd462780	-0.048377514
209	0x3cfe385a	0.03103273
210	0xbd60a8d5	-0.05484851
211	0x3d00c423	0.03143705
212	0xbdc90ba8	-0.098166764
213	0x3d98fced	0.07470117
214	0xbcb78ee9	-0.022407012
215	0xbd41fa11	-0.047357623
216	0x3d61adb2	0.05509729
217	0x3bf527da	0.0074815573
218	0x3c63cf97	0.013904474
219	0xbd440a87	-0.047861602
220	0xbe0bed43	-0.13664727
221	0xbcaea25f	-0.021317659
222	0xbc33c571	-0.010972367
223	0x3b51d793	0.0032019361
224	0x3d858699	0.06519813
225	0xbce85604	-0.028361328
226	0xbd659f4d	-0.056060124
227	0x3cbcd4f6	0.023050766
228	0x3c54dead	0.012992543
229	0x3da9421b	0.08264562
230	0x3d635dbd	0.055509318
231	0x3c02fefb	0.007995362
232	0xbd688a72	-0.056772657
233	0x3a8d13dd	0.0010763366
234	0x3d801d51	0.06255592
235	0x3bfdbc15	0.0077433684
236	0x3cc7e2ad	0.02440008
237	0x3d4343b3	0.047671985
238	0xbd50f9b7	-0.051019397
239	0x3d2c5e3d	0.04208206
240	0xbd81086c	-0.063004345
241	0x3df3be73	0.1190156
242	0xbd5018dd	-0.05080496
243	0x3c3deb5c	0.011591759
244	0x3d1688db	0.03675161
245	0xbd9a5d43	-0.075373195
246	0xbbaadade	-0.0052140793
247	0x3d7743c2	0.060367353
248	0xbd88f284	-0.06686881
249	0xbc1b275b	-0.009469832
250	0xbc9b36ab	-0.018946966
251	0xbb0bc46f	-0.00213268
252	0xbd85e147	-0.06537109
253	0x3d538350	0.0516389
254	0xbbc2c98c	-0.0059444364
255	0x3d32924f	0.043596562

fc1.bias f4 [128]
0	0xbdff7819	-0.12474079
1	0x3e1f1e9c	0.1553902
2	0xbe81f4c9	-0.2538207
3	0xbd4c64bc	-0.049900755
4	0xbd70a9b6	-0.0587556
5	0x3d828c8f	0.06374466
6	0x3d8660f3	0.0656146
7	0xbdfff82c	-0.12498507
8	0x39f21dc7	0.00046180023
9	0xbe10b871	-0.14132859
10	0xbddfa276	-0.10919659
11	0x3bba9344	0.005693825
12	0x3e1776b6	0.14791378
13	0x3e34394a	0.17599979
14	0x3e7c8caa	0.24663034
15	0x3db71778	0.08940023
16	0x3e19eba3	0.15031295
17	0x3c5b8f62	0.013400884
18	0x3cfe4187	0.031037105
19	0xbdbab6bc	-0.09116885
20	0xbdfadf2a	-0.122495964
21	0xbe01c133	-0.12671356
22	0x3d27c9af	0.040963825
23	0x3e05a00c	0.13049334
24	0xbe3fb89e	-0.1872277
25	0xbe14516a	-0.14484182
26	0x3e32236e	0.17396328
27	0x3de8fbc7	0.11376148
28	0xbe27cae4	-0.1638599
29	0xbe21532b	-0.15754382
30	0xbd3536b2	-0.044241615
31	0xbe174e3a	-0.14775935
32	0x3dd1cf51	0.102446206
33	0xbdbf4de0	-0.09341025
34	0x3cf59644	0.029978879
35	0x3cc51c8b	0.024061462
36	0x3e11598f	0.1419432
37	0xbd414232	-0.04718227
38	0x3d106bcd	0.035259057
39	0xbcc6cc64	-0.024267383
40	0x3d6f7e5d	0.05847012
41	0xbd6de50e	-0.05807977
42	0x3da8e3df	0.08246588
43	0xbdac45a5	-0.08411721
44	0x3e35aec4	0.17742449
45	0xbdd13220	-0.10214639
46	0x3e20f717	0.15719257
47	0xbe7cb820	-0.24679613
48	0xbe017b55	-0.12644704
49	0xbe06636b	-0.13123862
50	0xbd31d6ed	-0.04341786
51	0x3d9bfbbb	0.07616373
52	0x3a9c80a8	0.0011940198
53	0xbdfc4419	-0.12317676
54	0x3e544984	0.20731169
55	0xbd938c3b	-0.07204481
56	0x3d00a300	0.03140545
57	0x3c4533d5	0.0120362835
58	0x3e1d2949	0.1534778
59	0x3d3bb687	0.04582837
60	0xbd92fc78	-0.07177061
61	0x3d4d5e8b	0.05013899
62	0x3e670855	0.22561772
63	0xbe2a0ffd	-0.16607662
64	0xbe465dd0	-0.19371724
65	0xbc54b91d	-0.012983588
66	0xbe1bfbea	-0.15232816
67	0xbd948551	-0.072519906
68	0xbe480aed	-0.19535418
69	0x3de8e860	0.11372447
70	0xbd505e3c	-0.05087112
71	0x3db004dd	0.085946776
72	0x3e27d917	0.16391407
73	0xbe289e50	-0.16466641
74	0x3cddc30a	0.027070541
75	0x3e4e0bd5	0.20121701
76	0x3e8db6be	0.27678484
77	0xbdfc18e6	-0.123094365
78	0x3da3cb74	0.0799779
79	0x3df2ddc6	0.11858706
80	0x3df6f2d9	0.12058038
81	0xbc9fa73a	-0.01948892
82	0xbd831ae4	-0.06401613
83	0xbda2ad4d	-0.07943211
84	0x3cfd7b94	0.030942716
85	0xbb5db941	-0.0033832344
86	0xbdcaea6f	-0.09907996
87	0xbe414977	-0.18875681
88	0x3db1a8d3	0.08674779
89	0xbe22e55d	-0.15907808
90	0xbcdfcaf3	-0.027318453
91	0xbdf3a803	-0.1189728
92	0xbdbb3711	-0.091413625
93	0xbe630792	-0.22170857
94	0xbdb7069c	-0.089368075
95	0x3d488efb	0.04896448
96	0x3e2d2ecb	0.16912381
97	0x3d074752	0.033027
98	0xbe118fc5	-0.14215
99	0xbd51f6f0	-0.05126089
100	0xbe40021a	-0.18750802
101	0xbd6055b4	-0.054769233
102	0xbe04bede	-0.12963435
103	0xbdde73d6	-0.10861938
104	0xbdb5f639	-0.08884854
105	0x3e5a6c75	0.21330436
106	0xbdc9794b	-0.09837588
107	0xbdb4da02	-0.08830644
108	0xbd3bb07c	-0.045822605
109	0x3e0bda78	0.13657558
110	0xbd5c017a	-0.053712346
111	0xbc6faf31	-0.014629171
112	0x3e3db7f8	0.1852721
113	0x3d7dd47a	0.06197021
114	0x3e586b51	0.21134688
115	0xbdaf11c9	-0.08548314
116	0x3e02ca64	0.12772518
117	0xbe2cc945	-0.16873653
118	0xbe0c7e30	-0.13720012
119	0x3ab99798	0.0014159558
120	0x3d365663	0.04451598
121	0xbd5ccbde	-0.05390536
122	0x3e606fb5	0.21917613
123	0x3d00ae31	0.031416122
124	0xbe07682a	-0.13223329
125	0xbd956f6e	-0.07296644
126	0xbcbac82a	-0.022800524
127	0x3dd3504f	0.10318052

bn1.weight f4 [128]
0	0x3f3ec769	0.74523026
1	0x3e31c6c5	0.17360981
2	0x3f1e14a8	0.6175027
3	0x3f6634c9	0.89924294
4	0x3ecdbb26	0.40181845
5	0x3f358abd	0.7091482
6	0x3ed1d355	0.40981546
7	0x3f6e9d97	0.93209213
8	0x3ef7a12c	0.48365152
9	0x3f657757	0.89635223
10	0x3ea01a42	0.31270033
11	0x3d16a075	0.036774117
12	0x3ea73862	0.32660204
13	0x3f433e63	0.7626707
14	0x3eeead92	0.466168
15	0x3ee87670	0.4540286
16	0x3f62377f	0.8836593
17	0x3e85895a	0.26081353
18	0x3e378a16	0.1792377
19	0x3f1ba621	0.6080037
20	0x3f7045bd	0.9385641
21	0x3f215244	0.6301615
22	0x3e9b5d66	0.30344695
23	0x3f2f5896	0.68494546
24	0x3f4cdfda	0.8002907
25	0x3e0f8ebf	0.14019297
26	0x3f64a2dc	0.89311004
27	0x3f0ff33b	0.56230515
28	0x3e9ce1f6	0.30641145
29	0x3dc3a7ba	0.09553476
30	0x3f142d9e	0.57882106
31	0x3ec57a0e	0.38569683
32	0x3f14a6de	0.5806712
33	0x3e12e128	0.14343703
34	0x3f224a9c	0.63395095
35	0x3e805654	0.25065863
36	0x3f5f7c2c	0.87298846
37	0x3f065f49	0.52489144
38	0x3f339585	0.70150024
39	0x3f4f1bac	0.809016
40	0x3f6a4228	0.91507196
41	0x3f11ebf6	0.5700067
42	0x3f6fc2b1	0.9365645
43	0x3e0ffc3d	0.14061065
44	0x3f512bea	0.8170763
45	0x3f499b31	0.7875243
46	0x3e984d48	0.2974646
47	0x3e9c4965	0.30524746
48	0x3f6393fa	0.8889767
49	0x3f660ba3	0.89861506
50	0x3e2f5de2	0.17125657
51	0x3efe19e6	0.49629134
52	0x3e3bd0f8	0.18341434
53	0x3f40d84f	0.7533006
54	0x3db88410	0.09009564
55	0x3e9e6e1d	0.30943385
56	0x3f757e15	0.9589551
57	0x3f5c56c5	0.860699
58	0x3f6e4323	0.9307119
59	0x3f11e8b4	0.569957
60	0x3dab1ef4	0.08355513
61	0x3f4b6fb7	0.7946734
62	0x3f5c4fae	0.8605908
63	0x3f53dedc	0.8276193
64	0x3f42ac93	0.7604458
65	0x3f0318c2	0.5120965
66	0x3f355066	0.70825803
67	0x3f179816	0.5921644
68	0x3e99b44d	0.3002037
69	0x3f53ab1c	0.8268297
70	0x3e9888fb	0.29792008
71	0x3f50a836	0.8150667
72	0x3ef00e35	0.4688584
73	0x3edda1ac	0.43287408
74	0x3f2c2a7a	0.67252314
75	0x3ed37c29	0.41305664
76	0x3f2e0efb	0.6799161
77	0x3e32f96a	0.17477956
78	0x3cefb9d5	0.029263416
79	0x3f1f4add	0.6222361
80	0x3ed68c75	0.41904035
81	0x3e8faf74	0.28063548
82	0x3dfa176c	0.122114986
83	0x3f119305	0.5686496
84	0x3ecd95b4	0.40153277
85	0x3f65eb85	0.898125
86	0x3e4014bf	0.18757914
87	0x3ec09710	0.37615252
88	0x3edef14d	0.43543473
89	0x3f0a5984	0.5404284
90	0x3dcf4474	0.10120478
91	0x3f41f0e9	0.75758225
92	0x3e3f225f	0.18665455
93	0x3e90a9db	0.2825459
94	0x3f1aef3e	0.60521305
95	0x3ed3329f	0.41249558
96	0x3f0722a9	0.5278726
97	0x3e0003e2	0.12501481
98	0x3e7e9d52	0.248647
99	0x3f57fbd3	0.8436863
100	0x3f236d00	0.63838196
101	0x3f31213b	0.6919133
102	0x3f3e5512	0.74348557
103	0x3f549ad9	0.8304878
104	0x3f363706	0.7117771
105	0x3ebe0299	0.37111357
106	0x3e919091	0.28430608
107	0x3e8d388d	0.27582207
108	0x3f2742cd	0.65336305
109	0x3ef48b80	0.4776268
110	0x3e895ffc	0.26831043
111	0x3f526623	0.821871
112	0x3f0b46cd	0.5440491
113	0x3f025058	0.50903845
114	0x3ec35983	0.3815423
115	0x3e301f8f	0.17199539
116	0x3f70b0b7	0.94019645
117	0x3de8e31d	0.113714434
118	0x3d98b7fb	0.074569665
119	0x3f185914	0.5951092
120	0x3eade167	0.3396103
121	0x3f530057	0.82422394
122	0x3ee64612	0.44975334
123	0x3e9fd47c	0.312168
124	0x3eeace45	0.45860496
125	0x3ee7d616	0.45280522
126	0x3ed789f9	0.42097452
127	0x3ec1f561	0.37882522

bn1.bias f4 [128]
0	0x3ca90547	0.0206324
1	0xbd5365a5	-0.051610608
2	0x3db20728	0.08692771
3	0x3c11732e	0.008877559
4	0xbdc18b94	-0.094504505
5	0x3dc8291d	0.09773467
6	0xbbadaaff	-0.0052999253
7	0xbd7cebea	-0.061748423
8	0xbd2e232d	-0.042514015
9	0x3d88f669	0.06687624
10	0x3d1ec3d4	0.038760975
11	0xbe12c278	-0.14331996
12	0x3cdac2da	0.02670424
13	0x3baea65a	0.0053298892
14	0x3cd30658	0.02575986
15	0x3d9728f2	0.073808566
16	0x3c4de660	0.012567133
17	0x3d9851eb	0.074374996
18	0xbcaa1569	-0.020762162
19	0x3dcb2c58	0.09920567
20	0xbe06239e	-0.13099524
21	0xbdbf3bf7	-0.09337609
22	0xbd7a6bed	-0.061138082
23	0xbd5d2fdb	-0.054000717
24	0x3d869a60	0.065724134
25	0xbd6e2910	-0.05814463
26	0x3c323ded	0.010879022
27	0xbc74eeb4	-0.014949489
28	0x3d211778	0.039329022
29	0x3e11e23f	0.14246462
30	0x3d6a4de2	0.05720318
31	0x3d748aa2	0.059702523
32	0x3dbc990d	0.092088796
33	0xbd071294	-0.0329767
34	0x3b401e9b	0.0029315117
35	0x3d86b2bf	0.06577062
36	0x3db68f55	0.08914057
37	0x3db42fec	0.08798203
38	0x3d214e98	0.039381593
39	0x3c8665f0	0.01640603
40	0x3de5d2a4	0.11221817
41	0x3d4f309b	0.050583463
42	0xbc28ba4a	-0.010298321
43	0xbbb60ba1	-0.0055555855
44	0xbda7c51d	-0.08191893
45	0xbda014e7	-0.07816487
46	0xbc462959	-0.012094819
47	0x3bf8439a	0.007576418
48	0xbd8238d3	-0.063584946
49	0x3d3ea97e	0.04654836
50	0xbc96d65f	-0.018412767
51	0x3d632e3e	0.05546402
52	0x3ba583c5	0.0050511085
53	0x3dcd409f	0.10022091
54	0xbc9fcc97	-0.019506736
55	0xbc41fdb3	-0.011840272
56	0x3cedb7cf	0.02901831
57	0x3dbab077	0.09115689
58	0xbc41b4e8	-0.011822917
59	0x3dce4ab0	0.10072839
60	0xbdeae399	-0.11469192
61	0xbde622ca	-0.11237104
62	0x3c4323df	0.011910408
63	0x39b5d894	0.00034684374
64	0xbce95122	-0.02848107
65	0xbd6a360e	-0.057180457
66	0x3d7f775a	0.062369682
67	0xbcebdc89	-0.028791683
68	0x3e1cc974	0.15311223
69	0xbd3cd2fe	-0.046099655
70	0xbd56d477	-0.052448716
71	0x3de98a2b	0.114033066
72	0x3d2066dd	0.039160598
73	0x3d46c5b6	0.048528396
74	0xbdd4f15a	-0.10397597
75	0x3ca5b9e9	0.02023025
76	0xbdc17ee3	-0.0944803
77	0x3d46e1b8	0.048555106
78	0xbe2644ba	-0.16237155
79	0x3dd78a50	0.10524428
80	0xbcf94f74	-0.030433394
81	0x3d32092b	0.043465775
82	0x3d1edfc6	0.038787626
83	0x3e01cb92	0.12675312
84	0x3d25174d	0.040305424
85	0x3d97b7d2	0.07408108
86	0xbd8b34e1	-0.06797195
87	0xbc52cd5e	-0.012866346
88	0xbd8d1fc8	-0.068908274
89	0x3dc7c7d1	0.09754909
90	0xbdfe6dd1	-0.124232896
91	0x3e179827	0.14804135
92	0xbab7339f	-0.0013977176
93	0x3de4175c	0.11137268
94	0x3caefa43	0.021359568
95	0xbc8cd612	-0.01719192
96	0xbd7b3dd1	-0.06133825
97	0x3dd58ddd	0.10427449
98	0x3dd7d126	0.10537939
99	0x3d8782da	0.06616755
100	0x3d55eba7	0.05222669
101	0x3dafa459	0.08576269
102	0xbdeece8e	-0.11660491
103	0x3b8efad5	0.0043633976
104	0xbd764afd	-0.06013011
105	0x3d0c1cec	0.03420727
106	0x3d3988e9	0.045296583
107	0x3e025d9d	0.12731023
108	0x3d08e315	0.033419687
109	0x3c1c550a	0.009541759
110	0x3dd84691	0.105603345
111	0x3db60044	0.088867694
112	0x3ca31668	0.019908145
113	0x3d1f49ac	0.03888862
114	0x3e074d9f	0.13213204
115	0x3cfb2426	0.030656885
116	0x3cf8a069	0.030349927
117	0xbdca1a66	-0.09868316
118	0xbc0bbf5f	-0.008529513
119	0x3ba11303	0.0049155965
120	0x3db5edfd	0.08883283
121	0xbc40be48	-0.011764117
122	0xbd82afa8	-0.0638116
123	0xbd25b6f6	-0.04045769
124	0x3d5081b8	0.05090496
125	0x3d87d868	0.06633073
126	0x3beed866	0.0072889803
127	0xbd3ccad8	-0.046091884

bn1.running_mean f4 [128]
0	0x4002059c	2.0315924
1	0x3d7f657e	0.06235265
2	0x3e8240a3	0.2543994
3	0x3f4eb072	0.80737984
4	0x3f96732c	1.1753898
5	0x3ea38e13	0.31944332
6	0x3f561c79	0.83637196
7	0x40080cb8	2.1257763
8	0x3f832966	1.0247009
9	0x3e62bbf3	0.2214201
10	0x3fcaf378	1.5855551
11	0x3fa280a6	1.269551
12	0x3f322bf5	0.69598323
13	0x3f1358ac	0.5755718
14	0x40178673	2.3675811
15	0x3f0f0e9e	0.5588168
16	0x3f00b9cd	0.5028351
17	0x3f80dfb9	1.0068275
18	0x3f1e94eb	0.6194598
19	0x3d83ddc4	0.06438783
20	0x3f8634ce	1.0484865
21	0x4021d9e8	2.528925
22	0x3f81fb54	1.0154824
23	0x3f9164d7	1.1358899
24	0x3e702fe0	0.23455763
25	0x3e08b15c	0.13348907
26	0x3f4ff117	0.8122725
27	0x3ebc1fae	0.3674292
28	0x3f05ecd0	0.5231447
29	0x3fb3fd4a	1.4061673
30	0x3ed9ffb3	0.42577896
31	0x3f0ee773	0.55821913
32	0x3fca0dc2	1.5785449
33	0x3e0c58b0	0.13705707
34	0x3f720abe	0.9454764
35	0x3e0c27ae	0.13687012
36	0x3ee95b0c	0.45577276
37	0x400ba8c2	2.1821752
38	0x3eb9f0ab	0.36316428
39	0x3ea6fbb6	0.32613915
40	0x3eb3780b	0.35052523
41	0x3fc2b564	1.5211606
42	0x3f4dd37b	0.8040082
43	0x3f02ae10	0.5104685
44	0x3f4b7a83	0.79483813
45	0x3f0c644d	0.54840547
46	0x3f5d2763	0.86388224
47	0x3e62f6b3	0.22164421
48	0x3f9fbd78	1.2479696
49	0x3f299f4a	0.6625868
50	0x3f5d5243	0.86453646
51	0x3dd7a74c	0.10529956
52	0x3ec70192	0.38868386
53	0x3f80bb76	1.0057209
54	0x401b3fbe	2.4257655
55	0x3e9253cf	0.28579566
56	0x3f2c32d5	0.67265064
57	0x3fa705e8	1.3048677
58	0x3f3ee469	0.74567276
59	0x3f236983	0.63832873
60	0x3fe9929d	1.8247868
61	0x3f91c187	1.1387185
62	0x3ed7a250	0.42116022
63	0x3ff01e6c	1.8759284
64	0x3fb0b077	1.3803853
65	0x3f2d462c	0.676852
66	0x3f4d36f9	0.80162007
67	0x3f9f2bb4	1.2435212
68	0x3f72725e	0.9470576
69	0x3ed71cc4	0.42014134
70	0x3fe1db3f	1.7645034
71	0x3deabc79	0.114617296
72	0x3ef68aa7	0.48152658
73	0x3f3798dd	0.71717626
74	0x3ff03320	1.8765602
75	0x3efbe762	0.4919997
76	0x401ed75b	2.4818943
77	0x3e874805	0.26422134
78	0x3f647011	0.892335
79	0x3ecba18a	0.39771682
80	0x3e43e860	0.19131613
81	0x3fcbd364	1.5923886
82	0x3f3958f8	0.7240138
83	0x3fa3bdee	1.2792337
84	0x3e148232	0.1450279
85	0x3ef838cb	0.4848083
86	0x3dcdab4e	0.100424394
87	0x3f9b831d	1.2149388
88	0x3f7018cb	0.9378783
89	0x3f72dab3	0.9486496
90	0x3e86a840	0.2630024
91	0x3f4220de	0.758314
92	0x3e4484d4	0.19191295
93	0x3e706eab	0.23479716
94	0x3f5efc4f	0.8710374
95	0x3f6db9f0	0.92861843
96	0x3f8a5bae	1.0809228
97	0x3e092b26	0.13395366
98	0x3de9a352	0.11408104
99	0x3ebc3e98	0.36766505
100	0x3e5fa98b	0.2184202
101	0x3ee74480	0.4516945
102	0x3f32c106	0.6982578
103	0x3f273ef9	0.65330464
104	0x3f92a086	1.1455238
105	0x3f9e8c0c	1.2386489
106	0x3c97d2a5	0.01853306
107	0x3e874aab	0.26424155
108	0x3f8640ff	1.0488585
109	0x3effa98d	0.49934044
110	0x3f5e0fbf	0.86742777
111	0x3f1dfc3b	0.61713
112	0x3e54844c	0.20753592
113	0x3f2327d6	0.6373266
114	0x3ec431c3	0.38319215
115	0x40087d55	2.1326497
116	0x401d525a	2.4581513
117	0x3de52ddf	0.1119039
118	0x3d9ec561	0.07752491
119	0x3f434e6a	0.76291525
120	0x3e89a7b4	0.2688576
121	0x3fa18535	1.2618777
122	0x3f02f9bb	0.5116231
123	0x3ed5d04f	0.4176049
124	0x3f82bb53	1.0213417
125	0x3fc2048a	1.5157635
126	0x3f063f7e	0.5244063
127	0x4002c194	2.043065

bn1.running_var f4 [128]
0	0x40678384	3.617402
1	0x3d14da1f	0.03634083
2	0x3e128b64	0.14310986
3	0x3f69f62b	0.9139125
4	0x40798361	3.8986437
5	0x3e84c5a1	0.2593203
6	0x3f9326bd	1.1496197
7	0x40967ab6	4.7024794
8	0x40046245	2.068498
9	0x3dcace91	0.09902681
10	0x402f815c	2.7422705
11	0x40163926	2.347238
12	0x3f9e522b	1.2368826
13	0x3f5c7578	0.86116743
14	0x403f4b24	2.9889612
15	0x3f3f842c	0.74811053
16	0x3ea30fad	0.31847897
17	0x3eeef9d1	0.4667497
18	0x3fc09aae	1.5047204
19	0x3d2c0304	0.041995063
20	0x3f757a6c	0.95889926
21	0x3fc85c30	1.5653133
22	0x4033df67	2.8105104
23	0x3f8087ea	1.0041478
24	0x3e00fa59	0.125955
25	0x3e1a4282	0.15064433
26	0x3f8eabe4	1.1146207
27	0x3e6e1f5e	0.23254153
28	0x3ed5dc28	0.41769528
29	0x3ff41532	1.9068968
30	0x3f1aa44c	0.6040695
31	0x3f064fc8	0.52465487
32	0x401a6f3e	2.4130397
33	0x3e1c87ab	0.15286128
34	0x3fd177b9	1.6364661
35	0x3e33d9db	0.17563574
36	0x3f02ec2b	0.51141614
37	0x3fdcc0ab	1.7246298
38	0x3f45832f	0.77153295
39	0x3e99b2e9	0.3001931
40	0x3e96cff1	0.29455522
41	0x3feedbc5	1.8660818
42	0x3f1692d6	0.58817804
43	0x3f250054	0.64453626
44	0x3f0794f8	0.52961683
45	0x3f412c8e	0.7545861
46	0x3fea3a14	1.8298974
47	0x3dfead95	0.12435452
48	0x40003ae2	2.003594
49	0x3e250db7	0.16118513
50	0x3f0a28ef	0.5396871
51	0x3d88368f	0.06651031
52	0x3ed0570c	0.40691411
53	0x400f9fad	2.2441208
54	0x3fa279e3	1.2693447
55	0x3e3bd41c	0.18342632
56	0x3f3d3e42	0.7392312
57	0x400e3f11	2.2225993
58	0x3f1a6973	0.6031715
59	0x3f5c46bc	0.8604543
60	0x404a2058	3.158224
61	0x3f934b03	1.1507267
62	0x3f45ae0f	0.7721872
63	0x3ff9a8e8	1.9504671
64	0x403234fb	2.7844837
65	0x3f532206	0.8247379
66	0x3fc65791	1.5495473
67	0x3fa4c108	1.2871408
68	0x3fecf944	1.851357
69	0x3ea43882	0.32074362
70	0x40551bd0	3.3298225
71	0x3d98ac55	0.07454745
72	0x3f1f5d6c	0.62251925
73	0x3fa8483b	1.3147043
74	0x40b17c50	5.546425
75	0x3f735f4d	0.9506729
76	0x3f742326	0.9536613
77	0x3e8d4a67	0.27595827
78	0x3fb4fa02	1.4138796
79	0x3e529c68	0.20567477
80	0x3e3717dc	0.17880195
81	0x3ff49424	1.9107709
82	0x3f950c4d	1.1644379
83	0x401872ef	2.382015
84	0x3df9fc73	0.12206354
85	0x3f834dea	1.0258152
86	0x3d9d17e7	0.07670575
87	0x3f4cf82a	0.8006617
88	0x3f9687ff	1.1760253
89	0x3fc62924	1.5481305
90	0x3e922279	0.28541926
91	0x3f762103	0.9614412
92	0x3d8e9d63	0.06963613
93	0x3ecd3f79	0.40087488
94	0x3f84a021	1.0361367
95	0x401e2b6a	2.4713998
96	0x3f9c989d	1.2234074
97	0x3e0e0235	0.1386803
98	0x3da75c0d	0.08171854
99	0x3ee6076c	0.44927537
100	0x3e881dc3	0.26585206
101	0x3f2b23e6	0.6685165
102	0x3f3527d9	0.7076393
103	0x3f0ab525	0.54182655
104	0x3fe46cff	1.7845763
105	0x3f81327b	1.009353
106	0x3be9b3e2	0.0071320394
107	0x3e68ea58	0.22745645
108	0x3f957dcd	1.1679016
109	0x3f44bfff	0.7685546
110	0x3fe14831	1.7600156
111	0x3f351e6b	0.7074954
112	0x3e9d1baa	0.30685169
113	0x3f005d07	0.5014195
114	0x3f6988c3	0.91224307
115	0x406dee06	3.7176528
116	0x3fadfaf2	1.3592207
117	0x3dd29ada	0.10283442
118	0x3d92aab5	0.07161466
119	0x3f55877a	0.83409846
120	0x3e98d2eb	0.29848418
121	0x402a5840	2.6616364
122	0x3f426185	0.75930053
123	0x3edda01f	0.43286225
124	0x3febb3f4	1.8414292
125	0x3f4e42a1	0.8057042
126	0x3f5083f9	0.81451374
127	0x40076657	2.1156213

fc2.weight f4 [64, 128]
0	0xbb81c64a	-0.0039604055
1	0x3da25fc4	0.07928422
2	0x3db1f601	0.086895
3	0x3dd838f2	0.105577365
4	0xbc323e9f	-0.010879188
5	0xba0104a1	-0.0004921649
6	0x3cfa3723	0.03054387
7	0x3dd79b05	0.105276145
8	0x3d23f717	0.040030565
9	0xbcd048c9	-0.025425332
10	0xbdea4015	-0.11438004
11	0x3d345ec7	0.0440357
12	0xbcaa579d	-0.02079373
13	0xb8a304d0	-7.773342e-05
14	0xbdbf5bf0	-0.093437076
15	0x3d1ef231	0.03880519
16	0x3cce3345	0.025170932
17	0x3c15bc60	0.00913915
18	0xbc5d7edc	-0.013519015
19	0x3d496635	0.049169738
20	0xbceadbd3	-0.028669273
21	0x3d8c2592	0.068431035
22	0x3db67bf6	0.089103624
23	0x3d66ab22	0.05631555
24	0x3cbae5c0	0.022814631
25	0xbe3517bf	-0.1768484
26	0x3b9d48f8	0.0047999583
27	0xbb3c8c86	-0.0028770282
28	0xbd089b77	-0.033351388
29	0x3d0d3419	0.034473512
30	0x3d9b1d24	0.075739175
31	0xbd2dae83	-0.042402755
32	0x3dc62b77	0.09676259
33	0x3e1908c9	0.14944758
34	0xbd2e4bbb	-0.04255269
35	0x3d8d2e09	0.06893546
36	0xbcd98a25	-0.02655513
37	0x3d27b9c2	0.040948637
38	0x3e039a63	0.12851863
39	0xbd1afb37	-0.037837233
40	0x3decf65e	0.11570428
41	0x3d5e80f1	0.054322187
42	0x3cf29217	0.029610677
43	0xbe0a99cd	-0.13535233
44	0xbdb03fc5	-0.08605913
45	0x3cd5c624	0.026095457
46	0x3a37c54b	0.0007010295
47	0xbd54d9d1	-0.05196554
48	0xbc3a4579	-0.011369103
49	0xbdc42cc9	-0.095788546
50	0x3df56e8b	0.11983975
51	0xbdd26900	-0.102739334
52	0x3d851887	0.06498819
53	0x3d38a6a3	0.045080792
54	0xbde6b59b	-0.11265107
55	0xbd70e3b9	-0.058810923
56	0x3c8d9772	0.017284129
57	0x3d4105b3	0.047124576
58	0xbdb6ca75	-0.08925334
59	0x3d13444e	0.035953812
60	0x3da2e092	0.0795299
61	0xbd08bddc	-0.03338419
62	0x3d3a43a5	0.045474667
63	0x3dd287a5	0.102797784
64	0xbdf8cf03	-0.12148859
65	0x3d8cbbd0	0.0687176
66	0xbca1aeb0	-0.019736618
67	0x3d579d8a	0.052640475
68	0xbd020f5f	-0.03175294
69	0xbe16f607	-0.1474229
70	0xbddb4851	-0.10707153
71	0xbd942587	-0.0723372
72	0xbe07ae90	-0.13250184
73	0xbd5bb443	-0.053638708
74	0x3c9d7594	0.019221105
75	0x3dcbdc3b	0.09954115
76	0x3cd27180	0.025688887
77	0x3dd6c51b	0.10486814
78	0x3d1f9468	0.03895989
79	0xbcf1f001	-0.029533388
80	0x3dad8625	0.08472852
81	0xbc43b654	-0.011945326
82	0x3d8f697e	0.07002543
83	0x3db89dff	0.0901451
84	0xbe3a6aea	-0.18204847
85	0xbd0d972d	-0.034568
86	0x3b5be4ee	0.00335532
87	0xbd07a6c9	-0.033118043
88	0x3da9ebeb	0.08296951
89	0x3d3c2d3d	0.04594158
90	0x3da63258	0.08115071
91	0xbc8cc91e	-0.017185744
92	0x3df1e1d9	0.11810655
93	0x3df8d95f	0.12150835
94	0x3d6fec93	0.058575224
95	0xbd6b8730	-0.05750197
96	0x3c82de75	0.015975216
97	0xbd942eb0	-0.072354674
98	0xbd82f880	-0.06395054
99	0x3db8138a	0.08988102
100	0xbdb720f2	-0.08941831
101	0x3d2623ea	0.040561594
102	0x3d09f286	0.033678554
103	0xbd1c546b	-0.038166445
104	0xbd911ff7	-0.07086175
105	0xbc6172fd	-0.0137603255
106	0x3e011947	0.12607299
107	0x3dd08567	0.101816945
108	0x3da8e30e	0.08246432
109	0xbe012a4d	-0.12613793
110	0xbc4437d6	-0.011976203
111	0xbe0907ac	-0.13381833
112	0xbcd9b4da	-0.026575495
113	0x3db6f408	0.08933264
114	0xbd95ab27	-0.07308035
115	0xbd9ff8be	-0.07811116
116	0xbde67702	-0.11253168
117	0x3da174d4	0.07883611
118	0x3dfae84f	0.122513406
119	0x3d0065a3	0.03134693
120	0xbc6bdc3d	-0.014395771
121	0xbde82d00	-0.11336708
122	0x3c89865a	0.016787697
123	0xbd9a33c1	-0.075294025
124	0xbda87feb	-0.082275234
125	0xbdf2c435	-0.1185383
126	0xbda31553	-0.07963052
127	0xbdb720c9	-0.089418
128	0x3db0255d	0.086008765
129	0xbd43033b	-0.047610503
130	0xbba5670a	-0.0050476836
131	0x3da743b4	0.0816721
132	0x3def5d0b	0.116876684
133	0xbe414357	-0.18873344
134	0x3d9644b9	0.073373266
135	0x3c573666	0.013135528
136	0xbdba9647	-0.091106944
137	0xbd643469	-0.055714045
138	0x3ddedb88	0.10881716
139	0xbd8a3b0d	-0.06749544
140	0x3d84249b	0.064522944
141	0x3dba39ac	0.09093031
142	0x3d696ab4	0.056986526
143	0x3b25597e	0.0025230343
144	0x3c13646e	0.008996112
145	0xbd84442f	-0.064583175
146	0xbdc1d845	-0.09465078
147	0x3d3d3dde	0.04620158
148	0xbd9cc53f	-0.07654809
149	0x3ca3aeeb	0.019980868
150	0xbcc5becd	-0.024138832
151	0x3b642193	0.003481005
152	0x3d09b455	0.033619244
153	0x3dafa0c3	0.08575585
154	0x3dac551d	0.084146716
155	0xbda8f824	-0.08250454
156	0x3d4b44a0	0.049625993
157	0xb84c5084	-4.8712376e-05
158	0x3d179e0d	0.037015963
159	0x3cd4c9eb	0.025975188
160	0xbd705f81	-0.05868483
161	0x3dae92e0	0.08524108
162	0xbc099cd7	-0.00839921
163	0x3db220bc	0.0869765
164	0xbe1bd250	-0.15216947
165	0x3d94e8a3	0.072709344
166	0xbd66d305	-0.056353588
167	0xbb755859	-0.0037436693
168	0x3c004b27	0.007830418
169	0x3d999ae1	0.07500244
170	0x3e03b5ff	0.12862395
171	0xbd067a7f	-0.032831665
172	0x3d6f0c3f	0.05836129
173	0x3d610bda	0.054942943
174	0xbd0b19a2	-0.033959992
175	0xbd797948	-0.06090668
176	0x3d98c61d	0.07459662
177	0xbd5448ba	-0.05182717
178	0x3d833d7e	0.06408213
179	0x3d8e09b9	0.06935448
180	0xbd0ea6eb	-0.034827154
181	0xbd267753	-0.04064114
182	0xbd9c4911	-0.07631124
183	0x3d3fa3e7	0.04678717
184	0xbd30483a	-0.04303763
185	0xbdbd2ec8	-0.092374384
186	0xbd10248b	-0.0351911
187	0xbd876a66	-0.06612091
188	0xbda2bbe8	-0.079459965
189	0xbdb01538	-0.08597797
190	0x3c125c71	0.008933173
191	0x3d6b6eb9	0.05747864
192	0xbd34859b	-0.04407273
193	0xbcb4b634	-0.022059537
194	0x3d9a34fc	0.07529637
195	0x3cda5885	0.026653538
196	0x3dd8c356	0.105841324
197	0x3d675f5b	0.056487422
198	0x3c946fb1	0.018119665
199	0xbe31ffd2	-0.17382744
200	0x3da75ff2	0.08172597
201	0x3d75cbd9	0.060008857
202	0x3d140845	0.0361407
203	0xbd8a1d52	-0.06743874
204	0xbd7fba22	-0.06243337
205	0x3db89cb3	0.09014263
206	0x3dc76b70	0.09737289
207	0xbdcc3021	-0.09970117
208	0x3dc608f3	0.09669676
209	0x3d5b5dbf	0.0535562
210	0x3dd3add7	0.10335892
211	0xbd46834a	-0.04846505
212	0x3db5ebf7	0.08882897
213	0xbdab1c45	-0.08355001
214	0xbdfd1a37	-0.12358516
215	0x3dc8d754	0.098066956
216	0x3de97b6a	0.114004925
217	0xbd1b2256	-0.037874542
218	0x3d4b9135	0.049699027
219	0x3c9e123a	0.0192958
220	0x3df15596	0.11783902
221	0xbdbf51ee	-0.09341799
222	0xbc8058ec	-0.015667401
223	0xbe0de9fc	-0.13858789
224	0x3e0570d8	0.13031328
225	0x3c565e1d	0.013083962
226	0x3b60ba6f	0.003429081
227	0x3db09fa3	0.08624198
228	0xbd9e8173	-0.07739534
229	0x3d812293	0.06305423
230	0x3d2bc6ee	0.04193776
231	0xbceb93bb	-0.028756967
232	0xbbe4a1c3	-0.0069772913
233	0x3d62fef2	0.055418916
234	0x3d25c56c	0.04047148
235	0x3e18cc6d	0.14921732
236	0xbd2b3de1	-0.04180706
237	0xbd969eac	-0.07354483
238	0xbb29e957	-0.0025926435
239	0x3e00362e	0.12520668
240	0x3d06c569	0.03290311
241	0x3dc0e2c0	0.09418249
242	0x3d860e22	0.06545664
243	0xbc86c158	-0.016449615
244	0xbb05a154	-0.0020390349
245	0x3b9a7c2a	0.0047145085
246	0xbd928057	-0.07153385
247	0xbdffa4f4	-0.12482634
248	0xbce473ed	-0.027887309
249	0xbdc27064	-0.09494093
250	0xbbf9c242	-0.0076220343
251	0xbd0b879f	-0.034064885
252	0x3d5779c9	0.052606378
253	0x3dd44276	0.10364239
254	0xbd8e5723	-0.06950214
255	0xbd56bd64	-0.05242671

fc2.bias f4 [64]
0	0xbd82993d	-0.06376884
1	0x3dc3af80	0.09554958
2	0xbd151906	-0.036400817
3	0xbd601f87	-0.054717567
4	0x3d4674f2	0.04845137
5	0xbcb8aa85	-0.022542248
6	0x3d1cc041	0.038269285
7	0x3d3177b0	0.043327034
8	0xbe15202e	-0.14563057
9	0x3d90763d	0.07053802
10	0x3aec7790	0.0018041003
11	0x3c5ca01e	0.013465909
12	0xbda2b410	-0.079445004
13	0xbda52f8b	-0.08065709
14	0x3c66941a	0.014073396
15	0xbdb7fd9b	-0.08983918
16	0xbd81c297	-0.06335943
17	0xbe0b7db3	-0.13622169
18	0xbe1eb43d	-0.15498443
19	0xbd88ec4a	-0.066856936
20	0xbda41db9	-0.08013482
21	0xbd7bdc27	-0.06148925
22	0xbd27d310	-0.04097277
23	0xbd971ded	-0.07378755
24	0xbd1179db	-0.0355166
25	0xbc307c71	-0.010771857
26	0x3d51e315	0.051241953
27	0x3d012966	0.03153362
28	0xbd7b2429	-0.061313782
29	0x3db74782	0.08949186
30	0xbcf90037	-0.03039561
31	0xbe0a1498	-0.13484418
32	0xbe1ae598	-0.15126646
33	0xbd92ef58	-0.071745574
34	0xbb1cdb2d	-0.002393435
35	0xbd784034	-0.060608104
36	0xbda0c8d6	-0.078508064
37	0xbd9de638	-0.07709926
38	0xbd8b15fe	-0.06791304
39	0xbc656c8a	-0.0140029285
40	0x3c07f977	0.008299223
41	0xbc451e98	-0.01203122
42	0xbd943a39	-0.072376676
43	0xbdbc6d5f	-0.092005484
44	0xbcd737ce	-0.026271727
45	0xbc064fbb	-0.00819772
46	0x3dc880d1	0.09790195
47	0x3d2d8689	0.04236463
48	0xbb47ba81	-0.0030476155
49	0xbde87135	-0.113497175
50	0xbddf139a	-0.108924106
51	0xbd0c9ac5	-0.034327287
52	0xbdd61936	-0.10454027
53	0xbdedc5c5	-0.11609987
54	0xbe1e9a59	-0.15488566
55	0x3cc7b175	0.02437661
56	0xbdbb86a9	-0.09156544
57	0xbde514b1	-0.11185587
58	0x3c7b2a4e	0.01532991
59	0xbc2b70b0	-0.0104638785
60	0xbda709eb	-0.081561886
61	0xbdc64ae5	-0.09682254
62	0xbdc944d0	-0.09827578
63	0xbce718e1	-0.028210105

bn2.weight f4 [64]
0	0x3f7c1af3	0.9847862
1	0x3f297d11	0.6620646
2	0x3f2208b2	0.6329452
3	0x3f448bad	0.7677563
4	0x3f442aec	0.76627994
5	0x3f1bde7f	0.6088638
6	0x3f1d9881	0.6156083
7	0x3f53af21	0.826891
8	0x3e046840	0.12930393
9	0x3e8ffccc	0.28122556
10	0x3eec5d08	0.46164727
11	0x3f58ee2e	0.84738433
12	0x3f52687f	0.821907
13	0x3ead0d88	0.33799386
14	0x3e2b6ed6	0.167415
15	0x3f6a1eb5	0.91453105
16	0x3e6a8bec	0.22904938
17	0x3eee1d6a	0.46506816
18	0x3ec1ed3c	0.37876308
19	0x3f62e901	0.88636786
20	0x3e702198	0.23450315
21	0x3db39d11	0.087701924
22	0x3e33a8ea	0.17544904
23	0x3ed200d5	0.4101626
24	0x3e92b9f2	0.2865749
25	0x3f612d4d	0.8795975
26	0x3f1548af	0.5831403
27	0x3f48aca7	0.78388447
28	0x3dbbc2c9	0.09168012
29	0x3e9de1e1	0.30836394
30	0x3f22b79f	0.63561434
31	0x3ea17e20	0.31541538
32	0x3e1688ad	0.14700575
33	0x3f323e04	0.6962588
34	0x3e0f077a	0.13967696
35	0x3f2b0667	0.66806644
36	0x3f51bb1a	0.8192612
37	0x3ecaaf01	0.39586642
38	0x3da061f3	0.07831182
39	0x3e1ec013	0.15502958
40	0x3e89bc9d	0.26901713
41	0x3f224710	0.6338968
42	0x3f5c926e	0.86160934
43	0x3f6f61ee	0.93508804
44	0x3e0db6a3	0.13839202
45	0x3f563fe5	0.83691245
46	0x3f2a7a90	0.66593266
47	0x3ebf54f1	0.37369493
48	0x3f0e5815	0.5560315
49	0x3f723061	0.9460507
50	0x3f3d43ae	0.73931396
51	0x3f06bb2c	0.5262935
52	0x3e905722	0.28191477
53	0x3e134386	0.14381227
54	0x3eab9fdd	0.33520404
55	0x3e700434	0.23439103
56	0x3f4f319b	0.80935067
57	0x3ef25c34	0.4733597
58	0x3f1dc6b3	0.61631316
59	0x3e1fb09d	0.15594716
60	0x3f0e915f	0.5569057
61	0x3f5ff76c	0.8748691
62	0x3e97712e	0.29578537
63	0x3f16a065	0.5883849

bn2.bias f4 [64]
0	0x3447d2d3	1.8610017e-07
1	0xb4675adb	-2.1546605e-07
2	0xb62fd25f	-2.6199484e-06
3	0xb61e243a	-2.3564921e-06
4	0x3699228a	4.563776e-06
5	0xb5d604a6	-1.5945595e-06
6	0xb64e6917	-3.0757562e-06
7	0x368607fd	3.994441e-06
8	0xb6c39410	-5.8286896e-06
9	0xb6e3b4eb	-6.786189e-06
10	0xb5aa99e2	-1.2710773e-06
11	0xb5c8f69e	-1.4972936e-06
12	0xb6089703	-2.035348e-06
13	0xb6fb8cc2	-7.4967693e-06
14	0x370f2e13	8.534192e-06
15	0x34d269c8	3.9192514e-07
16	0xb40e3d11	-1.3246996e-07
17	0x36413a9d	2.8793359e-06
18	0x37224bf4	9.673637e-06
19	0xb6478121	-2.9728474e-06
20	0x378770b3	1.6145734e-05
21	0xb5352976	-6.748809e-07
22	0x34916d15	2.7087722e-07
23	0xb6058455	-1.9895572e-06
24	0x36bba403	5.5921278e-06
25	0x35eeaf01	1.7783315e-06
26	0x35f88415	1.8515881e-06
27	0xb5c39a2e	-1.4573504e-06
28	0xb79933a4	-1.8263068e-05
29	0x36015346	1.927097e-06
30	0x3628eb06	2.5170752e-06
31	0xb759ca8a	-1.2981365e-05
32	0x36f8ba08	7.412633e-06
33	0x351d4022	5.8580383e-07
34	0xb6aacff3	-5.0906033e-06
35	0x3629acae	2.5283475e-06
36	0xb6b389ae	-5.3506437e-06
37	0xb70084f1	-7.660347e-06
38	0xb5454d58	-7.350077e-07
39	0x35b64b03	1.3581888e-06
40	0x3697c544	4.5231154e-06
41	0x3664ab6b	3.4074426e-06
42	0x35e05c92	1.6716242e-06
43	0x3643964c	2.9144749e-06
44	0x373a0005	1.10864685e-05
45	0xb4ca56c3	-3.768856e-07
46	0x3697d6ad	4.5251422e-06
47	0x3651603a	3.1199438e-06
48	0x367de1ed	3.7831444e-06
49	0x3658afc1	3.228881e-06
50	0x3464f710	2.1324036e-07
51	0x369c6b50	4.661655e-06
52	0x37206540	9.560317e-06
53	0xb7af11b7	-2.0869875e-05
54	0x35abebcc	1.2809119e-06
55	0xb5961a0a	-1.1183449e-06
56	0xb674f3b8	-3.6500696e-06
57	0xb6fd9f2d	-7.558518e-06
58	0xb5fed3f7	-1.8986165e-06
59	0x371e69ca	9.442165e-06
60	0xb4991cbd	-2.851938e-07
61	0xb5aa5b42	-1.2692547e-06
62	0xb6fde624	-7.5667795e-06
63	0x35a8c65c	1.2574706e-06

bn2.running_mean f4 [64]
0	0x3e861418	0.26187205
1	0x3e8aa81a	0.27081376
2	0x3e20800b	0.15673845
3	0x3e652505	0.22377403
4	0x3e97ceca	0.29649955
5	0x3de6ec8b	0.11275586
6	0x3e8cd38c	0.27505147
7	0x3e4f67d5	0.20254453
8	0x3dc22144	0.09479001
9	0x3e8d1ebb	0.27562508
10	0x3e743d9b	0.23851626
11	0x3e4cd007	0.20001231
12	0x3d5d946c	0.054096624
13	0x3d1fb030	0.038986385
14	0x3e4ce328	0.20008528
15	0x3e183698	0.14864576
16	0x3de907e3	0.113784574
17	0x3d1236f3	0.035696935
18	0x3ace5f90	0.0015745033
19	0x3d35c085	0.044373054
20	0x3e178b47	0.14799224
21	0x3dad51aa	0.08462842
22	0x3d684391	0.05670506
23	0x3cdff6b0	0.02733931
24	0x3da75659	0.081707664
25	0x3e3ca25e	0.18421313
26	0x3e52f78d	0.20602246
27	0x3e5f0f24	0.2178312
28	0x3e023716	0.12716326
29	0x3e870e85	0.26378265
30	0x3e7af40a	0.24507156
31	0x39841caf	0.00025198373
32	0x3a4d2bd4	0.00078266603
33	0x3da15205	0.07876972
34	0x3e5ab58d	0.21358319
35	0x3db444fa	0.08802219
36	0x3c7f0da1	0.015567214
37	0x3de06e6e	0.10958563
38	0x3d88e1a9	0.06683666
39	0x3df92561	0.121653326
40	0x3e032b58	0.12809503
41	0x3e3d2a3e	0.18473145
42	0x3e07b60b	0.13253038
43	0x3d9261fb	0.071475945
44	0x3e03db22	0.12876561
45	0x3de15d79	0.110041566
46	0x3df4a91e	0.11946319
47	0x3e2e6517	0.1703075
48	0x3de9557b	0.11393257
49	0x3df12292	0.11774172
50	0x3e84cd81	0.25938037
51	0x3e4c27a0	0.1993699
52	0x3db9b3f9	0.0906753
53	0x3d816026	0.06317167
54	0x3daeb629	0.08530838
55	0x3e158c45	0.1460429
56	0x3e1ff31a	0.1562008
57	0x3cf00d44	0.0293032
58	0x3e24b09f	0.16083
59	0x3e095129	0.13409866
60	0x3dfb4604	0.12269214
61	0x3d13b76e	0.036063604
62	0x3de14e82	0.11001302
63	0x3dbc95ea	0.09208281

bn2.running_var f4 [64]
0	0x3e26d382	0.16291621
1	0x3dcf934e	0.10135518
2	0x3da28059	0.079346366
3	0x3df75ac4	0.12077859
4	0x3df8bed5	0.12145773
5	0x3d31dedd	0.04342543
6	0x3df6de2a	0.12054093
7	0x3d925ce1	0.071466215
8	0x3d136bc0	0.03599143
9	0x3ddb045e	0.10694192
10	0x3e1f0dab	0.15532558
11	0x3dc3e4be	0.095651135
12	0x3c8793a4	0.016549893
13	0x3c4d614a	0.012535403
14	0x3d362a74	0.04447408
15	0x3d6d149e	0.05788099
16	0x3d69b147	0.05705383
17	0x3c1ee95c	0.009699192
18	0x395638e1	0.0002042982
19	0x3c32b207	0.010906703
20	0x3d96dfaf	0.07366883
21	0x3d02295e	0.031777732
22	0x3c868aa3	0.016423529
23	0x3b95b73f	0.004568964
24	0x3d1491b7	0.036271777
25	0x3d64c1c4	0.05584885
26	0x3db5e886	0.08882241
27	0x3d58e77b	0.052955132
28	0x3d38393a	0.04497645
29	0x3dbc34ef	0.09189784
30	0x3dbe0998	0.092791736
31	0x37f60d8a	2.933179e-05
32	0x38b23f9c	8.4995496e-05
33	0x3c845a54	0.016156353
34	0x3da22461	0.07917095
35	0x3c962ac0	0.018330932
36	0x3b7193c5	0.003686176
37	0x3d07a02e	0.033111744
38	0x3c9f9808	0.019481674
39	0x3d5cba56	0.05388864
40	0x3d60ca9b	0.05488072
41	0x3da1a2fc	0.07892415
42	0x3d2cdadf	0.04220092
43	0x3cc24899	0.023716258
44	0x3d3cb835	0.04607411
45	0x3d25f556	0.040517174
46	0x3cc2c069	0.023773389
47	0x3d8e0357	0.06934231
48	0x3d02ed7a	0.031964757
49	0x3cfc5cea	0.030806024
50	0x3e28b921	0.16476871
51	0x3d7c8d60	0.061658263
52	0x3cd00183	0.025391346
53	0x3c5e046a	0.013550857
54	0x3d0234da	0.031788684
55	0x3d7f4e7f	0.06233072
56	0x3d79a2b0	0.060946167
57	0x3be3ce8d	0.006952113
58	0x3d61c392	0.05511815
59	0x3d405a2d	0.046961
60	0x3d3bc96e	0.045846395
61	0x3c191342	0.00934297
62	0x3d20d90f	0.039269503
63	0x3ceba395	0.028764525

fc3.weight f4 [2, 64]
0	0x3c73e5db	0.014886345
1	0x3c8db5a4	0.017298527
2	0xbc3a1d77	-0.011359564
3	0xbb352ba8	-0.002764443
4	0xbcb9020f	-0.02258399
5	0x3c96e5ac	0.018420063
6	0x3c311873	0.010809052
7	0xbd06a346	-0.032870553
8	0x3ce31e15	0.027724305
9	0xbd114290	-0.03546387
10	0xbbd7cfe0	-0.00658606
11	0xbb024ef9	-0.0019883497
12	0x3b8c84e0	0.004288301
13	0xbce12fe4	-0.027488656
14	0x3cebb67c	0.028773539
15	0x3b9aa39c	0.004719211
16	0xbc937e10	-0.018004447
17	0xbc2a3393	-0.010388273
18	0x3c897da5	0.016783545
19	0x3b631b49	0.0034653714
20	0x3caefaa7	0.021359755
21	0x3da8d627	0.08243971
22	0x3bc5c0da	0.0060349526
23	0xbcb2b94b	-0.02181687
24	0x388e7ba8	6.7941204e-05
25	0x3b8ba72f	0.004261873
26	0xbc19d22a	-0.009388486
27	0xbb6a3954	-0.0035739737
28	0xbd5dae69	-0.05412141
29	0x3ce22746	0.027606618
30	0x3c89559e	0.016764458
31	0xbd010cf6	-0.0315065
32	0x3d55c376	0.05218836
33	0xbccde559	-0.025133776
34	0xbd19daa7	-0.03756204
35	0x3c805839	0.015667068
36	0xbcc88f85	-0.024482498
37	0x3d51ad68	0.051190764
38	0x3d884214	0.066532284
39	0xbcdf0b5c	-0.027227096
40	0x3ccbabbe	0.024862166
41	0x3c663a0c	0.014051925
42	0x3c2e6e06	0.010646349
43	0x3b6f5611	0.0036519805
44	0x3da9c6f1	0.08289898
45	0xbc953391	-0.018213065
46	0x3c04dae6	0.00810883
47	0xbc9ed6b1	-0.019389482
48	0x3c69faa4	0.014280949
49	0x3c3ff8db	0.011717047
50	0xbbad78ec	-0.005293956
51	0x3c09c913	0.008409756
52	0xbd8ecf1e	-0.06973098
53	0xbd4a11cf	-0.04933339
54	0x3c0557f1	0.008138643
55	0x3cdb4f3f	0.026771186
56	0x3c862352	0.016374264
57	0xbc9150a1	-0.017738642
58	0x3b8784c4	0.0041357
59	0xbd282d22	-0.041058667
60	0x3c0ad707	0.008474118
61	0xbc3d348d	-0.011548174
62	0xbcec2f70	-0.028831214
63	0xbc0439ea	-0.008070448
64	0x3c12562b	0.008931677
65	0x3b1378ca	0.0022502416
66	0x3d12f9c4	0.035882726
67	0xbd438ac2	-0.04773975
68	0xbbe79aed	-0.007068029
69	0x3c611080	0.013736844
70	0x3b938081	0.004501403
71	0x3c398b83	0.011324766
72	0xbc66bcb0	-0.014083073
73	0xbcad995e	-0.021191295
74	0xbc1438c6	-0.009046739
75	0xbca6a9d7	-0.020344658
76	0x3c537591	0.012906448
77	0xbc8e4739	-0.017367946
78	0x3d2ad583	0.041707527
79	0xbc6338c6	-0.013868516
80	0xbd6e575c	-0.05818878
81	0x3c91fa99	0.01781969
82	0x3c1fcb18	0.009753011
83	0xbc74313e	-0.014904318
84	0x3cba368a	0.022731084
85	0x3d56405d	0.052307475
86	0x3cee54da	0.029093195
87	0xbc386d84	-0.011256579
88	0xbd192153	-0.037385296
89	0xbc0c2ada	-0.0085551385
90	0xbc98581e	-0.018596705
91	0xbcc5019c	-0.024048619
92	0x3d221c71	0.039577905
93	0x3c8aedbe	0.016959067
94	0xba1a34b6	-0.00058824883
95	0x3b92381a	0.0044622542
96	0x3d9d75cd	0.07688484
97	0x3c9ba599	0.018999862
98	0xbcb98c50	-0.022649914
99	0xbc8810ca	-0.016609568
100	0xbb3d040e	-0.0028841528
101	0x3bd27dfc	0.00642371
102	0x3c0e6b93	0.00869264
103	0x3d4a4490	0.049381793
104	0xbbe8279e	-0.007084801
105	0xbb8d14ca	-0.0043054568
106	0x3ba091d2	0.0049001956
107	0x3c34f557	0.011044822
108	0xbc16c82d	-0.009202999
109	0x3b99151a	0.004671705
110	0x3c501eca	0.012702653
111	0x3bdee7ce	0.0068025356
112	0x3c86afe7	0.016441299
113	0xbb952c1a	-0.0045523765
114	0xbc217556	-0.009854635
115	0xba047e32	-0.0005054205
116	0x3bb0adff	0.0053918357
117	0x3d8973bb	0.06711527
118	0xbce23ca9	-0.027616816
119	0x3bdee04e	0.0068016415
120	0xbc0bba7e	-0.00852835
121	0xbb5ad522	-0.0033391197
122	0x3cd93b68	0.026517585
123	0x3c00b8a8	0.0078565255
124	0x3b41494c	0.0029493151
125	0x3bdefbe7	0.0068049314
126	0x3b97046f	0.004608683
127	0x3cb6a341	0.022294642

fc3.bias f4 [2]
0	0xbd89b3a5	-0.067237176
1	0xba940910	-0.0011294205

bn3.weight f4 [2]
0	0x3fdaf900	1.7107239
1	0x3ffff54d	1.9996735

bn3.bias f4 [2]
0	0xbe856686	-0.26054782
1	0x3dd4b7ea	0.10386641

bn3.running_mean f4 [2]
0	0xbd89ae48	-0.06722695
1	0xba9321bc	-0.0011225264

bn3.running_var f4 [2]
0	0x3bd2edef	0.0064370553
1	0x3ab6e92a	0.0013954986
