p3_collaboration_and_competition/weights/actor_1_1000.pth (torch_old, 51773 bytes, 18 tensors)

fc1.weight f4 [128, 24]
00000000: 2ae8 803c 73f0 063e 8835 253d e368 ac3d
00000010: a3f5 aebd 77c6 27bc 0624 393d 67fc 983c
00000020: dd90 88bc 835c 8f3d 9e25 233d 3ba3 a23d
00000030: 8703 9cbd ce48 6abd c3c0 87bd 5581 0e3e
00000040: db5d f83b 6f82 083e 3f56 2d3d 79cd bcbb
00000050: 2292 13be a4c7 c23d 7df2 49bd 73dc dabc
00000060: 44ec 933d d528 943d 282e b2bd ae92 01be
00000070: 7eb7 ae3c bf43 40bd 7f7b 833d 7d4e d6bd
00000080: a21d 983d 658a 943d ad66 39bc a5f8 923c
00000090: 8e11 e23b 73c1 98bd 0168 1bbc 2356 11bd
000000a0: 0f6b 4f3d 124e 553d cfbe dd3c f684 4dbd
000000b0: 589a a53b 8ce3 3f3d 85f8 fdbb ed5a abbd
000000c0: 8224 1239 305e 64bc 8202 efbc 4fc3 6b3d
000000d0: d157 2e3d 93d6 85bd 3d14 2c3d 9a20 a33c
000000e0: 0e25 c5bb 7d13 0b3d fac2 1bbb e4e9 973c
000000f0: 4de4 2cbd 79e7 cfbc 55b4 0e3c a8a6 903d
00000100: f150 02bd 2b72 b63b 3f4d 32bd 34bf 9f3d
00000110: 4e4a abbd c178 61be 390a 643d dd09 5fbd
00000120: e766 1dbd efd6 6dbd e0e0 c1bd 32e2 e4bc
00000130: ba8f 0c3d 7696 b1bd cd67 2abc 3f5c 313d
00000140: 126a ad3d 4488 7e3d d8c3 9f3c 4a49 8c3d
00000150: bdbc 8ebb 4c02 473d f788 41bd 562b 89bd
00000160: d912 cabd bde6 1c3d c5d3 553d b924 5e3d
00000170: 2127 bc3c 9497 c93c e246 b5bd 4ba4 9cbd
00000180: 5f92 163e d08b bfbd 6471 1f3c e4d4 c9bd
00000190: 47fa b4bd 659f 0d3d 775b 9e3b 2e71 9bbd
000001a0: e1f3 06bc 906d 07be 8d15 873b 586e d8bd
000001b0: f013 203d 7dca 353d 7980 5abd 2c1e 9cbb
000001c0: f22c 903d f8e3 44be 56ed 233d 2c6c 283d
000001d0: 5271 23bd ebd7 af3c ddf0 8d3a 6a2a d9bc
000001e0: ca04 fe3c 1d63 bc3c 49c6 9cb9 9265 1c3d
000001f0: 1785 ab3d ca96 96bc 3089 073d 5919 d7bb
00000200: 366f e63c 0f90 4f3c ac5b 7fbd 2cf8 fd3b
00000210: 23a3 ab3d f2f6 d83d c47e 823d 34b0 4c3c
00000220: d72a 963d 8467 ba3d 3523 60bd 23ad 03bd
00000230: 3acc 9b3c 06ce 293e 89fb 1c3d d4b8 7b3d
00000240: 4a18 2bbd a903 653d 29d3 79bd a7a6 c7bc
00000250: 62b2 113d 44e0 763d c4e0 f4bd 9739 febb
00000260: 82f6 27bd bbb7 8abd edd7 5bbd 3cf0 3d3d
00000270: 009a 53bc 30c1 d5bc ddf4 e2bc 15cd 823d
00000280: 783a 0a3c bd89 3cbd b153 ad3c 5933 a1bc
00000290: 3734 e83c f3a0 bcbb b290 d2bd 6382 103d
000002a0: f486 f8bc 68e7 283e 8893 8cbd c9a4 93bc
000002b0: d9b2 163c 9e07 063c 6b9c 57bd 713a 573d
000002c0: 957e 9bbd 1e38 bd3c 2d29 e23c bad5 9ebd
000002d0: 87a2 9ebd 3c9a 5d3e b1bc f03c b3e4 6c3d
000002e0: 206b 493c 80e1 d23d 313e ca3c a7d8 9abd
000002f0: fbbb 30bd 0940 293e 6821 343d 9f7d eabc
00000300: b6a7 a4bd a817 c63d 12ad 26bd 6502 283d
00000310: 1bdf eebc fef0 4a3d 5873 e13a 3e8c b8bd
00000320: 1a8f 6fbc d522 65bd eb79 233d 119f acbd
00000330: 9c95 aebc 0876 6a3d e023 b4bd 7d34 b5bd
00000340: 46d4 07be ec9e 3b3d 28a5 29bd c807 c6bd
00000350: 2a56 a9bd c34d ad3b 5d0f 13bc d2b3 33be
00000360: ba27 823d 68d7 7bbd 6020 163a f5d1 d2bc
00000370: 69a6 1cbd 20fd 58bd 8719 c7bc 4b7e cf3c
00000380: 0f6a a43d e3fb e2bd 0edc 33bd 4ecf 1d3b
00000390: cca7 923d 848e 203d 6a90 8a3d 6e37 4fbc
000003a0: 8df0 47bd 0917 5bbd 1151 c03c db10 453c
000003b0: 4590 c33d 9dd7 283d a785 b8bd 29eb 3d3d
000003c0: 7e68 c0b9 cfeb 1d3e 6c16 063d 156b a0bc
000003d0: a7c4 cfb9 8b30 d0bd 0b6a a03d 3027 ef3c
000003e0: e375 30bd 6eff 38bc ba56 dabc e016 85bd
000003f0: 9ddc 94bd fbf2 a83d ada6 5fbc adbe 9dbc
0.015735704 0.13177662 0.040334255 0.08418443 -0.08542945 -0.010240189 0.04520037 0.018675042
-0.016670639 0.07000067 0.039830796 0.0794129 -0.0761786 -0.05719834 -0.06628563 0.13916524
0.007579548 0.13331006 0.04231858 -0.005761799 -0.14411214 0.09510735 -0.04930352 -0.026716447
0.072227985 0.072343506 -0.0870021 -0.1265361 0.02132773 -0.046939608 0.064200394 -0.10464189
0.07427527 0.07252959 -0.011315984 0.017940829 0.0068990653 -0.074587725 -0.009485246 -0.035482537
0.05063921 0.052076407 0.027068524 -0.05017563 0.0050537996 0.046847865 -0.007750573 -0.08366952
0.00013937245 -0.013938472 -0.029176 0.057559308 0.042564217 -0.065350674 0.04201149 0.019913007
-0.00601638 0.033954132 -0.0023767338 0.018544145 -0.042209912 -0.02537893 0.008709987 0.07063037
-0.031815473 0.005567809 -0.0435307 0.07800141 -0.08363782 -0.2201872 0.05567381 -0.054452766
-0.038428213 -0.058066305 -0.094667196 -0.02793989 0.034316756 -0.08671276 -0.010400725 0.043300863
0.08467497 0.06214167 0.019502565 0.06849916 -0.0043559955 0.048586175 -0.04724976 -0.06697719
-0.09866876 0.038305987 0.052203912 0.05423424 0.022967877 0.02460841 -0.088514104 -0.07648524
0.14704274 -0.09352839 0.009731624 -0.09855059 -0.08836799 0.03457584 0.004832681 -0.07589947
-0.008236856 -0.13225389 0.004122442 -0.105679214 0.039081514 0.04438256 -0.053345177 -0.004764339
0.07039823 -0.19227588 0.040021263 0.041118786 -0.039902993 0.021465262 0.0010829229 -0.026509482
0.031008143 0.02299648 -0.00029902373 0.038182802 0.08374994 -0.018382449 0.033089817 -0.006564301
0.028129201 0.012668624 -0.062343284 0.0077505317 0.08380725 0.10593976 0.06371835 0.012493182
0.0733239 0.09101775 -0.054721076 -0.032147538 0.019018281 0.16582498 0.03832582 0.061455563
-0.04177121 0.055911694 -0.060992394 -0.024371458 0.03557051 0.06027247 -0.11956933 -0.00775833
-0.041006573 -0.06773325 -0.05367272 0.046371683 -0.012915134 -0.026093096 -0.02770465 0.063867725
0.008436792 -0.046029795 0.021158071 -0.019677805 0.02834521 -0.0057564913 -0.10281505 0.035280596
-0.030337788 0.16494524 -0.06864077 -0.018022912 0.009197914 0.008180527 -0.052639406 0.05254597
-0.07592503 0.023098048 0.027607525 -0.07755609 -0.077458434 0.21640867 0.02938685 0.057835292
0.012293607 0.10296917 0.024687858 -0.075608544 -0.043148022 0.16528334 0.04397717 -0.028624354
-0.08039801 0.09672481 -0.040692396 0.04101791 -0.02915912 0.049546234 0.0017200513 -0.09011124
-0.01462152 -0.05594142 0.039911192 -0.08428777 -0.021311574 0.05724147 -0.08795905 -0.08847902
-0.1326457 0.045805857 -0.04141727 -0.09669453 -0.082683876 0.005288811 -0.008975831 -0.17549065
0.063552335 -0.061484724 0.000572687 -0.025734881 -0.03824464 -0.052975774 -0.024304165 0.025328776
0.080280416 -0.110832 -0.043911032 0.0024079862 0.07160911 0.039198413 0.06765826 -0.012647493
-0.04881339 -0.053488765 0.023476155 0.012027944 0.095490016 0.04122125 -0.09009867 0.046366844
-0.00036698946 0.15421985 0.032736227 -0.01958231 -0.00039628634 -0.10165509 0.07832726 0.02919349
-0.043081176 -0.011291368 -0.026652683 -0.06498504 -0.07268641 0.0824947 -0.013650578 -0.01925596

fc1.bias f4 [128]
00000000: f122 40be 7037 063c 18a9 3fbe 81a8 6abd
00000010: fbbb 6cbc 9d4b e13d 5178 df3d 9858 debd
00000020: cf76 253c e71d 86bd c9d6 07be 4633 6fbc
00000030: 29c3 173e ad5c 053e 8411 e33d e1eb ee3c
00000040: 9206 3a3e 0e27 083d b456 073e 3d0d 57be
00000050: bb1a 5fbd 8c7f 8bbe 92e5 413d d7a2 f33d
00000060: e7c0 46be d1b1 2ebe 9ed7 bf3d b303 113e
00000070: 01ee c0bd 0ad7 62be 8475 9ebd 45bd 0dbe
00000080: 6cc4 d33d f307 0fbe 78ab 633c 0865 393d
00000090: 5435 9a3d 0a64 82bd cf01 c03c 9f41 813d
000000a0: e263 263e 864d 33bb 6230 b13c 4bfb 2dbe
000000b0: b852 1e3e 0c31 f8bd abb2 103d 4e98 3cbe
000000c0: 9a05 a0bd 1aac 80bd 90bb 013d 352b 5d3b
000000d0: e0cf 133d e533 05bc aa82 af3d d04d 16be
000000e0: b2ce d13d 0a96 bf3c cbfa 843e 7245 2b3c
000000f0: 94e4 9bbd a32c c23d da5f 453e c043 2abe
00000100: 348a f3bd 5a78 99bc f96a 13be 3b02 bcbc
00000110: b396 0cbe 64d1 203d 7008 c4bd a854 923d
00000120: bffb b93d b2f2 2fbe cb0a 523c 5a1a 0e3e
00000130: 20d4 273e 1a5a 81bd 6f50 6f3d 682a 7c3d
00000140: 8db9 bd3d 80dd f0bc dddf 9cbd 1bde e0bd
00000150: d5e8 4c3c 10e6 cb3c b401 07be a568 33be
00000160: d77a 893e 5a75 52be b598 e7bd f918 01be
00000170: 62e4 c3bd 68da 4dbe 2952 bebd 60e2 e63c
00000180: 1f3c 303e 0a9d eb3d 6997 13be 17a8 33be
00000190: 9e74 63be dfcc 23be c987 93bd bf9b 30be
000001a0: 861c 23bd 86bd 1f3e 09be c9bd 4860 3bbe
000001b0: 1671 26bb 2480 013e 3434 c3bd 0b3e afbc
000001c0: d789 d03d 33db de3d 3f72 133e 29c6 30be
000001d0: 8a22 523e 0937 0abe dd32 09be 3319 8eba
000001e0: cc23 173d 9c57 13bd 4b3d 563e 4ea7 8fbd
000001f0: feb4 0ebe e56e c7bd 7af0 76bd eb8e eb3d
-0.18763329 0.008191928 -0.18716848 -0.057289604 -0.014449115 0.1100075 0.109116204 -0.10856742
0.010099127 -0.06548672 -0.13265528 -0.014599627 0.14820541 0.13023634 0.11087325 0.02916521
0.18166569 0.03324037 0.13216668 -0.21001144 -0.05446885 -0.27245748 0.047338076 0.118962936
-0.19409524 -0.17060019 0.093672976 0.14161567 -0.09420396 -0.22152343 -0.07737258 -0.13841732
0.10340199 -0.13967876 0.013895862 0.045262367 0.07529703 -0.06366737 0.023438362 0.06311344
0.1624904 -0.002735944 0.021629516 -0.16990392 0.15461242 -0.1211873 0.03532664 -0.18417475
-0.078135684 -0.06282826 0.031673014 0.0033747677 0.036086917 -0.008130048 0.08569844 -0.1467812
0.10244502 0.023386974 0.2597259 0.010453569 -0.07611957 0.0948117 0.19274846 -0.16627407
-0.118915945 -0.018734146 -0.14396276 -0.022950282 -0.13729362 0.03926219 -0.09571922 0.07145053
0.0908122 -0.17182425 0.012819956 0.1387724 0.16389513 -0.06316014 0.058426317 0.06156388
0.09263907 -0.029402494 -0.07659886 -0.10979863 0.012506683 0.024889976 -0.13184243 -0.17520387
0.26851532 -0.20552579 -0.113084234 -0.12607183 -0.09565045 -0.20102847 -0.092930146 0.028184116
0.17210434 0.11504562 -0.14413227 -0.1754459 -0.22212455 -0.15996121 -0.07203633 -0.17246912
-0.039822124 0.15599641 -0.098506995 -0.18298447 -0.0025396994 0.12646538 -0.09531441 -0.02139189
0.10182541 0.10881653 0.1439905 -0.17263092 0.20520988 -0.13497557 -0.13398309 -0.001084125
0.036899373 -0.035972223 0.20921819 -0.07014333 -0.1393623 -0.09737948 -0.06028793 0.11501869

bn1.weight f4 [128]
00000000: c469 3c3f 1f6e 533e e5e2 0f3f cd3b 5d3f
00000010: 7c53 be3e c2b9 363f a699 c93e 1a8d 683f
00000020: b493 053f c462 463f 0745 a33e 9785 9d3d
00000030: 1d48 a73e c7a8 513f 2968 113f 5f73 0e3f
00000040: 8682 5a3f 3377 213e 95b5 9d3e 2269 343f
00000050: 2044 6e3f eeca 2f3f be14 a03e e113 3a3f
00000060: f0ab 2f3f e4ef 343e c790 663f d476 143f
00000070: bf59 873e 319a a33d 2116 233f 7a04 d13e
00000080: 3e32 0b3f a66f 4d3e 1d3f 373f a353 913e
00000090: 2dd1 693f 239d 123f 45ce 1e3f f7b6 513f
000000a0: eeb3 5b3f b51a 083f c109 6b3f 9f52 4d3e
000000b0: 6b81 533f 2614 573f ad41 913e d86a 9d3e
000000c0: 97ad 663f c754 6b3f fc3e 763e 9ca2 133f
000000d0: 7256 223e 26fd 393f dc12 f43d a7c4 b53e
000000e0: 7e04 5e3f 67ab 623f 5cd1 673f 5dc1 153f
000000f0: 3fe3 993d 78cf 483f 9702 513f 185a 5a3f
00000100: 167f 333f c0bf f03e bb59 373f ac51 1d3f
00000110: fd22 883e b3bf 3c3f 724c bb3e 4c31 5b3f
00000120: 10a8 f33e 63d5 cb3e a001 2e3f 51a6 cb3e
00000130: 6e6a 323f 0c00 243e 3d03 be3d 34fe 113f
00000140: 2984 cc3e 44c0 8c3e c442 6a3e a920 073f
00000150: 4726 843e b3e3 5c3f d0ed 143e 54cd a03e
00000160: 5539 d33e 70ab 043f 7d51 103e c6c1 613f
00000170: 5797 443e 92b7 983e f94c 1b3f 4b62 da3e
00000180: 0557 073f c2b6 e9bd e3c5 723e 5cf4 4b3f
00000190: b6dd 313f e1a7 363f 1ef3 3a3f 72bc 593f
000001a0: 3fea 3e3f 9d11 d03e d5e4 ca3e 1918 843e
000001b0: aa00 243f 4fed de3e 7771 913e 1da7 423f
000001c0: cd1c 183f ab61 f13e 9f8b c53e cfa9 353e
000001d0: ae2c 6b3f a5ac 233e e9ad 203e a996 143f
000001e0: 4bd1 c93e 0ca9 393f d247 da3e 449e ae3e
000001f0: 4f01 ee3e a59d de3e 2805 cc3e e08d d33e
0.73598886 0.20647477 0.5620559 0.86419374 0.3717307 0.71377194 0.39375037 0.90840304
0.521785 0.77494454 0.318886 0.07691496 0.32672206 0.8189816 0.5679956 0.5564479
0.8535541 0.15768127 0.308026 0.7047292 0.930727 0.6866902 0.31265825 0.7268658
0.6862173 0.17669636 0.9006466 0.5799382 0.26435658 0.07988394 0.6370564 0.40823728
0.5437354 0.20062122 0.7158068 0.28384122 0.913348 0.5727102 0.6203349 0.8191981
0.85821426 0.5316575 0.9181176 0.20051049 0.8261935 0.8401512 0.2837042 0.30745578
0.9010863 0.91926235 0.24047464 0.5767 0.15853289 0.726519 0.1191766 0.35501596
0.86725605 0.8854279 0.9055383 0.58498174 0.07514047 0.7844157 0.81644577 0.8529372
0.7011579 0.47021294 0.7162129 0.61452746 0.26589194 0.7373001 0.3658176 0.85622096
0.4758916 0.3981124 0.6797123 0.39775327 0.6969365 0.16015643 0.092779614 0.5702851
0.3994458 0.27490437 0.22877032 0.5278421 0.25810453 0.8628494 0.14543843 0.31406653
0.41254678 0.5182409 0.14093585 0.881863 0.19198357 0.29827553 0.60664326 0.42653117
0.52867156 -0.114118114 0.237083 0.7966974 0.6947893 0.7134991 0.7302722 0.8505317
0.7457618 0.40638438 0.3962771 0.25799635 0.64063513 0.43540427 0.2840688 0.76036245
0.59418947 0.47144827 0.38583085 0.17740558 0.9186505 0.15983827 0.15691341 0.5804239
0.3941749 0.7252357 0.4263292 0.34105122 0.46485373 0.43479648 0.39847684 0.4131918

bn1.bias f4 [128]
00000000: 2a63 5abd 3684 cebc 017a 983d 009c 6cbd
00000010: d370 0cbd d63b bf3d a26b 9a3c c34c 383d
00000020: de1a bf3b 14ad 4dba 1a0b 173c 3485 74bd
00000030: d534 3d3d e824 7bbc a522 a0bb 7870 803d
00000040: e7c0 2abd 6309 0b3e 711d a73d cdd5 c93d
00000050: fe80 8b3d c9ec a43d 6511 cb3a ba80 1ebc
00000060: 89f9 173d 418a ecbb 2850 743d 2fdc c7bd
00000070: 8796 563c b90c 333e 360a 8b3d c142 40bc
00000080: 24bc 1a3e d663 3f3d a659 37bd 051a 533d
00000090: 9568 953d 2f05 c33d 3d4d a83d 67bd b83d
000000a0: 9eb1 74bd 01b9 ed3c 1432 c43c e176 ce3d
000000b0: 2f04 30bd c6c5 0a3d a208 cc3c 344d 0e3d
000000c0: 093c 86bc 2bae 273d 5337 9e3d 517c b63d
000000d0: 8c1e c83d 2c82 043e b936 14be 3410 a13d
000000e0: bb86 8a3d c4e4 ef3d 5b07 a8bd 7296 453c
000000f0: b6da 7cbc 76ac 03bd 1596 61bb 2ec3 17bc
00000100: 62f8 75bd 52aa cebb facd 903d 71c6 c2bd
00000110: 4efa 4cbd b57f 8b3d a616 bb3d 8bfa b83d
00000120: 5c1a 743d e9fa b5bd 7b53 ae3c 50af 823c
00000130: 4859 95bc ee6f e73d d8f1 3ebe f32b 77bc
00000140: e032 55bd 644f 0b3d c8a8 ab3b a617 aa3d
00000150: 2910 fabb fde8 ff3d f12c 25bd 09d7 18bd
00000160: 97a6 ebbd edb0 e03d b8b0 6cbd 15d0 d63d
00000170: 9ce3 e6bd ad80 59bc 5eb3 753d fa9c c63d
00000180: 3f8d 8c3c 8622 ed3d 04be 543e 8f3f b83d
00000190: 851d 6f3d d2fd 9cbd 7f2e 84bd 8b68 dd3d
000001a0: 5de7 0cbe 52d2 bf3b 9770 1d3d 3235 aa3d
000001b0: c399 f93c dcae c13c 7585 483d 89d6 1c3e
000001c0: 7f44 e0bc 2f9b 72bd e7ba 043e 2658 293d
000001d0: b2cb 8c3c a42c f1bd ae20 60bd f431 583b
000001e0: bcb0 a93d 2d3e f2bc 3d14 4abd 816a 263d
000001f0: da85 0a3e 6d47 933b 93f2 b73c 1668 1dbc
-0.053317226 -0.025209527 0.074451454 -0.05776596 -0.034287285 0.09337585 0.018850151 0.04499508
0.0058320602 -0.000784592 0.009218955 -0.059697345 0.046192963 -0.015328623 -0.0048869424 0.06271452
-0.041687872 0.135778 0.081599124 0.098552324 0.06811713 0.08052976 0.0015492855 -0.0096742455
0.03710321 -0.0072186296 0.059646755 -0.097587936 0.013097412 0.17485322 0.06789057 -0.011734665
0.15110832 0.04672607 -0.04476323 0.051538486 0.07295338 0.09522473 0.08217857 0.09020501
-0.0597397 0.02901888 0.02394966 0.10081268 -0.04297274 0.033880018 0.02490646 0.034741595
-0.016386049 0.040937584 0.07725396 0.0891043 0.09771451 0.12940282 -0.14474 0.078644186
0.06763979 0.117135555 -0.08204528 0.012059795 -0.015433004 -0.032146893 -0.0034421731 -0.009262843
-0.06005133 -0.006306925 0.07070537 -0.09510506 -0.050043397 0.068114676 0.09135179 0.09032162
0.05959545 -0.08885748 0.021280041 0.015952736 -0.01823105 0.11300646 -0.18646944 -0.015086162
-0.05205047 0.03401126 0.005238626 0.08305292 -0.007631321 0.12495611 -0.040326063 -0.03731445
-0.11506384 0.10971246 -0.05778572 0.10488907 -0.11273882 -0.013275308 0.05998551 0.0969791
0.017157195 0.115788504 0.2077561 0.08996498 0.05837776 -0.076656 -0.06454181 0.108109556
-0.13760133 0.0058539296 0.038437452 0.083109275 0.030468827 0.02364295 0.0489554 0.15316214
-0.027376411 -0.059230026 0.12961923 0.04134383 0.017186973 -0.11776093 -0.054718666 0.0032988759
0.082856625 -0.029570663 -0.049335707 0.040628914 0.13527623 0.0044945986 0.022454536 -0.009607336

bn1.running_mean f4 [128]
00000000: 8202 883f 69d3 8c3d 11c0 da3d 372b 1a3f
00000010: a58f c03e 257e 563f 3a2a 933f 7d4c f53f
00000020: be0b d53f 4cac 753e dc92 663f 8fd1 1c40
00000030: 7a94 003f 5a1d 4f3f 3af6 083f 4bf1 443d
00000040: c73f 873f a567 2d40 e7f8 a53d de14 ac3e
00000050: 4651 8b3f 4d91 913f b585 ef3f e14a 2c3f
00000060: e0c2 c73e 3beb fa3e bf27 023f 6891 083f
00000070: 6954 bd3f 9577 2f3f 435d 643f a915 023f
00000080: 76a5 a73f 7372 673f b2d2 223f 6f3a 7d3d
00000090: 7cbd 763f f86b 9d3f d834 373f db61 7a3e
000000a0: 3801 503f 1859 813f 3a06 ad3e 9468 743e
000000b0: bea0 da3e 635f c23e 5938 a03f 8270 c83c
000000c0: d517 dd3f 54d3 263e a314 873e 2bf4 6b3d
000000d0: aa40 083f 4955 2840 d441 a83d 2b87 ae3e
000000e0: 3afa 4a3f ad52 9f3f c996 773f 1e56 853f
000000f0: e98c db3f cdcc 2e3f 1abf 973f e23a 1540
00000100: 0079 443f a5bb d13e a63c 6c3f b1a8 eb3e
00000110: f74b 443f 7276 b13e 9e6c 213f e2fd e03e
00000120: 2ce9 733e 2f7b 7a3f 135b 963f c758 ca3f
00000130: b4c0 583f 1bbc ae3e 5075 813e 4c9c ae3e
00000140: 62c3 3a3e 966d 633f ca06 cb3c aa5d cf3e
00000150: e27e 5d3f 7830 fd3e 322f 523f b223 863f
00000160: 5213 4f3f 7864 613f 0aca 5a3e 28d0 be3e
00000170: af35 bb3d d22d 3d3f 68ad a93e eeb1 1e3f
00000180: 3b86 2340 98c3 9f3e 9453 4d3f a82c 7a3f
00000190: 1f47 973e 74f7 363e d6d7 a33e efb8 2d3f
000001a0: 3cf9 b13f 330f 8f3e 6c16 143d 37c7 083e
000001b0: a007 e23f 7ed0 ee3f 5282 453f 8247 103f
000001c0: 3d41 2e3e aadf 063f 0897 833d d7dd 373f
000001d0: 4bdf 2d40 e616 313d cb61 383e 82ce aa3f
000001e0: a870 a03d d150 3e3f a327 8b3f b069 4f3e
000001f0: e8f7 743f 8710 433f e907 923e 386e d93f
1.0625765 0.06876261 0.10681165 0.6022219 0.37609592 0.8378623 1.1497262 1.9163967
1.6644208 0.23991507 0.9006784 2.4502904 0.5022656 0.8090416 0.5350071 0.048081677
1.0566338 2.709451 0.08104115 0.3360967 1.0884178 1.1372467 1.8712679 0.67301756
0.39015865 0.49007592 0.508419 0.5334687 1.4791385 0.6854184 0.89204806 0.508143
1.309737 0.9040901 0.63602746 0.061823305 0.9638288 1.2298574 0.7156501 0.24451391
0.8125186 1.0105314 0.33793813 0.23868018 0.42700762 0.379634 1.2517196 0.02446771
1.7272898 0.16291553 0.26382932 0.057605904 0.5322367 2.6302054 0.08215681 0.340875
0.79288065 1.2447106 0.96714455 1.0416906 1.7152377 0.6828125 1.1855195 2.331719
0.7674713 0.40963474 0.9228004 0.4602714 0.76678413 0.3466068 0.6305636 0.43943697
0.23819417 0.97844213 1.1746544 1.5808343 0.8466904 0.34127888 0.25284815 0.3410362
0.18238595 0.8883909 0.02478351 0.40501148 0.8652173 0.4945104 0.82103264 1.0479643
0.80888855 0.8804393 0.21366134 0.37268186 0.09141099 0.7389804 0.3314011 0.6199025
2.5550678 0.31203914 0.80205655 0.9772439 0.2954645 0.17867833 0.32000607 0.6786031
1.3904185 0.27941284 0.036154196 0.13357244 1.7658577 1.8657377 0.7715198 0.5635911
0.17017074 0.52685034 0.06425291 0.71822876 2.7167537 0.04323473 0.18006055 1.3344271
0.078339875 0.74342066 1.0871471 0.2025516 0.95690775 0.76197094 0.2852166 1.6986761

bn1.running_var f4 [128]
00000000: fdf0 0340 81f1 793d f3f4 ab3d 46a1 a53f
00000010: 8b5c 123f 8be3 913f 8e64 9f40 4aa7 4f40
00000020: 5470 5a40 e9f5 a43e 910c bd3f a789 8d40
00000030: e136 2a3f 6459 923f 0f3d 373f ed81 163d
00000040: 4041 9c3f 7ce6 f840 dc92 5c3d 68cf 833e
00000050: 8cf4 123f c2cd 873f b08f c640 3720 223f
00000060: 4029 033f acfd 0a3f 2cf1 2e3f 7702 d03e
00000070: f878 8f3f 0b12 213f 99d1 ba3f 4259 013f
00000080: 8dda 9c3f 0d7d f03e 11af 3b3f 2d76 d93c
00000090: e79b 5a3f 2f3a d13f 5710 5b40 f046 ea3d
000000a0: 6d12 503f b86b ab3f b516 af3e 6aef 893e
000000b0: 3f3a cc3e 2152 943e 4e16 2740 9551 473c
000000c0: 360b 5f3f f37c 283d 5618 313e deba 073d
000000d0: aebc 1a3f 88c6 7240 57da 583d 7e44 ce3e
000000e0: 9999 9d3f d2c8 dd3f 3da6 d43f 67fe e93f
000000f0: fd05 2b40 4007 593f 4ddb 3240 e035 0240
00000100: 3b20 a43f e376 d43e 0f93 493f 7ccf 0b3f
00000110: 405a 9f3f e7df 3c3f 6ff3 8d3f b6b4 a53e
00000120: 80bd b43e 144d cc3f 37d0 0d40 9a92 2540
00000130: 07f8 a53f 9840 c43e b358 ed3e 2fec c93e
00000140: 5a1d 3d3e 9b4d c03f 6fd2 783c 6a9d 3c3f
00000150: ae06 a53f dd5b 743f b008 4e3f 4a7c 8b3f
00000160: 00c7 e83e 6264 b33f f05f 813e 3469 ea3e
00000170: 07b3 aa3d 1e80 9c3f 4190 cd3e 822e 403f
00000180: e6cf 4040 2473 9b3e e471 833f cfb1 ae3f
00000190: 1fac 413e b376 3a3e 3d65 003f 248f 443f
000001a0: 0ed3 0a40 8a28 3a3e ebc6 a83c efd8 1e3e
000001b0: 8d92 1340 b40b 0c40 16d1 a53f 1b6d ea3e
000001c0: a657 3a3e 4bc8 0d3f e59a 683d 10ee 4240
000001d0: 66da 2540 f096 a63c 8064 483e d7bb 6040
000001e0: 3334 663d f82d 1f40 ffd8 b83f cbf0 5a3e
000001f0: c3af f43f 379a 6f3f 0e71 f53e da46 4140
2.0615838 0.06102133 0.0839633 1.2939842 0.5717246 1.1397566 4.9810247 3.2445855
3.413106 0.32218865 1.476946 4.4230533 0.6648999 1.143353 0.71577543 0.036745
1.2207413 7.7781353 0.053850994 0.25744176 0.574044 1.0609667 6.20504 0.63330406
0.5123482 0.5429332 0.6833675 0.4062688 1.1208792 0.62918156 1.4595214 0.5052682
1.2254196 0.46970406 0.73314005 0.026545608 0.8539414 1.6345881 3.4228723 0.114393115
0.81278116 1.3392248 0.34197012 0.2694047 0.39888188 0.2896891 2.6107364 0.012165447
0.8712648 0.041134786 0.1729444 0.033137195 0.6044415 3.7933674 0.0529426 0.4028663
1.2312499 1.732691 1.6613232 1.8280762 2.6722405 0.8477669 2.794635 2.0345383
1.2822336 0.41496953 0.7874002 0.5461347 1.2449417 0.7377915 1.1089915 0.32364434
0.35300827 1.5961022 2.2158334 2.5870728 1.2966317 0.3833053 0.46356735 0.39438006
0.18468228 1.5023683 0.01518689 0.73677695 1.2892663 0.9545267 0.80482006 1.0897305
0.45464325 1.4015009 0.25268507 0.4578339 0.08334928 1.2226598 0.4014912 0.75070965
3.012689 0.30361283 1.0269132 1.3648013 0.18913315 0.18209343 0.5015448 0.76780915
2.1691318 0.18179527 0.020602664 0.15512441 2.3058197 2.1882143 1.2954433 0.45786366
0.18197498 0.5538375 0.056788344 3.0457802 2.591455 0.020335644 0.19569588 3.5114648
0.056202125 2.4871807 1.4441222 0.21380918 1.9116138 0.9359469 0.47937816 3.0199494

fc2.weight f4 [64, 128]
00000000: b8d7 8cbc 6ad3 563e 143f 323d 3f9c ac3d
00000010: 846a febb 9084 18bd 3fbb 433c 6968 983d
00000020: 4384 133e 6f92 323c 4b31 edbd 3a9c 533c
00000030: ee47 9d3c 2930 c73c 5e5c bdbd b258 e13c
00000040: 9f37 4f3c 2e25 4dbd d5c0 e5ba acca f93c
00000050: ebe9 8abd c379 1a3d b023 753d e31e 193d
00000060: a8bc 3cbd d181 dfbd e5c4 783c 079f c4bc
00000070: 35c4 d7bd cf3b fc3c 31e6 dabc c86c afbc
00000080: 66db be3d 1260 fd3d 56fc bfbd d6e6 cd3d
00000090: ebdc 7cbd 071b c23c c035 db3d 851a 99bc
000000a0: 9a5d 9d3d f2f1 fc3d 5ae7 9bbc b9a0 2bbe
000000b0: bce4 9dbc 5324 123d 7dfa 08bd 3c5d 6c3d
000000c0: e218 0abd 7067 2bbe 7e13 073e 9d52 29bd
000000d0: 8f37 12bd b6bc 6c3d f696 aebd 717f e2bd
000000e0: 0d74 eab9 5272 ce3d 2414 a6bd d6f2 353d
000000f0: ad60 563d 2f52 2ebc 320f 143d 1bce 023e
00000100: 3486 b7bd 1cba 943d 7006 cabd baeb a03d
00000110: 6f9e 34bd 9e6b a8bd 777d 44bd d56f dfbd
00000120: 440a acbd 5b76 20bd 74bf acbb dc1b 933d
00000130: f984 fb3c 0c6d 41bd 84c0 203d 10df 023b
00000140: c5b7 933d 6616 edbd ce45 813d c5a9 173d
00000150: b23f 55be d723 b9bd 051d 373c 9275 0fbd
00000160: 4857 6d3d f1f8 0d3c 19b4 523a 9efd 7ebd
00000170: a8e3 f13d d429 dc3d f449 ba3a 7827 91bd
00000180: 57ac d93b 9669 9abd c95d 13bd 235a ae3d
00000190: c685 013d db90 dfba fb6f 843d a4c6 bfbb
000001a0: ec62 d8bd 3ef4 a6bd 5bfb 103e 5915 3a3e
000001b0: 8bcc 713d 7adc ddbd 7047 4dbd 36e1 f3bd
000001c0: dba1 14bd 64f8 5c3d 2667 483c 78b8 c0bd
000001d0: df92 30be be3d cc3d 0048 a23d 6c85 0d3c
000001e0: 2821 51bc b722 a7bd edab 003c 65be f8bd
000001f0: 9f5e 1bbd ce9b 21be 8b34 b8bc fde2 04be
00000200: 9a19 c03c 1827 0dbe eb78 1ebd 2a6e 733d
00000210: ce98 4a3d 22d3 0cbe 47ba 703d 4cea 863c
00000220: 2085 03be a3ec 43bd eb81 6a3d f243 dfbc
00000230: fde7 90bb 798d 023e 87b7 cb3d 2f66 1abd
00000240: 1e9f 3b3d 9193 bcbd f612 aebd 466c cbbc
00000250: 5954 3ebd a736 17bd 75aa 5cbd 2586 52bb
00000260: 3ea4 ec3c 3461 6f3d 787d 913d f2b0 efbd
00000270: 2d53 a63c ae98 8cbd a27f 933d b06f bc3d
00000280: 0561 44bd 87ed 793d 78b0 b1bb e7f4 d53d
00000290: 2a94 f6bd ab94 853d 29f7 c3bd 7df6 03bd
000002a0: 798e a33c 8145 b2bc 0ff2 963d 71e7 023d
000002b0: 5549 c63d b2bc de3d ee27 b9bc b957 a53d
000002c0: de2a 84bd b984 2abd a742 0f3d 3e6b 9c3d
000002d0: b737 b1bd df0a a8bd 2388 dfbd 7f35 c43c
000002e0: aa6a 8cbd b797 edbd f8a3 65bd 3ec0 23bd
000002f0: c443 d9bd 83b8 23bd 5e42 92bc e206 d43d
00000300: e081 37bd 8f06 53bb ad1f 3e3c 652a 20bd
00000310: 9ed3 b33d a305 a13c 33d8 1fbd 2a04 04be
00000320: 1bb4 6f3d 4ace 883d 90b7 c53c 192e b3bd
00000330: b41f 00be 393f b73d bcaf 243e 925d 1bbe
00000340: 3f09 983d 834f a9bb bce2 a03b 1fe4 84bd
00000350: 78b1 273d b277 98bd 9c1b 13be 6475 2a3d
00000360: fa5f 7a3d a8d0 eabb 59f3 303d 8782 a1bc
00000370: 17d3 5d3d 0b31 b9bd 535f 3abd c756 dabd
00000380: b783 da3d 6e21 12be 0529 d3bd 3d5d 163d
00000390: c624 afbd 8e3a d83d a6ae 923d b647 4ebd
000003a0: 3be4 18bd 17e7 ab3c 32cb 563d 0bae b33d
000003b0: e321 85bc c918 1abc 3323 853c 9b1f 283d
000003c0: de09 b63d e40a ae3d b04d 08bd 968a a9bd
000003d0: f1aa 42bd 6015 a2bd 4761 93bd f6b1 0ebe
000003e0: 1b06 6bbd f19e 30be 6b9a c2bd 9470 64bd
000003f0: 1527 6e3d bc04 e63d 677b 0fbe 739b cabd
-0.017192706 0.20979086 0.043517187 0.08428239 -0.0077641625 -0.037235796 0.011946498 0.0744179
0.14405923 0.01089917 -0.115816675 0.012915665 0.019199338 0.024314957 -0.09246133 0.027508114
0.012647538 -0.050084285 -0.0017528782 0.03049215 -0.067828976 0.037713777 0.059848487 0.03738297
-0.046078354 -0.109134324 0.015183662 -0.024001611 -0.105354704 0.030790238 -0.026721092 -0.021414176
0.09319191 0.123718396 -0.09374301 0.10053794 -0.06173412 0.023694528 0.107036114 -0.018689403
0.07683869 0.12350835 -0.019031215 -0.1676053 -0.019274108 0.035679173 -0.03344201 0.057706103
-0.033715136 -0.16738677 0.1319103 -0.04133855 -0.035697516 0.057797156 -0.08524887 -0.11059464
-0.00044718423 0.100803986 -0.0810931 0.04442104 0.05233829 -0.010639711 0.036147304 0.12773935
-0.08961144 0.0726206 -0.09864509 0.07857461 -0.044096407 -0.08223651 -0.047971215 -0.10910002
-0.084003955 -0.039175373 -0.0052718464 0.07183048 0.030703055 -0.047223136 0.039246097 0.0019969381
0.07212786 -0.11576538 0.06312142 0.03702714 -0.20825079 -0.09040039 0.011176352 -0.035024233
0.057944566 0.008665309 0.0008037701 -0.062253587 0.11811 0.107501656 0.0014212714 -0.07087606
0.006642859 -0.0753967 -0.035978112 0.08513286 0.031621717 -0.001705672 0.06466671 -0.005852537
-0.10565743 -0.08152054 0.14158385 0.18172206 0.059032958 -0.10833068 -0.050116956 -0.1190819
-0.03628717 0.05394782 0.012231624 -0.094101846 -0.17243527 0.09972714 0.07923889 0.008637767
-0.012764253 -0.08160918 0.00785349 -0.1214569 -0.037932035 -0.15782091 -0.022485992 -0.12977214
0.023449708 -0.13784444 -0.038689535 0.059431233 0.049462132 -0.13752416 0.058771398 0.016469143
-0.12843752 -0.047833096 0.057252806 -0.027254079 -0.0044221864 0.1274928 0.099471144 -0.037695106
0.045806043 -0.092078336 -0.0849971 -0.024831902 -0.04646716 -0.036917355 -0.053873498 -0.0032123413
0.02888691 0.05844231 0.071040094 -0.117036715 0.020303333 -0.06865059 0.072020784 0.0920099
-0.047944088 0.06101754 -0.005422648 0.10447102 -0.12039979 0.06522497 -0.095686264 -0.03221749
0.019965397 -0.021761658 0.07370388 0.031959 0.09681956 0.108758345 -0.022602048 0.080733724
-0.06453489 -0.04163048 0.034975674 0.07637642 -0.08653205 -0.082051985 -0.10914638 0.02395129
-0.06856282 -0.11601203 -0.056064576 -0.03997826 -0.106086284 -0.039970886 -0.017853912 0.10352875
-0.044801593 -0.0032199954 0.011604232 -0.03910293 0.08780597 0.019656008 -0.039024543 -0.12892213
0.05852137 0.066799715 0.024135381 -0.08749027 -0.12512094 0.08947606 0.16082662 -0.15172413
0.074236386 -0.0051669492 0.0049098413 -0.06488823 0.04094073 -0.07444705 -0.14366001 0.04161586
0.061126687 -0.007165987 0.043200824 -0.01971556 0.05415639 -0.09042557 -0.045501065 -0.10661083
0.10669654 -0.14270565 -0.10310558 0.036710013 -0.08551936 0.105580434 0.07162218 -0.050361358
-0.037327033 0.020984216 0.052439876 0.087734304 -0.01625151 -0.009405323 0.016252136 0.041045766
0.08888601 0.08498171 -0.033277214 -0.08278386 -0.047526304 -0.07914233 -0.071962886 -0.13935074
-0.05737887 -0.17248131 -0.09502109 -0.055771425 0.05814274 0.11231372 -0.14011918 -0.09892931

fc2.bias f4 [64]
00000000: 61bc cabd c855 0a3c beb2 0abc 727a cabd
00000010: 9d19 073d 67c3 bc3c 20a4 e73d 6700 0c3d
00000020: d4e8 00be 8096 3d3d d2d1 2dbd bb5b fb3c
00000030: 8812 303d bdcb 07bd 2fae 41bd c396 8fbd
00000040: d86b 4d3d 7472 2fbd 8ad8 09be adba b33d
00000050: c05a b1bd d23e d7bd 1c3f bd3d e17c 99bd
00000060: bab7 0cbd 9df3 2c3b 409a 943c b506 a0bd
00000070: a091 e6bd 0e4f 943c 2568 d9bd e7c1 98bd
00000080: 5a3b 12be 8e3a 07be 6584 09be c409 09be
00000090: d6d2 94bd 739a 0bbe c503 2fbe 77ef 98bd
000000a0: a2e2 96bd a566 babd df18 dfbd 346c e7bd
000000b0: 475f d3bc fca8 1ebd c1ee cb3d d561 913c
000000c0: 5cec 8abd 1580 d9bd c390 06be 66e4 aabd
000000d0: c884 6fbd e80a ccbd ab8d cabd 1ec4 fbbc
000000e0: 1844 10be 0981 5abd 276d 2b3d 64fd a1bd
000000f0: e70e 6ebd 6cc3 26be 8223 babd 32e2 51bd
-0.09899212 0.008443303 -0.008465467 -0.09886636 0.03298341 0.023042394 0.11310601 0.03418007
-0.12588817 0.046286106 -0.04243643 0.030683389 0.042986423 -0.033153284 -0.047285255 -0.070111774
0.050151676 -0.04283376 -0.1346151 0.0877584 -0.08659887 -0.10510029 0.09240553 -0.07494522
-0.034354903 0.0026390322 0.018139958 -0.07813779 -0.112582445 0.018104102 -0.10615567 -0.07458859
-0.14280453 -0.1320593 -0.13429411 -0.13382632 -0.07266776 -0.13633136 -0.17091282 -0.07467549
-0.073674455 -0.09101609 -0.10893416 -0.11299935 -0.025802268 -0.038735375 0.09957648 0.017746845
-0.06783363 -0.10620133 -0.1314116 -0.08344345 -0.05847624 -0.09963018 -0.09890302 -0.030733164
-0.14088476 -0.053345714 0.041852143 -0.079096586 -0.05811968 -0.16285485 -0.09088804 -0.051241107

bn2.weight f4 [64]
00000000: 5a11 6c3f 2d66 243f c7c8 183f 2db8 3f3f
00000010: 0a3e 443f 5334 1e3f e70f 1a3f b053 513f
00000020: e1da 2c3e 5127 903e 3350 f23e d97e 573f
00000030: 0edd 563f 506c a23e a164 353e 52db 643f
00000040: 123c 4e3e 604e ef3e 2bb8 d23e ddcd 5f3f
00000050: cc0e 8a3e b8fe d73d 1eaf 513e 2118 cf3e
00000060: 58ce 963e d5d9 653f 31be 133f e12c 4b3f
00000070: aa61 a43d 49ac a23e 5886 263f 5ae7 933e
00000080: 4fc4 003e f877 363f 519a 533e 5ea7 263f
00000090: 28bc 4f3f 6f24 be3e 1406 cd3d 8337 173e
000000a0: 319a 9d3e b168 213f 62ee 5a3f ce59 6f3f
000000b0: bf3b ec3d ca30 583f a01f 293f 1f04 bf3e
000000c0: 713a 103f 1b07 753f a037 3f3f 13d5 0c3f
000000d0: 6baa 5d3e 591e e43d 3418 bb3e a727 833e
000000e0: 9f8d 4b3f e338 f33e 5d3f 243f 148e 2b3e
000000f0: 9489 133f a27e 5d3f a7a0 a83e 1c96 1a3f
0.92213976 0.6421841 0.5968136 0.74890405 0.76657164 0.6179859 0.60180515 0.8176832
0.1688037 0.28154996 0.47326812 0.8417793 0.8393105 0.3172326 0.17714168 0.89397156
0.20140103 0.46739483 0.41156134 0.874235 0.26964414 0.105466306 0.20476958 0.40448096
0.29454303 0.8978551 0.57712084 0.79365355 0.080264404 0.31772068 0.6504874 0.28887445
0.12574886 0.7127681 0.20664336 0.6509913 0.8114648 0.37137172 0.10010925 0.1476727
0.307817 0.6305037 0.85519993 0.93496406 0.11534833 0.84449446 0.6606388 0.37307832
0.56339175 0.9571397 0.7469425 0.55012625 0.2164704 0.11138601 0.36541903 0.2561619
0.7951297 0.4750434 0.64159185 0.16753417 0.576318 0.8652135 0.32935068 0.603853

bn2.bias f4 [64]
00000000: edb3 d036 407c 65b7 950a 1ab5 a612 4937
00000010: ac5a 3437 c209 0eb6 08b3 efb6 9673 f435
00000020: 26a0 32b8 8d97 69b5 6b0d 37b7 3f00 8e36
00000030: 7dca 5a34 7561 a736 59d0 13b7 12e1 03b7
00000040: 703d 0736 e1ab 76b7 a01b 38b7 6b05 b336
00000050: 0f34 a737 cc85 b6b6 8f45 98b7 297e 7bb7
00000060: 04bc 0eb8 1a7f 7932 908e 60b6 f64c 87b6
00000070: b0c3 de37 6f7c 09b7 1f54 b637 6ff0 15b8
00000080: 24e8 8bb7 0af6 1ab7 c627 73b6 517e e8b6
00000090: 83ce 4437 c3bd e5b6 2c46 2737 8109 55b7
000000a0: c1f8 28b7 586a fdb4 a449 16b6 d325 2a36
000000b0: 969a ca34 8b9d f036 62f2 8037 45fe 00b7
000000c0: b6f1 09b7 84eb 19b7 6490 68b6 530f 1bb7
000000d0: f4b9 bfb7 80b8 dfb7 1470 d3b6 c49a 7f37
000000e0: ff39 f336 15a4 92b7 9b9e f8b7 9d5c 84b6
000000f0: e798 0437 452e 6037 fa67 1238 01cc 14b7
6.219829e-06 -1.3678393e-05 -5.738487e-07 1.19848755e-05 1.0749947e-05 -2.1165329e-06 -7.143597e-06 1.8213057e-06
-4.2587657e-05 -8.70198e-07 -1.0910774e-05 4.2319584e-06 2.0376497e-07 4.9883333e-06 -8.8103925e-06 -7.860612e-06
2.015233e-06 -1.4702761e-05 -1.0973687e-05 5.3352464e-06 1.9932193e-05 -5.4395987e-06 -1.8152203e-05 -1.499014e-05
-3.403054e-05 1.4522607e-08 -3.3461583e-06 -4.032273e-06 2.6555586e-05 -8.194808e-06 2.1735263e-05 -3.574829e-05
-1.667819e-05 -9.236401e-06 -3.6232973e-06 -6.928844e-06 1.1730593e-05 -6.846823e-06 9.970314e-06 -1.2698002e-05
-1.0071498e-05 -4.7202298e-07 -2.2394606e-06 2.535399e-06 3.7737908e-07 7.170898e-06 1.5371657e-05 -7.688596e-06
-8.222114e-06 -9.174346e-06 -3.465474e-06 -9.242288e-06 -2.2855565e-05 -2.6669586e-05 -6.3013376e-06 1.5235219e-05
7.248716e-06 -1.7480963e-05 -2.963776e-05 -3.944688e-06 7.9034135e-06 1.3362213e-05 3.490595e-05 -8.868986e-06

bn2.running_mean f4 [64]
00000000: 6296 573e c872 fc3d 7180 3e3e 65ac 643c
00000010: a075 683e 14ac fe3d f61f a23e 269e 583e
00000020: a1c1 1a3d 59e6 483e 422a 293e a930 8a3e
00000030: 6c6f 473e 2d50 223e faa7 d73d 7515 4e3e
00000040: 629a 413e 66f6 0d3e e5c7 083c 6d57 b63e
00000050: 2f0a 5a3d cca4 813d bead 863e 50b8 3a3d
00000060: 617b 593e 6d12 843e e787 893d c3af 5d3d
00000070: b0ae cd3d 77ba 253e 3aed 743d 1b1c 443c
00000080: 1a10 003d 2f06 d23d 5280 383c aaa0 633d
00000090: 5adc 073d d2ba f73d 2d1c 193d bf12 023d
000000a0: c872 4e3d 2565 f73d 327d e33d 9fbe 4e3e
000000b0: 8a04 983d 7285 b73d d9ce 763e 9e6a 583d
000000c0: 8796 bb3d baca 243e b656 a43d 5d90 4d3e
000000d0: 2938 8b3e defe c63d a46a a83c 7037 f93d
000000e0: 4def 143e 215d be3d bcb1 3b3d 969f d73d
000000f0: 144d 393e 0124 713c 1c70 2f3e 6a9f 973d
0.2105346 0.1232658 0.18603684 0.013957118 0.2270112 0.12435165 0.3166501 0.21154079
0.037782315 0.1961912 0.16520026 0.2699025 0.19476098 0.15850897 0.10530086 0.20125373
0.18906549 0.13863525 0.00834844 0.35613576 0.053232368 0.06330261 0.2630443 0.04558593
0.21238472 0.25795308 0.067153744 0.054122698 0.100430846 0.16184412 0.05979655 0.0119695915
0.031265356 0.10255086 0.011261063 0.055573143 0.033169128 0.1209618 0.037380386 0.03175616
0.050402433 0.12079839 0.111078635 0.20189904 0.07422741 0.089609995 0.24102344 0.052836053
0.0915957 0.16092959 0.08024351 0.20074601 0.27191284 0.09716581 0.020558663 0.12168777
0.14544411 0.09295107 0.045823798 0.105284855 0.18095809 0.014718057 0.1713261 0.07403453

bn2.running_var f4 [64]
00000000: ab2c f93d 2913 4f3d 40d5 823d 1c93 533b
00000010: 5ab1 953d 075b 013d 230c 9e3d ff90 d53d
00000020: 5103 343c 724a 913d 22ca 753d 3a31 e23d
00000030: 785b 5c3d 75ee a13d 4eb4 ed3c 1310 d73d
00000040: 336f 813d 0374 ba3d 654a e33a a9e5 073e
00000050: f143 863c 088d 8f3c fedc ca3d 8dba 223c
00000060: 0bd4 ad3d 23a0 243e cbc2 d93c 9512 6a3c
00000070: 34b1 003d 414a 583d d8ab ba3c 07da 123b
00000080: e634 fc3b 2f02 5d3d 154b 083b 9060 983c
00000090: 97f9 113c 2f69 973d cd23 453c de1b 023c
000000a0: 8fac 6c3c 3174 643d 9763 3f3d 6824 bb3d
000000b0: 4023 753c 1299 bc3c e6a0 c93d 98db 523c
000000c0: dcb3 fe3c 0cab 733d d245 be3c a55d b93d
000000d0: fbf1 db3d 64e0 f73c 6b16 903b be51 3c3d
000000e0: ea40 8b3d ae35 bb3c c388 233c 3057 283d
000000f0: 37f5 9c3d cbcd 723b 1d20 9e3d 3a5d c33c
0.12166723 0.050555382 0.063883305 0.003228373 0.07309218 0.03158095 0.07717159 0.104280464
0.010987119 0.070942774 0.060007222 0.110445455 0.05379817 0.0790681 0.02901664 0.10501113
0.06320038 0.09104159 0.0017340897 0.13271202 0.016389819 0.017523304 0.09905432 0.0099321725
0.084877096 0.16076712 0.026582142 0.014286657 0.031418994 0.05280519 0.02278702 0.0022407786
0.0076967357 0.05395716 0.0020796706 0.018600732 0.0089096045 0.07393109 0.012032461 0.007941214
0.014445438 0.05577487 0.046725836 0.09137803 0.014962018 0.023022208 0.09845142 0.012869738
0.031091623 0.059489295 0.023226652 0.090510644 0.107395135 0.030258365 0.0043972037 0.045976393
0.06799491 0.022852745 0.009981337 0.041098773 0.076639585 0.0037048932 0.07720969 0.023848165

fc3.weight f4 [2, 64]
00000000: 17d2 1dbb 80b5 793c 7f14 0fbc e5da ad3c
00000010: 782d 383c 568a e83c 7ca3 293b bba8 66bc
00000020: 5802 25bd 099a c6bc 643a af3b 5372 243c
00000030: 4649 abbc c881 a6bb f787 6f3d 991d 32bc
00000040: 757c 133d 52ce a7bb 3495 7fbd 46b1 cdb9
00000050: 4484 403d 7bb4 9f3d e285 0e3d 5758 bfbb
00000060: 3307 b3bb a728 76bc 56fc 7d3c 058f bd3c
00000070: dca8 693d 10c9 573d d792 cf3c bcb5 33bc
00000080: dee4 b5bd bddd d4bc 1d0a 8abd fa80 28bc
00000090: 1431 1cbd b385 e2bc a5da bc3b c431 46bd
000000a0: 3d67 f5bc 05d3 2dbc c2bc 63bc bb8a 643c
000000b0: d9b0 993d 3c3d 69bc a354 393c d0f4 31bc
000000c0: 54cf a3bb fc64 c1bb 50b5 443c b23d 15bc
000000d0: 7261 603c 16f1 f9bb 2a3a 383d 1287 bbbb
000000e0: 30cc bebb 12f5 96bc 1e7c 10bd 8914 2e3d
000000f0: dacc 943c e095 153b be1d 5d3d 685f 0dbd
00000100: b23e a63a f089 dcbb 4855 8f3c 1190 33bc
00000110: 41f2 87bc b69c 2a3a 8b37 9b3c d522 f2bc
00000120: 8dcd 573d 1a3c 253d 1220 ad3c 6d96 adbc
00000130: 008f 6a3b d593 06bd 50be 743c 7e43 193c
00000140: 80b3 163b 5354 253d 3308 55bb 3db8 8bbc
00000150: 2c31 8e3c c00f 9abd 6176 433d 3272 d53c
00000160: 28f7 543d e096 9f3b 172c 9e3c 40e3 d43c
00000170: 7d25 3e3d 9785 9d3c b4c3 9fbb 1fbc 353c
00000180: 59bb 77bc 9fb0 8bbc 8b3a 0abd d474 ceb9
00000190: 552a 3d3b cbbc 16bc b708 88bd ec5d 753c
000001a0: 52fb 6cbd ac40 b0bb e4aa ba3c 7e44 d13b
000001b0: f742 383c f2e6 0abb 2cc4 68bc edbd bf3c
000001c0: bbad 123d b380 5a3c e80d d5bc 71b9 ca3c
000001d0: 002a 123c e499 953d 15ef 65bc 16eb 1abd
000001e0: 1d91 37bc c3f8 e93b 4a32 88bc 6690 9c3d
000001f0: 3fe3 01bd 7920 69bc c870 093c 628d 86bc
-0.0024081522 0.015241027 -0.008732914 0.021222541 0.011241309 0.028386276 0.0025884798 -0.014078314
-0.04028544 -0.024243372 0.005347537 0.010037023 -0.020908963 -0.005081389 0.058479276 -0.010871314
0.036007363 -0.005121031 -0.06239815 -0.00039232726 0.04700114 0.07798096 0.03479565 -0.0058393884
-0.0054635047 -0.015024341 0.015502056 0.023139486 0.057045802 0.052681983 0.025338573 -0.010968622
-0.088815436 -0.02598464 -0.0674021 -0.010284657 -0.038132742 -0.027651643 0.005763369 -0.048387304
-0.029956454 -0.010609393 -0.013899984 0.013949092 0.07504434 -0.014235791 0.011311683 -0.0108615905
-0.0049990807 -0.005901931 0.012006119 -0.009108948 0.013695108 -0.0076276166 0.044977345 -0.0057228887
-0.005822681 -0.018427406 -0.035274617 0.042500053 0.018164087 0.0022824928 0.053983442 -0.034514815
0.001268348 -0.0067303106 0.01749672 -0.010959641 -0.016595008 0.0006508337 0.018947383 -0.029557625
0.052686263 0.04034052 0.021133456 -0.021189893 0.00357908 -0.032855827 0.014937952 0.00935447
0.0022995174 0.04036362 -0.0032506108 -0.017055625 0.017357431 -0.07522535 0.047720317 0.02605543
0.05199352 0.0048702806 0.019308133 0.025987267 0.04642247 0.01922874 -0.0048756246 0.011092215
-0.015120351 -0.017051993 -0.033747237 -0.00039378426 0.0028864343 -0.009200285 -0.06642287 0.014976006
-0.057856865 -0.0053788032 0.022786565 0.0063863387 0.011246434 -0.0021194783 -0.014206927 0.023405993
0.035810214 0.013336348 -0.026007608 0.024746628 0.008921146 0.07304743 -0.014034052 -0.03782185
-0.011204031 0.0071402504 -0.016625542 0.07644729 -0.03171086 -0.0142289335 0.008388706 -0.016424838

fc3.bias f4 [2]
00000000: 2102 8dbd 027f 073b
-0.06885172 0.0020675068

bn3.weight f4 [2]
00000000: 460f 1840 b555 1540
2.3759322 2.3333561

bn3.bias f4 [2]
00000000: 5a4a 6cbe 9de9 82bd
-0.23075238 -0.063922144

bn3.running_mean f4 [2]
00000000: c3e9 8cbd 9696 073b
-0.06880524 0.0020689121

bn3.running_var f4 [2]
00000000: 1219 aa3b 9bc3 613b
0.005190977 0.0034448865
