p3_collaboration_and_competition/weights/actor_1_400.pth (torch_old, 51773 bytes, 18 tensors)

fc1.weight f4 [128, 24]
000000 f9 b1 94 bd e1 28 b3 3d 15 0e 72 3b b0 37 ab 3d
       -0.07260508 0.087480314 0.0036934663 0.08360231
000010 8f 73 b6 bd bf 31 03 bd e2 3b 0c 3c 3a 37 94 3c
       -0.0890876 -0.032029863 0.008559199 0.01809274
000020 f2 5f a1 bd 37 b8 f7 3c 99 ad 1e 3d 09 59 0d bd
       -0.07879628 0.030239208 0.038739774 -0.03450874
000030 e4 12 97 bd 26 df b2 bd 10 fd 89 bd 18 cc ce 3c
       -0.0737665 -0.087339684 -0.06737721 0.025243804
000040 f1 46 03 bd 6e bf 9b 3d 29 d7 94 3d 82 46 98 bd
       -0.032050077 0.07604872 0.07267601 -0.07435323
000050 63 8b 14 be d6 09 50 3d e6 34 9b bc b0 30 c3 bd
       -0.14506297 0.05079063 -0.018946122 -0.09530771
000060 fa 1c 33 3d 99 87 77 bd fe b3 c3 bd a1 e3 15 bd
       0.043728806 -0.06043205 -0.09555815 -0.036594037
000070 d2 64 42 3d f9 97 76 bd 47 eb 63 3d b5 d7 70 bc
       0.04745943 -0.060203526 0.0556443 -0.014699866
000080 15 6e 3d 3d 52 1f a4 bc d3 a4 a2 bb 5b f7 3d 3c
       0.04624756 -0.020034466 -0.0049634962 0.011594619
000090 c2 06 b8 3b 02 4d 0e be 62 4f 4d bb c9 54 2b bd
       0.00561604 -0.13896564 -0.0031327833 -0.041828904
0000a0 7d 2f 53 3c 83 7a b4 3b b4 8a 1c bc 11 39 1d bc
       0.01288974 0.0055077686 -0.009554554 -0.009596125
0000b0 04 e7 d3 39 20 a5 84 bc e0 c0 35 bd 6a 7e 30 bd
       0.00040417176 -0.016192019 -0.044373393 -0.043089308
0000c0 38 a4 2c bc 7e f4 9e bc cc 93 08 bd 1a a3 fa 3c
       -0.0105372 -0.019403692 -0.033344075 0.030595351
0000d0 13 4f 6a 3c e3 10 4a bd 8a 01 1b 3d 8d 09 e7 bb
       0.014301079 -0.04933251 0.037843265 -0.007050699
0000e0 1e 37 8c bc 30 82 f6 3c 4d 6b 47 bb 3c c5 20 3d
       -0.017116126 0.030091375 -0.0030428946 0.039250597
0000f0 1b 28 92 bd 2f 36 26 3d 87 ca 03 3c e7 0e bb 3d
       -0.07136556 0.040579017 0.008043892 0.09133702
000100 9e 12 07 bd ae 68 70 b8 4c 9c 30 bd 74 32 8b 3d
       -0.03297674 -5.731795e-05 -0.043117806 0.067967325
000110 05 a6 e9 bd c2 ab f4 bd 24 bb 65 3d 28 12 84 bd
       -0.11408619 -0.11946823 0.056086674 -0.064487755
000120 b4 b2 04 bd 1c ba b4 bd a5 fb 97 bd ee 4f d1 bb
       -0.032396987 -0.0882456 -0.07421044 -0.006387702
000130 32 b7 7d 3d 11 63 cd bd 4c c0 24 3c b0 d1 84 3d
       0.061942287 -0.10028661 0.010055613 0.06485307
000140 d0 15 85 3d 75 36 99 3c 8a 87 c2 3b 63 f1 77 3d
       0.06498301 0.018702725 0.0059365677 0.06053294
000150 a1 0f 8e 3c 2f be 7b 3d 0d 1a 79 bd 06 7c 99 bd
       0.017341437 0.06146067 -0.06081586 -0.07494359
000160 86 eb 9c bd c7 49 f7 3c bb ad a1 3d 8f 7d 8f 3c
       -0.0766211 0.030186547 0.078944646 0.017515926
000170 e8 a5 33 3d 1d d7 cc 3c e7 05 7d bd 98 d7 e7 bd
       0.043859392 0.025004918 -0.061773207 -0.11320418
000180 73 ca 77 3d 68 64 10 3d d9 90 8c 3d 78 81 39 bd
       0.060495805 0.035252005 0.06863565 -0.045289487
000190 24 e3 29 bd 71 df d5 3c 5a 88 82 3d bf 74 b9 bc
       -0.041476384 0.026107522 0.06373663 -0.022638677
0001a0 0d 15 9b bd 19 23 94 bc 91 73 8f 3d 35 16 2b bd
       -0.075723745 -0.018083142 0.070044644 -0.041769225
0001b0 ca d2 9b 3d 35 ae 7a 3d ee 10 4e 3c d3 42 72 3d
       0.07608564 0.061201293 0.012577279 0.05914576
0001c0 4f c5 d4 3c 3c a4 c1 bd 72 78 c7 3d 1a c9 05 bd
       0.02597299 -0.09455153 0.0973977 -0.03266249
0001d0 ce 0d 07 bc 6b ef f1 3c d9 72 6f 3d 05 65 cd bd
       -0.008243037 0.029533109 0.058459137 -0.100290336
0001e0 e3 ef 2e 3d 40 97 26 bb 01 fd 4b bc d0 99 5e 3d
       0.042709243 -0.0025419742 -0.012450458 0.054345906
0001f0 29 ac 62 3d 01 5b e7 bc 60 87 ab 3c ae 43 1d 3c
       0.055339966 -0.028241636 0.020938575 0.009598656
000200 29 08 78 3c 55 2d dc bc aa f8 3c bd 2a e4 cb 3a
       0.015138664 -0.026877085 -0.046135582 0.0015555669
000210 c0 fd a1 3d 65 dc c9 3d fe af a3 3d 6e 61 ce 3b
       0.07909727 0.0985649 0.07992552 0.0062982356
000220 f9 1e a8 3d 4b e4 90 3d f6 a4 63 bd 7b 41 26 bd
       0.082090326 0.070747934 -0.05557724 -0.04058979
000230 c9 17 10 3d 3d 41 f9 3d b4 79 19 3d 27 24 59 3d
       0.035178933 0.12170646 0.03746958 0.053012993
000240 48 10 32 bd 4e 92 de 3c eb 97 af 3c 46 54 a9 3c
       -0.04347256 0.027169373 0.021434745 0.020670068
000250 3a af 43 3d 19 ac 16 3d 6e 22 18 bd e7 b5 18 3d
       0.04777453 0.03678522 -0.03714221 0.03728285
000260 ea d6 c7 bc 8e c7 a0 bd e7 12 7c bd fd 0a 93 3d
       -0.024394471 -0.07850562 -0.061541464 0.0717983
000270 94 be 48 3c b4 92 86 bd 99 b5 11 bd 16 e0 b6 3d
       0.012252469 -0.0657095 -0.035573576 0.0892946
000280 0c 05 de 3c 22 0f 5d bd 04 65 84 3d 3d 0e 69 3d
       0.027102016 -0.05396951 0.0646458 0.056898344
000290 98 ee 8d 3d d7 eb 6d bd c6 01 73 bd 0a 15 e5 3d
       0.06930274 -0.058086243 -0.059327863 0.111856535
0002a0 da b7 cf bc 57 12 1d 3d 50 7b 72 bd 3b f0 2b bd
       -0.025356222 0.03834757 -0.05919963 -0.04197715
0002b0 1c 0c f1 3c 41 74 5b 3d 37 f0 30 bd d3 38 ea 3c
       0.02942472 0.053577665 -0.043197837 0.028591549
0002c0 45 3b 41 bd 60 ff 8d bd 69 78 82 3d 20 c8 a6 bd
       -0.047175664 -0.069334745 0.06370623 -0.081436396
0002d0 bd ad 86 bd 5d 65 1a 3e 49 1d 86 3d 76 ff 5c 3d
       -0.06576107 0.1507773 0.065485545 0.053954564
0002e0 e9 ed 3e 3d 8b 84 fe 3c 32 ab 45 3d 4c 09 32 bd
       0.046613608 0.03106906 0.048258968 -0.043465897
0002f0 71 7b ce bc cc 5f 53 3d c4 56 8a 3d 9f 8e 66 3b
       -0.025205346 0.05160503 0.067548305 0.0035180224
000300 39 4e b1 3c 11 aa a7 3d 56 db e5 3a 2e 76 01 3e
       0.021643745 0.081867345 0.0017536681 0.12642738
000310 b3 28 87 bd 8c 15 a9 3d b6 e7 34 3d 1c 0f 9a bb
       -0.0659956 0.08256063 0.04416629 -0.004701508
000320 d7 98 9f 3d fb 5d 63 bd c7 04 7d 3d 7f d8 16 bd
       0.07792824 -0.05550955 0.061772134 -0.03682756
000330 d4 9b 1a bd 61 2f 93 3d 8e 5e 87 bd 49 03 28 bd
       -0.037746266 0.07186771 -0.06609832 -0.041018758
000340 46 f2 80 bd 7b 56 56 3d 16 26 95 bd 4f 0f 04 3d
       -0.0629621 0.052328568 -0.07282655 0.032241162
000350 35 fb 8a bd 9e 6f 46 3d 18 6b 25 bd f9 ae 3e bd
       -0.06786195 0.04844629 -0.040385336 -0.046553586
000360 94 66 1a 3d ba 30 d3 3c bf 98 af 3c 1f bb f8 bc
       0.037695482 0.02578007 0.02143514 -0.030362664
000370 ee 86 d4 bd 8a c5 8b 3b ff 8d 61 bb e3 94 a9 3c
       -0.10377298 0.004265492 -0.0034416912 0.020700878
000380 6a d6 61 3d 43 29 00 bc d9 e9 75 bd 50 b3 3e 3d
       0.05513612 -0.007822338 -0.060037468 0.046557724
000390 8f 9a ea 3c f6 82 c8 3d 3b 13 53 3d 93 08 01 3d
       0.028638152 0.09790604 0.05153201 0.031502318
0003a0 fb 0a 96 bd 5b 2e db 3c d8 37 91 3d 2a 47 16 3d
       -0.07326313 0.026755502 0.070907295 0.03668896
0003b0 f8 91 b2 3c 7c e9 8a 3d 8e c4 2e bd f5 76 91 3d
       0.021798119 0.06782815 -0.042667918 0.071027674
0003c0 9c b8 88 bd dc d4 40 3d 31 ff 4f bd ce 33 1a 3a
       -0.066758364 0.047078 -0.05078048 0.0005882353
0003d0 d1 9d e1 3c b2 1c 6d bd b4 0d aa bb d9 31 4a 3d
       0.027541073 -0.057888694 -0.005189622 0.049363945
0003e0 44 ca 9a bd ce 1d a8 bd 0c 80 8e bc 8a 85 00 3c
       -0.0755811 -0.0820881 -0.017395042 0.007844338
0003f0 1d 6f 58 bd c0 ed a1 3d b8 f0 8f bb b7 6f 5b 3d
       -0.05284034 0.07906675 -0.0043927096 0.053573336

fc1.bias f4 [128]
000000 98 63 f2 bd dd 1b f8 3d 0c 48 68 be 4b 67 a4 bd
       -0.11835402 0.121146895 -0.22683734 -0.08027514
000010 86 2b 97 bb 6c 33 96 3d 1d 95 91 3d 43 ef 06 be
       -0.0046133427 0.07334027 0.07108519 -0.13177209
000020 2b 24 29 3d a0 39 63 bd bd 1d 97 bd f9 a7 2b bb
       0.041294258 -0.055474877 -0.07378719 -0.0026192649
000030 59 0c f1 3d 30 f8 29 3e df 25 56 3e 4e b8 fd 3d
       0.11769933 0.16598582 0.20912884 0.12388669
000040 7c 19 11 3e 58 84 69 3d af a0 61 3d cf 37 ba bd
       0.14169878 0.05701098 0.05508488 -0.09092676
000050 52 d7 ea bd 7f 92 11 be a4 b1 b1 3c 69 df da 3d
       -0.1146685 -0.1421604 0.021691151 0.10687143
000060 7b 9a 1b be dd 5e 05 be a3 c3 24 3e cd d9 fd 3d
       -0.15195648 -0.13024469 0.16090254 0.12395058
000070 63 21 27 be 90 77 31 be 61 c1 ae bd b1 15 02 be
       -0.1632133 -0.17330766 -0.08532978 -0.12703587
000080 39 04 87 3d 43 d6 77 bd 2a 39 d5 3c 08 0f 40 bc
       0.06592602 -0.06050707 0.026028235 -0.011722334
000090 3d c4 b0 3d e0 69 72 bd 1c 25 a0 3c 8b 89 af bc
       0.086311795 -0.059183 0.019548945 -0.02142789
0000a0 bc 6f 36 3d 34 0f a9 bb 19 d2 37 3e e6 d8 ee bd
       0.044540152 -0.005159283 0.1795124 -0.11662464
0000b0 7c b3 df 3d fd bc 77 bd ec be 11 3e 95 73 44 be
       0.10922906 -0.060482968 0.14232987 -0.19184716
0000c0 00 62 1c be 52 30 90 bd 75 38 a3 3b 3a d1 9b 3d
       -0.15271759 -0.07040466 0.0049810954 0.07608266
0000d0 66 e6 74 3d df 3d c5 bd c3 af 1e 3e d4 9d ad bd
       0.059790038 -0.096309416 0.15496735 -0.08477369
0000e0 da 98 20 3d 39 94 5b 3d b4 50 50 3e 6f ed 9e 3c
       0.03920827 0.053608153 0.20343286 0.019400327
0000f0 a7 fe bd bd 90 60 a0 3d 59 3f 4d 3e e8 65 03 be
       -0.09277087 0.07830918 0.20043696 -0.12831843
000100 04 a1 48 be 49 a5 6f bd 10 42 00 be 07 eb 55 bd
       -0.19592673 -0.058507238 -0.12525201 -0.052226093
000110 af 5d 27 be 39 70 b2 3d 68 b5 95 bd 17 4b a9 3d
       -0.16344331 0.08712811 -0.07309991 0.082662754
000120 44 74 43 3e 56 4a 52 be 9f 25 fa 3c 7c bc 45 3e
       0.1908732 -0.2053617 0.030535517 0.19310182
000130 fa c5 9c 3e 3e 71 d0 bd 7a d7 cf 3d 68 98 aa 3d
       0.30619794 -0.10177849 0.10148521 0.083298504
000140 d1 09 f6 3d 1c 9c 15 3c f4 c8 86 bd de f0 e1 bd
       0.12013591 0.009131458 -0.065812975 -0.1103227
000150 77 ee 99 bb 17 55 ed 3c 97 53 bd bd 75 6f 31 be
       -0.0046976167 0.028971238 -0.09244459 -0.17327674
000160 ed 35 08 3e b5 e2 25 be ce e1 58 bc c0 a9 cb bd
       0.13301821 -0.16199763 -0.01323743 -0.099444866
000170 48 d4 dd bd 86 1d 4a be 7b 1a b0 bd 18 2a 3a 3d
       -0.10831505 -0.19737825 -0.08598801 0.0454503
000180 16 d9 0e 3e 5d a7 11 3e c9 d9 2f be 9b de a3 bd
       0.13949999 0.14224 -0.17172922 -0.08001443
000190 db da 32 be ac 14 5d bd 27 bc 10 be 29 06 ba bd
       -0.17466299 -0.053974792 -0.14134274 -0.09083206
0001a0 29 a8 a2 bd 6d 6e 74 3e 30 98 01 be 12 64 d1 bd
       -0.0794223 0.23870249 -0.12655711 -0.10224165
0001b0 ae 58 94 bd c8 3c 1b 3e 85 4a 2f bd fe d4 a2 3c
       -0.07243477 0.15159905 -0.042795677 0.019876953
0001c0 8c 31 30 3e 50 6e cf 3d f1 f4 34 3e 44 9b 03 be
       0.172064 0.10128462 0.17671563 -0.12852198
0001d0 59 0a 32 3e c4 69 4b be d3 13 11 be 94 c4 8c 3c
       0.1738676 -0.19864565 -0.14167719 0.01718358
0001e0 57 bd 58 3d 38 c5 c5 bb 28 25 46 3e 1b 4f c4 3c
       0.052914944 -0.006035473 0.19350111 0.023963502
0001f0 f7 d0 bc bd ff 9d 6c bd 4c 89 04 bd e6 41 b1 3d
       -0.092195444 -0.057767864 -0.0323575 0.08655147

bn1.weight f4 [128]
000000 4d b2 43 3f 89 c8 21 3e 68 ae 18 3f 04 48 6a 3f
       0.7644394 0.15799154 0.5964112 0.9151614
000010 cc a0 ce 3e b2 e7 36 3f 22 4a da 3e e6 6a 74 3f
       0.40357053 0.7144729 0.42634684 0.95475614
000020 42 f1 f9 3e d8 76 5a 3f f2 2b a0 3e ef da 9c 3c
       0.48816878 0.8533759 0.31283528 0.019147364
000030 87 dc a6 3e 88 82 54 3f de c6 f9 3e 85 be ec 3e
       0.32590124 0.83011675 0.48784536 0.46239105
000040 19 33 5d 3f fb b4 53 3e a3 4a 30 3e a3 42 2f 3f
       0.86406094 0.20674507 0.17215972 0.68461055
000050 b1 c2 72 3f 0b bd 20 3f a6 2b 9c 3e a2 d8 36 3f
       0.94828326 0.62788457 0.3050205 0.71424305
000060 21 fe 3c 3f a4 f3 d7 3d 72 70 6a 3f 2a 9b 12 3f
       0.7382527 0.10544518 0.9157783 0.5726801
000070 e6 f4 9d 3e 42 1b 7e 3d b8 91 22 3f c7 3f c2 3e
       0.30850905 0.062037714 0.635036 0.37939283
000080 38 bb 16 3f e3 d0 0b 3e d7 fe 24 3f b9 7b 76 3e
       0.58879423 0.13653903 0.64451355 0.24070634
000090 a9 4c 60 3f fc 93 04 3f b2 3e 41 3f 5c b5 55 3f
       0.87616974 0.51788306 0.7548629 0.8347986
0000a0 7d d1 72 3f f7 34 14 3f 2c 5c 66 3f f1 1c 05 3e
       0.94850904 0.5789332 0.89984393 0.12999322
0000b0 b3 9f 58 3f 48 72 54 3f 2c cb 99 3e 59 c8 78 3e
       0.8461868 0.8298688 0.3003782 0.24295177
0000c0 5e 6c 65 3f 7f 0b 69 3f 36 82 17 3e 60 6f 00 3f
       0.8961848 0.91033167 0.14795765 0.50169945
0000d0 19 83 06 3e bc 3b 44 3f 7b 93 ab 3d f7 0b 97 3e
       0.13135947 0.7665365 0.08377739 0.29501316
0000e0 c5 64 67 3f 66 f8 68 3f d7 38 6a 3f 03 d9 0c 3f
       0.9038814 0.91004026 0.9149298 0.55018634
0000f0 8f f9 95 3d b0 4a 51 3f 2e be 63 3f 48 90 5e 3f
       0.0732299 0.8175459 0.88962066 0.86938906
000100 10 da 49 3f 21 d8 ed 3e d5 a6 41 3f 00 ef 19 3f
       0.7884836 0.46453956 0.7564519 0.6013031
000110 51 a6 a0 3e f0 ae 53 3f 43 f6 9b 3e c3 82 48 3f
       0.3137689 0.8268881 0.3046132 0.78324527
000120 f7 73 f1 3e 4b 54 e9 3e 32 43 31 3f fb 37 d7 3e
       0.47158787 0.45572123 0.69243157 0.42034897
000130 c6 45 26 3f fb 35 04 3e ca e9 14 3c d0 42 19 3f
       0.64950216 0.12911217 0.009088943 0.5986757
000140 15 59 ca 3e 84 af 92 3e 81 dd b7 3d 9f b1 10 3f
       0.3952109 0.28649533 0.089777954 0.5652103
000150 d3 68 ad 3e 5f ba 70 3f 92 ac 18 3e c2 eb ad 3e
       0.33869037 0.9403438 0.1490958 0.3396893
000160 21 92 e4 3e 50 ca 14 3f 9c 1a a1 3d 15 48 41 3f
       0.44642738 0.58121204 0.078664035 0.75500613
000170 3c 07 d9 3d a7 ee 7c 3e bf d9 15 3f 3c 3e d9 3e
       0.10597083 0.24700414 0.5853538 0.42430294
000180 9e 18 0e 3f 7a a4 65 3d 62 bb 57 3e c3 b4 53 3f
       0.5550631 0.05606506 0.21067575 0.82697695
000190 f5 35 2d 3f 7e 60 3b 3f 41 7f 3d 3f fa 48 51 3f
       0.67660457 0.7319411 0.740223 0.8175198
0001a0 51 17 3b 3f 32 bc b9 3e 84 95 8c 3e fd 9c 75 3e
       0.73082453 0.36276394 0.2745782 0.23985668
0001b0 90 0b 2c 3f cb 1e e6 3e 2d 3e 87 3e 81 72 53 3f
       0.6720514 0.44945368 0.26414624 0.82596594
0001c0 24 3d fb 3e ce 40 fa 3e 15 b8 ce 3e 9c 2c 23 3e
       0.49070084 0.48877567 0.40374818 0.15934986
0001d0 39 0c 65 3f f5 c5 bf 3d ad 19 94 3d de 95 18 3f
       0.89471775 0.09363929 0.0723146 0.5960368
0001e0 1b 29 a0 3e 4f b7 54 3f d4 7e f0 3e 7c 91 90 3e
       0.3128136 0.83092207 0.46971762 0.28235996
0001f0 02 4d e9 3e cd f7 e5 3e 69 a9 df 3e 77 3d d7 3e
       0.45566565 0.4491562 0.43683937 0.4203908

bn1.bias f4 [128]
000000 42 eb 0c bc 1d 10 27 bd 87 0b 6d 3d 76 06 d4 bc
       -0.008601012 -0.04078685 0.05787232 -0.025881987
000010 24 6c 6d bd b4 a7 8a 3d 9d a3 ba bc 40 11 21 bd
       -0.05796446 0.06770268 -0.022783095 -0.03932309
000020 d8 f2 23 bd 05 8b 6d 3d f2 22 03 3d 1e 2e a2 bd
       -0.040026516 0.057993907 0.03201575 -0.079189524
000030 7d e0 08 3d 35 b1 28 bc 15 29 cc 3c 35 83 43 3d
       0.033417214 -0.010296156 0.024921933 0.04773255
000040 96 c8 4a 3c 9c fb 5c 3d 25 f1 9f 3c 04 bb 21 3d
       0.012376925 0.05395089 0.019524166 0.039484993
000050 d1 53 cd bd 28 64 82 bd 51 21 37 bd 17 2c 7b bd
       -0.10025752 -0.063667595 -0.044709507 -0.061321344
000060 86 9e 06 3d d7 ef 6e bd b1 dc 1c 3d e1 ff 8f bb
       0.032866023 -0.058334198 0.038296405 -0.004394517
000070 ae 99 e8 3b b5 a0 cd 3d 0d 94 8c 3c 22 02 ed 3b
       0.007098398 0.10040418 0.01716044 0.0072329203
000080 8b 01 7a 3d 5a 3d e0 bc 1c 05 2f bc d4 e7 dc 3c
       0.061036628 -0.027373005 -0.0106823705 0.026966013
000090 37 76 91 3d 7a 44 80 3d 8f 26 ad 3c ff 67 2b 3d
       0.07102626 0.06263061 0.02113655 0.041847225
0000a0 60 f9 83 3d c4 3b c5 3c d3 06 c4 bc f1 12 97 3c
       0.06444049 0.02407635 -0.023929035 0.01844165
0000b0 40 f5 55 bd 73 7c 5e bd 0d 57 0d bd 96 9f 9c bb
       -0.05223584 -0.054317903 -0.034506846 -0.0047797663
0000c0 7f 04 ab bc f8 a6 87 3d 51 df 27 3c 8c 74 79 3d
       -0.020876167 0.06623644 0.010246114 0.060902163
0000d0 f8 b7 f1 bc 3f 53 77 3d a3 ba 22 bc 62 68 41 bc
       -0.029506668 0.060382124 -0.009932193 -0.011804672
0000e0 bc 8f 1b 3d c7 8e 39 3d 7f c6 b5 3c f5 0f 86 3d
       0.037978873 0.04530218 0.022189377 0.06546012
0000f0 62 33 8f bd 86 7d 64 bd 02 21 04 3d 13 7c 8b bc
       -0.06992222 -0.05578377 0.03225804 -0.017026937
000100 41 c9 b5 ba e7 dd 8d bd d6 11 3d 3d 7a 0c a3 bc
       -0.0013869182 -0.0692709 0.046159588 -0.01990341
000110 51 b5 cd 3d 6b be ff bc 02 21 e8 3b 18 0c a4 3d
       0.10044349 -0.031218728 0.007084013 0.08010119
000120 08 3f dd 3c 5c 24 3f 3c 42 ca 8f bd 5c 07 df bb
       0.027007595 0.011666384 -0.070209995 -0.006806297
000130 0c 67 62 bd 3a 83 4c 3d e6 7a c7 bd a5 0d ab 3d
       -0.055274054 0.049929835 -0.09740238 0.08352212
000140 e4 84 5b bc f3 5c 4a 3a 7f b1 c2 3c 4b 7f d3 3d
       -0.013398383 0.0007719539 0.023766277 0.103270136
000150 76 43 fe 3c dd 97 4f 3d 0e 69 8f bd d6 a8 07 3b
       0.031038027 0.050681937 -0.070024595 0.00207
000160 0f 7b 8d bd 24 bb 55 3d e8 ef cf bd ab ad ac 3d
       -0.06908237 0.052180424 -0.1015318 0.08431562
000170 a2 08 2f bc f4 76 42 3d 48 ea 13 bc c5 f2 9f bc
       -0.010683211 0.047476724 -0.009028025 -0.019524941
000180 61 1c b7 bc 22 4e a3 3d 3a 2a 3d 3d fd 9b 26 3d
       -0.0223524 0.07973887 0.04618285 0.040676106
000190 e1 67 6d 3d a6 9f 42 3d ea c5 53 bd 4f f3 14 bc
       0.057960395 0.047515534 -0.051702417 -0.009091212
0001a0 d2 ad 2f bd 63 89 4f 3d c4 00 ef 3c 67 65 af 3d
       -0.042890377 0.05066813 0.02917517 0.08564263
0001b0 b6 ad 08 3d 20 8f 4d 3c ed 72 88 3d 32 f2 63 3d
       0.03336879 0.012546331 0.06662545 0.055650897
0001c0 5b b5 94 bc 93 b6 99 3b 7e ae ac 3d 04 d2 b0 3c
       -0.018152883 0.004690954 0.08431719 0.021584518
0001d0 20 37 90 3c ea d8 99 bd 6e ea 7f ba fc fb 35 3c
       0.01760441 -0.07512076 -0.0009762411 0.011107441
0001e0 bb e7 6e 3d fd 3f 77 bc 00 dd 85 bb 13 69 ad bc
       0.058326464 -0.01509094 -0.004085183 -0.021168267
0001f0 00 ae 06 3d 0e c6 8c 3c 6a 7a 87 3c 48 98 05 bd
       0.032880783 0.017184284 0.016537864 -0.03261593

bn1.running_mean f4 [128]
000000 d8 ff a8 3f ab 86 00 3d c0 78 04 3f 43 29 29 3f
       1.3203077 0.03137843 0.5174675 0.66078585
000010 56 db c8 3f 37 4a 91 3e 67 00 3a 3f d9 82 bd 3f
       1.5691936 0.28376934 0.72656864 1.4805557
000020 cc 2f 46 3f ad a7 04 3f 55 a5 d3 3f de 29 a8 3f
       0.7741668 0.5181835 1.653483 1.3137777
000030 69 20 ba 3e a9 ff 9c 3e 4c e8 b5 3f fa b2 f4 3e
       0.36352852 0.30663803 1.4211516 0.47792798
000040 a0 cc aa 3e bc 3a 31 3f 98 ee 2c 3f 2e 81 15 3e
       0.3335924 0.69230247 0.67551565 0.1460006
000050 25 6c 9a 3e 72 52 c5 3f 76 3a 60 3f ee 5e 3c 3f
       0.30160633 1.5415785 0.87589204 0.7358235
000060 46 e8 30 3e 40 ca 58 3e a9 39 1c 3f 45 9e 97 3e
       0.17276105 0.21170902 0.6102548 0.29612938
000070 b0 e1 de 3e 0b 59 00 3f 10 1e 89 3e 8a 3f 88 3e
       0.4353156 0.5013587 0.26780748 0.26610976
000080 1d 9f 66 3f 10 61 17 3f e4 f4 26 3f 1d bb 93 3d
       0.9008654 0.5913248 0.65217423 0.072134234
000090 8a 12 c7 3e 88 97 b3 3f 7a 20 94 3e 9d 73 85 3e
       0.38881332 1.4030619 0.28931028 0.26064768
0000a0 3b 75 96 3e 36 3c 48 3f 26 43 5c 3f 65 96 c4 3d
       0.29386315 0.78216875 0.8603996 0.09598998
0000b0 a2 e5 9b 3e a7 43 ad 3e d7 d9 a8 3e de f6 a8 3e
       0.30448633 0.33840677 0.329787 0.33000845
0000c0 e1 42 03 3f 42 c5 45 3e 2e 6e 8b 3f 64 67 48 3e
       0.51273924 0.19313529 1.0892999 0.1957069
0000d0 c5 44 83 3f 33 20 47 3f e7 e0 a2 3f 62 1c f2 3e
       1.0255362 0.7778351 1.2724885 0.4728728
0000e0 e7 bc 21 3f 5c d7 b0 3f 7d 78 70 3f 40 89 7c 3e
       0.6317887 1.3815722 0.9393385 0.24661732
0000f0 82 d3 93 3f aa 6b 05 3f 33 69 69 3f 0a 93 ca 3f
       1.1548922 0.5211741 0.91176146 1.5826123
000100 15 d3 83 3f 33 3c 0b 3f 21 bf 8a 3f a4 4b 34 3f
       1.0298792 0.5438873 1.0839578 0.7042792
000110 9b 1f 7b 3f ae f0 2d 3f d5 c6 7a 3f 04 fe e3 3e
       0.980951 0.67945373 0.97959644 0.44529736
000120 64 e0 a8 3e ea f2 32 3f 25 d7 84 3f 40 cf 38 3f
       0.32983696 0.6990191 1.0378157 0.7219124
000130 35 05 d1 3f d6 4d cb 3e 33 e9 4b 3f 53 2c 7e 3e
       1.6329714 0.39707822 0.7965271 0.24821596
000140 84 8c e0 3e 34 7e a1 3f 83 d1 25 3f 5c 0c 70 3f
       0.43857205 1.2616639 0.64772815 0.9376886
000150 ae cb 7f 3e 45 5e f5 3e bc c4 13 3f f5 3f a5 3f
       0.24980041 0.47923484 0.5772207 1.2910143
000160 7c c2 1a 3f 77 26 19 3f 0f a2 76 3e d3 d0 2c 3f
       0.6045301 0.5982432 0.24085258 0.6750614
000170 72 f1 cd 3d 9d e8 4f 3f ce 0b 49 3f 8d c4 8e 3f
       0.10055818 0.81214315 0.7853364 1.1153733
000180 90 f9 c7 3f 34 3f 53 3f 8a 5a e9 3c 9f 85 31 3f
       1.5623035 0.82518315 0.028485555 0.69344515
000190 ee 9b 9d 3e e6 fb 94 3e f4 43 33 3f 82 33 5c 3f
       0.30783027 0.29098433 0.70025563 0.86016095
0001a0 2f 13 54 3f 91 2a 60 3f 95 29 43 3d 65 87 78 3e
       0.8284177 0.8756495 0.047647078 0.24270399
0001b0 cf fa 5b 3f 02 13 76 3f 4c ad 3c 3f 6f 81 df 3e
       0.8592958 0.96122754 0.7370193 0.43653437
0001c0 b6 cc 2c 3e 1b 40 25 3f c8 64 24 3e 56 e2 42 3f
       0.16874966 0.6455094 0.1605407 0.7612661
0001d0 bb 80 d7 3f 28 cd 41 3d d5 8d 21 3d 85 31 5d 3f
       1.683616 0.047314793 0.039441902 0.86403686
0001e0 44 24 86 3e 62 bb 0d 3f 88 68 4d 3f 75 20 a5 3e
       0.26199543 0.5536405 0.8023763 0.32251325
0001f0 9d d1 0a 3f f8 50 b0 3f 22 40 b9 3e ab c9 d1 3f
       0.54226094 1.377471 0.36181742 1.6389669

bn1.running_var f4 [128]
000000 ef 6b 0f 40 4b 2f ba 3c d8 fb de 3e f2 3c 19 3f
       2.2409627 0.02272763 0.43551517 0.5985862
000010 11 90 a4 40 86 20 97 3e 53 c5 5c 3f 54 62 65 40
       5.142586 0.29517 0.8623859 3.5841265
000020 4c 11 c4 3f 51 06 9b 3e 72 ac 06 40 20 22 dd 3f
       1.5317779 0.30278257 2.1042752 1.7276039
000030 cf a4 3b 3f 82 59 e9 3e 31 02 e3 3f 3f 07 25 3f
       0.7329835 0.45576102 1.7735044 0.6446418
000040 df 1a 9b 3e bc 94 d4 3e 9b bb bf 3f 2c 88 21 3e
       0.3029394 0.41519725 1.4979128 0.15774602
000050 ee 11 fe 3e 9a ac cf 3f da 76 01 40 ff e2 09 3f
       0.49623054 1.6224549 2.0228791 0.53861994
000060 88 9d 35 3e 18 f8 72 3e 6e 91 1b 3f f7 d4 07 3e
       0.17735875 0.23727453 0.60768783 0.13264833
000070 c2 91 fb 3e 50 4a 3c 3f 77 59 d0 3e b6 c5 2e 3e
       0.49134642 0.7355089 0.40693256 0.17067608
000080 0f 30 9f 3f ae a7 47 3f 25 5f 63 3f 26 99 69 3d
       1.2436541 0.77990234 0.88817054 0.05703082
000090 e2 b5 0c 3f cf 30 b2 3f b0 b8 1d 3f 5b 13 13 3e
       0.5496503 1.3921145 0.61609936 0.14362852
0000a0 13 fb 3b 3e e6 4e 32 3f e4 89 4a 3f 2b 5c d1 3d
       0.18357496 0.6965164 0.79116654 0.10222658
0000b0 c8 4d 5f 3e f2 0c 0c 3f c3 5e b7 3e 88 43 55 3e
       0.21807015 0.5470725 0.35814485 0.20826542
0000c0 61 52 45 3f dd 8d 96 3d 43 2b dc 3e 86 f2 21 3e
       0.77078825 0.07351277 0.43001756 0.15815172
0000d0 fe fd c4 3f 1a 59 bf 3f b0 63 8d 3f 42 ce df 3e
       1.5390012 1.4949067 1.1046047 0.4371205
0000e0 d8 47 13 3f c1 f1 e9 3f 2d 43 63 3f ff 2e 93 3e
       0.575315 1.8276902 0.8877438 0.28746793
0000f0 6b 54 09 40 dc 88 ac 3e 6b ba c4 3f 9c 92 d9 3f
       2.1457775 0.33698165 1.536939 1.6997867
000100 bf 77 14 40 d6 2a 16 3f 45 de c2 3f f9 e9 23 3f
       2.3198087 0.5865911 1.5224081 0.6402889
000110 52 f2 67 3f f8 54 26 3f e8 b3 f2 3f 0b 5e e0 3e
       0.90604126 0.649734 1.8961153 0.4382175
000120 b8 0a e0 3e 67 a6 ae 3f 13 04 f3 3f 92 ff a5 3f
       0.43758178 1.3644532 1.8985618 1.2968619
000130 05 dd 4b 3f 5d 10 e7 3e 02 18 aa 3f cd f6 15 3e
       0.79634124 0.45129672 1.3288577 0.14644928
000140 af e1 38 3f 4f 35 eb 3f 15 e2 28 3f f9 29 c8 3f
       0.72219366 1.8375643 0.65969974 1.5637809
000150 1b d1 25 3e 56 f3 90 3f 16 ec a5 3e 4d 44 8f 3f
       0.16193049 1.132426 0.32406682 1.1192719
000160 0f f1 dd 3e 83 a7 62 3f 92 10 14 3e a8 79 35 3f
       0.43347976 0.8853685 0.14459446 0.7088876
000170 8a 86 ae 3c 1a 43 71 3f 62 80 49 3f 1e 32 1b 40
       0.021304388 0.94243014 0.7871152 2.424934
000180 5a b6 01 40 9c 12 5d 3f af 43 48 3c 85 1a 49 3f
       2.0267549 0.8635652 0.012223168 0.7855609
000190 e1 9f 7b 3e d9 b9 cb 3e d0 8a 87 3f f7 62 18 3f
       0.24572708 0.39790228 1.0589237 0.5952601
0001a0 9c 44 ae 3f e1 d8 1b 3f 23 c4 04 3d f7 1d 44 3e
       1.3614688 0.60877806 0.032413613 0.19152056
0001b0 bd 7c 50 3f b2 b1 50 3f aa ed 91 3f 77 78 15 3f
       0.81440336 0.8152114 1.1400654 0.5838694
0001c0 10 b4 3c 3e c6 6e c1 3e 1e e8 85 3e 21 9f d4 3f
       0.18428063 0.37779826 0.26153654 1.6611062
0001d0 2d ad 1f 40 f4 24 1e 3d 8c 67 43 3d 22 d3 c1 3f
       2.4949448 0.03860946 0.047706172 1.5142558
0001e0 63 bb 94 3e 1a 27 9f 3f 68 46 50 3f e9 20 b4 3e
       0.29049215 1.2433808 0.8135743 0.35181358
0001f0 f5 dd 89 3f ef 05 12 3f c8 86 bb 3e de 52 b3 3f
       1.0770861 0.57040304 0.36626267 1.4009664

fc2.weight f4 [64, 128]
000000 9a c4 d2 3c d9 cc f5 3d 6e aa 06 3e 16 cf c1 3d
       0.025728513 0.12001962 0.13150951 0.09463327
000010 37 cc 22 3c d6 f1 67 bc aa aa 8e 3c e7 74 d1 3d
       0.009936384 -0.014156779 0.017415363 0.102273755
000020 e0 63 d7 3d 14 4a df bc b9 10 da bd 94 15 a0 3d
       0.105170965 -0.027257003 -0.10647721 0.07816616
000030 95 8d a5 bc b3 6d 86 bc ff be c5 bd 88 06 8c 3d
       -0.020209113 -0.01640973 -0.0965557 0.06837183
000040 56 4b 4a 3c c9 65 9c 3c 35 3a 20 3d 80 28 4b 3d
       0.012347063 0.019091504 0.03911801 0.04959917
000050 77 35 9c bd b2 b5 ad 3d 0f 4d b5 3d 7d 94 3f 3d
       -0.07627385 0.08481921 0.088525884 0.04677247
000060 8c 34 ab bc 56 2b c8 bd 6b c8 8c bc 9f 74 6d bd
       -0.02089908 -0.09773891 -0.01718541 -0.057972547
000070 3a f2 62 bd c4 af 50 3d 40 93 6e 3c 37 c4 5f bd
       -0.055406787 0.050948873 0.014561474 -0.054630484
000080 aa 88 a4 3d 82 ad 09 3e 52 93 e9 bc 6a 28 a7 3d
       0.08033879 0.13445094 -0.02851263 0.08162005
000090 43 62 55 bd 3d a7 ad 3c 08 57 0d 3e 09 96 01 3c
       -0.052095663 0.02119791 0.13802731 0.007909306
0000a0 e5 1d 0e 3e 5d d2 91 3d 4c 43 54 3d 8d f5 db bd
       0.13878591 0.07120202 0.05182199 -0.107401945
0000b0 b6 f4 8f bd 2d b3 13 3d 92 9c 90 bc 9b 8a 2c bc
       -0.07029097 0.036059547 -0.017652784 -0.010531093
0000c0 60 da 4d 3c a6 26 b1 bd 33 43 e1 3d f8 81 09 bd
       0.012564272 -0.0864995 0.10999145 -0.033571213
0000d0 b7 af 7b 3d a2 08 91 3d 2b 63 d0 bd 89 c3 94 bd
       0.06144687 0.07081725 -0.10175165 -0.07263858
0000e0 69 2e 20 3d 3a f2 9d 3d 30 9a da bd 04 fc 15 3d
       0.03910676 0.07712217 -0.1067394 0.036617294
0000f0 40 bf c0 3d ec 1a d5 bc 27 52 43 3d 47 fb d2 3d
       0.09411478 -0.026013814 0.04768577 0.103018336
000100 e8 a9 7b bd e9 90 b4 3d bf 14 57 3c 66 cc b8 3d
       -0.061441332 0.08816702 0.013127505 0.09023361
000110 48 b1 ec bc 2a 17 86 bd d5 1d 63 bd ee 06 c6 bd
       -0.028893128 -0.06547387 -0.055448372 -0.096692905
000120 11 e7 d0 bd 86 a4 a8 bd c2 ae 40 3d 0a 55 9f 3d
       -0.102003224 -0.08234505 0.047041662 0.07779892
000130 1f 19 75 3d 20 73 8d 3a 75 b2 9d 3d 24 44 92 3b
       0.05983841 0.0010791756 0.077000536 0.0044636894
000140 4a d5 e9 3d cb c8 d5 bc 16 26 27 3d 4f 19 8f 3d
       0.11417635 -0.026096722 0.040807806 0.06987249
000150 7b c9 14 be 15 63 2e bd 44 9b 9b 3d 2b 46 77 bc
       -0.14529984 -0.04257496 0.07597974 -0.015092413
000160 93 71 f8 3d a7 20 66 3d 1e d3 c6 3d 0b 81 14 bd
       0.121310376 0.056183483 0.09708236 -0.036255877
000170 df d0 e4 3d df b6 81 3d bd 16 63 3d 33 05 97 bd
       0.111726515 0.06333708 0.055441607 -0.073740385
000180 ca cc 95 3d 9d 45 ee bc 16 1e 19 bd 0b e4 b0 3d
       0.07314451 -0.029085929 -0.037382208 0.08637246
000190 c5 ae c9 bc 8f 56 bc 3c ba cc a6 3d be 09 11 3c
       -0.02461947 0.022990493 0.08144517 0.00885242
0001a0 37 9b 77 bd 20 f6 0b ba 42 95 ed 3d 16 16 c9 3d
       -0.06045076 -0.00053391047 0.11600734 0.09818666
0001b0 81 b9 4e 3d 99 ef b4 bd ac 41 5d bc 05 55 b7 bd
       0.05046988 -0.08834762 -0.013504427 -0.08951763
0001c0 e1 bd 42 bd a8 3f b5 3d f3 ac c0 bd 08 3e 75 bd
       -0.047544364 0.08850032 -0.094079874 -0.05987361
0001d0 c7 e4 a4 bd d3 ba ac 3d 49 40 d9 3d e1 ce 63 3d
       -0.08051448 0.084340714 0.106079645 0.055617217
0001e0 25 5f e1 3b 94 de be bd 71 dd 53 3d 7f d7 a6 bd
       0.006877797 -0.09319797 0.051724855 -0.08146571
0001f0 46 e2 78 bd ab cc e0 bd 3a 32 13 bb 44 e3 8f bd
       -0.060762666 -0.10976537 -0.0022460357 -0.07025769
000200 b0 88 ad 3d b6 64 db bc e5 8e 45 3c a1 41 84 3d
       0.08473337 -0.026781421 0.0120579945 0.0645783
000210 22 1a cd 3d 72 96 18 be c1 4a 8a 3d 77 d9 62 3c
       0.1001475 -0.1490114 0.067525394 0.013845793
000220 73 b0 bd bd 1c 27 0b bd a2 3f b1 3d db 7c 6d bd
       -0.09262171 -0.033972844 0.08654715 -0.0579804
000230 df 01 26 3d 19 83 f2 3d b6 21 61 3d 91 7e e3 3b
       0.04052913 0.11841411 0.05496379 0.006942578
000240 a0 f4 40 3d 3a 7d b1 bd 2d 4c ae bd 0e 50 9d 3d
       0.047108293 -0.08666463 -0.08510623 0.07681285
000250 0e 87 7b bd 33 e0 14 3b de 2d 8b 3b 17 a0 5e bc
       -0.061408095 0.002271664 0.004247411 -0.013587973
000260 bb bc 50 3d c3 ca c4 3d 61 89 a0 3d 05 04 d6 bd
       0.050961237 0.09608986 0.07838703 -0.104499854
000270 8e a6 53 3d e6 9d aa bb da 69 db 3d 1c db 03 3d
       0.05167251 -0.0052068112 0.10713549 0.03219138
000280 95 40 7a bd 3d 80 b2 3d aa 24 9c bb 2e 2c d2 3d
       -0.061096746 0.08715866 -0.004765113 0.10262333
000290 08 52 07 be 6b 4e 69 3d 2d 7b 87 bd 85 e4 90 3c
       -0.13214886 0.05695955 -0.06615291 0.017687092
0002a0 e3 18 d0 3c 49 3f 3e 3d a6 f4 03 3e 79 46 4a bc
       0.025402492 0.046447072 0.12886295 -0.012345904
0002b0 ff 4d 2b 3d c5 ec 6a 3d d7 8d 89 bc e9 83 ff bc
       0.04182243 0.057354707 -0.016791267 -0.03119083
0002c0 01 8f 82 3d 1d 0b 4d bd 87 a8 d5 3c 81 26 a5 3d
       0.06374932 -0.050059427 0.026081337 0.08063985
0002d0 cf 2b fa bc 6b e9 df bc 32 f5 98 bd be 80 d6 ba
       -0.030538468 -0.027332982 -0.07468642 -0.0016365272
0002e0 b8 57 f3 bc 1f 58 d1 bd 69 0c 48 bd c3 bc 42 bd
       -0.029704913 -0.10221886 -0.04883996 -0.0475433
0002f0 fd c7 99 bd 63 1c 5d bd 0d 2d e8 3c e4 64 51 3d
       -0.07508848 -0.05398215 0.028341794 0.051121607
000300 60 42 36 bd b5 e0 86 bc f4 0d 8a 3d 9e 62 93 3b
       -0.044496894 -0.01646457 0.067409426 0.00449784
000310 62 d5 bf 3d b2 77 d1 3d 08 53 49 bc 92 ac 17 be
       0.093668714 0.10227908 -0.012287863 -0.14811924
000320 90 e0 bb 3d 47 91 72 3d 09 3f 7e 3d 50 5c 58 bd
       0.09173691 0.05922058 0.062071834 -0.05282241
000330 98 01 aa bd f5 17 68 3d 61 1e d2 3d 25 8a bd bd
       -0.08301085 0.056663472 0.102597006 -0.092548646
000340 47 24 cd 3d 07 ea 3c 3d 0c c9 c6 3d 62 7d 69 bd
       0.10016685 0.046121623 0.097063154 -0.05700434
000350 54 2e ba 3d b3 30 c7 bd 07 3c 85 bd 92 01 b4 3d
       0.09090868 -0.097260855 -0.0650559 0.08789362
000360 dd a5 d3 3d 6f a9 37 bb f5 51 43 3d b3 f9 be bb
       0.1033437 -0.0028024574 0.047685582 -0.0058281063
000370 72 a7 fa 3d 0c 84 bc bd 13 8c c0 bc 3c 1b f9 bd
       0.12238969 -0.092048734 -0.023504293 -0.12163398
000380 43 d0 0f 3e 28 5b 0d 3a 80 05 31 bd 40 13 a5 3d
       0.1404429 0.00053923065 -0.043218136 0.08060312
000390 c2 16 98 bd e1 26 ac 3d 26 08 47 3d d6 12 c8 bc
       -0.07426216 0.08405853 0.048591755 -0.024423044
0003a0 6b 3b 50 bb 98 f9 b4 3c 62 3e 0a 3d df d3 0f 3e
       -0.0031773697 0.022091672 0.0337509 0.14045666
0003b0 c5 5f 3a bd 2f 1a 4b bd 0a aa f4 3c 0f a9 e7 3d
       -0.04550149 -0.049585517 0.029866237 0.11311542
0003c0 01 5f 5a 3d 24 15 04 3e cb ad 85 3d 98 98 e2 bc
       0.05331326 0.1289869 0.06527289 -0.027660653
0003d0 a8 5a 45 b9 00 0c 62 bb 03 70 4c bd 78 e0 d1 bd
       -0.00018821156 -0.0034492016 -0.04991151 -0.10247892
0003e0 e6 e0 61 ba 09 52 cc bd 1f 44 ca bc 30 c0 28 bc
       -0.00086165813 -0.099765845 -0.024690686 -0.010299727
0003f0 d0 95 8d 3d b0 50 08 3e fc be 8c bd 0e 3e 48 bd
       0.0691334 0.1331203 -0.06872365 -0.048887305

fc2.bias f4 [64]
000000 4f c1 c5 bd d5 e2 b7 3d 26 37 e1 bc 0f 02 21 bd
       -0.09656011 0.08978812 -0.027492117 -0.039308604
000010 93 0c b9 3d 3d cc 88 bb 43 31 ab 3d dd 36 88 3d
       0.090356015 -0.0041747377 0.08359005 0.06651089
000020 65 14 4e bd 66 e5 63 3d 5c 9e aa bc c9 23 4f 3d
       -0.05031242 0.055638693 -0.020827465 0.050571237
000030 8a e3 66 bc 9b 8b 87 bd bd a9 c2 3c 1b a8 b2 bd
       -0.0140923355 -0.066184245 0.023762578 -0.0872347
000040 41 d4 0c 3d 18 f8 b3 bd be c1 02 be b8 cf b5 bd
       0.03438211 -0.087875545 -0.1276922 -0.0887751
000050 61 d9 38 bd c2 58 3b 3c f4 70 1b 3d bd 7d 6f bd
       -0.045129184 0.011434736 0.037949517 -0.058469523
000060 02 5c ac 3b cd c3 92 bb d6 20 8b 3d 2b 90 9a 3b
       0.0052599916 -0.0044789077 0.06793372 0.004716893
000070 e5 e7 34 bd 0a 31 3d 3d 6f 83 c1 bd f9 e8 d0 bd
       -0.044166464 0.046189345 -0.09448897 -0.10200686
000080 fb 37 a6 bd 53 98 a0 bd e7 33 2d 3d fc 08 35 bd
       -0.08116146 -0.078415535 0.042285826 -0.04419802
000090 4d 7e a0 bd 2e a5 aa bd 02 e3 8a bd 38 f7 b7 3c
       -0.0783659 -0.08332287 -0.067815796 0.02245675
0000a0 2a 7c 8b 3c 1d 48 1f bd 42 67 a4 bd d3 6f ff bd
       0.01702698 -0.038887132 -0.08027507 -0.12472501
0000b0 fe 43 0e 3d 97 30 48 3a 0c dd e2 3d 59 ae 4c 3d
       0.03473281 0.0007636635 0.110773176 0.04997096
0000c0 62 d8 6e bc 8d f7 b8 bd 54 0d ac bd 17 b2 4f bd
       -0.014577957 -0.090315916 -0.0840098 -0.05070695
0000d0 04 f5 e1 bd d3 69 a3 bd 91 d7 95 bd 28 7c dd 3c
       -0.11033061 -0.07979169 -0.07316507 0.027036741
0000e0 57 76 81 bd e2 d1 c4 bd d3 c3 a0 3d 29 4d 4d bc
       -0.063214 -0.096103445 0.078498505 -0.012530603
0000f0 e4 a6 86 bd 4e eb 9a bd 21 85 b6 bd d4 20 65 bd
       -0.065748006 -0.07564412 -0.08912111 -0.05593951

bn2.weight f4 [64]
000000 5c 6d 7d 3f 53 11 2a 3f e9 e1 1e 3f b9 3a 3f 3f
       0.98994994 0.66432685 0.6206346 0.7469898
000010 72 fc 43 3f f3 94 19 3f b7 cb 1e 3f dc 0d 50 3f
       0.76557076 0.59992903 0.62029594 0.8127115
000020 f7 55 f1 3d 2f ee 82 3e 41 38 f1 3e 32 19 5a 3f
       0.117839746 0.25572345 0.4711323 0.85194695
000030 48 19 57 3f f7 87 aa 3e 9b e6 19 3e 39 da 6d 3f
       0.8402295 0.33306858 0.15029375 0.92911106
000040 29 a0 4a 3e 11 df ee 3e b6 ea cf 3e 14 f3 67 3f
       0.19787659 0.4665456 0.40608758 0.9060528
000050 c7 03 78 3e 29 f4 45 3d 7a de 26 3e 43 1e d0 3e
       0.24220191 0.048328552 0.16295806 0.40648088
000060 c0 ff 90 3e c5 5d 66 3f 15 2a 15 3f 95 26 47 3f
       0.28320122 0.8998683 0.5826734 0.77793247
000070 44 a0 54 3d 17 79 9a 3e 29 02 25 3f ed a9 9a 3e
       0.051910654 0.3017051 0.6445642 0.30207768
000080 c2 62 d8 3d 91 c6 2d 3f 9d dd 09 3e 4d cc 2b 3f
       0.105657116 0.67881113 0.13463445 0.67108613
000090 91 65 4e 3f 88 17 bc 3e f8 ae 7a 3d 88 46 ec 3d
       0.8062373 0.36736703 0.06120202 0.1153689
0000a0 00 68 8e 3e 8e 40 25 3f 96 6a 5f 3f 20 37 74 3f
       0.2781372 0.6455163 0.8727201 0.95396614
0000b0 31 51 99 3d 07 b0 56 3f 83 a9 2c 3f 89 25 c1 3e
       0.07486189 0.83862346 0.67446154 0.3772395
0000c0 7e 71 10 3f cc 15 76 3f c8 27 40 3f ae e0 09 3f
       0.56423175 0.9612701 0.750607 0.5385846
0000d0 51 8a 81 3e a7 78 aa 3d 88 eb a6 3e 32 da 67 3e
       0.2530084 0.08323794 0.3260157 0.22641829
0000e0 cd b4 4f 3f 9c b2 f6 3e 8d 96 1d 3f 9c 67 17 3e
       0.81135255 0.48183143 0.6155785 0.14785618
0000f0 78 64 12 3f 49 b8 62 3f 2b e9 98 3e 3a 26 15 3f
       0.57184553 0.88562447 0.29865393 0.58261454

bn2.bias f4 [64]
000000 f0 7a 7e b5 ec 36 57 34 12 2f ba 34 70 a5 ec b5
       -9.480127e-07 2.0043416e-07 3.4679448e-07 -1.7631519e-06
000010 1c 03 3e b6 cf 78 70 36 69 e5 c7 35 78 31 a0 b6
       -2.8314016e-06 3.5833107e-06 1.4893423e-06 -4.7741305e-06
000020 14 25 88 36 ec 7f 2e b5 ea fb f2 b5 cf 11 cb b4
       4.0574323e-06 -6.50062e-07 -1.8103722e-06 -3.7824654e-07
000030 7e 02 52 b5 93 a8 12 b7 10 a8 b6 36 96 c9 d9 35
       -7.8234723e-07 -8.741527e-06 5.4435877e-06 1.6226429e-06
000040 3a af f6 34 94 6e 96 36 7f ac 02 37 76 ab 71 b6
       4.5948565e-07 4.4832213e-06 7.788766e-06 -3.6011602e-06
000050 3b 38 59 37 61 39 3d 37 63 ef fb b4 71 05 f1 b6
       1.29473e-05 1.1278637e-05 -4.692657e-07 -7.182993e-06
000060 80 6a f1 36 e8 ce b9 35 10 f3 a7 33 9a fe 91 b3
       7.194758e-06 1.3843792e-06 7.820756e-08 -6.7984004e-08
000070 cc 9b 23 34 07 2d a5 36 42 67 be 36 f8 a9 2c b7
       1.5237237e-07 4.922625e-06 5.674462e-06 -1.0291573e-05
000080 74 af 58 37 ec 19 6c b5 36 01 ed b6 e0 9c 88 36
       1.2915454e-05 -8.795457e-07 -7.0632914e-06 4.0713785e-06
000090 4c 96 80 b6 13 63 90 35 d4 ee ff 36 9b 85 53 b6
       -3.832194e-06 1.075767e-06 7.6273955e-06 -3.1519219e-06
0000a0 55 df e5 36 be 40 6e 36 7a 1a 02 36 30 cc 42 36
       6.850731e-06 3.5502449e-06 1.938692e-06 2.9027105e-06
0000b0 d4 f4 15 37 cf d0 2c b6 c4 68 ab 36 ca 58 0d b6
       8.938096e-06 -2.575154e-06 5.1083935e-06 -2.106232e-06
0000c0 52 d5 0e 36 1f 14 0c 36 16 d9 29 b6 aa 1d 72 36
       2.1283818e-06 2.0873338e-06 -2.5309323e-06 3.6078077e-06
0000d0 b2 97 39 b7 8f 07 31 b6 bd 6d 4b b5 67 46 1f 36
       -1.1062179e-05 -2.6379455e-06 -7.5783083e-07 2.3733826e-06
0000e0 45 d3 af 35 4c 83 1e b5 80 8d 24 b6 ea ae 55 b6
       1.3100004e-06 -5.905065e-07 -2.4520268e-06 -3.1841287e-06
0000f0 86 48 cc 35 a3 7c 82 b6 6a fe 9b b6 ee 39 e2 35
       1.5220292e-06 -3.8888115e-06 -4.6489777e-06 1.6855172e-06

bn2.running_mean f4 [64]
000000 67 1d 1d 3e 39 0a 48 3e 6d 47 32 3e b0 9c 62 3e
       0.15343247 0.1953515 0.1741006 0.22130084
000010 58 e4 a1 3e 22 21 b1 3d c7 5c 99 3e 5a 52 5c 3e
       0.31619525 0.08648898 0.29953596 0.2151579
000020 bd 7f b9 3e 2e 55 44 3e 4d 39 3d 3e 93 8e 84 3e
       0.3623027 0.19173118 0.1847889 0.25890025
000030 a9 22 0c 3e 12 0d 8e 3d 0a d6 37 3e d7 12 e7 3d
       0.13685097 0.06936087 0.17952743 0.1128289
000040 92 7a 69 3e d1 4e 22 3d d9 be 46 3c b1 59 5f 3c
       0.22800663 0.039625946 0.012130463 0.013632224
000050 51 77 00 3e 2d 34 0e 3e de 7c 85 3e f1 00 e5 3c
       0.12545516 0.13887091 0.2607183 0.02795455
000060 e2 a5 05 3e da e0 95 3e ae 17 86 3e d2 5b 50 3e
       0.1305156 0.2927311 0.2618994 0.20347527
000070 f3 55 1b 3e 41 10 05 3e 70 98 d3 3d 49 fe e0 3a
       0.15169506 0.12994482 0.103318095 0.0017165627
000080 15 df 93 3d 8d 5c f0 3d ba f0 43 3e 6e 1f 1b 3e
       0.07220284 0.11736403 0.19134799 0.15148708
000090 4e 7b 00 3c 13 c0 15 3e 60 f0 d6 3d e3 70 55 3e
       0.007841898 0.14624052 0.10495067 0.20843844
0000a0 26 04 e2 3d 4c d9 b7 3d 6a 39 dc 3d 2e 4a 51 3d
       0.110359475 0.08976993 0.10753138 0.051096134
0000b0 d8 ce 15 3e 96 8b b3 3d a9 c2 10 3e 17 e3 34 3e
       0.14629686 0.08766858 0.14136757 0.17664753
0000c0 78 08 43 3d c0 37 07 3e 6c 25 37 3e 74 99 08 3e
       0.0476155 0.1320486 0.17885369 0.13339788
0000d0 46 1e 9f 3d 9a ed 94 3d 41 08 45 3e bc 15 25 3e
       0.07769446 0.072718814 0.1924143 0.16121572
0000e0 04 f8 3b 3e 0e 60 28 3d 7c 37 7a 3e af 0d 11 3e
       0.18356329 0.04110723 0.24435228 0.14165376
0000f0 99 3e b0 3d 14 d4 56 3d 8f c7 ac 3d 8c 60 5d 3d
       0.086056896 0.052448347 0.084365 0.054047152

bn2.running_var f4 [64]
000000 27 cc 98 3d cb 42 92 3d 84 b8 a7 3d 5c 6a ce 3d
       0.07460814 0.07141646 0.081894904 0.1007888
000010 c0 bd cf 3d 61 31 b4 3c 63 0b 04 3e 01 37 dd 3d
       0.10143614 0.021996202 0.12894969 0.10801507
000020 b6 e1 62 3e 1f 12 99 3d ac 60 14 3e 57 6b 14 3e
       0.22156414 0.074741594 0.14490002 0.14494072
000030 1b ce 66 3d 25 0d ed 3c 87 4b 67 3d 81 38 1b 3d
       0.0563489 0.028936932 0.056468513 0.037895683
000040 19 91 c0 3d a8 1c 15 3c cf 35 e6 3a fa b3 5d 3b
       0.09402675 0.00910107 0.0017563644 0.0033829198
000050 ca 9b af 3c 22 cf 30 3d a1 3c b4 3d 4d 5a fd 3b
       0.02143659 0.043166287 0.088006265 0.007731712
000060 95 5d 46 3d 5a d7 05 3e 9d bf 3c 3e 22 e5 a3 3d
       0.04842909 0.13070431 0.1843247 0.08002688
000070 50 d8 2e 3d b2 d5 1c 3d 17 1c f8 3c 2a db 1b 39
       0.04268676 0.038289733 0.030286832 0.00014863597
000080 09 e8 a6 3c fa ea 5e 3d 87 81 33 3d 00 10 04 3d
       0.020374315 0.05442331 0.0438247 0.03224182
000090 a5 47 99 3a c3 e2 41 3d 28 0b 8d 3c 26 c4 8c 3d
       0.0011694325 0.047335397 0.017217234 0.0687335
0000a0 cb 4d 42 3d a1 d4 e1 3c d9 4c d6 3c 9d e0 9f 3c
       0.04743747 0.02756721 0.02615969 0.019516284
0000b0 be e7 f8 3c e0 e8 8a 3c fe 55 9e 3c 4d d0 5b 3d
       0.03038394 0.016956747 0.019328114 0.053665448
0000c0 90 8b 1d 3c 75 42 b6 3c c4 65 82 3d da 01 0d 3d
       0.009615794 0.022248486 0.063670665 0.034425594
0000d0 61 8c 8b 3c 5b 01 48 3c cf 33 d4 3d 6e 16 8c 3d
       0.017034711 0.012207354 0.10361444 0.068402156
0000e0 f9 92 96 3d 9f 65 02 3c 2f fa ab 3d bc f7 1c 3d
       0.073522516 0.007958799 0.08397328 0.038322195
0000f0 33 82 a3 3c eb 75 44 3c 65 6d bb 3c f7 7a ce 3c
       0.019959545 0.011991004 0.022879312 0.025205119

fc3.weight f4 [2, 64]
000000 32 8b b6 bb 1a a9 9b 3b 7f ce 24 3b e8 e9 ec bb
       -0.0055707926 0.004750383 0.0025147495 -0.0072300322
000010 c8 03 31 bc e1 52 4c 3c 17 44 83 3b 59 89 5d bc
       -0.010804124 0.012470932 0.0040059197 -0.013521516
000020 92 53 3e 3c f5 8d 38 bc 4e 75 af bb 70 de ad ba
       0.011616604 -0.011264314 -0.00535456 -0.0013265144
000030 65 91 a2 b9 4d cc c1 bc 86 b3 9d 3c e3 9b 09 3c
       -0.00031007375 -0.023656989 0.019250643 0.008398983
000040 5c 79 ff 3a 4b f8 d7 3b 6d e8 04 3d b6 a1 14 bb
       0.0019491124 0.006590878 0.03244822 -0.0022679395
000050 db e0 04 3d 32 34 53 3d 17 52 9c 3a 72 00 62 bc
       0.032441 0.05156345 0.001192632 -0.0137940515
000060 9c 87 22 3c 27 9d 96 3b b2 12 bc 3a 9c fd 39 3a
       0.009920027 0.0045963707 0.0014348833 0.00070949807
000070 b8 fa ee ba 74 56 9b 3c 6f a5 86 3c a7 ba 96 bc
       -0.0018232679 0.018962122 0.016436307 -0.01839955
000080 a9 db 75 3d 94 f1 0d bc d1 10 05 bd bf 2c 92 3c
       0.060023937 -0.008663554 -0.03248674 0.017843602
000090 e6 6b 1f bc f1 5a 9c 3c f4 1b 3f 3d 5a 20 2d bc
       -0.009730315 0.019086333 0.046657518 -0.010566795
0000a0 6b 38 00 3d fa ae 7b 3c 8e 4e 34 3c b8 ff 89 3b
       0.031303804 0.015361542 0.011005057 0.0042113923
0000b0 12 43 01 3d f3 c8 f0 bb 92 3e 0d 3c c3 b8 86 bc
       0.031558104 -0.0073481738 0.008620875 -0.016445523
0000c0 ff e9 83 3c f0 02 21 3c 0f 6f e2 bb ac a8 4a 3c
       0.016102789 0.0098273605 -0.006910212 0.012369316
0000d0 1a 96 19 bd 50 66 23 bc f4 36 2c ba 9c 33 63 3c
       -0.037496664 -0.009973124 -0.0006569468 0.013867285
0000e0 b7 40 19 3c fb e6 3a bb 7b fb 2a bc 42 5e fa bc
       0.009353808 -0.0028519023 -0.010435934 -0.030562524
0000f0 7e 3a 71 3b 7a 0b 3a bc 0a 41 b7 bc 28 9e c1 3b
       0.0036808546 -0.011355275 -0.02236988 0.0059087463
000100 44 b5 44 3b cf 44 09 3c 8b 46 b0 3c 63 90 68 bc
       0.003001527 0.008378222 0.021518013 -0.014194581
000110 9c 89 09 3c 47 46 43 3c 66 a5 b6 3b f0 2c 3d bb
       0.008394625 0.011918611 0.0055739162 -0.0028865896
000120 4a 0a 18 bc 9e 17 c4 3b 1a e6 42 bc 5d 2d 58 bc
       -0.009279797 0.0059842607 -0.011895681 -0.013194409
000130 62 25 3e 3c 08 a8 ab 3b 29 76 ab 3c 29 c3 1b bc
       0.011605592 0.0052385367 0.020930367 -0.009506979
000140 a4 87 ea bc 2d f4 5b 3c 29 1a 05 bd 89 3a 29 bc
       -0.028629132 0.013424915 -0.03249565 -0.010328897
000150 95 3e 91 3b 54 64 4a 3b 1b 02 45 3c 29 7a 3a bc
       0.004432509 0.0030882554 0.012024428 -0.011381664
000160 83 39 e5 bc 72 60 a9 bb 3e ae 07 bc ca 42 1f bc
       -0.027981525 -0.005168968 -0.008281289 -0.009720514
000170 be 19 09 3d d2 25 85 3c 0b d7 c6 3b 26 c8 8b 3a
       0.033471815 0.016253386 0.0060681156 0.0010664507
000180 36 18 28 3c e5 18 ba 3a 96 d0 4f bb 63 18 bc bb
       0.010259679 0.0014198093 -0.003171002 -0.005740212
000190 2f ca 86 bb 2d 80 39 3c 4d 0d 80 3c b8 4b 1b 3c
       -0.0041134576 0.011322063 0.015631342 0.009478502
0001a0 29 9e 96 bb c5 5d c0 3a f2 70 17 bb c0 66 49 3c
       -0.004596491 0.0014676383 -0.0023108092 0.012292564
0001b0 61 de be bb 05 3d 58 3b 3e f1 86 3b f9 2f 0a bc
       -0.0058248495 0.0032995355 0.004118114 -0.008434289
0001c0 17 e0 61 3c 97 0f 95 ba 3c a3 5c bc 52 16 c7 bb
       0.013786337 -0.0011372444 -0.0134666525 -0.006075659
0001d0 4c d1 25 bc b7 e2 ed 3c f0 12 55 bc 09 bd c9 bb
       -0.010120701 0.02903877 -0.013005003 -0.006156568
0001e0 c3 05 13 3b 2d c2 aa 3c ed b0 c5 3b aa 84 05 3d
       0.0022433854 0.020844543 0.006033054 0.03259722
0001f0 14 82 2d 3c f8 75 26 bb 6a 7a 8d 3c d0 ca 6c 3b
       0.010590095 -0.0025399905 0.017270286 0.0036131628

fc3.bias f4 [2]
000000 02 9c 88 bd 8f f8 64 3a
       -0.06670381 0.0008734548

bn3.weight f4 [2]
000000 fb 20 83 3f b4 94 7e 3f
       1.024444 0.9944565

bn3.bias f4 [2]
000000 11 ad b2 be 78 e0 6b be
       -0.34897664 -0.23034847

bn3.running_mean f4 [2]
000000 49 9b 88 bd 13 91 65 3a
       -0.06670243 0.00087572745

bn3.running_var f4 [2]
000000 01 c4 b6 3a 3d 85 77 3a
       0.0013943912 0.00094421563
