p3_collaboration_and_competition/weights/actor_1_800.pth (torch_old, 51773 bytes, 18 tensors)

fc1.weight f4 [128, 24]
000000 e2 68 95 bd dc 66 9e 3d 0b 94 c3 3b a0 55 06 3e
       -0.072953954 0.077344626 0.005968576 0.13118601
000010 9a 56 75 bd c6 56 b4 3c 7a 82 31 3c 24 81 86 3d
       -0.059897043 0.022014033 0.010834331 0.065676
000020 bd 52 ab bd ff b7 a5 3c 63 4f 57 3d 25 1d d9 bc
       -0.083653904 0.020229338 0.052565943 -0.026503155
000030 46 0e 46 bd ca 79 1a bd e9 57 5b bd 90 30 08 3d
       -0.048353456 -0.037713803 -0.053550635 0.033249438
000040 ed 68 01 bd f4 cf 84 3d 69 38 be 3d 70 b6 8b bd
       -0.031594206 0.064849764 0.09288103 -0.068219066
000050 ae 18 f9 bd 20 e1 b8 3d 18 17 a5 3a a1 a0 b6 bd
       -0.121629104 0.09027314 0.0012595383 -0.08917356
000060 90 9e 08 ba 11 d6 54 bd b9 52 a8 bd 38 04 93 ba
       -0.0005211616 -0.051961962 -0.08218903 -0.0011216467
000070 04 73 18 3d ac 0c fd bd 21 57 8d 3d 07 2b aa 3c
       0.037219062 -0.123559326 0.06901384 0.02077247
000080 ba 9b 01 3c 4d fa 20 bc ca cb 76 bb 18 bc 4e 3d
       0.007910663 -0.009825301 -0.003765809 0.05047235
000090 f7 05 cf ba de ae 43 be 83 a2 fd ba e0 67 41 bb
       -0.0015794624 -0.19109675 -0.00193508 -0.0029511377
0000a0 f7 cb 4c bc 8f ac df 3c 76 ff 90 3c d3 a8 47 bd
       -0.012499801 0.027303962 0.017699938 -0.048744988
0000b0 f5 3c fe bb 3c c1 eb bc cc 3c 8c bc 5a 6c a8 bd
       -0.0077587315 -0.028778665 -0.017118834 -0.082237914
0000c0 b7 b3 dc bb ec eb 63 3c 4d 56 1b bd db a1 02 3d
       -0.006735291 0.013911229 -0.0379241 0.03189264
0000d0 c3 44 c8 3d d1 37 2d bd ff 3e 08 3d e7 86 bc bb
       0.0977874 -0.04228956 0.033263203 -0.0057533863
0000e0 7d 31 1a bc ad 9d 67 3d 01 c4 57 bb d1 cf 92 bc
       -0.009411213 0.056546856 -0.0032923224 -0.01792136
0000f0 27 8f 33 bd 1f cd 28 3d 42 68 ff 3b f9 f0 0b 3d
       -0.043837693 0.041211244 0.007794411 0.034165356
000100 44 0b a2 bc 8e 11 d2 3c df ef 43 bd 6f 40 81 3d
       -0.019780762 0.025643136 -0.04783618 0.06311118
000110 df d6 16 be 76 f2 eb bd 91 67 52 3d 10 04 8e bd
       -0.14730404 -0.11520855 0.0513683 -0.069343686
000120 5c 60 35 bd fc 07 02 be 22 e9 43 bd 56 f6 2e bd
       -0.04428135 -0.12698358 -0.047829755 -0.042715393
000130 82 e2 02 3d 3e 7c f2 bd aa 3e 15 3d 02 ae e9 3c
       0.031954296 -0.118401036 0.036436714 0.028525356
000140 0f 58 6e 3d b8 0b cc bc 8a c7 88 bb fc 20 06 3d
       0.058189448 -0.024907932 -0.0041741775 0.0327463
000150 b0 46 98 3c c2 72 fc 3c da 41 91 bd 4f 64 d2 bd
       0.018588394 0.03081644 -0.07092638 -0.102730386
000160 1f de a2 bd 40 b8 b6 bc 0f 7a 8e 3d 97 8e 00 bc
       -0.079525225 -0.022304654 0.069568746 -0.007846496
000170 18 d4 a3 3d f3 28 79 3b a3 b6 91 bd 70 e4 0d be
       0.07999438 0.0038018792 -0.07114913 -0.13856673
000180 cb 69 61 3d 81 c6 53 bb 0b 1f 79 3d d3 a4 3f bb
       0.055032533 -0.0032314362 0.06082062 -0.002924253
000190 f6 b9 d9 3b 36 f0 a5 3c 03 0e 65 3d 7e 99 a1 3c
       0.0066444827 0.020256143 0.055921566 0.019726511
0001a0 8a 85 7e bd ba bb 14 bd 72 e1 87 3d 53 0c 3a 3d
       -0.06213907 -0.036311843 0.06634797 0.04542191
0001b0 ec 99 e6 3d 13 1f 22 3c a6 80 11 3c 5b d9 15 3e
       0.11259827 0.009895104 0.00888077 0.14633696
0001c0 35 1f 3a 3d 39 f4 bf bd 4d e6 cf 3d 74 48 51 3c
       0.045439918 -0.09372754 0.10151348 0.012773622
0001d0 cd c0 66 3c 66 f9 7b bd 4d 27 80 3d f7 ae 60 bd
       0.014084053 -0.06151714 0.06257496 -0.05485436
0001e0 6b 0d 0b 3d cc f4 0f bd e3 98 fc bb f0 17 ff 3a
       0.033948343 -0.035145566 -0.007708655 0.001946209
0001f0 31 99 9f 3d f2 ff 61 bd a4 5f d2 3c 1f 50 2f bd
       0.07792891 -0.05517573 0.02568037 -0.04280102
000200 90 c0 2d 3c 5f d2 5a bd f9 25 72 bd 00 fc d1 3b
       0.0106049925 -0.05342328 -0.059118245 0.0064082146
000210 3e fa bd 3d ce c7 9c 3d 60 19 89 3d 51 b2 36 3c
       0.092762455 0.07655297 0.06694293 0.011150912
000220 6d c4 9b 3d 45 c8 4a 3d fd c3 2a bd 5f 94 e8 3b
       0.076058246 0.0495074 -0.041690815 0.0070977653
000230 88 1c 11 3d 4a 34 18 3e ad 5a 52 3d ef 3b ce 3d
       0.0354276 0.14863697 0.051356006 0.10070025
000240 89 f8 19 bd 6c ba 50 3d df dc 19 3d 3e 90 5e 3d
       -0.037590537 0.050959036 0.037564155 0.05433678
000250 af 2e 8a 3d e7 cd 81 3d 25 23 ac bc 0f 4e 91 3d
       0.067471854 0.06338101 -0.021012852 0.070949666
000260 3e 0c ab bc 68 fa 81 bd 5a b2 17 bd ca 16 e0 3d
       -0.020879861 -0.06346589 -0.037035324 0.10941847
000270 4d c2 ac 3c 5a db 2b bd 09 54 35 bc da f5 01 3e
       0.021088744 -0.041957237 -0.011067399 0.12691441
000280 93 14 a6 3c 83 1a 43 bd 62 a3 2c 3d ab 04 69 3d
       0.020273482 -0.047632705 0.042148 0.056889217
000290 59 37 86 3d f4 27 39 bd 5d 94 a7 bd 41 10 e5 3d
       0.065535255 -0.045204118 -0.08182595 0.11184741
0002a0 8f 6c 3d bd 6f 9d 9f 3c 13 7a 77 bd cc 5b 86 bd
       -0.046246108 0.01948425 -0.060419153 -0.065604776
0002b0 51 eb bc 3c 95 33 96 3d f1 ee 35 bd ce a7 a2 3b
       0.023061426 0.07334057 -0.044417325 0.0049638515
0002c0 ce be 8e bd e7 9d c0 bd ed 2d 89 3d 4b 76 0d be
       -0.06969987 -0.094051175 0.06698213 -0.13814656
0002d0 a5 27 7b bd 05 0f 1c 3e b3 d2 8c 3d f4 97 34 bb
       -0.061317105 0.15240104 0.06876125 -0.0027556391
0002e0 3f 0c 97 3c 4a 2d 81 b9 9e 13 02 3d 82 7f 91 bd
       0.018438457 -0.0002463854 0.03175699 -0.07104398
0002f0 46 4c b7 bb 1b 45 5b 3d c3 15 51 3d c3 19 c5 bc
       -0.0055938093 0.0535327 0.051046144 -0.024060136
000300 03 05 03 3d 98 6c 80 3d c6 f9 80 3b 4f 42 f5 3d
       0.0319872 0.062707126 0.0039360253 0.11975538
000310 4b b6 42 bd 5d 5f 8e 3d ec d7 3d 3d 78 55 3a bc
       -0.04753713 0.06951783 0.046348497 -0.011372916
000320 66 32 b3 3d 02 d4 a1 bd 6a ab a9 3d 7e 3e 06 bd
       0.08749847 -0.079017654 0.08284648 -0.03277444
000330 7b 58 2a bd ee ad a0 3d c2 6a 38 bd 4c 69 17 bd
       -0.041588288 0.078456745 -0.045023687 -0.036965653
000340 db e4 51 bd ec 31 bd 3c e2 2c 70 bd 5f 73 35 3d
       -0.051243644 0.023095094 -0.058636554 0.04429948
000350 b2 9d dc bd 01 11 a3 3d 25 97 d6 bc d5 4a 0d bd
       -0.107722655 0.079622276 -0.026195118 -0.034495194
000360 d6 9c 44 3d b6 d0 94 bb f1 04 45 3c b4 b3 09 bd
       0.048001133 -0.004541482 0.012025104 -0.033618644
000370 bd cb 10 be 63 e6 38 bc 17 90 52 bc de e8 8e 3c
       -0.1414022 -0.011285397 -0.0128517365 0.017445024
000380 92 f7 83 3d 9a 4e 07 bd c1 4e 61 bd d1 67 ef 3c
       0.06443705 -0.033033945 -0.055006746 0.029224308
000390 65 83 7a 3c 76 a9 9a 3d 49 ae 67 3d e0 24 68 3c
       0.015290116 0.07551853 0.056562696 0.014168948
0003a0 3c d3 7c bd ea d9 9a bb 92 bf 74 3d 4a 75 49 3c
       -0.061724886 -0.0047256844 0.05975301 0.01229603
0003b0 25 48 0a 3d ef 9e 4d 3d ce 74 5c bd 0d 04 3f 3d
       0.03376021 0.0502004 -0.05382233 0.046634723
0003c0 4c 7d 80 bd 09 97 f1 3d 28 e0 72 bd de 16 a4 3c
       -0.062738985 0.11796386 -0.059295803 0.020030435
0003d0 75 9b 10 3d fc 77 9a bd 8b 8a 60 bc 13 ea 8c 3d
       0.035304505 -0.075424165 -0.013704906 0.068805836
0003e0 87 32 97 bd 63 59 45 bc b6 00 87 bc fc 59 22 bc
       -0.07382684 -0.012045237 -0.016479831 -0.009909149
0003f0 af 04 83 bd 84 a0 6b 3d b8 e3 63 bb e8 b7 12 3d
       -0.06397378 0.057526127 -0.0034773182 0.035819918

fc1.bias f4 [128]
000000 0d 6f 08 be 05 83 15 3e 54 40 84 be f1 44 1d bd
       -0.13323613 0.14600761 -0.25830328 -0.038395826
000010 69 9d 33 bd f8 4a 9e 3d ff 4a 86 3d 43 e5 0a be
       -0.04385129 0.07729143 0.06557273 -0.13564019
000020 b8 f1 f6 3b e8 bc 0c be 9a 1d f4 bd 63 cd cc 3b
       0.0075361393 -0.13743937 -0.119197085 0.00625007
000030 74 99 24 3e 98 4e 3a 3e e4 14 85 3e 9c 0e c4 3d
       0.16074163 0.18194044 0.259925 0.09573099
000040 8d 11 2b 3e 11 f3 ea 3c f9 02 2b 3d e5 10 ba bd
       0.16705914 0.028680356 0.04175088 -0.090852536
000050 c6 b1 e7 bd 07 65 ec bd d9 72 5a 3d 9f 21 01 3e
       -0.113132045 -0.11542707 0.053332184 0.12610482
000060 17 27 49 be 8f ef 04 be 1e 74 32 3e 13 67 e7 3d
       -0.19643818 -0.1298201 0.17427108 0.11298957
000070 e0 da 19 be ed 80 29 be ba da 36 bd 4c c4 27 be
       -0.150249 -0.16553088 -0.044642188 -0.16383475
000080 c9 04 d2 3d 62 a4 d4 bd 4c 9e cf 3c dc ff 0a 3d
       0.10254819 -0.10382916 0.025344037 0.033935413
000090 c7 83 04 3e 51 ba 7e bd 89 c2 35 3d ca 2d 07 bd
       0.12940894 -0.062189404 0.044374976 -0.033002652
0000a0 c0 b7 86 3d 5c 33 d0 bd 69 f6 ab 3d ff 5f b7 bd
       0.06578016 -0.10166046 0.083966084 -0.08953857
0000b0 02 08 31 3e 25 fd e6 bd f8 69 23 3e ce 4a 84 be
       0.17288211 -0.11278752 0.15958393 -0.2583832
0000c0 c7 74 0e be 2a a3 05 be 02 d5 53 bd 37 8c 91 3d
       -0.13911735 -0.13050523 -0.051716812 0.07106822
0000d0 32 7c 87 3c 5d c0 e5 bd 93 98 5a 3e 05 09 83 bd
       0.016538713 -0.11218331 0.21347265 -0.06398205
0000e0 30 7b 4b 3d 42 20 bc 3c 4f 3a 18 3e 52 bb 4d 3d
       0.049678028 0.0229646 0.14865993 0.05022747
0000f0 8f 01 8c bd 5e 37 29 3d b6 16 64 3e 18 41 3b be
       -0.06836235 0.041312568 0.22274289 -0.1828655
000100 fc a8 36 be e7 48 15 3b e7 5b 23 be 77 8b d8 bd
       -0.178379 0.002277905 -0.15953027 -0.10573476
000110 74 ca 44 be ce b4 00 3e c6 4c 4d bd e2 18 b3 3d
       -0.19217855 0.12568972 -0.050122045 0.087449804
000120 92 e5 2b 3e 59 71 1e be d7 35 23 3d 4c 56 58 3e
       0.16786793 -0.15472926 0.039846268 0.2112667
000130 49 37 9e 3e c3 38 06 be 1a ec ad 3d b8 60 fd 3d
       0.30901554 -0.1310759 0.084922984 0.12371963
000140 72 7f fa 3d d3 78 ec bc 78 91 93 bd 56 40 8b bd
       0.122313395 -0.028866207 -0.0720548 -0.067993805
000150 bf 6c 1d 3d 82 ec 31 3b b7 ff cc bd 3b 0b 26 be
       0.038433786 0.0027149026 -0.10009711 -0.16215222
000160 7f 4f c5 3d 7e ce 24 be ba f1 ea bc a1 6f 07 be
       0.09634303 -0.16094396 -0.028679717 -0.13226177
000170 24 19 bc bd ea ec 53 be f1 a1 c6 bd bf 2b 5e 3d
       -0.09184483 -0.20695844 -0.096988566 0.05424094
000180 b8 87 37 3e ba 16 db 3c f7 52 fd bd fa 40 41 bd
       0.17922866 0.026744235 -0.1236934 -0.047181107
000190 08 3c 48 be ac 32 2a bd b3 d4 0e be b7 66 f1 bd
       -0.1955415 -0.04155223 -0.13948326 -0.117871694
0001a0 7e 9f d4 bd d7 1e 61 3e 74 a2 a6 bd 5b 69 8b bd
       -0.10381983 0.2198442 -0.08136454 -0.06807204
0001b0 dc 1e 44 bd 0f 8b 13 3e 15 1e 3b bd e4 c1 60 bc
       -0.047880992 0.14408515 -0.045682985 -0.013718102
0001c0 2b 52 54 3e a3 6a 5f 3d bb 6f 59 3e 65 57 a7 bd
       0.2073447 0.054545056 0.21234028 -0.08170966
0001d0 5e 3b 22 3e 62 19 3d be 87 76 15 be 22 49 36 3b
       0.1584296 -0.18466714 -0.14595996 0.0027814587
0001e0 f2 11 0a 3d 5b 32 8e bd 7c ad 58 3e 62 40 2b 3d
       0.03370852 -0.06943198 0.21159929 0.041809447
0001f0 73 9d 17 be b3 b0 9f bd ed 9f eb bc 04 bb d1 3d
       -0.14806156 -0.077973746 -0.028762782 0.102407485

bn1.weight f4 [128]
000000 c0 ac 3e 3f 47 81 3c 3e 82 68 21 3f 0d f4 63 3f
       0.74482346 0.1840869 0.6305009 0.89044267
000010 be 14 c6 3e ee b3 3e 3f d0 56 d3 3e 00 81 6a 3f
       0.386877 0.744933 0.4127717 0.9160309
000020 7d 1b f8 3e e4 b2 67 3f 42 35 9e 3e 89 48 28 3d
       0.48458472 0.9050734 0.30900007 0.0410848
000030 55 58 a6 3e b9 c8 42 3f 3e e8 ee 3e fd a1 e9 3e
       0.32489267 0.7608753 0.46661562 0.456314
000040 76 b6 61 3f e3 f4 81 3e a6 2e 39 3e 8e 3e 1e 3f
       0.8816904 0.25382146 0.18084201 0.618142
000050 03 70 6d 3f 56 64 1f 3f e0 ce a1 3e b7 b3 2e 3f
       0.9274904 0.62262475 0.31603146 0.68242973
000060 29 fd 51 3f a5 b9 0c 3e 05 fa 63 3f cf ba 11 3f
       0.82026917 0.13742693 0.89053375 0.5692567
000070 98 6b 9f 3e 7f 01 dc 3d 43 77 10 3f e0 b8 c7 3e
       0.31136775 0.10742473 0.5643198 0.39008236
000080 ab 10 10 3f 11 77 36 3e e4 87 20 3f 27 27 81 3e
       0.56275433 0.17818858 0.6270735 0.25225183
000090 5d b2 60 3f c2 64 0c 3f f5 2b 2f 3f 4f 88 4e 3f
       0.8777216 0.54841244 0.6842645 0.8067674
0000a0 51 c5 63 3f b9 80 12 3f 3d 82 6f 3f 41 ba 19 3e
       0.88972956 0.57227665 0.935581 0.15012456
0000b0 d6 0c 4f 3f fa e4 45 3f 73 5b 9b 3e eb 33 9e 3e
       0.8087896 0.77302516 0.30343208 0.30898985
0000c0 1e 9c 61 3f 68 a3 6a 3f 71 d0 42 3e 28 e7 f7 3e
       0.8812884 0.9165559 0.19024827 0.48418546
0000d0 4a c0 72 3e 3f 00 43 3f 91 4e df 3d bf 61 9b 3e
       0.23706165 0.7617225 0.10903657 0.30348012
0000e0 85 53 7a 3f 38 08 58 3f 41 6d 6d 3f 36 eb 11 3f
       0.9778369 0.8438754 0.92744833 0.5699953
0000f0 a2 b1 aa 3d a7 87 49 3f 92 0f 5a 3f eb 80 54 3f
       0.08334662 0.78722614 0.8518001 0.83009213
000100 d7 a9 41 3f 29 d5 03 3f 9a a2 33 3f ac 57 19 3f
       0.7564978 0.5149713 0.70169985 0.598994
000110 69 65 97 3e 5b ed 4e 3f 60 1f 97 3e 54 e4 4e 3f
       0.29569557 0.80830926 0.29516125 0.8081715
000120 d5 a0 f1 3e 97 77 db 3e 32 0a 27 3f 5d 1e cb 3e
       0.47193018 0.42864677 0.6524993 0.39671603
000130 44 bb 2c 3f 23 28 3e 3e 0b 3b 4e 3d a7 9a 1d 3f
       0.67473245 0.18569998 0.050349277 0.61564106
000140 d4 1c d4 3e 14 2b 8e 3e 69 95 02 3e 10 20 0f 3f
       0.41428244 0.2776724 0.12752308 0.559083
000150 d4 70 ce 3e b5 05 60 3f 58 b2 61 3e b2 d6 ba 3e
       0.40320456 0.8750871 0.22040689 0.36491925
000160 5b b5 de 3e b0 bf 08 3f fb 23 e9 3d 56 ea 3f 3f
       0.43497738 0.5341749 0.11383816 0.74966943
000170 11 11 44 3e 18 82 9a 3e d7 f4 19 3f 61 96 cb 3e
       0.19147135 0.3017738 0.6013922 0.39763168
000180 79 d5 05 3f 9b 8d 18 3e ff fa 8a 3e 6d 09 56 3f
       0.5227886 0.14897768 0.2714462 0.8360813
000190 cc 3d 1f 3f 2d c0 2a 3f 07 11 3d 3f 29 f7 4f 3f
       0.6220367 0.66699487 0.73854107 0.8123651
0001a0 31 cc 32 3f 0f 00 bc 3e bf 70 89 3e f6 44 90 3e
       0.6984282 0.36718795 0.2684383 0.28177613
0001b0 25 cf 23 3f 90 59 f4 3e 64 02 83 3e bd b4 50 3f
       0.6398795 0.4772458 0.2558776 0.81525785
0001c0 42 6d 1a 3f 0c c4 05 3f cd 4f c8 3e 8c ae 3d 3e
       0.60322964 0.5225227 0.39123383 0.18523616
0001d0 77 b7 6f 3f af 75 18 3e b1 7e 8e 3d 80 c8 18 3f
       0.9363932 0.14888643 0.06957758 0.5968094
0001e0 46 77 ac 3e 19 f6 51 3f c1 46 e2 3e 9e 01 a6 3e
       0.33684748 0.8201614 0.44194606 0.3242311
0001f0 2e 53 e0 3e ab 1f ea 3e da 64 d3 3e e9 49 bb 3e
       0.4381346 0.45727286 0.4128788 0.36579826

bn1.bias f4 [128]
000000 04 3f 1a 3c f2 05 89 bd 47 3c c1 3d 7a 54 7a 3a
       0.009414438 -0.06690587 0.09435325 0.0009549331
000010 78 68 e0 bd 56 cc de 3d 48 50 25 bc 68 d6 55 bd
       -0.10957426 0.10878818 -0.010089941 -0.052206427
000020 75 96 06 bd 6f f2 94 3d 61 73 03 3d cf 48 24 be
       -0.03285833 0.07272803 0.032092456 -0.160434
000030 a3 46 00 3d 6c b0 08 bc 4a fe f2 3c ab 49 96 3d
       0.031317364 -0.0083428435 0.02966227 0.0733827
000040 f1 3a 53 3c 1a cf bf 3d 4f 21 c9 bc d4 b0 c1 3d
       0.012892471 0.09365673 -0.024552016 0.094575554
000050 bb 0c 0d be 53 84 d2 bd d6 3e 81 bd 2f 8b 5c bd
       -0.13774388 -0.10279145 -0.06310813 -0.053843673
000060 25 43 87 3d 7b 58 75 bd 14 ac 75 3c c1 60 1e bc
       0.06604604 -0.059898835 0.01499464 -0.009666623
000070 0e 39 0e 3d 3f 65 1c 3e 10 81 69 3d ad 5d 63 3d
       0.03472238 0.15272997 0.05700785 0.055509258
000080 0e da e8 3d bc 72 ce bc f8 cb 89 3b fe 2c 9d 3d
       0.11369716 -0.025201194 0.004205223 0.07674597
000090 02 3f bf 3d b5 aa b8 3d b4 4e 3e 3d b8 ab 8d 3c
       0.0933819 0.09016935 0.046461776 0.017293796
0000a0 69 3b f9 3d 3b f6 4c 3d 33 8f 05 bc 2d ba 1d bc
       0.12169535 0.05003951 -0.008151817 -0.009626907
0000b0 e4 f7 dd bd 0d d9 ae bd ce b9 5b bc b0 f6 3b 3c
       -0.10838297 -0.08537493 -0.0134109985 0.011472389
0000c0 f9 6d 76 bd b9 e5 73 3d cc bc 81 bc 90 37 42 3d
       -0.06016347 0.059545252 -0.015837096 0.04741627
0000d0 4f 4a a3 3c 74 0e c5 3d 9c 0b bd bc 3b 78 9b bb
       0.019932894 0.09621897 -0.023076825 -0.004744557
0000e0 53 1c 17 3d 15 af d2 3d a4 8a 45 3b 1e 90 e7 3d
       0.036892246 0.102873005 0.003014245 0.11306785
0000f0 ae 36 ff bd 91 52 ef bd 53 85 24 bb b7 d4 18 bc
       -0.12461601 -0.1168567 -0.0025103881 -0.009328059
000100 46 ba e1 bc 28 8e 44 bd 2a a2 78 3d 83 88 22 bd
       -0.027554642 -0.047987133 0.060701527 -0.03968097
000110 18 b3 19 3e ea 19 23 bd c9 49 74 bd 60 98 ff 3d
       0.15009725 -0.039819635 -0.05964068 0.12480235
000120 5d 5d 33 3d 91 e4 37 3d 55 20 dd bd 11 27 74 3c
       0.04379021 0.044895712 -0.107971825 0.014901892
000130 ea da b4 bd a9 45 43 3d 15 1a 33 be b9 57 fc 3d
       -0.08830817 0.047673855 -0.17490418 0.12321419
000140 aa ba 1c bd c3 72 29 3d 37 fb 16 3d bc ce 0d 3e
       -0.038263954 0.04136921 0.03686067 0.13848394
000150 11 8a 07 3d c2 e8 8c 3d bd c9 8c bd bd f2 8a bc
       0.033090655 0.068803325 -0.06874416 -0.01696145
000160 d8 8b 86 bd 1e a5 db 3d 3c 51 0a be 9b 21 18 3e
       -0.06569642 0.10724853 -0.13507551 0.1485657
000170 92 df d2 3b 9b 06 01 3e d6 b0 99 3c fd 72 91 bc
       0.006435343 0.12600176 0.01876108 -0.017755026
000180 36 3a 8b bd 44 4c fc 3d 6c 51 cd 3d 5e da 97 3d
       -0.06798212 0.12319234 0.100252956 0.07414697
000190 f0 05 91 3d 2b a7 aa 3d 98 63 f0 bd 82 18 c8 3b
       0.070812106 0.08332666 -0.11737746 0.006106437
0001a0 5e e9 83 bd 8a 76 2d 3d 8a 73 4d 3d 39 6d 0d 3e
       -0.06440996 0.042349376 0.050159015 0.13811196
0001b0 b6 72 d6 3c e9 4e 28 3c 38 d9 eb 3d d2 ad c4 3d
       0.026177745 0.01027272 0.115160406 0.09603466
0001c0 00 d6 6c 3c 80 c0 5e 3d d9 b6 07 3e ce 90 44 3d
       0.014455318 0.0543828 0.13253345 0.04798966
0001d0 27 23 35 3d 8a 1b f5 bd 3d bb f0 3b 54 bd 0d 3c
       0.044222977 -0.11968143 0.0073465393 0.008651096
0001e0 e1 76 c6 3d d6 82 04 bc db c3 8a bd ca 20 53 bd
       0.09690643 -0.008087834 -0.06775638 -0.051544942
0001f0 da 7b 45 3d e1 b5 ad 3d b2 62 67 3c b5 78 6e bd
       0.048213817 0.08481956 0.014122652 -0.058220584

bn1.running_mean f4 [128]
000000 f8 cb e9 3f ec 35 3f 3d fc 7c 1a 3e 6e 59 45 3f
       1.8265371 0.046682283 0.1508674 0.77089584
000010 33 e8 a3 3f 8f 3c da 3e de 66 6d 3f a7 4b 09 40
       1.2805237 0.42624328 0.9273509 2.1452425
000020 15 90 7b 3f fe 14 8a 3e 9b 8f d3 3f 42 5c bf 3f
       0.98266727 0.2696914 1.65282 1.495003
000030 0f aa 70 3f 42 0d 20 3f ea 8d 2c 40 9c 73 e7 3e
       0.9400949 0.6252023 2.6961617 0.4520539
000040 28 f9 17 3f f2 78 97 3f 15 ff 29 3f 21 87 ca 3d
       0.5936456 1.1833785 0.6640485 0.09889055
000050 ed 25 8f 3f 06 43 0e 40 d3 f6 8a 3f 43 c7 75 3f
       1.1183449 2.2228408 1.0856575 0.96007174
000060 b8 8d 9e 3e 43 23 23 3e 44 5a 46 3f 4f 47 88 3e
       0.30967498 0.1593142 0.77481484 0.26616904
000070 ca ad c3 3e ca b7 a6 3f 92 4b 94 3e 90 a9 b2 3e
       0.38218528 1.3024838 0.28963906 0.3489499
000080 b4 f5 dd 3f 00 ba c6 3d af 1f 90 3f 36 50 41 3e
       1.7340608 0.097034454 1.1259669 0.18878254
000090 1e 02 b7 3e 63 1c 05 40 4f 47 cb 3e f5 67 a3 3e
       0.35743803 2.0798576 0.39702842 0.3191525
0000a0 9b 00 06 3f 57 ca b9 3f 13 2a 2c 3f 4e bf 01 3f
       0.52344674 1.4514874 0.672517 0.5068253
0000b0 f2 74 6e 3f c2 33 e6 3e 1e 87 40 3f e0 71 48 3e
       0.93147194 0.44961363 0.7520617 0.1957469
0000c0 b9 d5 8b 3f 42 dd 35 3f bb 74 36 3f f2 40 fd 3d
       1.0924598 0.7104074 0.71271867 0.12365903
0000d0 33 2c 87 3e 6a 84 97 3f eb 0e 2b 40 68 ab d6 3e
       0.2640091 1.1837285 2.6727855 0.41927648
0000e0 4a 0c 50 3f bd bb d5 3f f4 81 15 3f 46 c8 17 3f
       0.8126875 1.6697918 0.5840142 0.5928997
0000f0 58 87 ff 3f 3f 40 91 3f 03 bb df 3e de 14 cf 3f
       1.9963179 1.1347731 0.43697366 1.6178243
000100 84 3e bf 3f b6 6c 56 3f c2 bb 30 3f 05 17 cd 3f
       1.4940953 0.8375963 0.69036496 1.602265
000110 50 cf 87 3f 08 aa fe 3e cf bb dd 3f ab 1a c9 3d
       1.0610142 0.497391 1.732294 0.0981954
000120 c2 53 1a 3f 55 a1 13 3f 1e 9e 02 40 3e 96 37 3f
       0.60284054 0.5766805 2.0409007 0.71713626
000130 f6 59 39 40 47 00 80 3e 50 e0 7c 3f 83 2f 99 3e
       2.8961158 0.25000212 0.98779774 0.2991906
000140 bf 23 ff 3d de fe b5 3f bc aa 07 3f e5 9a 85 3f
       0.1245799 1.4218404 0.52994895 1.0437895
000150 1b 70 32 3e 4e aa 18 3f c7 99 9c 3d c6 f6 a8 3f
       0.17425577 0.59634864 0.07646518 1.3200309
000160 84 94 77 3f 72 c5 9e 3f c0 34 10 3e 58 50 28 3f
       0.9671099 1.2404006 0.14082623 0.65747595
000170 c7 6d 4a 3e c2 8d 98 3e dc 2f 2c 3f ad 3b 89 3f
       0.19768439 0.29795653 0.6726053 1.0721337
000180 71 02 ab 3f b0 f3 fd 3d 51 73 d3 3d 29 7b c7 3e
       1.336012 0.12399995 0.10324729 0.3896115
000190 0e bf 5b 3e c3 58 29 3f 92 1e 03 3f 75 b8 56 3f
       0.214596 0.66151065 0.5121852 0.8387521
0001a0 6f 6d 8f 3f ba 76 b6 3f c0 31 98 3c ab b5 ea 3e
       1.1205271 1.4254982 0.01857841 0.45841727
0001b0 ae 3d 83 3f 1a 0c 05 3f 79 60 87 3f a5 c7 29 3f
       1.0253198 0.5197159 1.0576316 0.6632026
0001c0 42 7b 62 3e 06 a1 62 3f d6 1e 75 3e ac 68 ee 3f
       0.22117332 0.8852695 0.23937544 1.8625693
0001d0 a9 5f 1f 40 46 b9 ec 3d 50 21 fb 3c 64 6c 79 3f
       2.4902136 0.115587756 0.030655533 0.97431016
0001e0 6b d3 e1 3e 68 a0 ac 3f f6 2f ff 3e 35 09 fd 3e
       0.44106612 1.3486452 0.4984128 0.49421087
0001f0 9b cc 62 3f 33 64 eb 3f 8e ed 2e 3f 48 b1 f1 3f
       0.88593453 1.8389953 0.6833123 1.8882227

bn1.running_var f4 [128]
000000 c1 3e 40 40 2b 3e d4 3c 0d f9 97 3d 54 5c 74 3f
       3.0038302 0.02590855 0.074205495 0.9545338
000010 e5 d8 97 40 7a 08 ca 3e 6d c8 b0 3f ad c7 94 40
       4.7452264 0.39459592 1.3811165 4.6493745
000020 42 b9 f7 3f 21 0d 04 3e 44 e6 2a 40 05 9f 3f 40
       1.9353411 0.12895633 2.6703043 2.9940808
000030 99 ac e3 3f 95 86 7b 3f f6 25 35 40 75 38 fd 3e
       1.7787048 0.9825223 2.830442 0.49457136
000040 b9 52 d5 3e 2f a1 15 3f 66 6f b9 3f 06 5e 6c 3d
       0.41664675 0.5844907 1.4487121 0.057706855
000050 e5 ed 81 3f 96 0d c6 3f 33 1e 34 40 92 21 5d 3f
       1.0150725 1.5472896 2.8143432 0.8637935
000060 64 2e 41 3e 58 cf 2d 3e 53 3b 7f 3f 07 35 25 3e
       0.18865353 0.16973627 0.99699897 0.1613351
000070 ee 55 c4 3e 51 85 f3 3f 54 d2 96 3e 57 d8 a3 3e
       0.3834681 1.902506 0.29457343 0.32000992
000080 a2 81 34 40 4e 84 b9 3d c9 e9 01 40 27 5b 80 3e
       2.8204122 0.09058438 2.029894 0.25069544
000090 68 00 a6 3e 8a 69 cd 3f f9 77 55 3f 91 76 90 3e
       0.32422185 1.6047833 0.8338619 0.2821546
0000a0 09 00 17 3f ce 4d ec 3f 43 2d 06 3f 45 5c 25 3f
       0.5898443 1.8461244 0.52412814 0.6459392
0000b0 65 2f 38 3f 0b 93 37 3f e0 97 c3 3f cd 7c dd 3d
       0.7194732 0.71708745 1.5280724 0.108148195
0000c0 6f d8 d6 3f d2 fd 15 3e 87 1d 0a 3f c5 15 9c 3d
       1.67848 0.14647606 0.53951305 0.0762134
0000d0 ef ce 41 3e 96 57 1f 40 34 12 78 3f cd c7 ad 3e
       0.18926595 2.4897208 0.96902776 0.33941498
0000e0 14 92 7d 3f f2 cf 20 40 e9 50 f0 3e 5e 8c 40 3f
       0.9905102 2.512692 0.4693673 0.75214183
0000f0 bc 4d 63 40 78 e2 80 3f 19 97 4c 3f b1 c4 f1 3f
       3.5516195 1.0069113 0.79918057 1.888815
000100 f0 dc 02 40 2b 5b 6f 3f 9a 21 b0 3f 39 c2 b7 3f
       2.044735 0.93498486 1.3760254 1.4356147
000110 93 47 f7 3f 8a 04 d6 3e 46 01 56 40 b3 84 69 3d
       1.9318718 0.41800338 3.3438277 0.057011317
000120 41 79 1d 3f 29 3e 49 3f b5 5f c6 40 67 86 d8 3f
       0.61513144 0.78610474 6.199183 1.6916016
000130 a0 6c 86 3f 55 a7 89 3e 47 da ca 3f 20 92 0a 3e
       1.05019 0.26885477 1.5847863 0.13532305
000140 af 91 c7 3d 33 b8 ff 3f fb 4b 79 3f b4 6b f4 3f
       0.09744584 1.9978088 0.9738156 1.9095368
000150 b3 a8 25 3e ff f4 bf 3f 04 ce 40 3d 63 c1 42 3f
       0.16177635 1.4996642 0.04707147 0.76076335
000160 a4 40 a9 3f e9 29 e6 3f fb b3 dd 3d 36 8a 6f 3f
       1.3222852 1.798154 0.10825344 0.9357027
000170 61 56 95 3d e1 5e 30 3f 2b a6 3e 3f 01 44 34 40
       0.07291866 0.68894774 0.744723 2.8166506
000180 a7 9f 99 3f 0a 78 d6 3d d1 5b 89 3d d0 ed e4 3e
       1.2001847 0.104721144 0.06706966 0.44712687
000190 ce 6f 81 3e 2f 22 68 3f d8 14 05 3f 63 54 28 3f
       0.25280613 0.9067716 0.5198493 0.65753764
0001a0 f7 2a ed 3f 9e 15 a7 3f b0 55 02 3c 56 7f d5 3e
       1.8528737 1.3053472 0.007955 0.41698712
0001b0 75 01 9d 3f 69 01 58 3f 6d 41 27 40 df 2a 4c 3f
       1.226607 0.8437715 2.6133683 0.79752916
0001c0 e6 11 c7 3e 7b 9a 39 3f ec 89 f0 3e 9c 4a 69 40
       0.38880843 0.72501343 0.46980226 3.6451788
0001d0 03 30 98 3f 9f 12 c9 3d 86 f9 f3 3c 02 4e 45 3f
       1.1889652 0.09818005 0.029782068 0.77072155
0001e0 8e 01 23 3f a5 3d 30 40 3d 6d 38 3f ab 24 07 3f
       0.6367425 2.7537625 0.72041684 0.52790326
0001f0 d7 28 b3 3f 22 97 43 3f a1 13 86 3f 32 da 16 40
       1.3996838 0.76402485 1.047474 2.3570676

fc2.weight f4 [64, 128]
000000 6e c2 32 bc 1e 20 cb 3d 8b 70 e3 3d 64 65 96 3d
       -0.010910613 0.09918235 0.1110545 0.073435575
000010 55 be 95 3c 23 49 3d bc cd b8 06 3c b3 74 f3 3d
       0.018279234 -0.011553082 0.008222771 0.11887493
000020 20 31 e8 3c 49 5d 0e bd 30 df db bd 89 db 23 3d
       0.028343737 -0.034756932 -0.10735929 0.040004287
000030 39 d5 b7 bc 7d 37 78 3c 1e eb da bd f5 28 7f 3d
       -0.02244054 0.015149948 -0.10689376 0.06229492
000040 0e 59 2f 3d dc f5 39 3d f5 d1 89 bc 7e b5 8d 3d
       0.04280954 0.045400485 -0.016823748 0.069193825
000050 c2 de 9f bc 69 7b 62 3d d7 f5 d6 3d e8 76 7f 3d
       -0.019515399 0.055293474 0.10496109 0.062369257
000060 1d 92 4b 3b 16 af 33 be 17 18 12 bd 6f 2d e2 bb
       0.0031062432 -0.17547259 -0.035667505 -0.0069023888
000070 4a ff 58 bd 30 a5 27 3d 97 dd 46 3d 65 3c a7 bd
       -0.052977838 0.04092902 0.04855117 -0.08165816
000080 80 b4 c8 3d b5 40 0d 3e f9 8e 55 bd d1 79 48 3d
       0.09800053 0.13794215 -0.052138302 0.0489443
000090 6e 49 f6 bc 7b b5 0e 3d 90 0f e3 3d 75 5c 17 bd
       -0.03006431 0.034841042 0.11086953 -0.03695341
0000a0 30 f4 b5 3d ec ff c8 3d eb 98 02 3d 15 6d 08 be
       0.08884466 0.09814438 0.031884115 -0.13322861
0000b0 ff 17 b4 bd 8e ba ce 3c f6 23 02 bd ca c8 51 bd
       -0.087936394 0.02523544 -0.031772576 -0.051216878
0000c0 bc d9 a1 bc 08 21 c4 bd 4f 00 f8 3d 5a 4c e7 bd
       -0.019757144 -0.09576613 0.12109434 -0.1129386
0000d0 2c e0 73 3d 17 53 14 3d 7e 80 f4 bd 33 8b fc bc
       0.05953996 0.036212053 -0.119385704 -0.030828094
0000e0 71 e2 bb 3c 11 ba ea 3c 81 37 c4 bd a3 01 59 bb
       0.022935124 0.028653177 -0.09580899 -0.0033112548
0000f0 87 35 a4 3d 14 f1 61 bd b8 25 2b 3d 50 18 d0 3d
       0.08018022 -0.05516155 0.04178402 0.10160887
000100 e0 d2 1e be 25 16 19 3d 38 9d 09 bd 2a a9 a1 3d
       -0.1551013 0.037374634 -0.0335972 0.078935936
000110 b8 ae 92 bc a3 1e 25 be aa 2d f3 bd 20 e6 a9 bd
       -0.017905578 -0.16124968 -0.11873944 -0.08295846
000120 6a 17 e4 bd ab 92 37 bd 27 4a 45 3b 98 21 f4 3d
       -0.111372784 -0.044817608 0.0030104013 0.1192047
000130 ee 2a cf 3c 8c 47 2a 3e 3d 50 16 3d 23 7c 35 bc
       0.025289025 0.16628855 0.036697615 -0.01107696
000140 57 a7 aa 3d 24 9c 7e 3c 00 4e 64 3d c5 1d 8e 3d
       0.08332699 0.0155401565 0.05573845 0.06939272
000150 63 36 28 be 8d 8b 67 bd 5a 3f 65 3c b4 85 01 3b
       -0.16426997 -0.05652957 0.013992155 0.001976353
000160 91 9d a4 3d 69 da 71 3d 3d d0 98 3d 23 17 a7 3c
       0.08037866 0.059046183 0.07461593 0.020396775
000170 61 e7 05 3e cb 82 0f 3e 04 d5 35 3d 50 c3 4a bd
       0.13076545 0.14014737 0.0443926 -0.04950267
000180 9c 2a aa bc 57 67 98 bd 3c f5 77 bd d7 35 76 3d
       -0.02077227 -0.074415855 -0.060536608 0.06010994
000190 96 5e 11 bd c5 6b c0 3c 58 c9 b5 3c 2a 6f 33 bd
       -0.035490595 0.023488889 0.022190735 -0.043807186
0001a0 e1 4e b0 bd 53 b5 d3 bb f5 c1 ef 3d 08 c2 52 3d
       -0.08608795 -0.0064608245 0.11706916 0.051454574
0001b0 4b f8 74 3d 0b 6e a1 bd f7 3e 47 bc 3c 85 03 be
       0.059807103 -0.07882317 -0.012161008 -0.12843794
0001c0 2f cb 24 3d 45 4d 91 3d b2 0a 93 bd ae 2f 74 bd
       0.040232833 0.07094816 -0.07179774 -0.059615783
0001d0 67 0b fe bd 3d f9 a3 3d 74 39 ce 3d f2 39 c2 3d
       -0.124045186 0.08006523 0.10069552 0.094837084
0001e0 1b b4 11 bc b1 fc eb bd d5 ee c0 3b 1c 1d 88 bd
       -0.008893038 -0.115228064 0.005887846 -0.06646177
0001f0 3f 75 e4 bd b2 35 0a be df ed b4 bd a4 cd cf bd
       -0.111551754 -0.13497046 -0.08834433 -0.10146645
000200 4e 0f a7 3d 72 96 4d bd 52 38 b1 bc 4f db 9d 3d
       0.08157216 -0.050192304 -0.0216333 0.077078454
000210 65 4d 01 3e 4d 2c 49 be c6 82 a3 3d 8f d7 96 3c
       0.1262718 -0.19645806 0.079839274 0.018413333
000220 bc 92 b1 bd 18 6c 0c bd 22 44 e7 3d 70 e7 73 bd
       -0.086705655 -0.034282774 0.11292292 -0.059546888
000230 62 b5 81 3d 14 7e c8 3d c0 77 8d 3d 9f 5b f8 bb
       0.06333424 0.097896725 0.06907606 -0.0075792815
000240 26 b9 94 3b 15 fd 6d bd 4e 8b 9a bd 4c 92 07 3d
       0.004538673 -0.058102686 -0.075461015 0.033098504
000250 33 47 80 bd cb d4 b4 3c 99 05 a7 bc d5 9c 49 3a
       -0.0626358 0.022074124 -0.020388411 0.00076909113
000260 7f 4f df 3c c0 b5 e1 3d 23 fc c7 3d 14 53 7b bd
       0.027259586 0.11020994 0.09764888 -0.061358526
000270 12 8d 33 3d b5 32 a2 bc 80 f2 27 3d 68 40 f8 3c
       0.043835707 -0.01979957 0.04100275 0.030304149
000280 a3 14 82 bd 3d c7 00 3e 51 90 95 bb ea 6d cb 3d
       -0.063515924 0.12576003 -0.004564323 0.09933074
000290 01 28 07 be 31 fc 9c 3d 16 ce 9a bd f0 25 1b bc
       -0.13198854 0.07665289 -0.07558839 -0.009469494
0002a0 f0 2e ff 3b 5e 48 8f 3d 77 95 0d 3e f2 f3 0e bd
       0.007787578 0.06996225 0.13826548 -0.034900613
0002b0 05 ce 8c 3d 73 03 50 3d 82 a5 38 bd 7c 61 27 bd
       0.068752326 0.05078454 -0.045079716 -0.040864453
0002c0 36 67 7e 3d fb 2a bf bc ac 13 bc 3d 9c ce 61 3d
       0.06211015 -0.023335924 0.091834396 0.05512868
0002d0 e0 a0 a6 bc c3 62 6c bd ec af 61 bd d5 b0 8b 3d
       -0.020340383 -0.057711374 -0.055099413 0.068208374
0002e0 1d aa 14 bd b0 0f b6 bd 9b be 5a bc 7d 9e 85 bd
       -0.036295045 -0.08889711 -0.013351108 -0.0652437
0002f0 19 b3 91 bd ed 4d 97 bd 74 af ca bb 22 17 6c 3d
       -0.07114238 -0.0738791 -0.0061854664 0.05763925
000300 93 ba 31 bd 61 5c 05 bc ed ef 90 3d 6a 32 8d 3c
       -0.04339082 -0.008139701 0.07077012 0.017235953
000310 07 1b b6 3d 98 1a c7 3c 43 a5 3e 3c cc fe 35 be
       0.08891874 0.024304673 0.011636081 -0.17772979
000320 fe 02 c1 3d 81 db 5d 3d a6 b1 1d 3d 9b e0 78 bd
       0.09424399 0.054164413 0.038499497 -0.060761075
000330 fb f8 94 bd 87 a1 9f 3d b5 6a d7 3d 02 90 81 bd
       -0.07274052 0.07794481 0.105183996 -0.063262954
000340 63 da fb 3d ad 00 9e 3d cb 34 f3 3d 0c 39 36 bd
       0.12297513 0.07714973 0.11875304 -0.044487998
000350 54 e7 e6 3d 8c 54 77 bd bc 7c e1 bd 6b d6 b2 3d
       0.11274591 -0.060383365 -0.11010119 0.08732303
000360 e9 8b ec 3d 6a 01 eb bc 31 f0 83 3d 36 65 11 3d
       0.11550123 -0.028687198 0.06442297 0.035496913
000370 45 de bd 3d 33 ef b3 bd be 1d 83 bc ac b6 f1 bd
       0.0927091 -0.08785858 -0.016005393 -0.1180242
000380 f5 ef 0b 3e d0 a8 f0 3b 2a d5 08 b9 68 65 d5 3d
       0.13665755 0.007344343 -0.0001304938 0.10419732
000390 f8 34 bc bd 62 92 88 3d 2b e4 53 3d 4f d7 16 bd
       -0.091897905 0.06668545 0.05173127 -0.036826428
0003a0 b5 9e ec 3b b0 7c 1d 3d b0 14 98 3d 6a 73 20 3e
       0.007221068 0.03844899 0.07425821 0.15669027
0003b0 58 d0 28 bd ba 18 93 bd fc 2a ec 3b 2a 87 f6 3d
       -0.041214317 -0.071824506 0.0072072726 0.12037499
0003c0 25 2e 7f 3d e1 21 bf 3d 82 4a 89 3d 7a 77 ae bc
       0.062299866 0.09332634 0.06703664 -0.021297205
0003d0 5a c5 08 3b b0 c9 db 3c c5 5d 73 bd f9 00 ee bd
       0.0020869584 0.02682957 -0.059415597 -0.11621279
0003e0 7e b3 18 bd 07 21 e7 bd 7c ad cd bc fa 14 2c bd
       -0.037280552 -0.11285596 -0.025107138 -0.042012192
0003f0 6e 0b 6a 3d fd 3d c7 3d ee ea bd bd 44 90 53 bd
       0.057139806 0.0972862 -0.09273325 -0.051651254

fc2.bias f4 [64]
000000 40 ad 73 bd 1c 50 b3 3d be 14 30 bd 50 42 97 bd
       -0.059491396 0.08755514 -0.04298853 -0.07385695
000010 12 65 27 3d bd 5c aa bc f9 18 32 3d 04 ce 11 3d
       0.040867873 -0.020796174 0.043480847 0.035596862
000020 f6 8d 0d be 31 c0 b1 3d b7 58 3e bc b7 55 03 3d
       -0.13823685 0.08679236 -0.011617831 0.032064166
000030 2d 6a a8 bd 01 96 a6 bd a1 19 2c 3c 60 8c b1 bd
       -0.082233764 -0.0813408 0.010504157 -0.086693525
000040 6c d5 73 bd 9a 63 11 be 88 3e 27 be 1e 47 92 bd
       -0.059529707 -0.14198151 -0.16332448 -0.07142471
000050 70 e0 9f bd e7 e7 8b bd ff 58 a3 bd ee 8d 91 bd
       -0.0780648 -0.06831341 -0.07975959 -0.07107149
000060 ca 91 e8 bc 63 4d 4b bc 80 00 80 3d fd 17 46 3d
       -0.02838983 -0.012408587 0.06250095 0.04836272
000070 e3 e3 6c bd a9 7c bc 3d b7 f3 22 bd 49 2f 12 be
       -0.057834517 0.092034645 -0.039783206 -0.1427585
000080 87 e5 1a be 92 cb a3 bd 56 d2 88 3b 05 73 84 bd
       -0.1512662 -0.07997812 0.0041754646 -0.06467251
000090 cb 95 b9 bd cb d4 b5 bd 24 94 a5 bd e2 ad bd bb
       -0.09061774 -0.08878478 -0.08084896 -0.0057885507
0000a0 61 10 42 bc 58 cf 88 bc 7d c4 74 bd 20 59 bc bd
       -0.011844725 -0.016700432 -0.0597577 -0.09196687
0000b0 93 a2 6d bc c1 32 41 bc 35 38 d1 3d 4e 3c 0a 3d
       -0.014504093 -0.011791886 0.10215799 0.033748917
0000c0 3a d0 82 bb 33 b9 df bd 6a 8a da bd 45 bb e3 bc
       -0.0039921077 -0.10923996 -0.10670932 -0.027799258
0000d0 48 34 ec bd c7 fb f0 bd 7f 17 08 be 4c cb 00 3d
       -0.11533409 -0.11766773 -0.13290213 0.03144388
0000e0 48 dd b5 bd 7b 6d f0 bd 13 7a 08 3c a9 bc 6b bc
       -0.08880097 -0.11739632 0.008329886 -0.014388242
0000f0 7b 55 98 bd 35 51 d2 bd 18 03 c3 bd dd 4f 13 bd
       -0.07438179 -0.10269395 -0.095220745 -0.035964835

bn2.weight f4 [64]
000000 87 d4 7c 3f 01 bf 28 3f 7b 75 21 3f 25 4b 41 3f
       0.9876179 0.6591645 0.63069886 0.75505286
000010 73 44 45 3f 4b 83 1b 3f e1 05 1c 3f e8 84 53 3f
       0.7705757 0.6074721 0.6094647 0.82624674
000020 20 e0 ff 3d eb e9 90 3e 66 28 ef 3e 47 eb 55 3f
       0.1249392 0.28303465 0.4671051 0.8356213
000030 cc 13 50 3f 83 05 bd 3e f1 6d 25 3e da e1 6a 3f
       0.8128021 0.36918268 0.1615522 0.9175087
000040 ab c1 6b 3e 06 b6 ea 3e 11 22 c7 3e 2e 53 60 3f
       0.23023097 0.45841998 0.38893178 0.8762692
000050 44 ef 6e 3e 82 bd b2 3d 6e 0d 3d 3e d1 f0 d9 3e
       0.2333346 0.08727552 0.18462154 0.4256654
000060 e1 22 94 3e 49 f1 5f 3f 1a 05 15 3f 40 c4 48 3f
       0.2893286 0.87477547 0.5821091 0.78424454
000070 3d a4 c3 3d d2 31 9d 3e a3 ba 23 3f 31 dc 9c 3e
       0.0955281 0.30702072 0.6395666 0.30636743
000080 a4 8e 2d 3e 5f 0e 33 3f ec 11 0b 3e 03 48 2a 3f
       0.16948944 0.69943804 0.13581055 0.6651613
000090 62 fb 53 3f 64 ae cd 3e e2 90 b9 3d a6 22 28 3e
       0.82805455 0.40172112 0.09060837 0.16419467
0000a0 6a 0a 8f 3e 64 fc 21 3f af 94 5b 3f af cd 6c 3f
       0.27937633 0.6327574 0.8577375 0.9250135
0000b0 57 cd 0b 3e d9 5b 57 3f d0 1b 2c 3f ed fc bf 3e
       0.1365255 0.84124523 0.6722994 0.37497655
0000c0 5c b5 0c 3f 65 7a 71 3f 5e 28 3c 3f ab ab 05 3f
       0.5496423 0.94327384 0.73499095 0.5221507
0000d0 dc f1 8b 3e f2 81 1a 3e 35 62 ae 3e 36 33 72 3e
       0.27332962 0.15088633 0.340593 0.23652348
0000e0 62 1c 4f 3f aa ac f0 3e 20 35 1c 3f a6 5a 1c 3e
       0.80902684 0.47006732 0.6101856 0.15268955
0000f0 89 71 0d 3f 93 51 61 3f ea ac 98 3e de 00 17 3f
       0.55251366 0.880151 0.29819423 0.589857

bn2.bias f4 [64]
000000 16 f4 69 36 92 9a 9a 36 f2 9d 46 b6 ad 95 b7 b6
       3.4861782e-06 4.607552e-06 -2.9596235e-06 -5.4712496e-06
000010 9c 62 e4 b6 4a 3e 99 35 19 b3 87 b6 0c 03 f9 36
       -6.806409e-06 1.1417517e-06 -4.0441632e-06 7.421133e-06
000020 1c bf 2a 37 5c ee 04 b7 ab a2 9b b6 4c b0 c2 b5
       1.0177286e-05 -7.9233105e-06 -4.638297e-06 -1.4505436e-06
000030 06 85 17 b6 b7 45 86 b7 4a 00 d0 37 74 3e 8a 33
       -2.2578183e-06 -1.6006508e-05 2.4795667e-05 6.437486e-08
000040 53 9e da b5 c6 2b 18 36 f8 24 8d 36 de 98 3f b6
       -1.6288344e-06 2.2675245e-06 4.206431e-06 -2.8550198e-06
000050 47 54 7b 37 4a db 10 37 02 73 5b 36 d1 c6 7f b7
       1.4980388e-05 8.634126e-06 3.2700486e-06 -1.5245475e-05
000060 17 6f 73 35 ba 83 f8 35 9d d4 55 35 10 1c 3c b6
       9.068621e-07 1.8515777e-06 7.9658076e-07 -2.8030518e-06
000070 30 62 31 34 96 98 4c 37 ef 4b bd b4 c7 90 c5 b7
       1.652013e-07 1.2194874e-05 -3.5259242e-07 -2.3551647e-05
000080 b4 bb 3c 37 25 c9 27 b6 d4 88 37 b7 91 a5 23 34
       1.1249376e-05 -2.500202e-06 -1.0939508e-05 1.524079e-07
000090 ab 7e 12 b7 f8 d0 04 b7 50 9a e4 b7 c3 ab c7 b6
       -8.73177e-06 -7.916467e-06 -2.7251575e-05 -5.950658e-06
0000a0 4a 61 7c 37 ba cb 97 36 03 12 8c 36 18 c8 61 36
       1.5043022e-05 4.5238676e-06 4.174422e-06 3.3644083e-06
0000b0 70 5f 01 38 eb 0b d6 b6 f0 4e 90 36 c9 2a 78 b5
       3.084488e-05 -6.3790844e-06 4.300724e-06 -9.244946e-07
0000c0 e8 b5 e1 b3 8f b7 68 36 1c fc 1a 35 a3 1c e9 36
       -1.05104675e-07 3.467754e-06 5.773634e-07 6.947275e-06
0000d0 02 8d 98 36 82 55 d0 b7 4d 93 ee 35 c8 e9 a4 b4
       4.5463685e-06 -2.483535e-05 1.7775252e-06 -3.071748e-07
0000e0 52 75 be 34 e7 ce 36 b7 d0 74 2e 36 a7 49 0d 37
       3.547562e-07 -1.0896219e-05 2.5996014e-06 8.421403e-06
0000f0 d1 29 99 36 07 cb 42 b6 70 41 9a b7 b5 7a 90 b6
       4.5646234e-06 -2.902643e-06 -1.8388702e-05 -4.3058194e-06

bn2.running_mean f4 [64]
000000 f8 9c 64 3e d0 ab 54 3e 75 a4 1a 3e 9c ca 5a 3e
       0.22325504 0.20768666 0.15101798 0.21366352
000010 6c fb ab 3e 0e c1 00 3e d4 23 89 3e 48 82 23 3e
       0.33590257 0.12573645 0.26785147 0.15967667
000020 b9 32 d2 3d 08 80 9e 3e e9 b1 60 3e 46 a3 72 3e
       0.10263581 0.30957055 0.21942867 0.23695096
000030 ec 3b 1e 3d 6a 1e 04 3d 1f 0d 6a 3e a5 43 d9 3d
       0.038631365 0.032255568 0.22856568 0.10608605
000040 73 69 4a 3e 3e 0a f1 3c 70 7b 27 3b a7 6b c4 3c
       0.19766788 0.02942383 0.0025555752 0.023977114
000050 e1 d1 01 3e db 3a a9 3d 49 c2 e0 3c 8d 8c 51 3d
       0.12677719 0.08263179 0.027436392 0.05115943
000060 c0 6c d7 3d 5b 9f 3f 3e a9 f9 7b 3e 95 3a 91 3e
       0.10518789 0.18713133 0.24606957 0.28365007
000070 6e 49 21 3e 7a 4d 8a 3e 2c 84 63 3e 49 37 5f 39
       0.15750667 0.27012235 0.22218388 0.00021287533
000080 4b e1 6c 3b 3a 88 b3 3d 26 00 80 3e c1 70 c9 3d
       0.0036145027 0.087662175 0.25000113 0.09835959
000090 7c 56 7f 3c 14 24 8d 3d 61 46 54 3d 28 f4 dd 3d
       0.015584584 0.06891647 0.05182493 0.10837585
0000a0 1f 49 80 3d 02 89 46 3e 88 92 0a 3e 30 47 63 3d
       0.06263947 0.19388202 0.1353246 0.05548781
0000b0 e2 2b 48 3e c6 8e ff 3d fb 09 11 3e be df 5b 3e
       0.1954799 0.12478404 0.14163963 0.2147207
0000c0 29 17 b2 3d df dc 07 3e 90 d9 7d 3e 3f aa 5e 3e
       0.08695824 0.1326785 0.24790025 0.21744631
0000d0 a4 d5 3c 3d dc 2c 4c 3d 58 a7 d2 3d c0 26 07 3e
       0.04610218 0.04984747 0.102858245 0.13198376
0000e0 81 02 c2 3d c1 87 0b 3d 2b 73 2b 3e d8 aa 05 3e
       0.09473134 0.034065012 0.16743152 0.13053453
0000f0 d1 1a ed 3d de 2d d8 3c ab 13 dd 3d 25 69 6d 3d
       0.115773804 0.026389059 0.10794767 0.0579616

bn2.running_var f4 [64]
000000 72 65 df 3d 6d a5 8b 3d 11 2d 9f 3d 87 29 05 3e
       0.10908021 0.06818662 0.077722676 0.13004123
000010 af 69 10 3e 9a 7e 55 3d 2f 52 da 3d 66 de 80 3d
       0.14102815 0.05212269 0.106602065 0.06292419
000020 60 4d 25 3d 96 70 f9 3d 52 46 f4 3d f8 32 ef 3d
       0.040356994 0.12179677 0.11927475 0.116796434
000030 07 74 24 3c 1c a7 1e 3c 8c c6 8e 3d 87 77 33 3d
       0.010037429 0.009683397 0.069714636 0.043815162
000040 86 f8 03 3e 55 ef 0c 3c 31 31 03 3a d4 ce ba 3b
       0.12887773 0.008601983 0.00050045835 0.0057009254
000050 05 4f 67 3d 92 7c 00 3d da 6e 12 3c 95 57 31 3c
       0.056471843 0.0313688 0.008937562 0.010824104
000060 2c a9 6f 3d 51 9b 71 3d 9a e9 02 3e d4 37 c2 3d
       0.058510944 0.058986012 0.12784424 0.094833046
000070 73 09 90 3d 80 13 ed 3d 37 11 af 3d b0 39 bb 37
       0.07033052 0.11575985 0.08548205 2.2319e-05
000080 46 07 c6 39 43 59 be 3c 8f 02 e4 3d 32 78 b5 3c
       0.00037770922 0.023235923 0.111333005 0.02215204
000090 e1 3d e7 3b f4 30 b0 3c f3 44 9a 3c 7a bd 2b 3d
       0.007056937 0.021507718 0.018831706 0.041928746
0000a0 16 a4 68 3c ea 6b ca 3d 92 ff 10 3d e2 d8 8c 3c
       0.014199277 0.09883864 0.03539998 0.017193262
0000b0 e8 6d b0 3d ca ea 5d 3d 39 24 17 3d ed 32 dc 3d
       0.08614713 0.05417899 0.03689978 0.10751901
0000c0 8d 74 e0 3c 0f 9b 1b 3d 0a 6f 0f 3e c6 a8 97 3d
       0.027399326 0.037989672 0.14007202 0.07405238
0000d0 3b 35 57 3c b8 8d 1b 3c 0c fa 1c 3d 8f f6 3d 3d
       0.01313525 0.009494238 0.0383244 0.046377715
0000e0 9a ba f5 3c a2 ec 23 3c a9 6f 9a 3d b9 1a 49 3d
       0.029996205 0.010005148 0.07540829 0.04909775
0000f0 88 2a 16 3d 49 13 a9 3b 48 1a 32 3d 3f 42 97 3c
       0.036661655 0.0051597697 0.043482095 0.018464206

fc3.weight f4 [2, 64]
000000 9d 16 93 3c 19 3a 77 3c e8 e0 53 bc d4 a9 81 bb
       0.017955119 0.015089535 -0.01293204 -0.0039570127
000010 d2 97 e3 bc 92 22 93 3c 20 cf e5 3b 4d 9b 07 bd
       -0.027782355 0.01796082 0.0070132166 -0.03310709
000020 7a c3 be 3c 79 0d 20 bd 15 c7 4d bc 09 3d 14 bb
       0.02328657 -0.03907535 -0.012559672 -0.0022619388
000030 63 e6 b2 3b 6f 8f 5e bd 47 b6 b0 3c b3 ba b9 3b
       0.005459593 -0.054336008 0.021571292 0.0056680082
000040 f1 c9 8c bc 70 b4 d6 bb f5 7b e9 3c e0 cb 72 3b
       -0.017186137 -0.0065522715 0.02850149 0.0037047789
000050 62 d9 38 3c a8 57 aa 3d b4 60 2d bc b0 6a 19 bd
       0.011282297 0.083175 -0.010582138 -0.03745526
000060 ec 88 43 3c 93 07 8a 3b 66 47 40 bc 55 09 93 bb
       0.0119345 0.0042123287 -0.011735773 -0.0044871964
000070 d8 92 62 bd d7 85 e2 3c f0 4a 96 3c be df bd bc
       -0.055315822 0.02765171 0.01834628 -0.023177978
000080 78 d7 3c 3d d9 af ce bc c8 87 0c bd 75 11 79 3c
       0.046103925 -0.025230335 -0.03430918 0.015201916
000090 ba b3 08 bd 15 23 67 3d ca 3c 9d 3d 85 e0 c3 bc
       -0.033374526 0.05642994 0.0767761 -0.02391077
0000a0 75 27 10 3d b9 83 62 3c 76 88 11 3c a6 b6 bb 3b
       0.03519388 0.01382535 0.0088826325 0.0057285605
0000b0 06 37 a6 3d 55 6b c2 bc 23 d7 89 3c 94 47 a9 bc
       0.08115964 -0.02373282 0.016826218 -0.020664014
0000c0 d1 d5 28 3c 62 15 1a 3c 5d 2e a1 bb 54 d0 cb 3b
       0.010304884 0.009404512 -0.004918857 0.006219903
0000d0 12 76 7a bd f1 bf 71 bd 5e 4a 39 3c ca 01 f8 3c
       -0.061147757 -0.05902094 0.011309234 0.03027429
0000e0 1a f9 90 3c 21 8d 80 bc db 1a f7 3b dd ab 1c bd
       0.017696906 -0.015692296 0.007541043 -0.03824984
0000f0 bd ab e6 3b e0 ab 9a bc 0e b1 fa bc 4c 13 3b bc
       0.007039516 -0.018880785 -0.030602004 -0.011418175
000100 f7 9d 8a 3c ba ae 3a bc 3e 76 04 3d 76 1b 07 bd
       0.016921027 -0.011394197 0.032339327 -0.032985173
000110 6a b6 84 bb 47 1a 8c 3c 6e 0d f0 3b 1e af 88 b8
       -0.0040500658 0.017102374 0.0073258197 -6.5176035e-05
000120 50 64 c5 bc 9d af d8 bb af 19 73 bc 43 51 4c bc
       -0.024095684 -0.0066127316 -0.014837666 -0.012470546
000130 5a 98 d8 39 c8 11 e8 bc 94 a5 33 3d 6f b6 c6 bc
       0.0004131224 -0.028328791 0.04385908 -0.024256913
000140 11 0e 93 bd bc ae 05 3c c1 73 11 3c eb 63 16 bc
       -0.07180417 0.008159336 0.008877696 -0.009179096
000150 87 48 1d 3d f7 aa 96 3b c9 d7 1e 3d b6 f4 cc 3a
       0.038399246 0.0045980173 0.038780008 0.0015636894
000160 56 96 12 bd 6d 93 28 bc 0e 3d 9e bc 38 4b f1 bc
       -0.035787903 -0.010289055 -0.019316223 -0.029454812
000170 d6 d4 69 3d b5 ef ae 3b ae f4 00 3d 69 21 a4 3b
       0.05708774 0.005338634 0.031483345 0.0050088656
000180 db 78 ff 3d 8b e1 12 3d 9e 6c a1 bc 4c 73 1c bc
       0.12474223 0.035859626 -0.019705113 -0.009548973
000190 48 5f c1 3b fa 53 b7 3c 0f 11 1d 3d 6a 7c 8f 3d
       0.005901251 0.02237891 0.038346346 0.07006152
0001a0 e7 31 31 bc be ed 78 bc d2 91 81 3a 67 40 1d 3b
       -0.01081512 -0.015193401 0.0009885377 0.0023994686
0001b0 90 64 b7 bb a2 7b 64 ba fd 91 25 3c f2 b3 c4 3c
       -0.005596705 -0.00087159325 0.010105607 0.024011586
0001c0 f1 a9 72 3c cc ec 5a bc 91 42 14 bc cf 63 b8 3b
       0.014811025 -0.013362121 -0.009049074 0.0056271325
0001d0 64 90 09 bc a2 04 66 3d 8d 51 17 bd e0 41 73 3b
       -0.008396242 0.056156762 -0.036943007 0.0037118122
0001e0 1f 8c 8e 3a d9 cc b5 ba 81 de 30 3c 4a d7 12 bc
       0.00108755 -0.0013870253 0.010795237 -0.008962462
0001f0 1b 12 db 3a 99 21 b1 b9 06 25 8e 3c 19 bd b8 3c
       0.001671377 -0.00033785103 0.017351639 0.022551106

fc3.bias f4 [2]
000000 88 a7 88 bd ed 94 8c ba
       -0.06672579 -0.0010725536

bn3.weight f4 [2]
000000 34 5e de 3f a0 e4 0b 40
       1.7372499 2.1858292

bn3.bias f4 [2]
000000 6e 14 79 be 4a 0d 0b be
       -0.243242 -0.13579288

bn3.running_mean f4 [2]
000000 af 98 88 bd ca 9b 8f ba
       -0.06669747 -0.0010956463

bn3.running_var f4 [2]
000000 c4 39 0c 3c 1d c5 6a 3b
       0.008558694 0.0035823055
