p3_collaboration_and_competition/weights/actor_1_600.pth (torch_old, 51773 bytes, 18 tensors)

fc1.weight f4 [128, 24]
000000 0d 04 a1 bd a1 5b 88 3d 51 c3 ec 3b 50 60 b8 3d
       -0.07862101 0.06658102 0.007225432 0.09002745
000010 7b 30 89 bd f5 50 e8 bc 29 1a 46 3c 56 d9 c8 3c
       -0.066987 -0.028358916 0.012091198 0.024517696
000020 6e 7a a7 bd f5 c8 f9 3b 44 d2 29 3d 91 4c 1e bd
       -0.081776485 0.007622833 0.04146029 -0.03864724
000030 ca d3 3e bd 45 e9 a7 bd 8d 6a 84 bd 3d e5 ac 3c
       -0.046588697 -0.081987895 -0.064656354 0.021105403
000040 d3 2c c4 bc a2 91 3a 3d 12 4d c7 3d 32 06 af bd
       -0.023947155 0.045549043 0.09731497 -0.085461035
000050 b1 12 f0 bd c7 e9 75 3d 40 8d ba 3b 60 f0 d9 bd
       -0.11722315 0.0600374 0.005693108 -0.10641551
000060 70 99 5b 3b 48 77 58 bd 0f 0d c4 bd 29 b3 bc bc
       0.0033508204 -0.05284813 -0.09572803 -0.023034649
000070 6d db 3c 3d 9b f6 01 be 4f 39 63 3d be 7d 95 ba
       0.0461077 -0.12691729 0.055474576 -0.0011405272
000080 8a 8d 2e 3c ef ee 35 bc 35 6a a4 3b 8f ca 20 3d
       0.010653863 -0.0111043295 0.0050175437 0.039255675
000090 b9 82 c9 3b 2f dc 26 be 61 67 e0 3b fe 1f 68 bc
       0.0061496166 -0.16294931 0.006848261 -0.014167784
0000a0 08 ac 1e bc ef b6 9d 3c a1 49 ea 3b ca 7a f8 bc
       -0.00968457 0.019252269 0.0071498905 -0.030331988
0000b0 97 94 ab ba 08 e0 fd bc e7 a9 e2 bc b4 b6 82 bd
       -0.0013090548 -0.030990615 -0.027668906 -0.06382504
0000c0 21 70 a1 3a c7 fb 09 3b 3b 45 1f bd 59 23 a2 3c
       0.0012316742 0.0021054612 -0.038884383 0.019792246
0000d0 df ac 18 3d 5b 59 43 bd 10 50 04 3d 36 42 92 bc
       0.037274238 -0.047692638 0.032302916 -0.017853837
0000e0 3a b7 cb bb b9 e7 37 3d 1a f6 7a 3b f4 a0 a6 3c
       -0.0062169107 0.044898722 0.003829366 0.02034042
0000f0 b1 20 a0 bd 25 21 2a 3d a1 62 74 3c a6 54 94 3d
       -0.078187354 0.041535515 0.014916093 0.07242708
000100 65 1a b6 bc 65 b8 6b 3c a6 1b 44 bd e3 27 78 3d
       -0.022229383 0.014387225 -0.04787793 0.060584914
000110 0c ac 0f be 3d be f1 bd ca 3b 52 3d 99 30 93 bd
       -0.14030474 -0.11803863 0.05132655 -0.07187004
000120 f9 a6 28 bd 75 c8 f5 bd 92 9f 96 bd 0e 9e 2e bd
       -0.041174863 -0.12001125 -0.07354654 -0.0426312
000130 17 6d e4 3c 59 c1 0b be b6 a2 2f 3c 91 5e ea 3c
       0.02788405 -0.13647975 0.010719946 0.028609546
000140 fb 84 74 3d 8f 37 9c bc 4f 7d 4d bb 2b 06 e3 3c
       0.059697133 -0.019069461 -0.0031355207 0.027712902
000150 87 7d a3 3b fc 69 af 3c 62 21 8f bd 49 b3 dc bd
       0.0049893293 0.021412842 -0.06988789 -0.107763834
000160 5d 74 a0 bd c5 fa b8 bb 93 5f 96 3d f7 18 fc 3c
       -0.078346945 -0.0056451284 0.07342448 0.030773623
000170 b3 71 6c 3d d7 f4 9a bb 1f d1 89 bd b3 b0 cc bd
       0.05772562 -0.004728894 -0.0672934 -0.0999464
000180 28 2a 75 3d 94 af 25 3d 43 20 5e 3d 2f 20 1b 3c
       0.059854656 0.040450647 0.054229986 0.009468122
000190 d6 7f 81 bc 4e 42 df 3c 3b 0f 4a 3d 2c 8f 03 3d
       -0.015808027 0.027253296 0.04933093 0.03211896
0001a0 1e bf 94 bd 9c 4a d2 bb 20 72 94 3d b8 b1 f1 3b
       -0.07263015 -0.0064175855 0.0724833 0.007375922
0001b0 cc d3 b9 3d 03 a6 3e 3d 97 04 76 3c ba c7 dd 3d
       0.090736 0.04654504 0.015015743 0.108291104
0001c0 12 fe 13 3d bb b5 8c bd 45 6d f2 3d 78 62 9b 3c
       0.036130972 -0.068706 0.11837248 0.018967852
0001d0 f8 b8 4b bb 96 a4 f9 bb 45 ae a2 3d e1 4f 47 bd
       -0.0031085592 -0.007618497 0.079433955 -0.048660163
0001e0 f0 2b 4c 3d ea 54 0a bd ab 6a 4c bb 2e 19 ee 3c
       0.04984659 -0.033772387 -0.0031191509 0.029064741
0001f0 37 cd 72 3d c2 55 46 bd a0 f8 f7 3c b7 78 80 bc
       0.05927774 -0.04842163 0.03026992 -0.015682561
000200 88 92 b7 3c 43 a1 67 bd 23 ca 86 bd 00 71 83 3c
       0.022408739 -0.056550276 -0.06581523 0.016045094
000210 5c 42 aa 3d a1 d5 9a 3d 4f c4 76 3d 23 4b aa 3c
       0.08313438 0.07560278 0.06024581 0.020787781
000220 53 de b4 3d 26 b7 29 3d 78 e4 25 bd 83 65 b4 bc
       0.088314675 0.04143443 -0.040501088 -0.02202106
000230 f9 64 2b 3d f8 5d 04 3e 32 3a 57 3d 74 99 92 3d
       0.041844342 0.12926471 0.052545734 0.07158175
000240 5b ad 30 bd 66 65 87 3d a8 2e 91 3c d3 1d 2d 3d
       -0.043134075 0.06611137 0.017722443 0.04226477
000250 71 6e 6c 3d 16 b9 60 3d f0 56 27 bd 95 29 71 3d
       0.057722513 0.05486401 -0.040854394 0.058877546
000260 42 11 d9 bc b9 56 39 bd 83 3c 76 bd 21 04 af 3d
       -0.026497487 -0.04524872 -0.060116302 0.085457094
000270 de 37 5d 3c 88 12 56 bd 0b df 0b bd 39 d9 d2 3d
       0.013502089 -0.052263767 -0.034148257 0.10295338
000280 32 16 99 3c 25 df d2 bc 08 01 3e 3d 6e 7d 27 3d
       0.018687341 -0.02574117 0.046387702 0.040891103
000290 48 ab 6f 3d 95 30 55 bd 93 e5 9e bd 80 4c c4 3d
       0.058512956 -0.052048285 -0.077586316 0.09584904
0002a0 5a 00 9f bc 69 16 1e 3d 4a fc 86 bd 35 72 1c bd
       -0.019409347 0.03859559 -0.06591089 -0.038194854
0002b0 76 d5 03 3d 79 7e 8d 3d 44 6d 4c bd 70 9a 04 3d
       0.032185994 0.06908888 -0.04990889 0.032373846
0002c0 07 a6 4b bd 8d 0a 96 bd 6b 56 60 3d 66 6f fa bd
       -0.049718883 -0.07326231 0.054769915 -0.12228279
0002d0 4f 1e 7f bd 7a 08 1e 3e 17 a0 67 3d 02 c3 56 3c
       -0.062284764 0.15432921 0.056549158 0.013108017
0002e0 4a 6e 31 3d fa 86 a8 3c d6 99 31 3d cf f1 8a bd
       0.04331807 0.020572174 0.0433596 -0.067844026
0002f0 46 c6 72 bc 2a 53 45 3d 10 4e 80 3d c2 e2 aa bc
       -0.01481778 0.048175015 0.06264889 -0.02086008
000300 5f be 92 3c 2d 7f 9c 3d 7a b2 4a 3b ea 21 e8 3d
       0.017913042 0.07641444 0.0030929134 0.113345936
000310 01 3b 86 bd ed 41 b0 3d dd 63 3a 3d 17 ad 91 bc
       -0.06554223 0.08606324 0.045505393 -0.017782731
000320 31 d8 a0 3d 39 e8 7a bd 36 5f a9 3d 0d 27 00 bd
       0.07853735 -0.06125662 0.08270113 -0.03128724
000330 7c 78 29 bd 86 7c ad 3d 49 03 39 bd d6 51 11 bd
       -0.04137467 0.084710166 -0.04516915 -0.035478435
000340 c3 8d 61 bd d1 e8 3d 3d 69 f2 83 bd ff fc 3e 3d
       -0.055066835 0.04636461 -0.064427204 0.046627995
000350 2c a3 b6 bd f0 fb 8e 3d 92 03 03 bd 3d c1 03 bd
       -0.08917841 0.06981647 -0.031985827 -0.03216671
000360 f2 d1 49 3d 60 02 93 3c 25 d5 79 3c df 3e 3b bd
       0.049272485 0.017945468 0.0152485715 -0.045714255
000370 28 ec f8 bd 1f 68 ec bb e5 bf 1d bc 9d 49 af 3b
       -0.12154418 -0.0072145606 -0.009628271 0.0053493516
000380 6f b7 80 3d 69 0a 7c bc b5 a7 60 bd 12 82 a0 3c
       0.06284987 -0.015383341 -0.054847438 0.019593272
000390 d9 7d 91 3c 8c 59 d2 3d 55 55 68 3d 96 b2 94 3b
       0.017760204 0.10270986 0.056722004 0.0045378907
0003a0 3e 65 6b bd f8 2c 87 3c 0e 14 88 3d 33 3a af 3c
       -0.0574696 0.016500935 0.0664445 0.021390056
0003b0 84 33 ba 3c c2 d7 99 3d 0e 0c 41 bd ea 43 64 3d
       0.022729643 0.07511856 -0.047130637 0.05572883
0003c0 a7 38 84 bd b6 79 ea 3d 2b 9d 2d bd 2a c1 c7 3b
       -0.06456118 0.11448996 -0.042386215 0.006096025
0003d0 7a 83 28 3d 48 cd 8a bd 24 05 52 3b 12 c1 60 3d
       0.04114101 -0.067774355 0.003204652 0.054871626
0003e0 48 93 97 bd 4d a9 9d bc 71 35 7b bc 2e 66 62 bb
       -0.074011385 -0.019245768 -0.015332566 -0.0034545767
0003f0 d1 f5 74 bd 07 c5 8e 3d 86 b4 18 bb 20 28 2d 3d
       -0.05980474 0.06971174 -0.002330096 0.042274594

fc1.bias f4 [128]
000000 3b 70 08 be 6d 83 0e 3e cb 7d 80 be af a8 50 bd
       -0.13324063 0.13917322 -0.25095972 -0.05094212
000010 70 e1 26 bd 69 23 65 3d d7 36 a7 3d dd bb 0b be
       -0.040742338 0.055941973 0.08164757 -0.13645883
000020 c6 73 bc 3b ce 06 07 be 0a 17 da bd 08 57 9b bb
       0.005751106 -0.1318619 -0.106489256 -0.0047405995
000030 67 48 ff 3d 8d ff 27 3e 36 ae 5d 3e 2b 19 d9 3d
       0.124649815 0.16406079 0.21648487 0.106005035
000040 ac e9 0b 3e 5d 5e a9 3c 22 f6 05 3d ea f1 d5 bd
       0.13663357 0.020674879 0.032705434 -0.10446532
000050 86 53 fd bd 4c 74 f1 bd 54 c6 ac 3c 42 8c ee 3d
       -0.123694465 -0.1178976 0.021090664 0.11647846
000060 1e 3e 23 be 86 49 18 be 1d bc 36 3e 8f e4 df 3d
       -0.15941665 -0.14871797 0.17845197 0.10932266
000070 8e bf 21 be 2f de 3b be 6c 45 77 bd 5f 8c ff bd
       -0.15795729 -0.18346475 -0.06036894 -0.124779455
000080 b0 27 e0 3d 06 d3 66 bd b3 90 0c 3d 35 d9 b4 3c
       0.1094507 -0.05635359 0.034317683 0.022076229
000090 13 7c 0e 3e b4 9e 6c bd af 85 19 3d 35 dc 56 bc
       0.13914518 -0.05776854 0.037481006 -0.013114025
0000a0 ea 5c 25 3d 89 fd 2b bd c7 1b 8f 3d e7 37 cb bd
       0.040371813 -0.041989837 0.0698772 -0.09922772
0000b0 ac 37 1d 3e 77 50 d4 bd 7e 6a 20 3e 64 0d 73 be
       0.15353268 -0.1036691 0.15665624 -0.23735577
0000c0 01 a8 17 be 7e 4d a8 bd e6 b4 56 bd fa 01 a8 3d
       -0.14810182 -0.082179055 -0.052418612 0.08203502
0000d0 10 d8 00 3d 57 41 ea bd 19 6a 41 3e af 8e a8 bd
       0.031456053 -0.11438244 0.1888813 -0.0823034
0000e0 f0 99 3d 3c 6d c7 eb 3a cf 21 48 3e 38 ac f5 3c
       0.011572346 0.0017988511 0.19544147 0.029989347
0000f0 49 cd 7b bd 76 53 6b 3d b0 81 6a 3e 5b ee 25 be
       -0.061475072 0.05745264 0.22901034 -0.16204207
000100 eb d3 47 be ed 8f 4c bd 85 48 10 be 58 8b 7c bd
       -0.19514434 -0.049941946 -0.14090164 -0.061656326
000110 46 8f 4b be 02 d1 df 3d 4d 15 4e bd 03 26 a2 3d
       -0.19878873 0.10928537 -0.050313283 0.079174064
000120 3b fa 3a 3e 22 a5 35 be 25 0c 05 3d b1 35 48 3e
       0.18259518 -0.17738774 0.032482285 0.19551732
000130 e2 fb 57 3e a9 dd de bd d4 3e b2 3d 6c ae c4 3d
       0.2109218 -0.10882122 0.0870339 0.09603581
000140 45 08 c5 3d 9a 5e cd bb e9 f6 9a bd ee f5 a2 bd
       0.09620718 -0.006267381 -0.075666256 -0.079570636
000150 61 cc 7c 3c be 1d ad 3b ba f9 03 be bd b9 47 be
       0.015429587 0.0052830866 -0.12888232 -0.19504447
000160 71 20 bf 3d 16 39 1f be cc 5b e9 bc 05 cb c5 bd
       0.093323596 -0.1554912 -0.028486155 -0.096578635
000170 48 f5 d2 bd 6f 08 60 be 3d 0a a9 bd 48 94 29 3d
       -0.1030069 -0.21878217 -0.08253906 0.041401178
000180 bb e2 18 3e 51 c3 96 3d b2 88 28 be cc b3 5f bd
       0.14930241 0.073614724 -0.16458395 -0.054614827
000190 f8 c4 47 be a9 31 34 bd b2 6e ff bd 32 20 c0 bd
       -0.19508731 -0.043992672 -0.12472285 -0.09381141
0001a0 61 c3 de bd 2c e4 4a 3e 1d 6e aa bd d3 66 d8 bd
       -0.10877109 0.19813603 -0.08321784 -0.10566487
0001b0 38 47 5a bd 17 da f2 3d 3f cb 3e bd 40 ad 39 bc
       -0.053290576 0.118580036 -0.04658055 -0.01133281
0001c0 13 c3 3b 3e 95 56 99 3d 11 96 5d 3e ce ec ec bd
       0.18336134 0.07487217 0.21639277 -0.115686044
0001d0 7a b2 00 3e e5 85 21 be d7 3e 18 be 00 0d 9a bb
       0.12568083 -0.15773733 -0.14867721 -0.0047012568
0001e0 65 6b 50 3d b7 84 49 bd 2a 16 61 3e 3c b0 ba 3c
       0.05088367 -0.049198832 0.21981111 0.022789113
0001f0 16 e0 b1 bd ad df bc bd 49 40 b8 bc 6b da d9 3d
       -0.08685319 -0.0922235 -0.022491591 0.10637363

bn1.weight f4 [128]
000000 ce 3b 43 3f 60 78 33 3e 61 91 1a 3f 25 0e 66 3f
       0.7626313 0.17526388 0.6037808 0.8986533
000010 26 64 cc 3e 0a 1c 39 3f 11 83 d4 3e 57 43 70 3f
       0.39920157 0.7230841 0.41506246 0.9385275
000020 56 3d f8 3e 39 48 64 3f 00 01 9f 3e 84 8d 99 3c
       0.48484296 0.89172703 0.3105545 0.018744238
000030 ad 2a a7 3e 8b 2a 48 3f 56 3f f3 3e 0c 4c e3 3e
       0.32649747 0.78189915 0.4750926 0.44393957
000040 b8 92 5f 3f 98 80 72 3e 3c 88 24 3e 64 17 23 3f
       0.8733325 0.23681867 0.16067594 0.63707566
000050 a1 91 6b 3f 07 b8 1d 3f d6 ab 9e 3e ef d1 2f 3f
       0.9201909 0.6160893 0.30990475 0.6867971
000060 cb a9 43 3f 7f 6d fa 3d f9 fe 63 3f bb 9b 0e 3f
       0.7643096 0.12227916 0.8906093 0.55706376
000070 3c 63 97 3e 92 cc 98 3d c1 58 19 3f 83 88 c1 3e
       0.29567897 0.07460894 0.5990105 0.37799463
000080 b9 2b 16 3f a2 91 05 3e 08 c6 23 3f 94 0a 6a 3e
       0.58660465 0.13043836 0.63974047 0.22855598
000090 a8 4a 62 3f a2 57 07 3f a1 d1 35 3f 6c fd 4e 3f
       0.88395166 0.5286809 0.71022993 0.8085544
0000a0 3f ee 70 3f 07 f5 12 3f da 54 6d 3f 2b 5e 0a 3e
       0.94113535 0.5740513 0.927076 0.13512485
0000b0 64 aa 54 3f 88 c5 4e 3f d4 4b 9a 3e 44 53 9f 3e
       0.83072495 0.8077016 0.30135977 0.31118214
0000c0 bd 09 63 3f b0 c6 64 3f 03 98 20 3e 29 df fc 3e
       0.88686734 0.89365673 0.15682988 0.49389008
0000d0 18 8b 25 3e 26 09 42 3f b0 75 9c 3d 10 56 9d 3e
       0.16166341 0.7579521 0.076396346 0.30729723
0000e0 17 48 70 3f c2 1e 61 3f dd 84 70 3f e3 0a 0f 3f
       0.9386 0.8793756 0.93952733 0.55875987
0000f0 a5 7d aa 3d f8 fe 4a 3f 80 d4 5c 3f 23 e5 59 3f
       0.08324746 0.792953 0.8626175 0.8511526
000100 5a 8e 45 3f 2e 4c 02 3f f4 f8 37 3f 01 c9 17 3f
       0.77170336 0.5089749 0.7186425 0.5929108
000110 b6 b6 9e 3e b4 81 54 3f a7 79 97 3e e7 61 56 3f
       0.30998772 0.8301041 0.29585 0.8374314
000120 5c 07 ec 3e e3 e9 e1 3e 00 6a 2c 3f ed 41 d7 3e
       0.46099365 0.44123754 0.67349243 0.42042485
000130 a0 c3 2e 3f 6f 5f 0c 3e 9f 0c cb 3c d0 53 21 3f
       0.6826725 0.1370828 0.024786292 0.6301851
000140 f2 f7 d2 3e fb 72 8d 3e d6 d5 d5 3d 75 c9 12 3f
       0.41204792 0.27626786 0.104411766 0.5733865
000150 e0 66 c0 3e ab 56 6a 3f 52 e2 40 3e 56 97 c0 3e
       0.37578487 0.91538495 0.18836334 0.3761546
000160 c6 74 e0 3e 82 32 0d 3f b3 3e c9 3d a8 e0 42 3f
       0.4383909 0.55155194 0.09826412 0.7612405
000170 77 dd 32 3e ee 04 92 3e 01 a4 18 3f 5d 8c d6 3e
       0.17467295 0.28519386 0.5962525 0.41903964
000180 f7 4a 07 3f b6 b1 f1 3d d8 26 68 3e 0f 15 58 3f
       0.5284876 0.11801474 0.22671068 0.8440713
000190 e0 1d 2d 3f 60 28 34 3f 93 20 3e 3f 4d f8 56 3f
       0.6762371 0.7037411 0.74268454 0.83972627
0001a0 7e 62 37 3f 53 20 be 3e d2 e4 93 3e f5 74 84 3e
       0.7163466 0.37134036 0.28885514 0.2587048
0001b0 76 35 28 3f 89 0b f5 3e 24 30 8a 3e d9 c5 4f 3f
       0.65706575 0.47860363 0.26989853 0.81161267
0001c0 be a4 05 3f d5 88 01 3f cc 97 c5 3e 61 83 31 3e
       0.522045 0.50599414 0.38592374 0.17335273
0001d0 ae 6f 6b 3f c5 ed de 3d 5c 56 8b 3d 81 5f 16 3f
       0.91967285 0.10885195 0.06803581 0.5873948
0001e0 2b f5 a9 3e ec 6a 52 3f 79 6a ea 3e 3a 17 9c 3e
       0.3319486 0.821944 0.45784357 0.3048647
0001f0 8d 2c eb 3e 64 82 e8 3e e4 a0 de 3e e5 9a c9 3e
       0.45932427 0.4541198 0.43482125 0.39375988

bn1.bias f4 [128]
000000 3b 9c 90 3c 94 0c 24 bd 62 36 9e 3d fa 69 15 bb
       0.017652621 -0.040051058 0.077252164 -0.0022798763
000010 52 72 d4 bd a6 41 b5 3d d1 fd 1a bc 65 92 43 bd
       -0.10373367 0.08850412 -0.009459929 -0.047747035
000020 b5 14 19 bd 4e bc 8d 3d 05 dd 37 3d a4 07 f9 bd
       -0.037373263 0.06920682 0.044888515 -0.121596605
000030 bb d4 d9 3c ab bd 19 3b ae d4 d4 3c 01 92 94 3d
       0.026590696 0.0023458998 0.02598032 0.072544105
000040 8c 6d 69 3b 13 15 8b 3d 32 2c 64 3a a7 2a b2 3d
       0.0035618274 0.06791129 0.00087040954 0.086995415
000050 12 f2 04 be 9b 8b 99 bd 59 c3 62 bd 20 72 86 bd
       -0.12982967 -0.07497331 -0.05536208 -0.06564736
000060 c7 34 3b 3d 13 c4 85 bd 44 5c 67 3c 57 9e 0d bd
       0.04570463 -0.06531539 0.014121119 -0.034574833
000070 0d be 22 3d 31 03 0a 3e f3 63 fd 3c 33 da 44 3d
       0.039732028 0.1347778 0.030931449 0.048059653
000080 87 ce b0 3d d3 af d2 bc 77 67 e7 3a 56 ae 61 3d
       0.08633142 -0.025718605 0.0017654736 0.0550979
000090 29 a1 bf 3d a4 f6 aa 3d 9c a1 57 3d 10 e3 8c 3c
       0.09356911 0.08347824 0.052644357 0.017198116
0000a0 79 74 aa 3d 03 d8 6f 3d 4b c6 a3 bc 44 3f b8 39
       0.08322997 0.058555614 -0.019992014 0.0003514235
0000b0 f2 65 5f bd a9 b9 96 bd 37 6d 91 bc 56 9b 29 bc
       -0.054540582 -0.073596306 -0.017752273 -0.010351976
0000c0 16 e2 0b bd ea 77 73 3d f8 9b cf 3a f6 83 95 3d
       -0.03415116 0.05944053 0.0015839329 0.0730056
0000d0 56 cb 38 3c f0 a0 d8 3d 99 ba c4 b9 f7 ce 0d bc
       0.011278948 0.105775714 -0.0003752306 -0.008655301
0000e0 42 5f 08 3d 22 11 95 3d bf 40 5f 3c d9 2c a7 3d
       0.03329397 0.072786584 0.0136262765 0.08162851
0000f0 ce 68 dc bd e3 6a a6 bd 3a 0b a6 3c 68 a6 e2 bb
       -0.107621774 -0.08125856 0.020269025 -0.00691681
000100 65 b5 d2 bc d5 77 83 bd 1a 8c 91 3d c4 ff 1d bd
       -0.025721261 -0.064193405 0.071068004 -0.038573995
000110 a1 f0 1d 3e b3 65 3b bd 4f 3e dc bc 0a bf e9 3d
       0.15423824 -0.045751285 -0.02688518 0.11413391
000120 bf 18 1a 3d ef 31 39 3d ee 1e ca bd 01 7e 59 3c
       0.037621256 0.045213636 -0.098691806 0.013274671
000130 66 b1 c3 bd 42 c6 59 3d 1c c2 1e be 7f 43 ca 3d
       -0.095553204 0.05316759 -0.15503734 0.09876155
000140 77 87 fa bc 42 b0 d7 3c bb 11 42 3d 03 54 fb 3d
       -0.030582173 0.026329163 0.04738019 0.12271883
000150 33 dc 30 3d 8a 1d 8d 3d d6 eb 8e bd 22 ee ae bc
       0.04317875 0.068904 -0.06978576 -0.021353785
000160 e6 62 8c bd 61 0b b4 3d 40 71 03 be aa 30 08 3e
       -0.06854801 0.08791233 -0.1283617 0.13299814
000170 0c 4b 23 3b c9 be b9 3d b9 25 a1 3c 02 57 27 bc
       0.0024916558 0.090695925 0.019671308 -0.010213615
000180 12 b7 77 bd e3 7e dc 3d 00 93 bd 3d d3 39 82 3d
       -0.060477324 0.10766389 0.09256554 0.06358685
000190 0a 57 5e 3d 38 9b 97 3d 1f 6c de bd 0d 39 46 3b
       0.054282226 0.074026525 -0.10860466 0.0030246407
0001a0 23 96 95 bd 1a f7 e4 3c 20 52 14 3d f1 a7 e5 3d
       -0.07304027 0.027949858 0.036211133 0.11213673
0001b0 19 6a 91 3c d9 4e 41 3c f2 33 bd 3d f5 4a a7 3d
       0.017750787 0.011798584 0.092384234 0.08168594
0001c0 11 2b 56 3c f6 84 03 3d eb 44 fd 3d 83 b9 a8 3c
       0.013071791 0.032109223 0.12366661 0.020596271
0001d0 54 b0 88 3c 81 f7 cd bd 0b 2a 37 3c c7 67 f3 3a
       0.016685642 -0.10056973 0.011179457 0.0018570357
0001e0 d9 ba a1 3d 89 3a ff bb c2 f8 35 bd 78 b9 ef bc
       0.078969665 -0.0077889604 -0.044426687 -0.029263243
0001f0 e7 23 87 3d 72 08 30 3d c0 03 f8 3c 67 c5 fd bc
       0.06598645 0.042976804 0.030275226 -0.030977918

bn1.running_mean f4 [128]
000000 22 b8 c5 3f 4c 15 a0 3d 0b 7f c1 3e bb dd 20 3f
       1.5446818 0.07816562 0.3779224 0.62838334
000010 ca ad b4 3f 8a 13 60 3e 67 7e 64 3f ab ae ce 3f
       1.4115536 0.21882454 0.89255375 1.6147054
000020 7c fa 89 3f 89 60 ae 3e 3f c5 d9 3f 42 cf 9e 3f
       1.0779567 0.34058025 1.701332 1.2407
000030 2f 09 12 3f 79 58 f8 3e b6 17 f1 3f 41 0a 10 3f
       0.57045263 0.48505 1.8835361 0.56265646
000040 62 4f 20 3f 40 de 7c 3f de 07 0b 3f d7 26 af 3d
       0.6262113 0.98776627 0.5430888 0.0855233
000050 19 8f 6b 3f 4e 5d 0d 40 40 31 68 3f 57 78 58 3f
       0.92015225 2.2088199 0.9070015 0.84558624
000060 02 bf 4a 3e 43 02 2e 3e 4c 3f 5d 3f ad 9f 92 3e
       0.19799426 0.1699305 0.8642471 0.28637448
000070 70 ed 20 3f df 7b 4f 3f 53 b7 5c 3e f6 8d 04 3f
       0.628623 0.8104839 0.21554308 0.51779115
000080 bc ef e1 3f 75 86 91 3e 5f 65 59 3f fd 43 90 3d
       1.7651286 0.28422895 0.84920305 0.07044218
000090 f2 b7 d9 3e 28 3d ef 3f 02 9c ae 3e 3d 13 91 3e
       0.42523152 1.8690538 0.341034 0.2833499
0000a0 66 f5 7e 3e 7f 60 d2 3f 2f 8e 35 3f c8 8f ce 3e
       0.248983 1.6435698 0.7092008 0.4034407
0000b0 dd 84 df 3e e0 36 05 3f e0 f7 43 3f 3c d9 84 3e
       0.43656054 0.5203686 0.765501 0.25946987
0000c0 31 51 4c 3f 2e 0f 2e 3f 92 46 87 3f b0 e6 ac 3d
       0.7981139 0.6799191 1.0568411 0.08442438
0000d0 b2 77 22 3f 9f f5 84 3f 8e 6f e3 3f 8a 94 ae 3e
       0.6346389 1.0387458 1.7768419 0.340977
0000e0 24 8d 17 3f eb d3 84 3f 57 bf 29 3f 25 d9 11 3f
       0.5919974 1.0377172 0.66307586 0.5697196
0000f0 61 9a c7 3f 1c 40 61 3f 1e 27 09 3f 90 fe eb 3f
       1.5593988 0.8798845 0.53575313 1.8437061
000100 1c 27 96 3f c2 78 d4 3e 6a 9f 59 3f 3a e4 8f 3f
       1.1730685 0.4149838 0.8500887 1.1241524
000110 eb 9c 50 3f 73 1d e4 3e 1b f3 d6 3f 06 c7 b7 3d
       0.8148944 0.44553718 1.679294 0.089735076
000120 ee 51 06 3f 6d 72 71 3f 0f e0 ba 3f f3 b5 2b 3f
       0.52468765 0.94315225 1.4599627 0.6707451
000130 37 4a 09 40 52 cf 9e 3e 2c 88 6f 3f 74 58 81 3e
       2.1451547 0.31017548 0.93567157 0.25262797
000140 f5 87 79 3e cd 71 c5 3f 16 93 d7 3e 46 ed bd 3f
       0.2436827 1.5425354 0.42104405 1.4838035
000150 91 f7 4d 3e 7d 39 e2 3e 53 06 99 3d 65 b0 b1 3f
       0.2011397 0.44184485 0.074719094 1.3881956
000160 2b af 63 3f c5 b6 5a 3f 3e d4 d1 3e 24 8d 45 3f
       0.8893916 0.85435134 0.4098224 0.7716849
000170 dd 80 3e 3e fd cd 91 3e ce 7a 6d 3f 70 6a 47 3f
       0.18603845 0.2847747 0.9276551 0.77896786
000180 b7 09 80 3f 3a cb 29 3e 29 11 13 3e 0a 22 03 3f
       1.0002965 0.16581431 0.14362015 0.51223814
000190 7c 21 63 3e d4 81 b2 3e f2 8c 47 3f da 7a 24 3f
       0.22180742 0.34864676 0.7794944 0.64249957
0001a0 6e 22 73 3f c8 97 83 3f dc e1 2d 3d a2 90 5c 3e
       0.9497441 1.0280695 0.042451724 0.21539548
0001b0 01 84 6a 3f 8e 86 b8 3e bc 67 3d 3f cd 1f ef 3e
       0.9160767 0.36040157 0.7398641 0.4670395
0001c0 24 ba 47 3e 67 89 26 3f b3 1d 9e 3e 02 08 ca 3f
       0.19504601 0.6505341 0.30882034 1.5783694
0001d0 cb 32 1b 40 15 b8 c2 3d 2c 0d 2c 3d 5e cd 36 3f
       2.4249752 0.09507767 0.04200475 0.71407115
0001e0 be 7e 87 3e 89 6f 9b 3f 56 6f 07 3f 9c 77 e4 3e
       0.26463884 1.2143413 0.5290426 0.44622505
0001f0 d3 2f 94 3f ea a9 9d 3f 8c db 9f 3e d1 5e e4 3f
       1.1577095 1.2317479 0.31222188 1.7841436

bn1.running_var f4 [128]
000000 b7 9f 3f 40 93 ec 7b 3d b3 53 9b 3e cf 58 33 3f
       2.9941232 0.06150491 0.30337295 0.70057386
000010 3a ae 94 40 73 67 44 3e 7f b9 9b 3f 53 e2 81 40
       4.646268 0.19180088 1.2165984 4.0588775
000020 80 ea 0e 40 24 bc 36 3e aa 3d 33 40 a7 4a 03 40
       2.2330627 0.17845207 2.8006387 2.0514314
000030 00 4d 8d 3f c3 a4 41 3f 51 f0 1e 40 36 04 50 3f
       1.1039124 0.7564203 2.4834177 0.81256425
000040 74 41 e6 3e 09 4d e4 3e 27 da 9e 3f 0d d6 8e 3d
       0.44971812 0.44590023 1.2410325 0.06974421
000050 33 d3 87 3f 06 1c f5 3f c8 d3 27 40 82 b8 61 3f
       1.0611328 1.9149177 2.622301 0.8817216
000060 25 84 13 3e 5d 9b 5b 3e c0 8f 9f 3f 33 09 43 3e
       0.14405878 0.21445985 1.2465744 0.19046478
000070 63 59 40 3f d7 7f c5 3f 8d 4b 92 3e 8b 85 18 3f
       0.75136393 1.5429639 0.28573266 0.5957877
000080 62 73 20 40 79 2b 9b 3e 3a d8 d1 3f 50 e6 9d 3d
       2.5070424 0.30306605 1.6394112 0.07709944
000090 3c c9 dd 3e b8 3d d5 3f 22 67 33 3f 37 c0 48 3e
       0.43317592 1.665946 0.70079243 0.19604574
0000a0 1f 72 49 3e 44 0a d7 3f 2e fc 12 3f e1 91 28 3f
       0.1967244 1.6800008 0.57416046 0.65847594
0000b0 78 79 b2 3e df 38 40 3f 98 13 92 3f 13 36 14 3e
       0.34858298 0.7508678 1.141223 0.14473753
0000c0 28 b9 ca 3f 81 00 3a 3e 4c 37 37 3f 45 50 40 3d
       1.5837755 0.18164255 0.7156875 0.04695155
0000d0 87 ee 4d 3f 71 d2 0e 40 6a 18 b5 3f fb 46 5f 3e
       0.8044209 2.2315943 1.4148076 0.2180442
0000e0 ec 12 1c 3f fd dd c9 3f 4f f5 de 3e 77 ef 41 3f
       0.6096637 1.577087 0.4354653 0.7575602
0000f0 47 a3 2b 40 79 5a 81 3f 80 87 79 3f 60 88 f8 3f
       2.6818407 1.0105735 0.9747238 1.9416618
000100 40 b7 18 40 0e 10 fe 3e 1c 27 e2 3f 97 2d 9c 3f
       2.3861847 0.49621624 1.7668185 1.2201413
000110 db 54 ba 3f f1 13 ba 3e ed dd 41 40 97 04 62 3d
       1.4557146 0.3634334 3.0291703 0.05518016
000120 fd 34 25 3f 6c 89 04 40 bd 72 8e 40 28 40 b2 3f
       0.6453398 2.0708876 4.451506 1.3925829
000130 fa b4 81 3f 3f 70 b7 3e eb 18 c8 3f 6b 7e 23 3e
       1.0133355 0.35827824 1.5632604 0.15966193
000140 04 e6 90 3e c4 46 11 40 77 4c 41 3f c8 49 2a 40
       0.28300488 2.2699442 0.755073 2.6607533
000150 e9 c8 32 3e 1e 63 79 3f 74 80 57 3d 0f 13 55 3f
       0.17459454 0.97416866 0.052612737 0.83232206
000160 94 9d 8a 3f fd 58 ad 3f 31 38 fb 3e 7b 5d 78 3f
       1.0829339 1.3542782 0.49066308 0.9701764
000170 db d7 3e 3d ae a8 e5 3e 1b 8d 90 3f 16 19 e9 3f
       0.046592575 0.44855255 1.1293062 1.8210781
000180 f1 32 c9 3f 42 07 37 3e b9 24 dd 3d 86 0f 32 3f
       1.5718671 0.17873862 0.1079802 0.69554937
000190 54 3e 80 3e 9f fc e2 3e 23 a2 80 3f d8 1d f8 3e
       0.25047553 0.4433336 1.004948 0.4846027
0001a0 70 0e b5 3f 8d 9c 4d 3f 69 5f aa 3c 39 a8 19 3e
       1.4145031 0.80317 0.020797448 0.15005578
0001b0 0a e9 85 3f 03 e4 fc 3e de c4 a7 3f cc 77 fc 3e
       1.0461743 0.4939271 1.3106954 0.49310148
0001c0 92 5a 89 3e 45 ad e6 3e 54 bb 27 3f 55 c3 32 40
       0.26826912 0.4505407 0.65520215 2.7931721
0001d0 81 f9 ce 3f 47 36 ba 3d cd ef 1a 3d 92 dc 4c 3f
       1.6169893 0.09092384 0.037826348 0.80024064
0001e0 c7 eb 8e 3e 5c a8 48 40 4d 40 3f 3f c4 ef 0a 3f
       0.2791426 3.1352758 0.7470749 0.54272103
0001f0 94 0b 0b 40 98 9f 32 3f 27 25 e0 3e 72 18 f8 3f
       2.1725817 0.6977477 0.43778345 1.938246

fc2.weight f4 [64, 128]
000000 6d 1c b5 3b 68 8f 08 3e 90 54 c8 3d 24 53 d1 3d
       0.0055270703 0.13335955 0.09781754 0.10220936
000010 03 70 50 bb e8 bc 7c bc 3e 28 b0 3c eb 67 d7 3d
       -0.0031805045 -0.015425898 0.021503564 0.10517868
000020 a9 15 39 3d 7f 50 98 b8 cc 3f f2 bd d8 24 84 3d
       0.045186672 -7.2629184e-05 -0.118285745 0.0645234
000030 12 72 94 bc 20 9f ee 3b 3f 3a be bd cc 40 28 3d
       -0.0181208 0.007282153 -0.09288453 0.04107742
000040 47 8d c5 3c f3 00 8a 3c ff 44 0d 3c 59 33 72 3d
       0.024115218 0.016846156 0.008622407 0.059131
000050 6c 8b 2b bd ee bf a8 3d ac 5e da 3d f6 c6 90 3d
       -0.04188101 0.08239733 0.106625885 0.07069199
000060 b9 a7 b2 3b ff 5a 26 be 32 6a 89 bb d2 c0 fb ba
       0.005452123 -0.1624565 -0.0041935677 -0.0019207245
000070 f9 6f f1 bc f8 b4 aa 3c 95 82 7d 3d a5 53 7d bd
       -0.029472338 0.020838246 0.06189211 -0.061847348
000080 df 0a b9 3d 6f a5 11 3e 2b c5 18 bd 99 20 9f 3d
       0.090352766 0.14223264 -0.03729741 0.077698894
000090 d6 73 f6 bc 9c fc d9 3c 5f 61 0c 3e de a7 4d bc
       -0.030084532 0.026609711 0.13709019 -0.01255223
0000a0 d4 0c 13 3e a1 f1 33 3d a9 5a 1e 3d 35 3d f1 bd
       0.14360362 0.043931607 0.03866068 -0.117792524
0000b0 2e c5 ae bd 99 c7 1e 3d 2a a1 4b bc 82 84 34 bd
       -0.08533703 0.03876457 -0.012428561 -0.04407168
0000c0 7d 5e 26 bc 4a 90 a9 bd 8a cc c5 3d 05 43 7f bd
       -0.010154364 -0.08279474 0.09658153 -0.062319774
0000d0 aa 24 e4 3c 4d 5f 64 3d 00 43 db bd d4 99 7e bd
       0.027849514 0.05575495 -0.107061386 -0.06215842
0000e0 e5 a0 e5 3c f6 e7 85 3d db 83 af bd f5 d0 11 3d
       0.028030822 0.06538384 -0.08570071 0.035599668
0000f0 e8 45 c5 3d 34 74 97 bc f0 3b 51 3d a6 ba ba 3d
       0.09632474 -0.018488027 0.05108255 0.091176316
000100 40 f2 e4 bd 3b c7 99 3d a3 95 3b bc 34 8c 70 3d
       -0.11179018 0.07508703 -0.01144925 0.058727458
000110 e3 02 0d bd 72 0b 06 be 9b c4 ca bd 21 f5 a2 bd
       -0.03442658 -0.13090304 -0.09900781 -0.07956911
000120 25 4b 03 be cf c6 75 bd cf f6 1b 3d 2a 93 cb 3d
       -0.12821634 -0.06000405 0.038077172 0.09940179
000130 51 ae 23 3d 00 83 1c 3d 72 8d 7a 3d 9c ea 09 bc
       0.039961163 0.03821087 0.06117005 -0.008417752
000140 be f2 d4 3d 88 a1 09 bc fe 0d 61 3d 2b 7f a3 3d
       0.10397862 -0.008400328 0.054944985 0.0798324
000150 04 e4 32 be cd 04 8d bd b0 8b be 3c 92 95 eb bc
       -0.17469794 -0.06885681 0.023259968 -0.028757844
000160 05 48 c4 3d 1a 98 3f 3d d1 de e2 3d 1e 8b c2 bc
       0.09584049 0.046775915 0.11077655 -0.023747977
000170 ef 35 ea 3d 87 9a e4 3d d4 15 60 3d 60 56 29 bd
       0.11436068 0.11162286 0.054708317 -0.04134214
000180 82 b2 c3 3c 0c 75 bf bd 7d 81 c9 bd de ca b4 3d
       0.02388883 -0.09348497 -0.09839151 0.08827756
000190 22 98 73 bd 37 5a 2b 3d b6 4e 38 3d 27 cd fe bc
       -0.059471257 0.041834082 0.04499694 -0.031103684
0001a0 17 2e 7b bd 69 5f 98 bc 91 da dd 3d 1f 72 b6 3d
       -0.06132325 -0.018600183 0.10832704 0.089084856
0001b0 7a bb 82 3d 6c 16 f6 bd 33 b1 2a bc bf a7 d8 bd
       0.063834146 -0.120159954 -0.010418224 -0.1057887
0001c0 1a b2 64 bd df 23 9f 3d 3a be c3 bd e7 2c b0 bd
       -0.055833913 0.07770514 -0.09557767 -0.086023144
0001d0 d1 0b cc bd bd ab de 3d 7e 0f f5 3d f5 08 25 3d
       -0.09963191 0.108726 0.119658455 0.040291745
0001e0 bf 13 92 bc ab 21 cd bd 84 d0 0b 3d 09 f7 8e bd
       -0.017831681 -0.10016187 0.034134403 -0.06980712
0001f0 b6 2d b1 bd 45 66 e4 bd d3 3c 58 bd b0 6d a8 bd
       -0.08651297 -0.11152319 -0.05279238 -0.08224046
000200 ad f9 b0 3d 3c 20 5e bd b7 31 ea ba 26 c9 a2 3d
       0.08641372 -0.05422996 -0.0017867599 0.07948522
000210 f0 3e d3 3d a6 9c 3f be 34 0a 80 3d b8 4e 92 3c
       0.10314739 -0.187121 0.06251946 0.017859802
000220 fe 16 b7 bd 8f 90 81 bd 2b 12 cd 3d 46 45 95 bd
       -0.08939932 -0.063264005 0.10013231 -0.072886035
000230 eb bc 78 3d 09 53 ca 3d a9 ca 6b 3d a1 df 89 3c
       0.06072704 0.09879119 0.05756632 0.016830267
000240 c0 76 19 3d 54 d0 60 bd 41 92 b7 bd 57 d4 80 3d
       0.037466764 -0.054886177 -0.089634426 0.062905006
000250 a1 6a 8d bd be 52 fd 3c ef a6 72 bc a7 51 94 3b
       -0.069051035 0.030923244 -0.014810308 0.0045263353
000260 20 20 c8 3c 54 ca b2 3d 7b 18 92 3d 80 aa af bd
       0.02442938 0.08729997 0.071335755 -0.08577442
000270 6e 44 1d 3d 5e 53 2f 3b 68 f8 6b 3d bb 4f 84 3c
       0.038395338 0.0026752572 0.057609946 0.0161513
000280 a7 c5 80 bd 23 ba a9 3d dd fa 54 bb e8 6b 9b 3d
       -0.06287699 0.08287456 -0.003249816 0.07588941
000290 0f 4a 1b be 3d 07 96 3d 94 63 81 bd 46 a4 08 3c
       -0.1516497 0.07325599 -0.06317821 0.008339947
0002a0 9e b3 68 3c 51 7e 90 3d 40 01 0c 3e 16 f6 d7 bc
       0.01420298 0.07055343 0.13672352 -0.02636246
0002b0 15 25 57 3d 73 bd 71 3d f5 2a 00 bd 6c 11 82 bd
       0.0525256 0.059018563 -0.031290967 -0.06350979
0002c0 aa 8f 83 3d 4e c0 16 bd 10 e2 44 3d 77 e1 84 3d
       0.06423886 -0.03680449 0.048067153 0.064883165
0002d0 b9 fc 39 bd 68 50 1e bd ac 42 95 bd 11 d4 b2 3c
       -0.04540703 -0.0386509 -0.07288107 0.021829637
0002e0 d8 98 1e bd c2 a0 c3 bd c8 16 0f bd 1d 47 97 bd
       -0.038719982 -0.095521465 -0.034933835 -0.07386611
0002f0 15 75 b7 bd c8 72 8b bd 55 1c ef 3b fb ff 58 3d
       -0.089578785 -0.06809002 0.0072970786 0.052978497
000300 31 20 41 bd 54 72 14 bd 39 85 9c 3d 2a 17 a8 3c
       -0.04714984 -0.036241844 0.07642598 0.020518858
000310 bb 36 e6 3d 7b a5 9e 3d a8 4b 6b 3c 86 de 41 be
       0.11240908 0.07746407 0.0143613 -0.18932542
000320 fa af a8 3d ce eb 59 3d 68 c8 4f 3d 89 ca 91 bd
       0.0823669 0.053203396 0.05072823 -0.07118709
000330 78 30 79 bd 8b 3c 91 3d bb 7a bb 3d a6 bd b1 bd
       -0.06083724 0.07091626 0.09154268 -0.08678751
000340 c4 55 b8 3d 81 b0 8d 3d f5 51 bf 3d fb 8c 69 bd
       0.090007335 0.06918431 0.09341804 -0.057019215
000350 32 1d 9b 3d 3a d6 cb bd 2d 25 fc bd 2a a7 e7 3d
       0.07573928 -0.0995297 -0.12311778 0.11311181
000360 69 c1 dc 3d 6c 20 fe bc 00 fa 4f 3d 96 7f e7 3b
       0.107790776 -0.03102132 0.050775528 0.00706477
000370 76 cb d4 3d 6d 27 b7 bd 5b c4 9b bc 80 4f 0c be
       0.103903696 -0.08943067 -0.019014528 -0.13702202
000380 bc 17 f2 3d fb fb 52 3c 59 2d eb ba ff 82 91 3d
       0.11820933 0.01287746 -0.0017942592 0.07105064
000390 70 6e 95 bd c0 8e 92 3d 03 87 3e 3d 4d bd d9 bc
       -0.07296455 0.07156134 0.046515476 -0.026579523
0003a0 19 dd d7 bb 88 19 5d 3d 98 c1 2b 3d fb b0 02 3e
       -0.006587636 0.053979427 0.041932672 0.12762825
0003b0 95 d2 4f bd ee da 9f bd 65 c8 40 3c a1 64 09 3e
       -0.050737936 -0.078054294 0.011766528 0.13417293
0003c0 b9 a9 81 3c 0c 76 dc 3d 52 50 75 3d 48 ed d7 bc
       0.015828 0.10764703 0.059891053 -0.026358262
0003d0 51 4e 38 3b e5 b5 30 bc 29 c0 94 bd 15 5d df bd
       0.0028122852 -0.010785555 -0.07263214 -0.10906426
0003e0 2a 40 d7 bc eb be bc bd 20 a8 9c bc ce d1 ee bc
       -0.026275713 -0.09216102 -0.019123137 -0.029152777
0003f0 77 c3 65 3d 14 fa eb 3d 2b 03 85 bd a9 65 59 bd
       0.056094613 0.11522308 -0.06494745 -0.053075466

fc2.bias f4 [64]
000000 54 d7 ac bd 35 09 cb 3d 68 f3 89 bc 70 53 1e bd
       -0.08439508 0.099138655 -0.016839698 -0.03865379
000010 0a b4 54 3d 89 c4 45 bb ab 13 d6 3c 58 48 22 3d
       0.05192951 -0.0030176959 0.026132425 0.039619774
000020 29 6c 12 be 02 1e 7d 3d a7 fb 5a ba 3d 32 f5 3c
       -0.14299072 0.061796196 -0.0008353539 0.029931182
000030 c0 34 19 bd 6e 91 98 bd 7f 84 59 bc f2 68 ce bd
       -0.037403822 -0.074496135 -0.013276218 -0.100786105
000040 f8 c4 44 bd 1b fb 07 be 81 95 0d be 96 56 ac bd
       -0.048039407 -0.13279383 -0.13826562 -0.084149525
000050 3f 3b a2 bd 1f 6b 1a bd 40 56 99 bb 57 d5 8f bd
       -0.079214565 -0.037699815 -0.0046794713 -0.07023113
000060 57 8a 9f bc 24 98 07 3c 7d e1 9e 3d 46 47 2e 3c
       -0.019475145 0.008276019 0.07757852 0.01063711
000070 3b 1a 46 bd 59 8c 9b 3d 0d 52 21 bd ca d8 03 be
       -0.04836486 0.075951286 -0.03938489 -0.12875667
000080 71 3f 15 be 0e bc a8 bd 6b 76 39 3b 64 11 3d bd
       -0.14574982 -0.082389936 0.0028299342 -0.046159163
000090 c1 05 af bd 1c c4 a4 bd 02 98 92 bd a5 e0 d5 bb
       -0.08546019 -0.080452174 -0.071578994 -0.006527024
0000a0 47 39 97 3b 14 31 2e bc 74 2e b1 bd d5 85 ed bd
       0.0046149823 -0.010631818 -0.08651438 -0.11597792
0000b0 b7 75 81 bd 54 be 14 b8 76 e9 fa 3d ac 3d 10 3d
       -0.063212804 -3.5463207e-05 0.122515604 0.035215065
0000c0 1c d6 24 bc 2f 25 bc bd b9 c4 d9 bd 50 b3 21 bd
       -0.010060813 -0.0918678 -0.10633225 -0.039477646
0000d0 a4 86 ce bd f3 bf e0 bd 11 42 f8 bd ea ad 85 3c
       -0.100842744 -0.109741114 -0.12121976 0.01631828
0000e0 1a 8a bb bd 1f 33 cc bd 62 e7 30 3d a4 a1 59 bc
       -0.091572 -0.09970688 0.043189414 -0.013283167
0000f0 e1 94 c5 bd 19 17 c6 bd 52 03 d1 bd 92 15 4a bd
       -0.09647537 -0.09672374 -0.102057114 -0.049336977

bn2.weight f4 [64]
000000 39 b1 7b 3f 7f ee 29 3f 0c 8f 20 3f 2e 3d 43 3f
       0.98317295 0.6637954 0.6271827 0.7626523
000010 33 79 44 3f e0 c3 1c 3f 67 cb 1e 3f c6 26 51 3f
       0.76747435 0.6123638 0.6202912 0.8169979
000020 63 db 04 3e e1 07 8c 3e f3 79 ef 3e 81 7a 5a 3f
       0.12974314 0.2734976 0.46772727 0.85343176
000030 07 c3 52 3f 5c d7 ab 3e b7 82 23 3e cb 8e 6b 3f
       0.8232884 0.33562744 0.15967833 0.9201476
000040 eb ba 75 3e 46 0a ef 3e 31 05 c3 3e 15 85 63 3f
       0.23997085 0.46687526 0.38089898 0.8887494
000050 b1 0b 79 3e 57 18 9e 3d f1 59 35 3e c7 6b cd 3e
       0.24320866 0.07719486 0.17710091 0.4012129
000060 c7 e1 8e 3e 96 5f 63 3f 11 78 14 3f a8 c0 49 3f
       0.2790663 0.8881773 0.57995707 0.78809595
000070 fc 2c b1 3d 10 f2 9d 3e 0a 2c 23 3f 3e 58 9b 3e
       0.08651158 0.30848742 0.63739073 0.3034076
000080 c3 93 02 3e 16 b1 2f 3f 03 56 12 3e e0 15 2b 3f
       0.12751679 0.68629587 0.14290623 0.66830254
000090 80 5b 4e 3f 07 72 c5 3e f0 f9 9c 3d 32 6b 10 3e
       0.8060837 0.38563558 0.07664859 0.14103392
0000a0 7f 5b 8c 3e 17 a2 22 3f ad 12 5f 3f 8e 3c 70 3f
       0.27413556 0.6352858 0.8713787 0.938424
0000b0 81 4e 0f 3e d7 7d 55 3f ce 0d 2c 3f 96 38 c4 3e
       0.1399479 0.8339514 0.67208564 0.38324422
0000c0 ed b4 0e 3f 89 9c 71 3f 03 c6 3f 3f 4b f1 09 3f
       0.5574482 0.9437948 0.74911517 0.5388381
0000d0 d7 14 8c 3e 17 12 fc 3d d5 96 ac 3e 1d d9 75 3e
       0.2735965 0.12308138 0.33708826 0.24008603
0000e0 c4 c2 4e 3f 94 bf f5 3e a2 5a 1b 3f b1 c6 19 3e
       0.8076594 0.47997725 0.6068517 0.15017201
0000f0 7d 61 0f 3f fd e5 5e 3f 19 32 97 3e e3 ea 15 3f
       0.5600813 0.87069684 0.2953041 0.58561534

bn2.bias f4 [64]
000000 67 54 78 b5 e7 22 9c 35 a2 49 2f b6 f1 e0 c6 b2
       -9.251002e-07 1.1633064e-06 -2.6119892e-06 -2.3152525e-08
000010 4f 0b a2 b5 ad 67 3e 36 c9 6f 2b 34 17 0e e4 b6
       -1.2073232e-06 2.8372554e-06 1.5966283e-07 -6.79657e-06
000020 48 3d cd 36 24 d0 2e b6 06 ca 5d b6 78 7a 42 b5
       6.11661e-06 -2.6049174e-06 -3.304916e-06 -7.244885e-07
000030 db af 08 b6 2e 2f 3a b7 82 32 93 36 f3 4e 95 34
       -2.036794e-06 -1.1097449e-05 4.3868213e-06 2.7810856e-07
000040 5f bb 53 b5 18 56 8e 36 d9 0f 15 37 38 a8 56 b6
       -7.8876286e-07 4.2419524e-06 8.884782e-06 -3.1986401e-06
000050 44 1a 81 37 9f 6b 0d 36 6f b7 04 b6 7c e9 cd b6
       1.539023e-05 2.107328e-06 -1.9776305e-06 -6.1366572e-06
000060 fa ee e7 36 2c 34 30 36 e2 0f 18 36 b2 60 37 b3
       6.912157e-06 2.6256412e-06 2.265901e-06 -4.269595e-08
000070 5b cc b0 b6 a9 e8 cd 35 f3 13 ab 36 35 7a 54 b7
       -5.268999e-06 1.5341403e-06 5.0985195e-06 -1.2664638e-05
000080 28 50 8e 37 e4 43 45 b6 38 cb 91 b6 bf b9 95 36
       1.6965045e-05 -2.9394805e-06 -4.3449945e-06 4.4621697e-06
000090 d1 22 3f b6 64 17 a7 b5 20 e0 d8 36 e7 05 60 b6
       -2.8481484e-06 -1.2449277e-06 6.463393e-06 -3.3382037e-06
0000a0 40 fd d5 36 69 f8 c0 36 03 a9 68 35 49 bf cf 35
       6.377377e-06 5.7509646e-06 8.667268e-07 1.5478373e-06
0000b0 97 11 94 36 ad 3b 00 b6 7c f5 c2 36 0b 3b 9a 35
       4.4127914e-06 -1.9108222e-06 5.8102287e-06 1.1491078e-06
0000c0 d0 22 80 36 22 1a 27 36 8d b6 1f 33 a8 53 d9 36
       3.81875e-06 2.490015e-06 3.71861e-08 6.476843e-06
0000d0 65 a1 89 b7 8f 71 62 b7 b9 59 7a 35 11 79 c9 35
       -1.6406828e-05 -1.349709e-05 9.326282e-07 1.5010902e-06
0000e0 9c 0a a6 b2 26 1a 02 b6 be be 27 b6 90 72 9a b6
       -1.9329768e-08 -1.938673e-06 -2.4995966e-06 -4.6028945e-06
0000f0 35 22 8d 35 6f 0a 4f b6 c3 fd 09 b7 3a 06 9c 34
       1.0515274e-06 -3.0851477e-06 -8.22492e-06 2.9061795e-07

bn2.running_mean f4 [64]
000000 eb 7f 3d 3e 8f 07 6d 3e dd 81 4a 3e a2 a4 6e 3e
       0.18505828 0.23147415 0.19776101 0.2330499
000010 ee e0 8a 3e f2 d8 cb 3d 2c 14 7b 3e cc e2 46 3e
       0.27124733 0.099534884 0.24519414 0.19422454
000020 de 8b bf 3d 79 7a 6f 3e f6 a5 78 3e d6 1f 43 3e
       0.093528494 0.23386563 0.24282059 0.19055113
000030 44 07 bc 3d cc 6e 2a 3d de e2 16 3e e6 98 eb 3d
       0.09181073 0.04160957 0.1473498 0.115037724
000040 a9 be eb 3d 6a 09 89 3c 63 17 4d 3c 9b b4 27 3d
       0.11510975 0.016728122 0.012517783 0.040943723
000050 a7 83 01 3e d0 d8 c8 3d fa 1c 05 3e 03 f6 83 3c
       0.12647878 0.09806979 0.12999335 0.016108518
000060 e2 6a b5 3d 95 74 59 3e b3 09 81 3e 91 df 44 3e
       0.08858277 0.21235879 0.25202712 0.19225909
000070 0f c9 05 3e a0 ae 48 3e 9a 90 46 3e fb 32 26 3a
       0.13064979 0.19597864 0.19391099 0.0006339994
000080 80 2b 7d 3a 41 7b a3 3d 80 3c 42 3e 48 9d 0f 3e
       0.0009657666 0.07982493 0.18968391 0.14024842
000090 44 a9 76 3b 16 23 07 3e 1a c1 95 3d bc a0 0b 3e
       0.0037637511 0.13196978 0.07312222 0.13635534
0000a0 00 ca 04 3e 55 0a 1d 3e 4a 90 f6 3d ca 82 81 3d
       0.12967682 0.15335973 0.1203924 0.06323774
0000b0 85 ef 75 3d 46 48 cf 3d 98 30 15 3e 4f 99 02 3e
       0.060042877 0.10121207 0.14569318 0.12753795
0000c0 12 c5 d0 3d 76 b9 09 3e d7 a9 19 3e fc ec 5f 3e
       0.10193838 0.13449654 0.15006195 0.21867746
0000d0 2b d0 dd 3d 9a ec 67 3d 12 19 e8 3d 8d 70 0f 3e
       0.108307205 0.056622125 0.11332907 0.14007778
0000e0 ad 1d 02 3e 02 d2 10 3d a8 35 36 3e e4 84 0d 3e
       0.12706633 0.03535653 0.17793906 0.13820225
0000f0 56 45 8c 3d 34 5d 9f 3c 1a 57 c0 3d 72 44 a2 3d
       0.06849162 0.019453622 0.09391613 0.07923211

bn2.running_var f4 [64]
000000 9e 04 08 3e ef be 81 3d 3d 14 cc 3d ae f1 f1 3d
       0.13283011 0.06335246 0.09964798 0.11813675
000010 5e 14 b1 3d 56 d3 e8 3c 05 7e da 3d 0b 90 9a 3d
       0.08646463 0.028421085 0.106685676 0.07547005
000020 45 61 10 3d 92 c0 87 3d ba a2 26 3e 49 76 ab 3d
       0.035249013 0.06628527 0.16273013 0.083721705
000030 17 fd fc 3c 4b 79 19 3c 8f cc 0e 3d 0d 54 30 3d
       0.030882401 0.009367297 0.03486305 0.043048907
000040 97 e6 45 3d e4 a3 53 3b b2 27 1a 3b 37 f4 3a 3c
       0.04831561 0.0032293731 0.0023522195 0.011410764
000050 66 f6 58 3d b0 4e f1 3c f2 5d 11 3d 29 49 09 3b
       0.05296936 0.029456466 0.035489984 0.0020948148
000060 f7 ac 01 3d 72 7b 83 3d 1f 90 fa 3d c8 09 5b 3d
       0.031659093 0.0642003 0.1223452 0.053476125
000070 7e b7 41 3d 49 1d 7b 3d b3 9d 8e 3d 6e a4 9a 38
       0.047294132 0.061307225 0.069636725 7.37392e-05
000080 42 ea d2 38 39 69 92 3c c7 61 82 3d 45 84 07 3d
       0.00010057214 0.01787244 0.06366306 0.033085126
000090 27 80 34 3a 12 0e 27 3d 47 e6 9f 3c 74 2f 57 3d
       0.0006885551 0.040784903 0.019518984 0.05253549
0000a0 69 c6 4c 3d 3c 8b 78 3d cd a6 31 3d 28 96 ba 3c
       0.049993906 0.06067966 0.043371964 0.022776678
0000b0 ea d3 38 3c 79 41 ea 3c d5 99 d8 3c a0 7d 3a 3d
       0.011280993 0.028595673 0.02644054 0.04552996
0000c0 d8 0e 02 3d d6 4c 17 3d e6 f6 6a 3d 16 02 90 3d
       0.031752437 0.03693851 0.057364367 0.07031648
0000d0 5f fb 04 3d e9 6e 35 3c 8c 03 3f 3d 3c b0 53 3d
       0.03246629 0.011073806 0.046634242 0.051681742
0000e0 c8 3f 2e 3d 4d 4e e7 3b bb b3 59 3d d7 e3 3b 3d
       0.042541295 0.0070588947 0.05314992 0.045871582
0000f0 4a 0d b5 3c 9b e7 41 3b 67 68 0f 3d f4 6c dc 3c
       0.022101063 0.002958751 0.035011675 0.026907422

fc3.weight f4 [2, 64]
000000 08 99 13 3c 5e 87 83 3c 25 a1 10 bc 59 91 1e bc
       0.009008653 0.016055759 -0.008827482 -0.009678208
000010 c1 59 b1 bc ea d9 45 3c 7b 71 40 3c 06 35 b9 bc
       -0.021649243 0.012075881 0.011745806 -0.022608291
000020 ca 4f c3 3c 90 60 f8 bc 3e 12 c2 bb 14 50 35 ba
       0.023841757 -0.030319482 -0.005922585 -0.00069165346
000030 5f 34 eb 3a 27 30 e8 bc 13 0d 03 3d 51 93 a1 ba
       0.0017944685 -0.028343273 0.03199489 -0.0012327229
000040 e7 93 c6 bc 19 2f f3 bb 76 2f a2 3c 28 82 26 3b
       -0.024240447 -0.007421386 0.019798022 0.002540717
000050 a0 12 dc 3c 55 d3 98 3d a9 ce ce 3b 70 0a 27 bc
       0.02686435 0.074621834 0.006311257 -0.01019536
000060 47 4f d2 bb 74 b2 af 3b 60 ab f6 34 fb 43 9c bb
       -0.006418142 0.0053618494 4.5945762e-07 -0.004768846
000070 f1 46 39 bd 42 de c8 3c a1 91 36 3c 23 25 ac bc
       -0.04523367 0.024520043 0.011143119 -0.021013802
000080 8b 29 7f 3d dc 89 74 bc f4 db 2f bd 53 da 5f 3c
       0.062295478 -0.014925446 -0.042934373 0.013662892
000090 68 93 1d bc a3 cb 27 3d a7 a0 82 3d ea 93 aa bc
       -0.009617664 0.040965687 0.06378298 -0.020822484
0000a0 0e 5b eb 3c 4a de 3e 3c 6c c7 5c 3c 80 a8 18 39
       0.028729942 0.0116496775 0.01347528 0.00014558621
0000b0 91 a3 a9 3d 52 ea 46 bc 16 be 4a 3c 17 d5 dd bc
       0.08283151 -0.012140827 0.012374422 -0.027079148
0000c0 7d fe 80 3c 03 13 92 3b 75 96 ea bb 0d 73 8f 3c
       0.01574635 0.004457833 -0.007159049 0.017510915
0000d0 52 93 77 bd 9f fc f5 bc 5e d6 bc 3b 92 17 ff 3c
       -0.06044323 -0.030027686 0.0057628592 0.031139169
0000e0 ef 12 4c 3c e0 03 ba bc a4 e1 23 3b 9e 1c 06 bd
       0.012455686 -0.022706926 0.0025006318 -0.032742135
0000f0 c7 bd e9 3b 61 fa ad bb 0d 06 dd bc ba ee 00 bc
       0.007133219 -0.0053093885 -0.026980424 -0.007869417
000100 d8 29 df 3b b2 c8 34 bb 8e 47 f5 3c fc 3a 13 bd
       0.006810408 -0.0027585444 0.029941346 -0.035944924
000110 23 93 fb bb 35 b0 f3 3c a0 ea 01 3c 60 cf cf 3b
       -0.007677452 0.029747108 0.007929474 0.0063418597
000120 3f 3c c5 bc 00 a8 2a bc 9c 1e 5c bc d0 c5 b1 bc
       -0.02407658 -0.010416031 -0.013435032 -0.02170077
000130 8e 32 11 3c 5b 23 c5 bb 16 16 c3 3c 52 89 64 bc
       0.008862151 -0.0060161776 0.023814242 -0.013948755
000140 41 27 83 bd 32 aa 88 3c e1 93 cf 39 56 c5 13 bc
       -0.064039715 0.016682718 0.00039592295 -0.0090192165
000150 e5 8e ff 3c 49 ca 33 3d 99 f9 db 3c 97 f9 3c bc
       0.031196067 0.043894086 0.026852416 -0.011534116
000160 d5 b4 df bc 46 97 01 bc 84 94 54 bc b3 08 c6 bc
       -0.027307907 -0.007909602 -0.012974862 -0.02417407
000170 96 de 46 3d 95 38 d4 3c 2a 20 43 3c e7 f5 da ba
       0.04855212 0.025905887 0.011909524 -0.0016705365
000180 e0 3c 37 3d a9 29 27 3c 29 43 b1 bb 13 11 67 bc
       0.04473579 0.010202804 -0.0054096174 -0.014103192
000190 2d 0b 87 bb 98 d1 9b 3b 3a ac 7e 3c cf 2b 07 3d
       -0.0041212053 0.00475521 0.015543992 0.033000764
0001a0 72 7d c7 3b a5 60 2a 38 7b b0 36 3c 38 cb e8 3b
       0.0060879523 4.0621166e-05 0.011150475 0.0071043037
0001b0 4a b7 b1 bc 9c 3c 94 3b 46 d0 0c 3c 9b 1d 93 3a
       -0.021693844 0.0045238268 0.008594578 0.0011224033
0001c0 ec 67 fb 3b d4 bf da 3a 6e dd 93 bc 8d a7 0e bc
       0.0076723006 0.0016689249 -0.018049922 -0.008706939
0001d0 bd 05 4c 3c 68 6a 78 3d 15 25 e4 bc 4c 2e 18 ba
       0.01245254 0.060648352 -0.027849713 -0.00058052386
0001e0 6b c8 8b bb c2 f5 66 3b f7 01 4c 3c 8a 57 b9 3c
       -0.004265835 0.0035241698 0.01245164 0.02262475
0001f0 d1 45 96 3b 33 a1 5a 3b f6 33 ae 3a c7 ef 87 3c
       0.0045859595 0.0033360242 0.0013290632 0.016593827

fc3.bias f4 [2]
000000 d6 f6 8a bd 88 3f c3 b9
       -0.067853615 -0.00037240633

bn3.weight f4 [2]
000000 fd fc c8 3f d5 75 ce 3f
       1.5702206 1.612971

bn3.bias f4 [2]
000000 8a 30 c3 be 6b c3 84 3d
       -0.3812297 0.064825855

bn3.running_mean f4 [2]
000000 f4 e6 8a bd 22 a2 d2 b9
       -0.06782332 -0.0004017512

bn3.running_var f4 [2]
000000 42 b7 05 3b 9f dd 89 3a
       0.002040342 0.0010518319
