p3_collaboration_and_competition/weights/actor_1_500.pth (torch_old, 51773 bytes, 18 tensors)

fc1.weight f4 [128, 24]
000000 18 fa b7 bd be 3d 8a 3d 39 66 77 3b 3b 78 a9 3d
       -0.089832485 0.06750058 0.0037750138 0.08274885
000010 cf ba 84 bd 7e d4 01 bd 07 92 0d 3c 99 39 8d 3c
       -0.064809434 -0.03169679 0.008640773 0.017239379
000020 9b 2a c1 bd 46 ea d3 3b f6 de 2b 3d 33 6f 43 bd
       -0.094319545 0.0064671366 0.04196068 -0.04771347
000030 82 f7 45 bd 6a 1f ac bd 69 64 83 bd 78 3f 45 3c
       -0.048331745 -0.08404429 -0.06415636 0.012039058
000040 36 30 26 bd f5 90 42 3d 70 93 b0 3d 4b d9 a9 bd
       -0.04057332 0.047501523 0.086218715 -0.082933985
000050 cb 25 fd bd 12 a9 71 3d 1c 0e b1 bb 79 c3 d4 bd
       -0.12360724 0.05899913 -0.0054032933 -0.10388846
000060 18 62 a5 3c e1 a1 8b bd 29 03 c6 bd e9 05 c4 bb
       0.020188376 -0.06817985 -0.096685715 -0.00598215
000070 a4 3b 24 3d 1f 35 c6 bd 0a 4d 5f 3d ec 59 82 3c
       0.04009594 -0.09678101 0.05451683 0.015912019
000080 64 c1 cc 3c c6 ae ae bc 78 ea 26 bb 67 31 01 3d
       0.02499456 -0.021323573 -0.0025469344 0.031541254
000090 4b 3b 38 3b fe 80 24 be 94 c0 3b ba 59 42 b3 bc
       0.0028111513 -0.16064832 -0.000716218 -0.021882223
0000a0 6e b9 e4 39 b4 7b 35 3c 00 f4 0c bb e4 03 a1 bc
       0.00043625705 0.011076856 -0.002150774 -0.019655176
0000b0 d2 af d8 ba 79 a5 2c bd 75 6d 17 bd 0f b2 59 bd
       -0.0016531891 -0.042149995 -0.03696962 -0.053148326
0000c0 d2 87 b5 ba 23 a5 5f bc b9 6b 26 bd 28 89 b6 3c
       -0.0013849682 -0.0136502115 -0.040630076 0.022282198
0000d0 ce c8 b0 3c d4 48 47 bd 37 53 fa 3c c5 b8 7b bc
       0.021580126 -0.04865344 0.030557258 -0.015363877
0000e0 d1 b7 a6 bb 2a 3f 11 3d a5 55 e1 3b a1 0a 02 3d
       -0.0050878306 0.03546063 0.0068766647 0.031748418
0000f0 69 6a 9f bd 1f ef 2c 3d f5 27 93 3c a3 b1 ab 3d
       -0.07783968 0.04222023 0.017963389 0.08383491
000100 fd 6c b3 bc 81 c2 e3 3b 8d 44 44 bd be 99 8a 3d
       -0.021902556 0.006950677 -0.047916938 0.06767605
000110 7b 06 05 be a9 3b e7 bd e3 12 52 3d c3 aa 84 bd
       -0.12990753 -0.11290676 0.051287543 -0.06477883
000120 07 3d 35 bd ba c4 ba bd a0 c4 a0 bd 2f aa 84 bc
       -0.044247653 -0.09119554 -0.07850003 -0.016194431
000130 c9 1f 05 3d 17 a4 02 be a1 f1 bc 3b 6a 78 61 3d
       0.032501016 -0.12757908 0.005766109 0.055046476
000140 c9 e9 72 3d 01 12 8f 3c 3c 51 6d bb 25 71 2c 3d
       0.059304986 0.01746464 -0.003621175 0.04210009
000150 8e 79 c1 3b 1c 25 eb 3c 03 20 90 bd 27 3c bf bd
       0.005904383 0.028704219 -0.07037356 -0.09337645
000160 25 dd a0 bd 0b bb fa 3c c5 1f 9a 3d f1 e1 ec 3c
       -0.0785468 0.030606767 0.07525591 0.028916331
000170 8e d4 4c 3d 9f 06 5d 3a ed 10 86 bd 73 7e d0 bd
       0.050007395 0.00084314676 -0.06546197 -0.10180368
000180 0e 6c 4c 3d 58 3e 88 3d fb 40 4c 3d 52 a3 e5 bc
       0.049907736 0.06652516 0.049866658 -0.028031979
000190 a5 54 bf bb ab 87 9e 3c f3 2f 38 3d 1e 54 b0 bb
       -0.005838948 0.0193518 0.044967603 -0.0053811213
0001a0 f6 0a a7 bd 7b 19 82 3c 6a da 94 3d 19 38 a1 bc
       -0.081563875 0.01588129 0.07268222 -0.01968007
0001b0 e7 6c cf 3d d7 81 49 3d 9f 47 79 3c 88 5e a6 3d
       0.10128193 0.04919609 0.01521483 0.08123499
0001c0 82 67 c8 3c 75 05 55 bd 12 da f3 3d ba c4 a7 39
       0.024463419 -0.052007157 0.11906828 0.00031999295
0001d0 64 db 1e 3b e5 17 1e 3c 12 1b a4 3d bf d8 89 bd
       0.0024239654 0.009649252 0.08012976 -0.06730794
0001e0 88 5a 3a 3d 1c d5 ab bc 65 50 0a bc 9a 48 31 3d
       0.045496494 -0.020975642 -0.008442019 0.04328213
0001f0 4c 5d 7b 3d 0b 01 4e bd be 5d cc 3c d3 08 c0 ba
       0.06136827 -0.050293963 0.024947044 -0.0014651067
000200 7c 84 7b 3c 32 30 3d bd d5 eb 88 bd 0e 0e ab b9
       0.015351411 -0.04618854 -0.066856064 -0.00032626133
000210 a5 fc b9 3d 20 ca a0 3d fa 80 72 3d 7f b7 90 3b
       0.09081391 0.07851052 0.059205033 0.0044164057
000220 d0 39 ab 3d 6b d0 58 3d 39 6c 3e bd 4b 3c 03 bd
       0.08360636 0.052933138 -0.046489928 -0.03203992
000230 11 36 4b 3d 74 16 f9 3d 71 b2 3e 3d 6b 29 7c 3d
       0.04961211 0.12162486 0.046556894 0.061562937
000240 94 b8 4b bd 8f 8b 7e 3d fa 72 36 3c dd 9a 0f 3d
       -0.049736574 0.062144812 0.011135811 0.0350598
000250 d8 64 2f 3d af 2b 25 3d 9f 51 42 bd 9f a6 53 3d
       0.04282078 0.040324863 -0.04744112 0.051672574
000260 ac ef fe bc 15 37 35 bd 05 bb 7e bd 7e c3 ae 3d
       -0.031120144 -0.044241983 -0.062190074 0.08533381
000270 81 85 85 3b f3 5e 93 bd 80 5d 14 bd 96 98 d2 3d
       0.004074753 -0.071958445 -0.03622198 0.1028301
000280 26 9e 7c 3c 8c b9 d3 bc eb 83 51 3d a5 39 e7 3c
       0.015418565 -0.025845312 0.051151197 0.02822573
000290 62 bd 64 3d a0 9b 8e bd 2b 24 95 bd 3e 5c aa 3d
       0.055844672 -0.06963277 -0.07282289 0.08318375
0002a0 3e ba ac bc dd 5f 5b 3d be 9e 83 bd 2c 75 26 bd
       -0.021084901 0.05355822 -0.06426762 -0.040639088
0002b0 9c 6c 17 3d a9 ff a1 3d 4e b2 45 bd 12 2f f5 3c
       0.036968812 0.079100914 -0.048265748 0.029929671
0002c0 3e 56 50 bd d8 33 62 bd 0f bb 59 3d 99 1d b7 bd
       -0.050863497 -0.055225223 0.05315691 -0.08941192
0002d0 9d a2 87 bd 5e 2a 25 3e bb 04 61 3d 66 54 3c 3d
       -0.06622813 0.16129443 0.054936152 0.045978926
0002e0 b8 47 35 3d 2a 13 35 3d 70 df 40 3d 69 3c 50 bd
       0.04425785 0.04420773 0.047088087 -0.05083886
0002f0 17 47 e4 bc 58 18 35 3d f9 f0 87 3d f8 a2 7c bb
       -0.02786593 0.04421267 0.06637759 -0.0038549285
000300 3e 9f e5 3c 07 8b a8 3d a6 0f 1d 3c 50 c8 01 3e
       0.028030034 0.08229642 0.00958625 0.1267407
000310 12 5b 60 bd bb 59 b5 3d c0 fc 54 3d 22 cc 8f bb
       -0.05477435 0.08855005 0.051998854 -0.004388348
000320 7f 3f a9 3d 0c c4 65 bd e1 1b 8e 3d ba c7 e7 bc
       0.08264064 -0.056095168 0.06938911 -0.02829348
000330 14 1f 00 bd 08 3c be 3d 31 8a 6f bd a5 0e 05 bd
       -0.03127964 0.09288794 -0.0584814 -0.03248467
000340 63 45 50 bd 1e 9f 67 3d 43 72 81 bd d4 e4 49 3d
       -0.050847422 0.05654823 -0.06320622 0.049290493
000350 fd 64 93 bd fe 31 90 3d 82 06 fc bc e1 b2 f1 bc
       -0.07196996 0.07040785 -0.030764822 -0.029504241
000360 51 3b 20 3d 06 b2 ba 3c be 9a 97 3c 5c 7d 4d bd
       0.03911907 0.022789966 0.018506404 -0.05016838
000370 4a 15 ea bd a5 ff 5b bc 6e bf d0 bb 1d a9 6a 3a
       -0.11429842 -0.01342765 -0.0063704764 0.00089515914
000380 70 90 61 3d dd 0e 51 bc 69 57 60 bd 86 2e d0 3c
       0.055069387 -0.012759891 -0.05477086 0.02541281
000390 75 74 e0 3c 67 80 b9 3d a0 a5 68 3d f7 b1 29 3c
       0.027399281 0.09057694 0.056798577 0.0103573715
0003a0 1e 82 88 bd 8f 7c a8 3c 04 13 92 3d 83 fb 13 3d
       -0.06665443 0.020567207 0.07132533 0.036128532
0003b0 97 53 dd 3c 4d 30 8b 3d 28 0e 2d bd 22 51 90 3d
       0.027017398 0.06796322 -0.04224983 0.07046725
0003c0 9f 91 78 bd b0 87 b6 3d 1a f5 53 bd 27 05 a9 ba
       -0.06068575 0.08912599 -0.05174742 -0.0012895212
0003d0 5a 1e 07 3d 80 6e 60 bd 75 bc c9 bb db 80 42 3d
       0.03298793 -0.05479288 -0.006156499 0.047486167
0003e0 c5 4b 91 bd 99 85 2c bd 7a 7f c4 bc 49 99 8a 3b
       -0.0709453 -0.042119596 -0.023986567 0.004229699
0003f0 25 07 68 bd 07 83 aa 3d f4 f6 33 bc 97 a1 4c 3d
       -0.05664744 0.08325773 -0.010984171 0.04995879

fc1.bias f4 [128]
000000 4a b8 f8 bd 87 96 10 3e 08 44 79 be de 68 72 bd
       -0.12144525 0.14119922 -0.24342358 -0.05918204
000010 b3 f4 c4 bc 9b 58 61 3d 2f 2a 96 3d 47 ef fb bd
       -0.024042463 0.05501614 0.07332265 -0.12301498
000020 9f b4 69 3c b2 79 e3 bd 8b 33 bb bd 5f 43 57 ba
       0.014264255 -0.11107196 -0.091406904 -0.0008211638
000030 cd f3 f8 3d 03 f3 2a 3e 33 f2 5a 3e 5a e0 ec 3d
       0.12155876 0.16694264 0.21381454 0.11566229
000040 d4 b9 0e 3e a4 0f ca 3c f3 33 2b 3d 95 60 c3 bd
       0.13938075 0.024665661 0.04179759 -0.09539906
000050 ae 56 ff bd f6 13 00 be d5 38 1f 3c 1a 04 dd 3d
       -0.12467705 -0.12507614 0.00971814 0.10791798
000060 6e 15 1c be a0 5d 0b be bd 89 21 3e 19 89 f4 3d
       -0.1524255 -0.13609934 0.15775199 0.11940212
000070 9d 85 25 be 7d 42 3f be 53 cb 7c bd ec 80 05 be
       -0.1616425 -0.18677707 -0.061717343 -0.13037461
000080 94 31 c2 3d f0 79 6a bd ec 47 0a 3d e4 82 9d 3c
       0.094821125 -0.057245195 0.033759996 0.019227453
000090 d9 b4 04 3e c9 3f 87 bd 69 9d be 3c 78 2b 4f bc
       0.12959613 -0.06603963 0.023268418 -0.012644641
0000a0 69 dd 6a 3d 3e df bd bc 11 51 e0 3d 0f 42 b8 bd
       0.05734006 -0.02317774 0.10952962 -0.08996975
0000b0 88 e0 0c 3e 81 a2 b0 bd 3e 23 07 3e 90 4d 68 be
       0.13757527 -0.08624745 0.13197038 -0.22685838
0000c0 6c 70 11 be 40 26 97 bd 73 af 61 bd 69 73 ad 3d
       -0.14203042 -0.073803425 -0.055098962 0.08469278
0000d0 49 21 09 3d 0e 42 fe bd b7 ca 37 3e c4 50 b4 bd
       0.03347901 -0.12414943 0.17948423 -0.08804467
0000e0 aa f0 ce 3c d5 e4 da 3c 9e c4 50 3e 20 23 f4 3c
       0.025261242 0.026720444 0.20387504 0.029801905
0000f0 04 58 92 bd 35 75 70 3d ad 3b 54 3e 17 34 02 be
       -0.07145694 0.058705527 0.2072589 -0.12715183
000100 58 93 53 be 84 e6 62 bd 33 be 0d be f8 51 5a bd
       -0.20661676 -0.055395618 -0.13842086 -0.053300828
000110 84 d8 53 be 4e cb c8 3d a6 c8 60 bd 0b ea 9a 3d
       -0.20688063 0.09804402 -0.054878853 0.075641714
000120 b5 2e 37 3e 5b 44 3b be 3c 6b 35 3d 77 ea 4c 3e
       0.17888911 -0.18287794 0.04429172 0.20011316
000130 26 d4 6f 3e 74 78 ae bd 5f 89 a8 3d 9a bd c7 3d
       0.23420772 -0.08519068 0.082293265 0.097529605
000140 b8 bd cc 3d 86 f8 6b 3c 25 37 9e bd 12 26 a6 bd
       0.099971235 0.014402514 -0.07725362 -0.0811273
000150 70 15 e8 3a 02 f9 4b 3c c9 cf 05 be 4a 02 25 be
       0.0017706584 0.012449505 -0.13067545 -0.16114154
000160 5c 84 e5 3d f1 5e 24 be 9f 1a 5a bc e7 4f cb bd
       0.11206886 -0.16051842 -0.013312011 -0.099273495
000170 f8 61 d4 bd 30 4d 4c be ac 83 90 bd f4 44 12 3d
       -0.103702486 -0.1995132 -0.070563644 0.03571029
000180 cf ab 16 3e c3 df a2 3d 64 4a 33 be 28 20 79 bd
       0.14713977 0.079528354 -0.17508847 -0.060821682
000190 d3 66 49 be 61 92 3a bd b1 f8 e5 bd b7 2e e8 bd
       -0.1966813 -0.045549754 -0.11229075 -0.11337035
0001a0 77 e8 bf bd af 18 61 3e 1a cb c9 bd 87 5b dc bd
       -0.09370511 0.21982072 -0.09853192 -0.10759645
0001b0 87 0b 85 bd 88 dc 06 3e 83 5b 30 bd 35 e3 5d 3b
       -0.06496339 0.13170063 -0.043056022 0.003385735
0001c0 cf 62 32 3e ca 26 89 3d d1 d9 54 3e 58 36 08 be
       0.17420505 0.066968516 0.20786215 -0.1330198
0001d0 54 7c 2f 3e 53 15 33 be 23 6c 0e be 72 e8 0a 3c
       0.17137271 -0.17488603 -0.13908438 0.008478271
0001e0 ef 58 5c 3d cb d3 1d bd 0d cd 4d 3e 0d 3a f4 3b
       0.05379575 -0.03853206 0.20097752 0.0074532093
0001f0 dc c5 b4 bd ac 58 a6 bd 6e cf 06 bd c9 d8 e0 3d
       -0.08826801 -0.081223816 -0.032912664 0.109788485

bn1.weight f4 [128]
000000 e9 68 43 3f c2 8f 23 3e 27 85 17 3f 0b 7b 69 3f
       0.76331955 0.15972808 0.5918755 0.91203374
000010 a8 b8 cc 3e 9e fe 38 3f dc 54 d5 3e d8 1e 74 3f
       0.39984632 0.72263515 0.41666305 0.95359564
000020 83 bd f9 3e 9f 5b 60 3f 3c 88 a0 3e 7f d4 dc 3c
       0.48777398 0.876398 0.3135394 0.026956795
000030 8c bb a3 3e d5 e0 4d 3f 99 84 f7 3e e0 d3 e8 3e
       0.31979024 0.8042119 0.4834335 0.45474148
000040 0e 5c 5d 3f 88 49 64 3e 58 e2 1d 3e 14 3c 28 3f
       0.8646859 0.22293675 0.15418375 0.6571667
000050 77 7a 6a 3f 0f 9a 1e 3f 9d 8c 9e 3e 29 db 32 3f
       0.91593117 0.61953825 0.30966654 0.6986566
000060 49 1f 3a 3f a7 ab f6 3d 23 f6 67 3f cb 26 0f 3f
       0.7270399 0.12044459 0.9060995 0.5591857
000070 6e dd 9e 3e bc 0f 9c 3d b0 f9 20 3f 90 58 c6 3e
       0.31028312 0.076201886 0.6288099 0.38739443
000080 23 b9 17 3f da 78 07 3e 0d 47 24 3f 4d 1e 63 3e
       0.5926687 0.13229695 0.64170915 0.22179528
000090 b3 cf 60 3f bc 40 09 3f 1b 06 3b 3f 91 9d 52 3f
       0.87816924 0.536144 0.7305619 0.8227168
0000a0 10 7f 75 3f eb 28 12 3f 5f 3b 69 3f 18 52 06 3e
       0.95897007 0.57093686 0.9110622 0.13117254
0000b0 be 81 53 3f 86 07 52 3f 8b 24 a4 3e cf e3 91 3e
       0.82619846 0.8204273 0.3205913 0.28494117
0000c0 04 8e 62 3f bf e2 66 3f 67 f2 1f 3e c3 6b fb 3e
       0.8849795 0.9018974 0.15619813 0.49105653
0000d0 aa 8b 06 3e 60 81 43 3f ad 58 86 3d e5 2c a0 3e
       0.13139215 0.76369286 0.06559882 0.31284252
0000e0 0c fc 6a 3f dd 9f 63 3f fc eb 6b 3f 44 60 0c 3f
       0.91790843 0.88915807 0.9215696 0.5483439
0000f0 a3 81 a3 3d 6d 80 4d 3f 4a f3 61 3f 34 30 5b 3f
       0.079837106 0.8027409 0.88261855 0.8562043
000100 9b df 47 3f 8b 02 fb 3e bb 81 3b 3f 9b 82 17 3f
       0.7807557 0.49025378 0.7324483 0.59183663
000110 46 da 9e 3e 44 43 55 3f 4c fb 98 3e d0 25 51 3f
       0.31025904 0.83305764 0.29879224 0.8169832
000120 8e 60 f8 3e d7 35 e4 3e 04 e1 2c 3f 4f 28 d3 3e
       0.48511165 0.44572327 0.67530847 0.4124169
000130 72 1c 2c 3f c1 96 09 3e f2 1f bd 3c c5 da 1b 3f
       0.67230904 0.13436414 0.023086522 0.6088069
000140 5d 0f d1 3e 65 ae 8f 3e 44 ad d9 3d 3e 74 11 3f
       0.40832034 0.2806274 0.10628751 0.56817997
000150 e3 ed bd 3e cb 29 6f 3f 48 8e 2c 3e 98 34 b7 3e
       0.37095556 0.93423146 0.16851151 0.35782313
000160 d3 eb dd 3e 0b 98 12 3f 8b a3 c1 3d df 89 42 3f
       0.43343982 0.5726325 0.094550215 0.75991625
000170 fa ff 26 3e c3 14 87 3e be 33 18 3f 67 2b dc 3e
       0.16308585 0.26383027 0.5945395 0.43001863
000180 e6 2c 0b 3f 48 ce b5 3d 28 20 58 3e 08 b8 55 3f
       0.54365385 0.08877236 0.21106017 0.83483934
000190 6a d8 2f 3f dd e0 36 3f 60 3d 3d 3f 24 40 54 3f
       0.68689597 0.71436864 0.73921776 0.8291037
0001a0 f9 09 38 3f 56 58 b6 3e 40 fb 92 3e c1 ad 69 3e
       0.7189022 0.3561427 0.28707314 0.22820188
0001b0 de e6 2a 3f af d7 f1 3e 4e 32 87 3e 27 1f 50 3f
       0.66758525 0.47234866 0.26405567 0.81297535
0001c0 b5 3d 00 3f 93 c9 fd 3e da 01 c8 3e 8b c5 32 3e
       0.5009416 0.4956785 0.39063913 0.17458169
0001d0 ce 68 68 3f f5 06 db 3d b0 10 89 3d df 96 17 3f
       0.9078492 0.10694686 0.06692636 0.59214586
0001e0 9f 10 a4 3e cd 34 53 3f 78 9a e9 3e 2b 74 9e 3e
       0.3204393 0.8250244 0.45625663 0.30948004
0001f0 32 41 eb 3e b9 26 e9 3e d3 aa df 3e d3 a0 c5 3e
       0.45948178 0.45537356 0.43685016 0.38599262

bn1.bias f4 [128]
000000 ef 2f 84 3c 39 83 3b bd ea 81 9b 3d be 09 8f bc
       0.016136138 -0.04577944 0.075931385 -0.0174607
000010 51 52 98 bd 93 57 b1 3d 47 68 95 bc 90 0d 33 bd
       -0.074375756 0.086592816 -0.0182382 -0.043714106
000020 c9 c1 1d bd 65 f4 8d 3d e7 4f ed 3c 8b e7 d4 bd
       -0.038514886 0.0693138 0.028968764 -0.10395726
000030 21 84 c7 3c 37 3f 37 bc 72 85 c3 3c be f9 91 3d
       0.024354996 -0.011184505 0.023867343 0.07127713
000040 67 03 23 3c bb cb 81 3d 51 54 47 3c 11 cf 84 3d
       0.009949542 0.06337687 0.012166099 0.06484807
000050 0f cb ff bd 4b f1 88 bd 67 cd 8f bd b5 aa 81 bd
       -0.12489902 -0.06686648 -0.07021599 -0.06331388
000060 e0 51 de 3c 62 59 92 bd 90 fe 17 3d 5c 37 fa bc
       0.02713865 -0.07145955 0.037108004 -0.030543976
000070 f5 f0 ec 3c 4a f0 f7 3d a4 f7 8f 3c 05 11 25 3d
       0.028923491 0.121063784 0.017574139 0.040299434
000080 94 d5 9e 3d 33 1f ce bc 2c 37 14 ba e2 dc 23 3d
       0.077555805 -0.025161361 -0.0005653973 0.040005572
000090 97 07 ba 3d 8a 51 ae 3d 8e ec 4c 3d 89 e9 ba 3c
       0.09083479 0.08511646 0.050030284 0.022816436
0000a0 e9 d2 96 3d 27 40 65 3d 66 71 c3 bc 9f 96 e7 ba
       0.07364447 0.055969384 -0.023857784 -0.001766879
0000b0 e3 63 77 bd ab 5b 8f bd 2e b6 e4 bc 23 61 79 bc
       -0.060397994 -0.06999906 -0.027918901 -0.015220913
0000c0 93 2e f1 bc 81 c3 79 3d 0e 97 e4 3c 61 e4 98 3d
       -0.029441154 0.060977463 0.02790406 0.07465435
0000d0 54 2d f0 bb ff cf bb 3d 74 af 01 3c b4 63 03 bc
       -0.0073296223 0.091705315 0.007915366 -0.008019377
0000e0 c1 93 fb 3c 50 26 6f 3d 80 8c 8f 3c e9 11 9a 3d
       0.030710103 0.058386147 0.01752305 0.07522947
0000f0 27 6e c5 bd 99 fa 9b bd 97 dd 60 3c 62 19 41 bc
       -0.096401505 -0.07616157 0.013724706 -0.011785837
000100 38 b7 c0 bc 3c 44 93 bd 1a 5a 74 3d fb 1e 0b bd
       -0.023524866 -0.07190749 0.05965624 -0.033965092
000110 ff 99 15 3e a7 ea 21 bd 21 5e 1c bc 28 7e d7 3d
       0.14609526 -0.039530423 -0.009543926 0.10522109
000120 14 4c 17 3d 7a 53 02 3d 7f fa b3 bd db ba 0e 3a
       0.036937788 0.03181789 -0.08788013 0.0005444714
000130 e6 3c 89 bd eb f5 21 3d 54 dd 0a be 67 83 ac 3d
       -0.067010686 0.039541166 -0.13560992 0.084235005
000140 a2 8e dc bc cb 82 9e 3c a6 19 19 3d 18 28 f4 3d
       -0.026923481 0.019349476 0.037377976 0.1192171
000150 b4 b9 f0 3c 09 fd 79 3d 7c 39 82 bd 00 46 ea ba
       0.029385425 0.06103233 -0.063586205 -0.0017873645
000160 3d 0f 84 bd fd a2 a7 3d b7 29 09 be ef 9f df 3d
       -0.06448219 0.081853844 -0.13394819 0.10919177
000170 4f 98 31 bc 86 b4 67 3d 6e cd bb 3c 0c ae 4d bc
       -0.010839536 0.056568645 0.022925105 -0.012553703
000180 a0 95 5b bd e6 22 cd 3d d9 11 9c 3d 8d 8b 3f 3d
       -0.05360949 0.10016422 0.07620592 0.046763945
000190 6a c7 5a 3d 69 8e 6a 3d 0e 3f a4 bd 62 07 0f bb
       0.053412832 0.05726472 -0.08019839 -0.002182447
0001a0 64 96 84 bd 79 73 06 3d 8c bd 1b 3d d2 fa b9 3d
       -0.06473997 0.032824967 0.038022563 0.09081043
0001b0 d7 10 8a 3c e5 f0 de ba 30 e6 b0 3d 42 6d 8e 3d
       0.016853733 -0.0017009048 0.08637655 0.06954433
0001c0 77 a5 0b 3c 45 5f 03 3d 4e d2 e7 3d e9 d3 7d 3c
       0.008523337 0.032073278 0.11319409 0.015492418
0001d0 d5 2a af 3c fd 87 da bd 56 f0 97 ba ef 9a be 3b
       0.021382729 -0.10670469 -0.0011592011 0.0058168094
0001e0 b9 cf 89 3d 22 7a d5 ba b5 b3 8e bc 15 ab 9d bc
       0.06729073 -0.0016287009 -0.017419675 -0.019246617
0001f0 77 2c 4f 3d 8d 76 31 3d 95 be d0 3c 4e c8 01 bd
       0.050579514 0.04332595 0.025481502 -0.031685166

bn1.running_mean f4 [128]
000000 91 94 cb 3f a4 64 41 3d 53 86 e4 3e 3c 6c 1d 3f
       1.5904714 0.04721512 0.4463373 0.6149328
000010 92 93 c0 3f d5 6e 8f 3e 4f cc 46 3f 28 91 c5 3f
       1.5045035 0.28014246 0.776555 1.5434923
000020 e6 b9 54 3f 08 b3 cb 3e 28 99 db 3f 1e 4e 9a 3f
       0.8309616 0.39785028 1.7156115 1.205509
000030 d6 3f 14 3f ff 57 ee 3e 14 83 e6 3f ab 1c 07 3f
       0.57909906 0.4655151 1.8008752 0.5277812
000040 49 01 16 3f 59 75 8f 3f 39 74 05 3f 99 40 e2 3d
       0.5859571 1.1207687 0.52130467 0.11047477
000050 5c be 11 3f 66 2a ea 3f f6 71 51 3f ea 40 30 3f
       0.5693109 1.8294189 0.81814516 0.6884905
000060 ff fc d4 3d 2d 5b f4 3d 0f 44 e6 3e ff 68 c2 3e
       0.10399818 0.11931453 0.449738 0.3797073
000070 98 dd ed 3e 6a 24 06 3f 1e 36 80 3e 78 f6 71 3e
       0.46458125 0.52399313 0.25041288 0.23629177
000080 1e 93 c0 3f 7d 09 05 3f d9 58 4e 3f ac 17 b8 3d
       1.5044897 0.519676 0.8060432 0.0898889
000090 bd b9 e2 3e e7 58 e3 3f 2c 53 8d 3e 56 4c 65 3e
       0.44282332 1.7761506 0.27602518 0.22392401
0000a0 19 a3 84 3e 7b 9f a9 3f e5 07 3c 3f d1 78 8e 3e
       0.25905684 1.3251795 0.73449546 0.2782655
0000b0 29 03 01 3f 89 a5 a1 3e 47 1b a5 3e d2 96 3f 3e
       0.50395447 0.31571606 0.32247373 0.18709877
0000c0 6f 87 33 3f ae 41 01 3f cc 19 66 3f a2 63 b0 3d
       0.7012853 0.50490844 0.8988311 0.086127535
0000d0 5f 9f 2f 3f a8 ed 62 3f 61 fa d5 3f 6f c6 b7 3e
       0.68602556 0.88643885 1.6717035 0.3589358
0000e0 e6 3b 34 3f 63 e4 99 3f 05 57 3d 3f a7 c5 e4 3e
       0.704039 1.2022823 0.73960906 0.44682047
0000f0 cd 86 9f 3f ec 6c 1a 3f 42 98 1b 3f f3 c9 ef 3f
       1.2463013 0.6032245 0.607792 1.8733505
000100 83 8a 78 3f 7b 09 c1 3e fd 42 75 3f 61 c5 8f 3f
       0.9708635 0.37702546 0.9580534 1.123211
000110 53 b4 37 3f 9d a6 10 3f 9c 00 9c 3f fb b7 18 3e
       0.7175953 0.5650423 1.2187686 0.14913933
000120 7d c8 a9 3e 46 85 86 3f ae aa 94 3f 70 e3 28 3f
       0.33160773 1.0509422 1.1614587 0.6597204
000130 f0 52 f3 3f d0 71 35 3f 1a d0 01 3f 69 03 9d 3e
       1.9009686 0.7087679 0.5070816 0.30666664
000140 bb 39 82 3e 36 9c c1 3f bb 92 be 3e be f7 a8 3f
       0.2543467 1.5125797 0.3722132 1.3200605
000150 b8 96 18 3e b5 71 e0 3e 75 9e b1 3d 83 f3 b6 3f
       0.14901245 0.43836752 0.086728014 1.4293064
000160 bd 1f 38 3f 26 92 50 3f e5 9d b0 3e 72 49 5b 3f
       0.7192343 0.81473005 0.34495464 0.85658944
000170 60 b5 0b 3e e1 77 d9 3e 89 8a 82 3f ec 4b 5a 3f
       0.13643408 0.42474273 1.0198528 0.852721
000180 1a e3 91 3f d8 9d 1c 3e aa 17 88 3d 4e c7 1e 3f
       1.1397431 0.15294588 0.066451386 0.62022865
000190 71 4e 8d 3e 16 02 b0 3e 30 36 5d 3f 1f 23 22 3f
       0.2759891 0.3437659 0.8641081 0.6333484
0001a0 5a 97 6b 3f 52 dd 94 3f 37 70 27 3d ae dc 53 3e
       0.9202782 1.1630042 0.0408785 0.20689651
0001b0 77 23 5d 3f 07 c0 2e 3f 5f fc 31 3f 40 25 03 3f
       0.8638224 0.6826176 0.6952571 0.51228714
0001c0 c8 8b ea 3d fe 2a e7 3e 6f 58 ba 3e 88 2b 6f 3f
       0.114524424 0.45149988 0.36395594 0.934258
0001d0 ee ca 04 40 52 3a 8b 3d 2e be 21 3e 53 0f 59 3f
       2.0748858 0.06798233 0.15795204 0.8478901
0001e0 f6 9c 95 3e c0 d2 41 3f 15 45 e0 3e a1 b9 b2 3e
       0.29221314 0.75712204 0.43802705 0.3490725
0001f0 3f 44 3e 3f 61 a0 a8 3f 2b db 81 3e 9f 99 cf 3f
       0.74322885 1.3173944 0.25362524 1.6218756

bn1.running_var f4 [128]
000000 6e a4 27 40 4d c0 0e 3d 6f 03 c7 3e ff a9 22 3f
       2.619411 0.03485136 0.38869807 0.63540643
000010 40 8e 8f 40 a2 19 69 3e 17 10 79 3f e5 16 63 40
       4.4861145 0.22763684 0.97290176 3.5482724
000020 b9 19 c4 3f 51 7c 66 3e cd 69 26 40 e5 af f2 3f
       1.532035 0.2250836 2.6002076 1.8959929
000030 6f 22 91 3f 78 1c 38 3f bd b6 0d 40 e8 71 3d 3f
       1.1338633 0.7191844 2.2142785 0.7400193
000040 9b 4e ed 3e c3 c0 04 3f 0c cc 98 3f 3d 47 ee 3d
       0.46349034 0.5185663 1.193727 0.116346814
000050 66 9a 53 3f c2 86 fa 3f e3 5a 0b 40 3a 2c 38 3f
       0.8265747 1.9572375 2.1774223 0.71942484
000060 bb fc ac 3d d0 cc 08 3e d3 79 1f 3f 29 9f 70 3e
       0.08446642 0.1335938 0.62295264 0.23498215
000070 0c c7 0e 3f 14 50 61 3f ca 5f c2 3e ca 10 81 3e
       0.5577247 0.88012815 0.37963706 0.25208122
000080 fc 5a f2 3f ad db 2b 3f ef 14 97 3f ef 26 bf 3d
       1.8934016 0.67132074 1.1803263 0.09333598
000090 21 49 eb 3e 0b 3b cf 3f dc b9 15 3f 84 23 f4 3d
       0.4595423 1.6189893 0.58486724 0.119208366
0000a0 a7 11 2d 3e 85 e5 8f 3f a7 18 12 3f e5 97 d9 3e
       0.16901265 1.1241919 0.57068866 0.424987
0000b0 e8 2a aa 3e cd 00 e4 3e 36 33 ca 3e c6 d6 b3 3d
       0.3323586 0.4453186 0.39492196 0.08781199
0000c0 52 da 9d 3f b0 21 09 3e cd 2e ff 3e be af 33 3d
       1.2332251 0.13391757 0.49840394 0.043868773
0000d0 af 0f 9c 3f 73 34 eb 3f f4 5a b6 3f bb 88 4d 3e
       1.2192286 1.8375381 1.4246507 0.2007169
0000e0 0b 45 3d 3f b8 e7 d5 3f fc d8 0e 3f b9 92 17 3f
       0.73933476 1.671134 0.5579984 0.59208256
0000f0 93 ee 1c 40 d5 ef 0e 3f 36 25 93 3f 9e b9 e8 3f
       2.4520614 0.55834705 1.1495731 1.8181646
000100 04 17 ef 3f bc 75 e6 3e 6a 7c ea 3f 21 4d 96 3f
       1.8678899 0.450117 1.8319218 1.1742288
000110 9b 37 88 3f f7 37 ff 3e 02 7d 0a 40 25 b2 c9 3d
       1.064197 0.49847385 2.1638799 0.098484315
000120 95 a0 ca 3e c1 bd 0e 40 bd b3 3a 40 21 29 a8 3f
       0.3957564 2.2303317 2.9172204 1.3137552
000130 18 7f 5b 3f 3a d4 61 3f 56 a3 69 3f d5 56 58 3e
       0.85740805 0.8821446 0.91264856 0.21126874
000140 06 75 8a 3e e7 05 0b 40 fa 78 3b 3f b8 cb 20 40
       0.27042407 2.1722353 0.7323147 2.512434
000150 82 ba cb 3d 6f a6 84 3f a3 ad 63 3d 5b 3b 3e 3f
       0.09947683 1.0363292 0.055585515 0.7430932
000160 b9 cc 43 3f 67 45 9c 3f 3e 5f 9d 3e 9a 2a 6a 3f
       0.76484257 1.220868 0.30736727 0.91471255
000170 71 05 d5 3c 52 13 20 3f e5 0e 9e 3f 4b 49 f9 3f
       0.026003571 0.6252948 1.2348295 1.9475492
000180 de 94 c9 3f a9 42 1c 3e 5d c5 29 3d 1a b2 4a 3f
       1.5748556 0.15259804 0.041447986 0.7917801
000190 13 5c 8a 3e ec 61 e9 3e 14 28 a2 3f 11 91 fc 3e
       0.27023372 0.4558252 1.2668481 0.49329427
0001a0 71 d2 bf 3f 4b fa 63 3f ec 5c 96 3c 90 6f 27 3e
       1.4986097 0.8905379 0.018354855 0.16351151
0001b0 09 3d 82 3f 62 2c 1f 3f f7 62 94 3f 09 23 15 3f
       1.0174876 0.621771 1.1592702 0.58256584
0001c0 e0 c0 25 3e 30 d0 9f 3e 8b 2c 4d 3f ca 88 e7 3f
       0.16186857 0.31213522 0.8014609 1.808862
0001d0 ae 6c d7 3f 95 94 92 3d 6d d6 6d 3e 21 d6 98 3f
       1.6830041 0.07157246 0.23226328 1.1940347
0001e0 d5 c9 a9 3e f0 cf f3 3f 55 af 06 3f 6b 0c c5 3e
       0.33161798 1.9047832 0.52611285 0.38486037
0001f0 fc 8a ae 3f 61 d7 27 3f ab 4f b2 3e d4 ec f1 3f
       1.3636165 0.6556302 0.34826407 1.8900399

fc2.weight f4 [64, 128]
000000 5c af 23 3c 45 49 0c 3e 22 d9 de 3d 6e 5c d9 3d
       0.009990539 0.13699825 0.108812585 0.10613333
000010 73 11 7d ba 96 98 f1 bc 23 d6 de 3c dd d6 c7 3d
       -0.0009653784 -0.029491704 0.027201718 0.09757779
000020 3d a4 b2 3d 24 9c 12 bc 57 28 e9 bd 0d ce 94 3d
       0.08722732 -0.00894836 -0.11384647 0.072658636
000030 72 e4 dc bc 61 82 aa bb 2b 7e a5 bd a4 e8 54 3d
       -0.0269644 -0.0052035307 -0.08080705 0.051979676
000040 76 65 ff 3c 4f 50 e1 3c 77 06 fd 3c 2c 94 67 3d
       0.03117631 0.027504114 0.030886872 0.056537792
000050 9f 90 6a bd 02 95 c0 3d 42 e3 c4 3d a4 05 92 3d
       -0.057266828 0.09403421 0.096136585 0.07129982
000060 4e 03 03 b9 9b 2e 06 be 99 9c 89 bc de 26 0f bd
       -0.00012494365 -0.13103716 -0.016798304 -0.034949176
000070 87 b6 8e bd f0 1e 1e 3d c9 08 73 3d 89 95 88 bd
       -0.06968408 0.038603723 0.05933455 -0.066691466
000080 49 ca a5 3d 13 a4 18 3e 27 72 d3 bc 70 0f bf 3d
       0.080952235 0.1490634 -0.025811268 0.09329116
000090 bc f0 d7 bc ab e6 05 3d 77 70 0b 3e 8c 99 56 3b
       -0.026359908 0.032690685 0.1361712 0.003274533
0000a0 4b 22 12 3e 3e a6 81 3d ef 4f 18 3d ab 80 fd bd
       0.14270894 0.06330536 0.037185606 -0.12378057
0000b0 60 75 95 bd 21 45 06 3d 0d 77 94 bc 1c 68 d1 bc
       -0.07297778 0.03278077 -0.018123174 -0.025562339
0000c0 9c d0 05 3b fc 1f b7 bd c7 79 ce 3d 55 ae fe bc
       0.002041853 -0.089416474 0.10081821 -0.031088987
0000d0 36 89 34 3d 29 0e 81 3d b9 82 d9 bd e9 ad 9d bd
       0.044076167 0.06301529 -0.106206365 -0.07699186
0000e0 68 e1 f2 3c 6b 90 a4 3d 16 c0 c2 bd 2d a3 28 3d
       0.029648498 0.08035358 -0.09509294 0.04117124
0000f0 79 57 ae 3d b3 8b 86 bc d1 cb 3d 3d 09 81 cf 3d
       0.08512778 -0.016424036 0.046336953 0.101320334
000100 bb 2c b6 bd ed f1 bd 3d db e0 ed 3b 59 01 ae 3d
       -0.088952504 0.09274659 0.007259471 0.08496351
000110 f8 bb fd bc af 8c 93 bd 63 e4 89 bd 25 05 d3 bd
       -0.03097342 -0.07204568 -0.067330144 -0.103037156
000120 67 d5 e8 bd 1e 11 93 bd a3 86 37 3d 14 ef 9d 3d
       -0.11368828 -0.07180999 0.044806134 0.07711616
000130 3f d5 4a 3d 09 29 4a 3c 38 9a 8e 3d 42 bf c5 3b
       0.049519774 0.012338885 0.06963009 0.0060347626
000140 2c 1d c2 3d 95 b9 32 bc 75 e7 8c 3d d4 41 ac 3d
       0.0947822 -0.010908504 0.068800844 0.08410993
000150 29 78 1b be 0c a9 78 bd 1e f6 66 3d 95 24 d4 bc
       -0.15182556 -0.06070809 0.05638706 -0.02589635
000160 53 0e cf 3d 67 09 72 3d 33 4d df 3d a9 cf c2 bc
       0.10110154 0.059090998 0.109033965 -0.02378066
000170 63 c7 03 3e b9 d0 7f 3d 4a 7d 5e 3d b0 5f 8f bd
       0.12869029 0.062454913 0.054318704 -0.07000673
000180 7f da 33 3d a9 6f 81 bd b9 3d 2b bd 32 e2 a6 3d
       0.043909546 -0.063201256 -0.04180691 0.08148612
000190 a1 77 11 bd 32 f1 0a 3d 83 1f 91 3d 2e 30 97 bc
       -0.035514478 0.033921428 0.070860885 -0.018455591
0001a0 41 d0 83 bd c2 c5 77 bc b5 15 f0 3d f7 8f ba 3d
       -0.06436206 -0.015122833 0.1172289 0.0910949
0001b0 c8 38 64 3d dc 19 cc bd d4 39 ce bc 94 fb c2 bd
       0.055718213 -0.0996587 -0.025174059 -0.09520641
0001c0 a7 60 88 bd 15 21 ac 3d be c8 cc bd 4b 68 87 bd
       -0.0665906 0.084047474 -0.09999226 -0.06611689
0001d0 b1 43 b6 bd b1 98 cb 3d 1d 18 f3 3d 52 5a 68 3d
       -0.0889963 0.09941233 0.118698336 0.05672676
0001e0 e2 76 ab ba 41 f2 c9 bd fe 0a 2f 3d f7 84 a4 bd
       -0.0013081694 -0.098606594 0.042735092 -0.080331735
0001f0 89 e2 9e bd 3b fc da bd 9c 83 80 bc 4b 26 aa bd
       -0.07758052 -0.106926404 -0.015687756 -0.08308085
000200 f4 2f af 3d 66 50 35 bd 9f ae 44 3c 69 f4 9b 3d
       0.08554068 -0.044266127 0.012004524 0.07614977
000210 e1 e8 ad 3d aa 30 19 be 17 5b 8a 3d 1c 3b 6c 3b
       0.08491684 -0.1495997 0.06755655 0.0036045974
000220 ae fb a3 bd f5 29 60 bd c3 47 c1 3d b9 41 b3 bd
       -0.080069885 -0.054727513 0.094375156 -0.0875277
000230 8c 39 73 3d c9 cd df 3d ee b6 7b 3d 30 d9 bc 3c
       0.059381053 0.10927922 0.061453752 0.023052782
000240 f0 7e 0f 3d 3f 1a 73 bd d9 45 a9 bd 38 29 95 3d
       0.035033166 -0.059351202 -0.082652755 0.072832525
000250 a6 20 9c bd 54 0d c2 3c 73 8c ea bb e0 1d bf bb
       -0.07623415 0.023687996 -0.007157856 -0.005832419
000260 e7 b3 18 3d be 56 a8 3d 19 15 9a 3d 2b cc b3 bd
       0.037280943 0.0821967 0.07523555 -0.08779176
000270 a3 a3 eb 3c 20 eb 60 3b 21 16 b0 3d 3c ed 95 3c
       0.028764552 0.0034319833 0.08597971 0.018301599
000280 8b 9a 96 bd 39 03 b5 3d a3 37 e9 bb 34 38 b5 3d
       -0.073536955 0.08838505 -0.007117228 0.088486105
000290 2b 58 22 be b7 98 8c 3d c4 ed 8b bd 4a f5 2c 3b
       -0.15853946 0.068650655 -0.068324596 0.002639132
0002a0 d5 03 ba 3c b7 21 59 3d 57 09 0d 3e 9d a1 b1 bc
       0.022706905 0.05301067 0.13773094 -0.021683509
0002b0 c5 89 31 3d 73 77 69 3d 67 0a 03 bd 96 96 29 bd
       0.043344278 0.05699868 -0.031992342 -0.041403376
0002c0 90 f5 7c 3d 20 1f 20 bd 7b e5 93 3c ab 26 94 3d
       0.061757624 -0.039092183 0.01805376 0.07233938
0002d0 64 74 66 bd 2d aa 0d bd ca b2 a3 bd 93 b6 bc bb
       -0.056263342 -0.03458612 -0.07993086 -0.005759069
0002e0 37 44 d7 bc 2d b2 a9 bd 6c 29 1a bd db 6f 88 bd
       -0.026277645 -0.082859375 -0.03763716 -0.0666196
0002f0 d2 7c d3 bd a9 43 77 bd e8 27 90 3c 01 58 4b 3d
       -0.10326542 -0.06036726 0.017597154 0.049644474
000300 20 6e 3e bd 5b 36 8d bc 8a 3a 82 3d 75 ad 97 3c
       -0.046491742 -0.017237833 0.06358822 0.018515328
000310 c2 55 d0 3d 8d f0 c3 3d e2 21 67 3b 63 44 27 be
       0.10172607 0.09567366 0.0035267998 -0.16334681
000320 b4 0d c6 3d 83 0b 48 3d 37 64 69 3d b5 bf 96 bd
       0.096705824 0.048839103 0.056980338 -0.07360784
000330 eb 23 91 bd 86 24 65 3d d0 89 9e 3d 6e 9b a1 bd
       -0.07086929 0.055943035 0.077411294 -0.07890974
000340 9d 9b ba 3d 7e 74 87 3d ce 28 cd 3d 98 c1 6b bd
       0.09111712 0.06614016 0.100175485 -0.057557672
000350 04 8e b3 3d 34 c2 cd bd 72 ac be bd 5f bd bb 3d
       0.08767322 -0.10046807 -0.09310235 0.09166979
000360 93 28 da 3d 6f 31 88 bc f4 45 2f 3d 59 b3 38 3b
       0.1065227 -0.016625134 0.042791322 0.0028183071
000370 73 05 e5 3d 69 dc c9 bd ae bd 98 bc 3a 85 0b be
       0.1118268 -0.09856493 -0.018645134 -0.1362504
000380 e7 9a e8 3d 40 75 08 3c de 79 8a bc 95 72 a2 3d
       0.1135767 0.008328736 -0.016903814 0.07932011
000390 0d b1 ab bd 27 7a a5 3d 16 32 6d 3d e2 8f ae bc
       -0.08383379 0.08079939 0.057909094 -0.021308843
0003a0 71 c3 82 bc da 83 22 3d 2d fd 0a 3d c2 e3 00 3e
       -0.015962334 0.039676525 0.033932853 0.12586883
0003b0 1a 4d 49 bd ff 59 95 bd c4 56 fa 3b 55 b7 02 3e
       -0.049145795 -0.07292556 0.007639738 0.12765248
0003c0 48 7e 4d 3d e9 87 d1 3d 35 90 7d 3d 21 9b fc bc
       0.05016926 0.10231001 0.061905105 -0.03083569
0003d0 b6 21 52 bb 1c 92 66 bc e4 0a 73 bd 37 65 cd bd
       -0.003206355 -0.014072921 -0.059336558 -0.10029071
0003e0 58 f5 fa bc 81 1b c3 bd 30 b5 01 bd b4 36 fc bc
       -0.030634567 -0.0952673 -0.031666934 -0.030787803
0003f0 cf 6d 5e 3d 7f 3b f8 3d ff 8e 95 bd 5a 33 7d bd
       0.05430394 0.12120723 -0.07302665 -0.06181655

fc2.bias f4 [64]
000000 6c 18 ba bd 57 ed e4 3d c8 d2 a9 bc 9d b5 1f bd
       -0.09086689 0.111780815 -0.020730391 -0.03899156
000010 e5 e9 b0 3d 51 2f 23 3c 5b 26 1a 3d 21 9d 1f 3d
       0.08638362 0.009960012 0.037634235 0.03896821
000020 03 10 c8 bd f3 5d 9d 3d b7 f0 12 3b 45 c6 23 3d
       -0.09768679 0.07683935 0.002242131 0.039984006
000030 cd e6 d9 bb 5b 38 81 bd 52 eb b5 bc a7 a9 c7 bd
       -0.006649828 -0.06309577 -0.022206936 -0.097491555
000040 f0 16 97 bc 16 71 cf bd a6 cf 12 be 3d d2 b1 bd
       -0.018443555 -0.10128991 -0.14337024 -0.08682678
000050 80 92 a5 bd 71 9a 88 bc 0e 9c d1 bb 7e ba 76 bd
       -0.08084583 -0.016675206 -0.006396777 -0.060236447
000060 bb 8f b1 3b 9e 1e a1 3b 8e 4d 97 3d 97 16 cd 3c
       0.0054187453 0.00491698 0.07387839 0.025035186
000070 be 52 49 bd 78 73 40 3d c4 c1 82 bd 2d fc f3 bd
       -0.049151175 0.04698512 -0.06384614 -0.11913333
000080 f5 0b 0a be 72 46 a6 bd 65 7e 96 3d 5b 0d 1d bd
       -0.13481124 -0.08118905 0.073483266 -0.038342815
000090 80 42 ac bd 56 1b bb bd 73 b1 8d bd d0 5c 6d 3c
       -0.08411121 -0.09136073 -0.069186114 0.01448746
0000a0 b6 a9 76 3b 72 ce 10 bd c0 cc b8 bd 83 f1 0a be
       0.0037637777 -0.03535313 -0.09023428 -0.13568692
0000b0 69 d1 1f bd 52 70 3a 3c 36 59 f2 3d 4d 10 0a 3d
       -0.03901807 0.011379318 0.11833422 0.033706952
0000c0 96 a5 e3 bc 72 bb ca bd de 46 ab bd 22 ed 34 bd
       -0.027788918 -0.098990336 -0.08363126 -0.04417146
0000d0 ab c7 e0 bd 1e ad 9e bd c7 5d cf bd 6a bc 83 3c
       -0.10975584 -0.07747863 -0.101253085 0.016081054
0000e0 af 0b aa bd 1c 84 b5 bd b9 2e 91 3d d6 5f d8 bc
       -0.0830301 -0.088630885 0.0708899 -0.026412886
0000f0 d4 69 cc bd e0 74 b7 bd 81 a6 de bd 28 03 77 bd
       -0.099811226 -0.08957839 -0.10871602 -0.060305744

bn2.weight f4 [64]
000000 73 b2 7b 3f 16 c8 28 3f 11 a4 1d 3f 7c ac 41 3f
       0.98319167 0.65930307 0.6157847 0.75653815
000010 56 b9 43 3f b7 09 19 3f ed df 1e 3f d3 35 50 3f
       0.76454675 0.5978045 0.62060434 0.8133213
000020 8a f4 fd 3d 5c f2 89 3e fc d2 f2 3e 5b b7 59 3f
       0.12400158 0.26942718 0.47426593 0.85045403
000030 65 68 54 3f 03 da ab 3e fe 54 24 3e 7c a9 6b 3f
       0.82971793 0.33564767 0.16048047 0.9205549
000040 d5 d9 5f 3e c9 9c f2 3e d2 84 c6 3e e0 aa 65 3f
       0.2186044 0.47385243 0.3877321 0.8971386
000050 c2 ae 70 3e d4 70 81 3d 8c 74 36 3e 08 d7 cb 3e
       0.23504165 0.063203484 0.17817897 0.39812493
000060 f2 b7 8f 3e bb a5 64 3f d2 6c 17 3f ba 85 48 3f
       0.28070027 0.89315385 0.5915042 0.7832905
000070 32 30 94 3d 99 2e 9e 3e b7 2e 23 3f dd 1b 9e 3e
       0.07235755 0.30894926 0.63743156 0.30880633
000080 0d b1 17 3e 37 fe 30 3f e5 c8 0a 3e 3e 3c 2b 3f
       0.14813633 0.691379 0.13553198 0.668888
000090 b7 43 50 3f c3 b7 c5 3e a1 41 64 3d db 6b f3 3d
       0.81353325 0.38616762 0.05572665 0.11885806
0000a0 50 4f 8f 3e 7e 8f 23 3f 71 99 5f 3f 62 97 72 3f
       0.27990198 0.63890827 0.8734351 0.9476224
0000b0 a0 d5 f1 3d 94 97 56 3f 75 11 2c 3f 8a 2b c0 3e
       0.11808324 0.8382504 0.6721414 0.37533218
0000c0 c9 fc 0f 3f ea fa 73 3f 3c 6e 40 3f cf 67 0a 3f
       0.56245095 0.9530474 0.75168204 0.5406465
0000d0 6b cd 84 3e c6 2d d0 3d 93 85 aa 3e f1 9a 75 3e
       0.2593797 0.101649806 0.33305034 0.23984887
0000e0 92 83 4f 3f 94 f0 f1 3e b1 32 1c 3f a9 30 19 3e
       0.81060135 0.4725386 0.6101485 0.14959969
0000f0 d8 74 11 3f d2 f1 60 3f 28 8e 95 3e 06 da 15 3f
       0.56818914 0.8786899 0.2921002 0.585358

bn2.bias f4 [64]
000000 f7 97 c9 b5 85 03 7d b5 4b a6 1a b6 3d 06 04 35
       -1.5019895e-06 -9.4254966e-07 -2.3044583e-06 4.918291e-07
000010 bf fd 5c b5 c4 99 3d 36 ef c7 3d b5 d4 88 8d b6
       -8.2325636e-07 2.8252698e-06 -7.069893e-07 -4.2180563e-06
000020 14 cf 49 36 df ca 8d 36 0a af bf b5 80 1e c0 34
       3.007187e-06 4.2257448e-06 -1.4281552e-06 3.5784979e-07
000030 16 99 f4 b5 a4 95 f9 b6 6f cc 15 36 b6 52 98 35
       -1.822397e-06 -7.4381987e-06 2.2321726e-06 1.1348955e-06
000040 53 e2 a0 34 6d 97 84 36 31 7f 92 36 03 06 42 b6
       2.9966995e-07 3.951535e-06 4.365946e-06 -2.8911752e-06
000050 1d 82 0c 37 a4 73 44 36 84 f4 fa b5 e7 48 af b6
       8.374945e-06 2.9273588e-06 -1.8697615e-06 -5.2238934e-06
000060 a0 a1 12 37 42 10 9a 35 2c ff 9b 35 4f 2b db 35
       8.739909e-06 1.1478626e-06 1.1622665e-06 1.6329376e-06
000070 3c 9e 46 b6 dc 10 96 b5 08 66 89 36 38 70 13 b7
       -2.9596404e-06 -1.1180778e-06 4.094796e-06 -8.788011e-06
000080 13 36 d1 36 2d 23 06 b5 4d 84 9d b6 38 13 29 36
       6.2349804e-06 -4.997008e-07 -4.6943665e-06 2.519415e-06
000090 3d 3b 61 b5 12 9d 96 b6 09 c4 69 b4 4a 3b e6 b5
       -8.3905235e-07 -4.4886337e-06 -2.1771133e-07 -1.7153591e-06
0000a0 64 a0 7a 36 22 38 f7 35 28 f5 45 b5 3f 45 19 36
       3.7346263e-06 1.8419271e-06 -7.374497e-07 2.2839083e-06
0000b0 d7 5d 8e 36 9e f6 c1 b5 6b 26 8d 36 ae 1a 71 35
       4.242854e-06 -1.4451396e-06 4.2066e-06 8.981832e-07
0000c0 f4 3a 34 b4 7b 14 b7 35 84 ee 9e 35 6b 39 3d 36
       -1.6785253e-07 1.3640523e-06 1.1841335e-06 2.8196616e-06
0000d0 84 83 75 b6 12 5d bd b6 13 a9 54 35 48 cf 7c b5
       -3.6584397e-06 -5.6434737e-06 7.922219e-07 -9.417895e-07
0000e0 34 9d 88 b5 fe 75 b3 b4 2d 68 23 b6 a9 e2 53 b5
       -1.0178542e-06 -3.34272e-07 -2.434953e-06 -7.893346e-07
0000f0 42 10 35 34 8d b3 37 b6 fa 3e 36 b6 2a 73 f4 b3
       1.6862853e-07 -2.7373637e-06 -2.715677e-06 -1.13830836e-07

bn2.running_mean f4 [64]
000000 a1 89 28 3e b4 f6 68 3e df 16 3e 3e 4d 8f 45 3e
       0.16458751 0.2275036 0.18563412 0.19292946
000010 96 bc a7 3e 74 f6 d7 3d 5e e4 84 3e 68 62 3d 3e
       0.32761067 0.10545054 0.2595548 0.1849457
000020 af f7 6b 3e 8b 4d 64 3e 1c 12 6e 3e 63 1e 58 3e
       0.23043703 0.22295205 0.23249096 0.21105342
000030 7a 28 13 3e 3d d9 55 3d 3d e8 ef 3d 56 0b b8 3d
       0.1437091 0.052209128 0.11714218 0.08986537
000040 e3 96 08 3e bf 92 ea 3c 84 01 87 3b 0d 49 b7 3c
       0.13338809 0.028634427 0.0041200537 0.0223737
000050 56 d4 a7 3d fd 43 15 3e ed 25 30 3e b0 d5 08 3d
       0.08194797 0.14576717 0.17201968 0.033406913
000060 56 bf 0f 3e bb e7 73 3e 54 ba 6d 3e 83 a0 70 3e
       0.14037833 0.23818867 0.2321561 0.2349873
000070 a1 7e 07 3e 22 7b 05 3e 1d 42 2b 3e c7 b0 0a 3a
       0.13231899 0.13035253 0.16724439 0.0005290624
000080 8b e8 7c 3b 4f 56 c3 3d 30 52 87 3e 29 27 2c 3e
       0.0038590755 0.095379464 0.26429892 0.16811813
000090 4e c2 e5 3b a9 00 1e 3e 60 4e cb 3d d1 db 2b 3e
       0.0070116883 0.1542994 0.09927058 0.16783072
0000a0 f1 17 be 3d fb 8d d7 3d 19 3d b6 3d 32 2a 00 3d
       0.0928191 0.105251275 0.08898372 0.03129024
0000b0 7e 78 70 3d f9 6a ec 3d 43 ef 03 3e cf 4d 04 3e
       0.05870866 0.11543841 0.1288424 0.12920307
0000c0 2c 6c 7c 3d 65 ff e8 3d e9 3f 33 3e 79 9b 5c 3e
       0.0616266 0.11376838 0.17504849 0.21543683
0000d0 de f2 88 3d ba c2 75 3d 0b 92 db 3d 9b c1 1f 3e
       0.06686948 0.06000016 0.10721215 0.15601198
0000e0 d0 db 09 3e ea 91 15 3d 37 42 43 3e 4b ba 05 3e
       0.13462758 0.036516108 0.19068228 0.13059346
0000f0 9e 0c 78 3d c4 a9 fe 3c ce a5 b0 3d ae 0e a0 3d
       0.060558908 0.03108681 0.08625375 0.078153

bn2.running_var f4 [64]
000000 30 4a d6 3d ac 85 91 3d 07 a7 b6 3d b9 51 96 3d
       0.10463369 0.07105574 0.08918577 0.07339806
000010 ee 34 ea 3d 04 2f d3 3c 7c 6d 09 3e ef c1 8f 3d
       0.11435877 0.025779255 0.13420671 0.07019412
000020 8a 75 02 3e 35 f1 72 3d 3a 3b 18 3e 10 4d 0f 3e
       0.1274015 0.059312064 0.14866343 0.13994241
000030 cb 3f 62 3d 7a 73 73 3c 3e 10 24 3d 58 48 fa 3c
       0.05523662 0.014859075 0.040054552 0.030552074
000040 7f 83 5c 3d 18 e8 ae 3b af 88 25 3a 58 43 91 3b
       0.053836342 0.0053377263 0.0006314618 0.004433077
000050 ef b6 d4 3c ae b9 59 3d f5 c0 43 3d 1a 8b e2 3b
       0.025966136 0.053155594 0.04779144 0.006913555
000060 32 b1 40 3d 6a dc b4 3d f4 53 d3 3d 14 a1 7c 3d
       0.047043987 0.08831103 0.10318747 0.061677054
000070 4b 9f 18 3d 21 28 13 3d 63 39 70 3d 8a a8 45 38
       0.03726129 0.03592694 0.05864848 4.7125424e-05
000080 72 11 fa 39 23 26 cf 3c eb 87 90 3d f0 5f 15 3d
       0.00047696714 0.02528674 0.07057174 0.036468446
000090 e1 c0 8f 3a ab 40 4f 3d 11 af ab 3c f5 d1 76 3d
       0.0010967517 0.05059878 0.020957502 0.060258824
0000a0 48 be ee 3c 81 a0 09 3d fe c7 ce 3c 96 b9 0f 3c
       0.029143468 0.033600334 0.025241848 0.0087722745
0000b0 d7 f2 f1 3b 28 b7 bc 3c cb 99 a3 3c 4b ca 5c 3d
       0.007383685 0.023036554 0.019970795 0.05390386
0000c0 64 21 7c 3c d6 8f c6 3c 5d 28 88 3d c1 fb 90 3d
       0.01538882 0.024238508 0.06648324 0.07079268
0000d0 0b 3e 7b 3c a5 55 10 3c e0 b5 36 3d 34 5e 51 3d
       0.015334616 0.008809482 0.044607043 0.05111523
0000e0 c5 5f 1e 3d f1 af 04 3c 25 a6 2a 3d 2c c4 31 3d
       0.03866555 0.008098588 0.041662354 0.043399975
0000f0 e9 82 83 3c 1a 4d 81 3b 3a 03 e5 3c 77 7f ec 3c
       0.016053634 0.003945959 0.02795564 0.028869374

fc3.weight f4 [2, 64]
000000 6e e2 9b 3b e3 23 ec 3b 3a ac b1 ba 1e af 58 bc
       0.004757217 0.0072064265 -0.0013555356 -0.013225345
000010 6a 28 8d bc b0 77 72 3b 3a 69 20 3c 80 cc 8c bc
       -0.017231185 0.003699761 0.009790713 -0.017187357
000020 df 80 b1 3c 50 f5 d1 bc 99 cb 42 bb d3 8e fc ba
       0.021667896 -0.02562967 -0.0029723404 -0.0019268639
000030 e3 38 6b 3a df 02 e1 bc 74 2b e8 3c 21 7b 31 bb
       0.00089730154 -0.02746719 0.028341033 -0.0027081447
000040 f3 58 9c bc c5 d5 9b 3a c7 20 b0 3c d1 60 9f ba
       -0.019085383 0.001188927 0.021500004 -0.0012159591
000050 7e be d4 3c 33 39 88 3d b8 0f 52 3c e2 50 bc bb
       0.02596974 0.06651535 0.01282113 -0.0057469467
000060 87 9e 1c bb 78 6e dd 3b f0 e6 86 ba f4 b0 42 bb
       -0.00238982 0.0067575537 -0.0010292213 -0.0029707523
000070 bd 8a 08 bd 88 94 c1 3c f7 c4 36 3c 20 c1 cf bc
       -0.033335436 0.023630396 0.0111553585 -0.025360644
000080 20 03 cc 3d 0f 8b 2b bc e0 2d 0f bd 06 e2 1f 3c
       0.099615335 -0.010470166 -0.03495586 0.009758478
000090 b7 c6 6f bc 01 08 1e 3d 00 f4 1d 3d 4c 66 44 bc
       -0.01463478 0.038581852 0.038562775 -0.01198728
0000a0 f5 05 0b 3d 9f e8 3a 3c ff cf 70 3c 47 69 77 3a
       0.033941228 0.011408 0.014698028 0.000943799
0000b0 0f f2 53 3d 63 d5 57 bc bd 57 ee 3b 1a a9 94 bc
       0.051744517 -0.013173434 0.007273643 -0.01814704
0000c0 2c f4 9d 3c 61 bd b2 3b bb f9 fb bb e7 2c 77 3c
       0.01928147 0.0054547046 -0.0076896823 0.015086389
0000d0 5c d3 41 bd 62 01 84 bc ce eb 16 ba cd 09 ed 3c
       -0.04732071 -0.01611394 -0.00057571835 0.028935337
0000e0 d4 08 40 3c 31 3d b9 bb d7 7f 05 3b 0f 7c c5 bc
       0.011720855 -0.0056530465 0.0020370388 -0.024107007
0000f0 ee 25 40 3c 87 19 f5 bb 24 cb b4 bc d1 3c 01 3b
       0.011727793 -0.0074798497 -0.022069521 0.0019720087
000100 48 05 7d 3b 84 43 9b 3b 63 86 9e 3c f5 50 c8 bc
       0.0038607884 0.004738273 0.01935119 -0.024452666
000110 00 44 3d bb 1b c7 80 3c f5 fc 9c 3b 5a f4 80 bb
       -0.0028879642 0.01571994 0.004790897 -0.003935379
000120 24 6b fd bb 7b 32 c3 bb b2 b7 97 bc ae ee 74 bc
       -0.0077337194 -0.0059569455 -0.01852021 -0.014949484
000130 8d f6 ea 3b 30 96 85 3b e5 23 d8 3c f6 f2 fc bb
       0.0071705044 0.0040767416 0.026384303 -0.007719393
000140 c8 f9 2e bd be 9b af 3c 24 06 68 bc c5 5f f2 bb
       -0.04271868 0.021436568 -0.01416162 -0.0073966705
000150 d2 f8 03 3c a1 74 3b 3c 79 8c bf 3c 08 ba 03 bc
       0.008054929 0.011441381 0.023382412 -0.008039959
000160 cd 05 ea bc 9d 10 34 bb 17 48 9f bc 17 a9 8d bc
       -0.02856722 -0.0027475723 -0.019443555 -0.017292542
000170 a8 e0 29 3d df fa d2 3c 62 92 b2 3b e0 95 bc bb
       0.041474015 0.02575439 0.005449579 -0.005755171
000180 e2 5e d5 3c de ca 93 3c 2a 53 53 3b e4 19 73 bc
       0.02604622 0.01804107 0.0032245615 -0.014837716
000190 2d b2 0b bc 15 22 6c 3c c0 b9 bc 3c 20 4c 6a 3c
       -0.008526367 0.014412423 0.023037791 0.014300376
0001a0 b1 4b b6 ba 70 33 9e ba bf 06 47 3b 11 8b 1a 3c
       -0.0013908056 -0.0012069773 0.0030369011 0.00943257
0001b0 e7 6a 4b bd 86 68 aa 3a dd 48 15 3c f8 17 bb 3b
       -0.049662497 0.0013001121 0.00911161 0.0057096444
0001c0 08 a6 d2 3b e6 82 93 bb 2d 46 88 bc a9 9e 35 bc
       0.006428484 -0.0045016883 -0.016635025 -0.011085191
0001d0 16 c1 99 3a 89 7b 3d 3d 77 5c b7 bc 3e 93 d5 bb
       0.0011730518 0.04626039 -0.022382958 -0.006517797
0001e0 67 75 76 bb 24 75 5e 3c 20 48 21 3c 86 21 14 3d
       -0.0037606598 0.013577733 0.009843856 0.036164783
0001f0 62 ee 6c 3b 32 b3 32 ba ab 9c 07 3c e4 64 6c 3c
       0.003615283 -0.00068168633 0.008277099 0.014428351

fc3.bias f4 [2]
000000 4c f4 88 bd 32 6b 1e 39
       -0.06687221 0.00015107988

bn3.weight f4 [2]
000000 57 64 a0 3f 12 cc 9e 3f
       1.2530621 1.2406027

bn3.bias f4 [2]
000000 92 f2 07 bf 19 c8 5a be
       -0.5310451 -0.21365394

bn3.running_mean f4 [2]
000000 fb e9 88 bd 7f c8 21 39
       -0.06685253 0.00015428847

bn3.running_var f4 [2]
000000 88 e4 ea 3a d0 5f 75 3a
       0.0017920891 0.00093602855
