p3_collaboration_and_competition/weights/actor_1_300.pth (torch_old, 51773 bytes, 18 tensors)

fc1.weight f4 [128, 24]
00000000: e299 7ebd dcbf b23d 587d 713c 0e1c ae3d
00000010: 6cbd bfbd b847 4bbd d19a a03c 9ac8 9f3c
00000020: c83a 8fbd d664 fb3c ab70 f23c 8560 d8bc
00000030: 8918 8abd 7cde b7bd 9db7 9cbd e18e 083d
00000040: 3912 c7bc e97a 983d b806 783d 5aef aebd
00000050: c04c 03be 0f75 7a3d 1984 febc 88d9 d9bd
00000060: 0648 2d3d 7264 2bbc 5b37 e0bd 0e39 c9bc
00000070: 0dd8 413d 7838 77bd 83e4 2a3d 8eed 2ebb
00000080: d68a 3e3d 387d 103d 3e6c a73b 1780 9d3c
00000090: 239b fd3b 1c8f 09be 6069 e33b 8012 0cbd
000000a0: 6851 a43c 45ac 6b3d fe6e 593c bac2 8cbc
000000b0: 58e7 d53b 8fec d2ba 1385 b0bc 7791 4fbd
000000c0: 9b13 25ba 8aec 04bc 0f97 0fbd 3de6 fa3c
000000d0: ae59 9a3c c162 3ebd 46fe 133d b9fd e5bb
000000e0: 3341 7fbc d917 273d 30ec d0bb 0700 093d
000000f0: 02ec 8ebd c501 3f3d 865e 9a3b 3d2c af3d
00000100: 22f1 07bd 408f 433c 6423 13bd 79c8 ac3d
00000110: 41a0 e4bd e908 e6bd 049a 813d 31f8 44bd
00000120: 6847 0abd 9315 b7bd 684d abbd fa59 e0bb
00000130: 98f3 6c3d 97ee c5bd cc1f 233a 20e1 833d
00000140: 134b 843d d127 8f3c d703 553c d5f9 723d
00000150: b96e 1e3c 0ed9 833d 112a 5cbd c9f7 9bbd
00000160: 7d4d 9cbd 0a6e f63c 5f6c 9a3d 32df 9e3c
00000170: 4374 0d3d edf0 cb3c 4ec4 85bd 21ff e3bd
00000180: 140f 843d 55f0 223d 7df6 9f3d 4478 0dbd
00000190: c61d 1fbd 07da a13b feed 953d 10c5 42bc
000001a0: afee 90bd 28e5 59bc 2b1b aa3d 7169 1ebd
000001b0: b85d a83d 9d9a 373d b2a6 d13c a6ef 7e3d
000001c0: d1b2 e83c fe17 b1bd 4b46 ab3d 3926 3bbc
000001d0: 447e c5b9 b88c 883c 8f0e 373d 49e5 a1bd
000001e0: 9d35 583d 83b7 61bb 9c26 30bc e217 293d
000001f0: 97fd 4f3d fdb5 eebc 9a72 b93c ad10 63bb
00000200: a9ff ba3c 5e48 f2bc 5d9b 3dbd a754 9e3b
00000210: 14c4 a03d 2161 ad3d b15e a33d 82de 1c3c
00000220: 8693 b03d 28de 8b3d 64a5 65bd b9aa 38bc
00000230: eaba 3b3d 6cf3 c83d 4679 173d 829d a83d
00000240: af21 48bd 9bdd 133d 7331 b13c 185b cf3c
00000250: b6cd 2d3d 359a 003d ad55 17bd 4db9 2b3d
00000260: c689 e8bc 5377 91bd 43b6 68bd 3fb1 873d
00000270: 4bfc b63b 985c 8dbd f8b1 fcbc 5886 ab3d
00000280: 106f b33c 41de 3bbd 5d1f 783d 26a6 923d
00000290: 9852 823d 8e27 7cbd 1fd6 81bd 069a 013e
000002a0: f64f f3bc 1bcb 053d 14f6 8ebd bcda 4fbd
000002b0: d322 263d fc01 343d 0d61 5cbd 9263 a23c
000002c0: 2837 3bbd 17af 93bd 995e 903d d20b cbbd
000002d0: c642 48bd b1fb f83d 7903 943d 2778 143d
000002e0: f6e7 3f3d 197a da3c 81f5 3e3d ba41 45bd
000002f0: 0e64 26bc ad4d 103c c4fb 863d 5ef3 99ba
00000300: 997b fb3b efdf 6c3d 7a79 a4bc a919 f93d
00000310: 3f71 47bd bce1 d73d 16f8 b63c d99d 1bbc
00000320: e719 883d 17d3 abbd 9da7 8a3d f5b7 69bd
00000330: 8556 b9bc 0ce3 a73d bf72 76bd bee2 7abd
00000340: 6e23 9dbd 8a5d a23c de4b 94bd 00b6 ee3c
00000350: e24a 8bbd 136d 4f3d f4b6 23bd 4163 4bbd
00000360: 4e60 2d3d c78e 053d fc17 433c cbf7 6fbc
00000370: 6d91 c2bd b89c ebbb e67c 54bc 182a 153d
00000380: b299 613d ec6b e7bb bb5a 7bbd 9784 713d
00000390: baa5 073d e34c ce3d 5fa2 4d3d e1d9 333d
000003a0: 3b2f 9cbd cde5 c93c d9a4 793d d709 653c
000003b0: 6bb8 af3c adb3 9d3d 4c8f 57bd 3de9 453d
000003c0: 05cf 76bd e813 a63c d00a 3fbd 1b40 c93b
000003d0: 6aa3 8f3c a5e6 3bbd c8a9 89ba 14f1 603d
000003e0: 917c 86bd f493 e0bd 833e 11bc 6e92 463c
000003f0: 0454 6abd 8e91 a93d 3d92 873b e7f2 6c3d
-0.062158473 0.087280005 0.014739357 0.08501445 -0.09362301 -0.049628943 0.019605072 0.019504834
-0.069936335 0.03068773 0.02959474 -0.026413212 -0.06742961 -0.089779824 -0.07652209 0.033339385
-0.024300681 0.07445318 0.060553282 -0.085417464 -0.12822247 0.061146792 -0.031068848 -0.10637194
0.042305015 -0.01046096 -0.10948058 -0.024563339 0.047325183 -0.060356587 0.041721832 -0.0026691887
0.046519123 0.035275668 0.005109339 0.019226117 0.007739441 -0.13433498 0.006940052 -0.03419733
0.020058349 0.057537336 0.0132710915 -0.017182697 0.0065278225 -0.0016092228 -0.02154783 -0.050675835
-0.0006297172 -0.008113036 -0.03505617 0.030627364 0.01884159 -0.046480898 0.036131166 -0.0070187715
-0.01557951 0.040794227 -0.006375812 0.03344729 -0.06978609 0.046632547 0.004710975 0.0855336
-0.033188947 0.011936009 -0.035922423 0.084366746 -0.111633785 -0.11232168 0.06328204 -0.048088256
-0.033759505 -0.08939662 -0.083643734 -0.0068466635 0.057849497 -0.09664648 0.00062226946 0.064394236
0.06459632 0.01747504 0.013001404 0.05932029 0.009669953 0.06437884 -0.053751055 -0.07615621
-0.07631967 0.030081768 0.075402014 0.019393537 0.034534704 0.024895156 -0.06531583 -0.11132646
0.064481884 0.03977998 0.07810686 -0.034538522 -0.038846754 0.004939321 0.07320784 -0.011887804
-0.07076775 -0.013299264 0.08305963 -0.038674776 0.082210004 0.044825185 0.025592182 0.062240265
0.028405579 -0.08647154 0.08363017 -0.011422687 -0.00037668843 0.016668662 0.04469162 -0.07905061
0.052785505 -0.0034441657 -0.010751393 0.041282542 0.05077895 -0.029139513 0.022637654 -0.003464739
0.022826986 -0.029575523 -0.046290744 0.0048318687 0.07849899 0.084657915 0.07977045 0.009574534
0.08621888 0.06829482 -0.056065932 -0.011271172 0.045832552 0.09812054 0.03698089 0.08233167
-0.04886025 0.03610001 0.021630025 0.025311992 0.04243251 0.031397063 -0.03694694 0.041924763
-0.028386008 -0.071028374 -0.056814443 0.06625604 0.005584275 -0.069024265 -0.03084658 0.083752334
0.021903545 -0.045866255 0.060576785 0.071605965 0.0636341 -0.06156116 -0.063396685 0.12656412
-0.029701214 0.0326644 -0.069805294 -0.05074571 0.040560555 0.043947205 -0.053803492 0.01982287
-0.045706898 -0.0721113 0.07049293 -0.09914364 -0.048891805 0.12157381 0.07227225 0.0362474
0.046852075 0.026669549 0.04662085 -0.048158385 -0.010155691 0.008807582 0.06590989 -0.0011745503
0.007674646 0.057830747 -0.020077456 0.121630974 -0.048691984 0.10541102 0.022335093 -0.009498083
0.066455655 -0.083898716 0.06770251 -0.0570602 -0.022624264 0.08197603 -0.060168024 -0.061251394
-0.07672773 0.019819994 -0.07241033 0.029139519 -0.06801392 0.05064113 -0.0399694 -0.049655203
0.04232817 0.032606866 0.011907574 -0.014646481 -0.09500394 -0.007190313 -0.012969231 0.036417097
0.055078216 -0.007062426 -0.061365824 0.05896434 0.033117034 0.10073259 0.050203677 0.043908957
-0.07626196 0.02464571 0.060948227 0.013979397 0.021450242 0.07700286 -0.052626893 0.048318136
-0.060256023 0.020273164 -0.04664117 0.006141675 0.017533977 -0.045874257 -0.0010502869 0.05491741
-0.06566728 -0.1096572 -0.008865002 0.0121198725 -0.05720903 0.082797155 0.004137306 0.057848837

fc1.bias f4 [128]
00000000: d4fd 09be 7da9 813d 8b93 6dbe 9688 b2bd
00000010: b86e 80bb 3d0d 9f3d b3c4 9e3d bab5 07be
00000020: 37e8 6e3d 7c6b 6ebd 586e acbd b6f7 6c3a
00000030: c452 053e f330 1d3e f842 5c3e 64a6 fd3d
00000040: e24e 103e 6b1a 943d 4ddf 773d 8ae5 bfbd
00000050: 99a8 eabd 26a5 1cbe 44d7 ed3c a71c c43d
00000060: f94e 1cbe b37d 07be c4de 333e 7a48 0e3e
00000070: 0764 1abe 0612 3abe 0d70 a5bd 2159 e2bd
00000080: dc44 253d 7170 8ebd 55d4 d63c 26d3 3cbc
00000090: fcf0 983d 5299 31bd f741 013d 9df6 bfbc
000000a0: 0293 e33c 5734 8e3c b833 2f3e fda1 fbbd
000000b0: fb5c e03d 9297 59bd 6edd f53d 878b 1cbe
000000c0: fa28 18be dd40 89bd eba5 9b3d df6f 6b3d
000000d0: 931a 773d ee18 f4bd 9e88 163e 1f2e cfbd
000000e0: ee5a 693d 8dd0 8c3d ac2c 4c3e d5df 9d3c
000000f0: 1b65 bebd 6e5a ab3d 5d3a 463e b989 03be
00000100: 2825 49be 2398 e1bc 8601 dcbd 5e52 91bd
00000110: 1b22 16be 02b1 b23d 4cbb a1bd a978 bc3d
00000120: 28e3 463e 9b26 4abe 0d66 c53c b8de 4a3e
00000130: a9e2 8b3e 256e dbbd 282d e53d 758d 973d
00000140: 26d7 f73d 922a b23b b23e 31bd 86ba c1bd
00000150: db95 be3c 7745 373d 801e 73bd a73b 34be
00000160: c90f 0e3e c49a 18be 4018 a5bc bc7e b1bd
00000170: e19e a4bd 3760 41be 6c19 adbd 76b1 3f3d
00000180: 071e eb3d de67 0c3e d0ff 15be 4051 c4bd
00000190: 8835 1abe 2cd6 5cbd 6635 13be 9bf4 c6bd
000001a0: 2c76 7ebd c26a 5b3e 806e 1bbe bf9c eabd
000001b0: 413a 7dbd 39c6 193e 90fa 07bd 6488 7c3b
000001c0: 7e4b 373e fe84 cf3d b3e7 253e bf10 cebd
000001d0: bd6c 1f3e 2b91 3bbe 6f73 1dbe da94 ef3c
000001e0: 3ad6 623d d02a bfbc b152 3f3e 8051 433c
000001f0: f163 91bd 83e5 09bd 7c22 87bc 4283 c43d
-0.13475734 0.063311554 -0.23200814 -0.08717458 -0.0039194487 0.07766197 0.07752361 -0.13252917
0.058326926 -0.058207974 -0.08419484 0.00090395974 0.13019854 0.15350704 0.21509922 0.12385252
0.14092591 0.07231601 0.06051569 -0.09369953 -0.11457939 -0.15297374 0.02903331 0.095757775
-0.152645 -0.13231544 0.17565447 0.13894835 -0.1507722 -0.18170938 -0.080780126 -0.11052156
0.040348873 -0.0695504 0.026224295 -0.011524951 0.07467839 -0.04335911 0.03155705 -0.023433024
0.02778006 0.017358942 0.17109573 -0.12286756 0.109552346 -0.053123064 0.12005125 -0.152876
-0.14859381 -0.06701825 0.07600006 0.057479735 0.060328078 -0.119188175 0.14700553 -0.10116219
0.056971483 0.068757154 0.19938916 0.01927177 -0.09296628 0.083668575 0.19358201 -0.12845506
-0.1964308 -0.027538365 -0.10742478 -0.070957884 -0.14661448 0.08725168 -0.07897052 0.092027016
0.1942259 -0.1974129 0.024096513 0.19811523 0.27321365 -0.10714368 0.111902535 0.07400028
0.12101583 0.0054372037 -0.04327268 -0.09459405 0.023264816 0.04474398 -0.05935526 -0.1760088
0.13873209 -0.14902788 -0.020153165 -0.08666751 -0.08038116 -0.1888436 -0.084521145 0.0468001
0.11480337 0.13711497 -0.14648366 -0.0958581 -0.15059483 -0.053915188 -0.14375839 -0.097146235
-0.062124416 0.21427444 -0.15178871 -0.11455678 -0.061823133 0.15017022 -0.03319794 0.0038533444
0.17899892 0.10132788 0.16201667 -0.10061788 0.15568824 -0.18317096 -0.15376066 0.029245783
0.055380084 -0.023335844 0.18683888 0.011921287 -0.070991404 -0.033666145 -0.016495936 0.09595348

bn1.weight f4 [128]
00000000: 6ca5 443f 4aec 053e e18a 163f a91f 6b3f
00000010: 5702 d03e baa9 3e3f b050 da3e 140a 763f
00000020: ac58 f73e 8356 563f 46fe a23e 013f 423c
00000030: 0621 a63e ca51 563f f664 f93e af09 eb3e
00000040: 3f46 603f 45bf 473e 4bc7 2e3e a61c 2d3f
00000050: e9b9 733f 6a0d 233f f3df 9c3e 04d1 343f
00000060: 3ba2 3e3f e2b8 cf3d 2f98 6a3f 1ee3 083f
00000070: 093b 9d3e 1b08 233d 1bd3 1d3f 8c62 c03e
00000080: 1367 183f 2c4f f73d d00a 253f da8c 693e
00000090: 651a 613f b276 043f 3bed 3f3f 2280 553f
000000a0: 0840 723f 3ffd 123f 3611 683f b1a4 fb3d
000000b0: 224a 583f c29c 553f 6246 8c3e 9065 633e
000000c0: 49f9 683f 2a4b 6b3f 2653 1f3e e5a7 003f
000000d0: 3f42 063e 36fc 433f 5691 9e3d 12a7 973e
000000e0: 3f76 643f d876 673f b4b4 6a3f 5a65 0c3f
000000f0: c93f 943d d8b8 4e3f ae01 673f 5bcf 603f
00000100: e00a 4d3f 51f7 e93e ee2e 423f 7c1d 1c3f
00000110: 5067 9f3e 9ce9 553f ad4c 9e3e 031d 493f
00000120: 089c f03e 8863 e83e a706 343f 3ebb d23e
00000130: 757a 2b3f e3d5 013e 34b6 813c a200 1a3f
00000140: 04bc c53e 1b09 903e 0e59 ac3d 9573 123f
00000150: fc94 a13e 4087 703f 9dfa 0a3e 3742 a23e
00000160: 8709 df3e ffaf 193f 206e 8f3d ba1e 443f
00000170: 752b 873d e622 7c3e a1be 163f da0c d83e
00000180: 3ecc 0e3f 2700 4e3d 2f9e 4b3e 8d54 563f
00000190: 66a4 2e3f 88f6 403f a682 3c3f 8292 533f
000001a0: bce2 3b3f cdcf b53e 6ff2 873e 6921 6c3e
000001b0: 6fec 273f ff07 e93e 78c1 863e 9495 513f
000001c0: 2832 003f 6c88 f83e d000 cc3e f739 143e
000001d0: d2f4 653f 9c1c 6b3d ac68 953d 3553 173f
000001e0: b5c1 993e 8082 573f 6245 fa3e f5c4 8b3e
000001f0: 1666 f53e 2d49 e03e 7a4b db3e b9ae dd3e
0.76814914 0.13078418 0.5880566 0.91845185 0.40626785 0.7447773 0.42639685 0.9610913
0.4830984 0.83725756 0.3183462 0.011855842 0.3244707 0.8371855 0.4870984 0.45905825
0.8760719 0.19506557 0.17068212 0.6762184 0.9520555 0.63692343 0.3063961 0.7063143
0.74466294 0.101426855 0.91638464 0.53471553 0.30709103 0.03980265 0.61650246 0.37575185
0.5953228 0.12075648 0.64469624 0.22807637 0.879309 0.51743615 0.7497136 0.8339864
0.94628954 0.5741767 0.9065126 0.12287272 0.8448812 0.8344232 0.27397448 0.22206712
0.9100538 0.91911566 0.15559062 0.50256187 0.13111208 0.7655672 0.077425644 0.29619652
0.8924293 0.90415716 0.9168198 0.5484215 0.072387286 0.807508 0.9023694 0.878164
0.8009472 0.456965 0.7585286 0.6098249 0.3113351 0.83559585 0.30917874 0.78559893
0.46994042 0.45388436 0.7032265 0.4115848 0.6698373 0.12679248 0.015833952 0.60157216
0.38620007 0.28131947 0.08415423 0.57207614 0.3155898 0.93956375 0.13572164 0.31691143
0.43561956 0.60034174 0.070034266 0.76609385 0.06600086 0.24622688 0.58884627 0.42197305
0.557804 0.050293114 0.19884561 0.83722764 0.682196 0.75376177 0.73636854 0.8264543
0.73392844 0.35510102 0.2655215 0.2305962 0.65595144 0.45513913 0.2631948 0.81868863
0.5007653 0.48541582 0.3984437 0.14475237 0.8982669 0.05740033 0.07295355 0.5911134
0.300306 0.841835 0.4888106 0.27298704 0.47929448 0.4380583 0.42831022 0.43297365

bn1.bias f4 [128]
00000000: 7087 b8bc c3e9 08bd 362b 373d 53bc c9bc
00000010: d713 56bd 9225 8a3d d4f1 bebc 88b4 ccbc
00000020: 9255 31bd 5f5e 603d 738c 003d e7ee 84bd
00000030: 4017 173d 4ce8 3ebc f876 0b3c ebe1 033d
00000040: 87dd a6bb 4b3f 653d b26e cc3c 047b 393d
00000050: 7987 94bd 764f 6dbd 8b0c 22bd f790 3bbd
00000060: 14ca f83c 1116 54bd 1a5e d43c a8f3 b9bc
00000070: c8a1 22bc 4e9f 9a3d 2d31 823c f5eb 40bc
00000080: 2b6d 943d 7319 afbb 67d4 5abc 4f4c c43c
00000090: 94c2 493d c991 583d e493 c63c 51ac 1e3d
000000a0: f289 973d 1d54 f23c 0374 c1ba 5e55 c63c
000000b0: b5e6 2fbd 0ce7 0dbd f1f7 1bbd f182 bcbb
000000c0: 3ad6 23bd bd43 853d a7cf b0bb 7f4d 423d
000000d0: 0531 aabc e8e5 593d acc1 5ebc d3ab 26bc
000000e0: 06bd fa3c 7e8f e83c fd8e 493b d2f3 813d
000000f0: 2e24 6dbd a803 51bd 6553 103d b8af ce3b
00000100: a9e9 173c 082d 52bd a7c3 1c3d 42fd b5bc
00000110: ff2e 963d 27c5 e2bc dc31 873c 66bf 813d
00000120: bfa1 073d ae02 253c e4b4 69bd 869d 213b
00000130: ecab 1fbd 44cc 353d dbd4 a3bd eafe a83d
00000140: 60ec 9abc bdb5 5a3c 333d ab3c 85a6 aa3d
00000150: 36fd b23c 7cfe 2b3d e754 31bd 6033 2bbc
00000160: 3aaf 8fbd 4956 183d ee28 a5bd b9ed 953d
00000170: 285d 0bbc adff eb3c eef9 bdbc 401b 8ebc
00000180: bb56 fabc 87d8 873d 35d1 253d 08ad df3c
00000190: b490 2a3d 2c6e c93c 1571 3abd 1c03 af3b
000001a0: f548 2bbd d63d 173d 28ac 013d 9b37 8e3d
000001b0: e2b5 063d 5b39 993c 31fd 7c3d 795d 6e3d
000001c0: 655a d5bc 20da 573c 4272 923d ce28 003d
000001d0: e242 2c3b f177 9fbd c9d3 ebba f8cd 8dba
000001e0: 1b56 1a3d 6eca a8bc e617 45bc 72fd fcbb
000001f0: 1f5f ee3c a1d0 c03b e46d 3dbc d1e9 06bd
-0.02252552 -0.033426058 0.044718944 -0.024625933 -0.052265014 0.06745447 -0.023308672 -0.024988428
-0.043294497 0.0547775 0.031383943 -0.064908795 0.036887407 -0.011652064 0.008512251 0.032197874
-0.005092326 0.055968564 0.024955127 0.045283332 -0.07252402 -0.057937108 -0.039562743 -0.045792546
0.030369796 -0.051778857 0.025923777 -0.022699192 -0.009926267 0.07549916 0.01589259 -0.011775007
0.07247385 -0.00534361 -0.013356305 0.023962168 0.04925783 0.052873407 0.024240442 0.038738552
0.07399358 0.029581124 -0.0014759306 0.024210628 -0.04294463 -0.03464417 -0.038078252 -0.005752914
-0.039999224 0.06507061 -0.005395848 0.047437187 -0.020775327 0.05319777 -0.01359598 -0.010172802
0.030607712 0.028388735 0.0030755394 0.06345333 -0.05789583 -0.051028877 0.03523578 0.0063075684
0.0092720175 -0.051312476 0.038272526 -0.02221549 0.073331825 -0.0276819 0.016503267 0.063353345
0.033113237 0.01007144 -0.057057276 0.0024660542 -0.038982317 0.044384256 -0.07999583 0.08251746
-0.01891154 0.013348994 0.020903205 0.08332542 0.021849256 0.041990742 -0.04329386 -0.0104492605
-0.07015844 0.037191663 -0.08064447 0.073207326 -0.008506097 0.02880844 -0.023190465 -0.017346978
-0.030558934 0.06633096 0.04048272 0.027304187 0.041641906 0.024588667 -0.045518 0.005340947
-0.041817624 0.036924206 0.03165832 0.069442 0.0328883 0.018704107 0.0617649 0.05819461
-0.02604408 0.013174564 0.07150699 0.031288914 0.0026284982 -0.07786549 -0.0017992194 -0.001081883
0.037679773 -0.020604338 -0.012029624 -0.0077206427 0.029098092 0.0058842455 -0.0115618445 -0.03293783

bn1.running_mean f4 [128]
00000000: 9c7e 8a3f 6740 c83c c7f8 f03e 825e 153f
00000010: cdbf a73f e7fe 8f3e 9cb0 2d3f b428 a53f
00000020: 4d30 663f a052 e13e 763c bd3f d895 ab3f
00000030: 135b 0e3f 8031 9e3e e94c b83f 79b1 d13e
00000040: 3af5 c53e 6e5d 293f c549 413f 83e9 773e
00000050: fee8 a33e 7321 9a3f c70e 313f 5c78 1f3f
00000060: c526 843e 2f8a 9f3e 6ea2 093f dc60 9f3e
00000070: 41ee 2f3f c655 063f 7537 513e 4813 dc3e
00000080: e455 473f 4021 f23e 9d30 143f 307f da3d
00000090: 13f8 913e 2476 a63f 8d51 aa3e 709f 7b3e
000000a0: 5bcb 3f3e 6c9b 7c3f 597b 4a3f 773a 4d3e
000000b0: f1d0 a63e 2585 7e3e 0456 b83e 5e23 e93e
000000c0: 3353 063f d02b 2e3e f6d1 a83f d016 473e
000000d0: 3630 833f b28e 113f 979f 803f bcc6 a53e
000000e0: 55e1 253f 03d3 9e3f de8f 573f 3eda b83e
000000f0: 518f 7e3f 8a7d cd3e e82a 833f 3bcc 9e3f
00000100: 6ca8 733f d2c3 3b3f 3ecf 7d3f c3c8 2e3f
00000110: 13c8 a33f d0bc 063f dbe3 293f 5f9a e23e
00000120: 5107 a23e 1d14 2a3f 9494 7e3f 89b0 713f
00000130: b1b6 c53f 2555 a23e 1927 1c3f d86f e53d
00000140: 71ec 203f 5780 903f 4ffa 453f 7094 813f
00000150: a771 8b3e bc49 cb3e df0b 583f 6094 793f
00000160: f178 fd3e 46a0 0e3f 7c83 3b3e e9f8 323f
00000170: d933 bf3e 075f 6a3f 378c 1d3f b455 823f
00000180: 93e0 b63f de76 293f 843a ea3d 7b6b 273f
00000190: 09bc c83e 908e 7d3e 53f5 1b3f de98 4a3f
000001a0: c12f 683f 6faf 663f 51a1 d33c 5442 b13d
000001b0: 15ed 3c3f f112 723f fd44 623f 0cd2 d63e
000001c0: 34bf 153e a441 2b3f 8880 103e d15e 873f
000001d0: 0295 c83f fa7f 0d3d 78d4 083d f06a 743f
000001e0: fa91 6a3e ec68 e23e ccf8 2b3f 6c99 2c3e
000001f0: bc2d 333f 4c37 a53f 9a25 d13e 0a8f ad3f
1.0819888 0.024444772 0.47064802 0.5834733 1.3105408 0.28124163 0.6784761 1.2903047
0.8991745 0.4400835 1.4784076 1.3405104 0.5560772 0.3089714 1.4398471 0.40955713
0.38663656 0.6615819 0.7550319 0.24210171 0.32013696 1.2041458 0.69163173 0.6229303
0.2581083 0.31160113 0.53763473 0.31128585 0.6872292 0.5247463 0.20431311 0.4298346
0.77865434 0.47290993 0.5788668 0.1066879 0.28509578 1.3004804 0.33265343 0.2457254
0.18729918 0.98674655 0.79094464 0.20041834 0.32581285 0.24855478 0.36003125 0.45534796
0.524707 0.170089 1.3189075 0.19442296 1.0249088 0.5685836 1.0048703 0.32378185
0.64796954 1.2408146 0.842039 0.36104006 0.99437433 0.4013484 1.0247469 1.2406076
0.95178866 0.73345673 0.9914435 0.6827509 1.2795433 0.52631855 0.66363305 0.442584
0.31646207 0.6643694 0.9944546 0.94409996 1.5446378 0.31705585 0.6099716 0.11202973
0.6286078 1.1289166 0.77335066 1.0123425 0.27235147 0.39704692 0.84393114 0.9749203
0.49506333 0.5571331 0.18311876 0.69911057 0.37344244 0.9155125 0.61542076 1.0182405
1.4287285 0.66197 0.11436942 0.6539838 0.3920596 0.24761415 0.6092121 0.79139507
0.90697867 0.9011144 0.025833758 0.08655229 0.7379926 0.9456015 0.8838652 0.41957128
0.1462372 0.66897035 0.14111531 1.0575811 1.5670474 0.034545876 0.03340575 0.95475674
0.22907248 0.44220674 0.6717651 0.16855401 0.6999166 1.29075 0.40849 1.3559277

bn1.running_var f4 [128]
00000000: 68d7 d33f 9bc4 9c3c 30c5 d33e b886 043f
00000010: 66ba 8040 f0dc 9d3e ad0b 4c3f 175c 5840
00000020: 897f ba3f b275 643e 3e89 ed3f db8f e13f
00000030: 80bb a13f 3a5b ea3e 1020 dd3f f420 053f
00000040: cc37 be3e c0a2 d23e c207 b33f decf a83e
00000050: 47cc fd3e dd7f a53f bc47 d63f ce15 ff3e
00000060: 5a0e b53e 01b8 bc3e 2ac5 0b3f 0f6f 463e
00000070: 5fc1 a43e 41e8 563f 0ec9 913e 6fe7 b73e
00000080: 6afe 943f ff81 153f 7097 343f 198d c43d
00000090: 7141 a73e 4c77 8e3f 1f48 273f a066 ef3d
000000a0: fdfb e83d 00e0 453f 92ff f13e 7d58 653e
000000b0: c1be 843e b24c c83e e826 f13e 3aaf de3e
000000c0: 01b7 3b3f bca5 7d3d f909 c83e 1d8a 7a3e
000000d0: 32f1 c43f 992e 983f 7c0f 843f e4b7 7d3e
000000e0: 0e14 2b3f 6bd9 bd3f 920f 453f c6c7 163f
000000f0: 98d7 c73f 4dff ac3e f8e1 ec3f bbba a13f
00000100: 668a 0540 aa21 653f 0c72 c63f 4039 123f
00000110: 680d 763f 3b11 d53e 443e bf3f b3f1 d53e
00000120: 587d ba3e b1df 9a3f ab98 d93f 0669 e73f
00000130: 4f93 433f 7a46 bb3e 8567 863f 8b8d 7c3d
00000140: 3ee5 6a3f 61c3 d03f a9b3 4e3f 47b9 db3f
00000150: 14b7 3a3e ad96 523f 15ce 023f ff87 963f
00000160: 962a 9c3e b890 623f 078a 303e 30b7 633f
00000170: bef2 203e 0c7a 983f faf6 173f df1e d13f
00000180: 9a0e 0340 75d1 183f 4948 823d d807 443f
00000190: f4c7 403e dbc2 8d3e 2290 7a3f d771 043f
000001a0: 5477 ad3f 3c08 303f 69ce 883c 1343 a73d
000001b0: 6d44 2e3f ba71 383f 1b19 aa3f d41c 063f
000001c0: 960d 183e 8b99 ce3e a781 6b3e 8081 f73f
000001d0: 5c91 0240 c930 8f3c 75f7 153d 639c e13f
000001e0: 0597 883e 1fc0 603f 0f12 343f 4222 333e
000001f0: a86a be3f 08f8 0b3f 896a e63e 0680 5f3f
1.6550112 0.019136718 0.4136138 0.51768064 4.0227537 0.30832624 0.79705316 3.3806207
1.4570171 0.22310522 1.8557508 1.7622026 1.2635345 0.45772725 1.727541 0.5200341
0.37151945 0.41139793 1.3986742 0.3297109 0.49569914 1.2929646 1.6740642 0.49821323
0.35362512 0.36859134 0.54597723 0.19378303 0.3217878 0.8394814 0.28473705 0.35918757
1.1640141 0.58401483 0.70543575 0.09597225 0.32667115 1.1130157 0.65344423 0.11689496
0.11376188 0.7729492 0.47265297 0.22397037 0.25926784 0.39121014 0.47099996 0.43493062
0.73326117 0.061925635 0.3907011 0.24466749 1.5386107 1.188922 1.0317225 0.2477718
0.66827476 1.4831976 0.76976883 0.5889858 1.5612669 0.3378853 1.850646 1.2635111
2.0865722 0.8950449 1.5503554 0.57118607 0.96114206 0.41614708 1.4940877 0.41785964
0.36423755 1.2099515 1.6999716 1.8078926 0.7639665 0.36577207 1.0500342 0.061658423
0.91756046 1.6309625 0.8074289 1.7165917 0.18233901 0.82261163 0.51095706 1.1760253
0.3050124 0.88502073 0.17240153 0.88951397 0.15717599 1.1912246 0.5936123 1.6337546
2.0477662 0.59694606 0.063614435 0.7657447 0.18826276 0.27687725 0.9787618 0.51736206
1.3552041 0.68762565 0.016699987 0.0816709 0.6807316 0.7204853 1.3288912 0.5238774
0.14848933 0.4035152 0.22998677 1.9336395 2.040122 0.017479317 0.036612947 1.762585
0.2667772 0.87793154 0.70340055 0.17493537 1.4876299 0.5467534 0.45003155 0.87304723

fc2.weight f4 [64, 128]
00000000: c012 683c b25f fd3d 34ba f13d e5f7 c83d
00000010: f84c 40bc e743 44bd 46c1 573c 9360 8a3d
00000020: 69e2 003e e610 37bd 5183 b3bd f2ff d33c
00000030: 26f7 2a3c 6456 c1bb 4203 c5bd 44dc 9f3d
00000040: 50da 7aba c35f 9f3c e87b 433d e201 3c3d
00000050: f47f bebd b6d9 ad3d ab13 ac3d 3114 4f3d
00000060: 76db 78bd 429d f5bd deee 06bd f1e4 a4bd
00000070: 7c61 5cbd 3f21 9c3d 54f6 03bd 128f 8fbd
00000080: 09eb 9b3d ec7d 003e f8a7 37bd e6c4 7c3d
00000090: 05c7 c6bd d4db 8a3c 69a1 023e 4eb3 9a3c
000000a0: f8c8 0a3e aba0 6f3d b72b 513d 42b8 e6bd
000000b0: d695 d3bd c76d f83c df15 71bd 6124 44bc
000000c0: 8f11 123c c5a5 c6bd c4c8 bb3d e1cd 0fbd
000000d0: be12 eb3c 8951 7d3d f812 dbbd 72c9 afbd
000000e0: d0b7 df3c d95d 9e3d 0bb2 c9bd 4853 093c
000000f0: 73c6 813d 3629 c6bc b310 203d dea8 da3d
00000100: d628 68bd db5d af3d edd5 62bc de8f d93d
00000110: c96c 83bc f0b5 6ebd 5895 5dbd 8456 ccbd
00000120: 2652 c5bd e9eb bfbd eadd 0f3d 8b18 7d3d
00000130: 5840 683d 7f65 a43c c6c3 093d 7ee1 4dbc
00000140: 6f9f ba3d 0f72 dabc 1fb8 363d cef0 903d
00000150: 14e6 15be c9b8 11bd b9ea 7d3d ffdf 04bd
00000160: d18c c83d 10fd e73c 28d0 783d 1a61 38bd
00000170: edfa c53d 7c47 6d3d 3b5a 693d 4c04 aebd
00000180: 892a 513d afd2 c2bc 9319 63bd 6caa b13d
00000190: 7dff 00bd 7781 6f3c 756d 913d a4ab 373b
000001a0: 3c10 afbd c3d5 583c c598 043e 012e c33d
000001b0: a32d 743d 87cf d0bd c3b6 3dbc 4b20 b9bd
000001c0: bb3b 59bd 7905 c73d 17f5 a7bd 8263 65bd
000001d0: c58e c9bd c310 303d 076d de3d 4195 593d
000001e0: dff0 32bc 3363 c1bd ed12 3a3d 9a1f f0bd
000001f0: 8689 a6bd aaad d0bd 42b1 37bc b41e b5bd
00000200: 4e38 8e3d 0ecc 80bb cce6 c93b e48b 923d
00000210: 986d b73d 6c22 febd 399e 8e3d 36fb a93b
00000220: edaf b7bd 1a19 22bd ab9b 9d3d 2c8e 63bd
00000230: 5be2 063d 446c 023e 4eed 6f3d d44c 0abc
00000240: 8913 603d 7613 d5bd 8cba b5bd 2626 8e3d
00000250: 85e8 63bd af73 33bc 6432 923a c37b 9ebc
00000260: e478 5e3d 79e5 b93d 5584 b43d 51d6 d8bd
00000270: 410b ce3c fe31 d8bc 69e9 f23d fc7d 493d
00000280: 1843 9abd 88d8 b73d 987f e3bb b622 9b3d
00000290: 47ab e7bd f58d 443d 0d0b 7fbd 7d5e 8c3c
000002a0: dd83 de3c 0015 033d 4c45 f23d fcf5 c5bc
000002b0: e829 043d 0179 6c3d 6dab 75bc 3c94 0cbd
000002c0: 1235 4c3d bbaf 79bd a890 aeba 3e07 a63d
000002d0: dffd 11bd e827 19bd 3fc4 9cbd a540 583c
000002e0: d012 8abc 2125 f5bd 9816 41bd ebea eebc
000002f0: ece1 a3bd e685 4abd 8d29 af3c 4d1a 623d
00000300: 25ec 4cbd 220c 9dbc 1834 703d d5e6 a4ba
00000310: 0fe2 8b3d f4c0 d33d 68b1 8bbc 8dc7 10be
00000320: 79e4 b83d 4b4f 783d b114 763d 0830 78bd
00000330: 5f20 cdbd d988 6a3d 5248 df3d 35bf d5bd
00000340: 4dcd ad3d 050e fb3c 1508 db3d 9ee2 2cbd
00000350: 5d41 d83d 30b1 b5bd 6dc2 abbd abb0 953d
00000360: 8e7f ce3d a4dc 36bb bb98 4e3d 7a00 9bbb
00000370: 81a3 9a3d 6719 a2bd fc9f 2ebc 4558 02be
00000380: 3761 093e eda9 3cbc 1a8b 57bd 0f46 9a3d
00000390: 3178 cfbd 6f74 ae3d f0e2 5b3d 8cb4 15bd
000003a0: e892 debb c56c 6c3c e0bd 133d 3006 103e
000003b0: de13 35bd cde2 6abd 8cfa d23c aba8 d93d
000003c0: bba7 713d 6576 133e 7fc6 413d 5072 1dbd
000003d0: 6028 59bc 324a 63bc 1bfe 72bd 18f9 cfbd
000003e0: 59b5 023c 6543 d5bd eb49 15bd b25b 3bbc
000003f0: 0eb0 9c3d bce1 033e 3d4f 9dbd bdc3 98bd
0.014164627 0.12371768 0.118030936 0.09812907 -0.011737101 -0.04791632 0.013168639 0.06756701
0.12586369 -0.04469385 -0.08765281 0.02587888 0.010434901 -0.005900191 -0.09619762 0.07805684
-0.0009569274 0.019454842 0.047725588 0.045900233 -0.09301749 0.08488791 0.08402189 0.050556365
-0.06075617 -0.11992885 -0.032942645 -0.080514796 -0.053803906 0.07623529 -0.03221734 -0.0700971
0.07613189 0.12548035 -0.04483792 0.061711214 -0.09705929 0.016950525 0.12756886 0.018884327
0.13553226 0.058502834 0.05106708 -0.11265613 -0.10331313 0.030325783 -0.05885875 -0.011971564
0.008915319 -0.09699587 0.091691524 -0.03510845 0.02869546 0.061845336 -0.106969774 -0.085833445
0.027309328 0.07732744 -0.09848412 0.008381672 0.06336679 -0.024189573 0.039078426 0.1067674
-0.05667957 0.085628234 -0.013844949 0.106231436 -0.016043084 -0.058278978 -0.054097503 -0.09977439
-0.09634809 -0.09371168 0.035123743 0.061790984 0.056701988 0.020067928 0.03363397 -0.012565969
0.09112441 -0.026665716 0.044609185 0.0707718 -0.14638549 -0.035576615 0.061991427 -0.03244018
0.097924836 0.028318912 0.06074539 -0.04501448 0.09667001 0.0579295 0.056970816 -0.08496913
0.051065955 -0.023782102 -0.05544431 0.086750835 -0.031493653 0.014618269 0.071009554 0.002802589
-0.08548018 0.0132345585 0.12948902 0.09530259 0.059613835 -0.10195833 -0.011579218 -0.090393625
-0.05303548 0.09717841 -0.08201044 -0.0560031 -0.09841684 0.042984735 0.10860639 0.053120855
-0.010921686 -0.09442749 0.045428205 -0.117247775 -0.08131699 -0.10189374 -0.011211695 -0.08843747
0.06944333 -0.003930575 0.0061615463 0.07155588 0.0895645 -0.12408909 0.06963772 0.0051874174
-0.08969102 -0.03957472 0.07695707 -0.055555508 0.032930713 0.12736613 0.05857592 -0.008441169
0.05470613 -0.104041025 -0.088734716 0.0694087 -0.05564167 -0.010952874 0.0011153934 -0.019346124
0.05431451 0.090769716 0.08814303 -0.105877526 0.02515185 -0.026391026 0.11860926 0.049192414
-0.07532328 0.08976847 -0.0069427006 0.0757498 -0.113119654 0.047986943 -0.0622664 0.0171349
0.027162487 0.03200245 0.118296236 -0.024165146 0.032266527 0.057732586 -0.014994484 -0.034321055
0.0498553 -0.060958605 -0.0013318257 0.0810685 -0.0356425 -0.037391573 -0.076546185 0.013199006
-0.016854674 -0.119699724 -0.047140688 -0.029164752 -0.080020756 -0.0494441 0.021382118 0.055200864
-0.050029892 -0.019170824 0.05864343 -0.0012581 0.06830227 0.10339537 -0.017052367 -0.14138623
0.09027953 0.060622495 0.060078327 -0.06059268 -0.1001594 0.057259414 0.10902466 -0.104368605
0.08486424 0.030646333 0.10694901 -0.042208306 0.10559342 -0.088716865 -0.08386693 0.07309087
0.10082923 -0.0027902508 0.050438624 -0.0047302814 0.07550717 -0.07915001 -0.01065826 -0.12728985
0.13415991 -0.011515123 -0.052622892 0.07532894 -0.101303466 0.08518302 0.05368322 -0.036549136
-0.006792415 0.01443023 0.03606975 0.1406486 -0.0442084 -0.0573452 0.025754236 0.10627874
0.05899785 0.14400633 0.04730844 -0.038439095 -0.013254255 -0.01387267 -0.059324365 -0.10154933
0.007977807 -0.10413245 -0.036447447 -0.011435436 0.07650767 0.1287908 -0.07681129 -0.07459209

fc2.bias f4 [64]
00000000: c555 5cbd fb92 a63d c923 b4bc 891a 6abd
00000010: 7c75 eb3d 92b8 d439 12d2 9c3d 68e6 8f3d
00000020: ec82 81bd 011c 933d 3230 19bd f682 713d
00000030: 3fdb 7e3c 35fa 70bd ea7c a13c f817 abbd
00000040: af24 253d 9fd7 92bd caaa f3bd 8586 a0bd
00000050: f019 55bd c53f 25bc 4fc4 303d 186c 51bd
00000060: 4597 593c 0662 17bc 3f6b 913d 60ce 673c
00000070: 42fd 81bd 53ad 893d f752 8cbd 68f8 d4bd
00000080: 78a9 6ebd 2a2b 95bd 34ea 793b 0ec9 02bd
00000090: 79c7 9abd c737 aabd d360 8bbd 56e8 263c
000000a0: 345d e03c 0e00 91bc 5e33 aabd 291d f6bd
000000b0: ebee 983d c4d8 323c 0ab3 ad3d a3da 683d
000000c0: fafa 0b3c 55b6 a0bd 59b1 9dbd 9a3d 23bd
000000d0: 8032 b3bd ed48 89bd 272c 8cbd aa4b 2b3d
000000e0: 8e57 8fbd eb24 afbd 2acf 4c3d 1830 dfbb
000000f0: 8a71 01bd 8b9a 88bd e7d3 b8bd 8ff5 3fbd
-0.053792734 0.08133503 -0.02198972 -0.057154212 0.11497018 0.00040573307 0.07657255 0.070263684
-0.063237995 0.07183076 -0.03739948 0.058962785 0.015555202 -0.058832366 0.019712884 -0.08354181
0.040318187 -0.07170033 -0.1189781 -0.078381576 -0.05202669 -0.010086005 0.043155964 -0.051128477
0.013280694 -0.009239679 0.07100534 0.014148325 -0.06347133 0.06722512 -0.06851762 -0.10398942
-0.058267087 -0.072836235 0.003813398 -0.031930022 -0.07557578 -0.0831142 -0.06805577 0.010187229
0.027388193 -0.017700221 -0.08310579 -0.120172806 0.07467445 0.010915939 0.084814146 0.056849133
0.008543724 -0.07847277 -0.07699842 -0.03985367 -0.087498665 -0.067033626 -0.06844359 0.041820206
-0.069991216 -0.085519634 0.050002255 -0.006811153 -0.03160242 -0.06670102 -0.09024792 -0.046865042

bn2.weight f4 [64]
00000000: 004d 7e3f 7edd 293f be1e 1c3f 9d23 3d3f
00000010: ee21 433f 83fe 183f e79e 1f3f 7272 503f
00000020: 2ea8 f23d 528c 7e3e bfaf f03e 0322 5a3f
00000030: 5e1e 573f cf67 ab3e 7612 153e 1c22 6e3f
00000040: 0fdf 413e 2b5d f23e e451 cc3e 1679 693f
00000050: 08f0 733e 7820 fc3c f017 283e 5f51 d23e
00000060: 35eb 913e df66 673f 5d04 163f 031b 463f
00000070: eb76 303d 20cc 973e 3fe0 233f 1507 9d3e
00000080: a5ad 9a3d 8822 2e3f eaac fa3d 22c9 2b3f
00000090: cf77 4f3f 5633 b83e 873d 353d 2719 ed3d
000000a0: fcc4 873e d4bd 243f 43c0 5e3f 929d 743f
000000b0: 4216 713d 6b3a 583f 9390 2e3f 30e0 bb3e
000000c0: 0249 0f3f 4f65 763f 43e0 3f3f b906 083f
000000d0: 7be7 7a3e 6afe 923d 05c9 a73e 74ce 643e
000000e0: 27a9 4f3f 3cdb f53e e083 1e3f 840d fb3d
000000f0: 9cb9 123f 133a 633f 40ac 913e 2d24 163f
0.9933624 0.66353595 0.6098441 0.73882467 0.7622365 0.59763354 0.6235184 0.8142463
0.11848484 0.24858215 0.47009084 0.8520815 0.8403071 0.33477637 0.14557824 0.93020797
0.18932746 0.47336707 0.39906228 0.9120039 0.23822033 0.030777201 0.16415381 0.41077706
0.2849976 0.90391344 0.5860041 0.77384967 0.04308216 0.29647923 0.6401405 0.30669466
0.07552651 0.6802144 0.12240012 0.6710378 0.8104219 0.35976666 0.04424813 0.11577063
0.26517475 0.64352155 0.8701212 0.95552933 0.058859117 0.8446414 0.6818935 0.3669448
0.55970776 0.96248335 0.7495157 0.5313526 0.24502365 0.07177432 0.32770553 0.2234438
0.8111748 0.48018825 0.61919975 0.12258437 0.5731447 0.8876049 0.2845173 0.5864895

bn2.bias f4 [64]
00000000: c2d1 ed34 20d4 8db3 d2be 0bb5 90cc 6db5
00000010: 6dae 3233 d698 ae34 7aef 8833 19f1 dcb4
00000020: f320 d3b4 5674 3535 4ec6 96b4 8e14 66b3
00000030: 58ac 9735 35a7 3a35 602a c7b5 3f3b ffb5
00000040: 5cb5 96b5 937d d935 a0f4 b6b3 660f 81b4
00000050: 7bf4 ac35 4f59 8cb5 7392 bc35 02e6 1cb5
00000060: b9a7 2db5 f6bc 5034 c072 ffb3 fc5f fc34
00000070: 57dd 5a34 7c86 0cb4 014a 9735 6ace 34b6
00000080: f947 3db5 8a4b 4c35 c8fc 1836 9d12 b8b5
00000090: b78e 8e34 3876 0333 eaf6 8a35 03a2 d435
000000a0: 16c3 41b4 765c 0533 2728 23b4 65d4 8135
000000b0: 020e ceb4 82ea 8134 ce22 9b34 cdc5 d9b4
000000c0: 4b19 a9b5 f9ae 3534 7d85 8434 9dd3 bb35
000000d0: 32eb 4035 fd6b a935 af3c 08b5 7d7f 06b5
000000e0: 3a77 5db5 1d1b f034 eada e434 01f1 ac35
000000f0: 8acf e034 aee2 9534 2374 9435 ff8f b635
4.429731e-07 -6.6044095e-08 -5.2059215e-07 -8.858706e-07 4.1602494e-08 3.2521228e-07 6.376554e-08 -4.1153615e-07
-3.9325786e-07 6.7597045e-07 -2.8083963e-07 -5.3569742e-08 1.1300535e-06 6.953372e-07 -1.4838988e-06 -1.9016223e-06
-1.1228653e-06 1.6204307e-06 -8.5195325e-08 -2.4039326e-07 1.2886152e-06 -1.0456805e-06 1.4049714e-06 -5.8449234e-07
-6.469159e-07 1.9440253e-07 -1.1895236e-07 4.7008496e-07 2.0383355e-07 -1.3087441e-07 1.1271915e-06 -2.694224e-06
-7.051272e-07 7.6105846e-07 2.2796903e-06 -1.3714485e-06 2.65534e-07 3.0608334e-08 1.0353663e-06 1.5842382e-06
-1.8045498e-07 3.105057e-08 -1.5195165e-07 9.673064e-07 -3.8380682e-07 2.419875e-07 2.8896324e-07 -4.056332e-07
-1.2598842e-06 1.6920593e-07 2.4684041e-07 1.3994173e-06 7.186783e-07 1.262291e-06 -5.0752254e-07 -5.010441e-07
-8.2502413e-07 4.472321e-07 4.262759e-07 1.288514e-06 4.1874256e-07 2.7918344e-07 1.106066e-06 1.3601965e-06

bn2.running_mean f4 [64]
00000000: a091 873e 1271 5d3e f1e4 543e e9a3 563e
00000010: 698d 993e 2c17 e83d da4d 8b3e cdfe 723e
00000020: 1de1 873e ef4c 823e 797c 2a3e 9487 773e
00000030: 80b7 2d3e 903e e73d 480d 243e 1c2b d53d
00000040: c2c8 573e cde4 893d 5615 a63c 0c44 be3c
00000050: 4c76 f03d c056 e93d 5a7e 923e 6f5e 363d
00000060: 747b 043e 9bee 613e e10c 973e f2c0 5d3e
00000070: 04af 0d3e fae5 3d3e 74df 0d3e e3a4 003b
00000080: 5939 df3d c2c5 013e 9904 0f3e 58cc 273e
00000090: 95c8 0f3d bf95 ce3d 9ba9 033e b698 203e
000000a0: 6869 cb3d 6211 ba3d 00a0 d83d 586b 363d
000000b0: 811a 7c3e 86a1 023e c13f 0c3e d559 623e
000000c0: 0040 bd3d ffea f83d aaf7 043e b032 0d3e
000000d0: 899b bd3d ad8d c13d 09a5 3b3e 4511 713e
000000e0: af7e dc3d b9ec de3c 5cab 503e d18c 053e
000000f0: 88c7 283e 56d7 c03d f372 d93d ca46 903d
0.2647829 0.21625164 0.20790459 0.20960964 0.299907 0.11332545 0.27207834 0.23730011
0.26538935 0.2544932 0.16649045 0.24172813 0.16964531 0.1129123 0.16020691 0.10408613
0.21072677 0.067330934 0.020273846 0.023225807 0.11741313 0.113934994 0.28612024 0.044523653
0.12937719 0.22063677 0.29502013 0.21655634 0.13836294 0.1854476 0.13854772 0.001962953
0.1089961 0.12673095 0.13966598 0.16386545 0.0351034 0.100871556 0.12857668 0.15683255
0.09932214 0.09085347 0.105773926 0.044535965 0.24619485 0.12756929 0.13696195 0.2210458
0.09240723 0.12154197 0.12985101 0.13788867 0.092581816 0.09450851 0.18324675 0.23541744
0.107663505 0.027212488 0.20377868 0.13041998 0.16482365 0.09416072 0.10617628 0.07044752

bn2.running_var f4 [64]
00000000: 72b0 1d3e a7b2 c73d 3bef ce3d cc47 013e
00000010: 5d08 9b3d 4681 f13c 50ba 193e fded d83d
00000020: f07a 273e cd65 143e 92e1 fd3d 2789 143e
00000030: 6168 8f3d 9b40 4f3d e281 553d 1af9 353d
00000040: 84b5 bb3d e74f aa3c 826a 703b 2e17 993b
00000050: 0be7 233d d50d 3f3d 7eea 033e 903a e03b
00000060: 5209 0d3d 2bee d53d 2f9a 443e 04f2 dc3d
00000070: 57ee 6f3d 0ee1 513d f225 373d 653c 3f39
00000080: 1e00 153d 2308 a03d fdaf ff3c c15a 243d
00000090: d343 0a3c d3f1 d53c 4d34 b23c c799 523d
000000a0: 4cac 1c3d 54c8 ae3c c220 c93c 4986 9d3c
000000b0: cc53 a63d 8ca6 4a3d 7ab5 153d 84ca be3d
000000c0: a95c b33c 0222 e03c 4963 0f3d 1974 073d
000000d0: 88d0 ca3c 2bed 5a3c 0407 d03d 4ef1 223e
000000e0: 9641 ed3c 318b ad3b 9734 e73d 99de 083d
000000f0: a25b 483d ae20 df3c 1e91 473d b817 e63c
0.1539934 0.09750872 0.10104223 0.12625045 0.075699545 0.029480588 0.15012479 0.10592268
0.1635549 0.14491959 0.1239654 0.14505444 0.070023306 0.050598722 0.05212582 0.044427015
0.09165481 0.020790054 0.0036684577 0.0046719527 0.04001526 0.04664405 0.1288242 0.0068429187
0.034432717 0.104458176 0.19199441 0.10788348 0.058576908 0.05124002 0.04471392 0.00018237678
0.036377065 0.07814052 0.031211847 0.040125612 0.008439022 0.026116287 0.021753455 0.051416185
0.038250253 0.021335758 0.024551753 0.019229071 0.08121452 0.049475238 0.036550023 0.093159705
0.02189477 0.027359966 0.035006795 0.033069704 0.024757639 0.013362209 0.10157588 0.15912363
0.028961938 0.005296134 0.112893276 0.03341541 0.048915513 0.027237263 0.04872238 0.028087482

fc3.weight f4 [2, 64]
00000000: 4b4f 91bb c694 d73a 1d32 2f3a 3f47 7d3a
00000010: 3c02 04bc 03ff 343c b67d c83b 3748 3dbc
00000020: a552 2e3c eec5 2cbb e24a 54bb 2218 8639
00000030: 9bda 0bbc 377e cebc 3d78 a73c a580 373c
00000040: 40b7 5e3b 910b 3c3c 7d02 c43c 5016 23bc
00000050: f84f e43c c801 ee3c bb3e f2bb 6472 a3bc
00000060: 0a4a de3c 0304 983b 049e 453a 2a30 b0ba
00000070: c4fe a63a 9c2d 553c f188 223c e7b7 aebc
00000080: 7dcd 043d 2bd0 84bb ec4f b5bc 3eb9 793c
00000090: 31ae 3fbc 89ef 87bb c00a f13b 08f6 34bc
000000a0: e776 7c3c f0e4 0c3c a4ce 683b 2c6e 543b
000000b0: 0283 863c 7aed 14bc e4c6 813c 77f6 52bb
000000c0: 5b92 553b 351b 923b 0862 fcbb 8da8 833b
000000d0: 864b 07bd a553 83bc 9ad6 d13a e107 8c3b
000000e0: 4f41 a63b 2cd1 f0bb 9725 08bc 6c2c 2abc
000000f0: 8d11 6c3b 2dc4 33bc 0073 53bc 89b2 163a
00000100: e627 423b 09fa bf3b 717f 373c 2fcc d4bb
00000110: f28b 6a3b f239 d53b 9ec6 833b 0b52 98bb
00000120: 2736 0fbc a94f 093b 4379 1abc 86db 38bc
00000130: 165d f13b 168e 9a3b 0cba 4f3c 9fbf 71bb
00000140: e85a aabc d861 963c bfb4 00bd 7288 46bc
00000150: ee40 8fbb fac8 5d3c d5c9 2e3c c141 30bc
00000160: c310 a0bc 4424 9dbb b349 1abc 4511 73ba
00000170: e33f c83c a035 523c b80d 613b 90f6 66bb
00000180: 50a0 1f3b 98d5 5a3b 2371 b33b f22d e9bb
00000190: 39c2 86bb 741f 0b3c 557e ca3c a30b eb3b
000001a0: e92c 47bc 1876 af3b 47d8 233a 0087 4a3c
000001b0: 7e1d 09bc d3ad 853b b233 8d3a 7b90 debb
000001c0: 774b 643c 1611 143b 6fdd 1cbc ce3f 6abb
000001d0: 146f 1d3a 28bb 8b3c 0d26 59bc bf9e f0bb
000001e0: 5d5b 96ba a6c5 893c fa1b 083c ac83 a43c
000001f0: 327c 2d3c d0fa 1b3b e394 263c a296 fc3b
-0.0044345013 0.0016447536 0.00066831877 0.00096618006 -0.008057173 0.011047128 0.0061185015 -0.011552862
0.010639821 -0.0026363092 -0.0032393266 0.00025576452 -0.008536006 -0.025206668 0.020443076 0.011200105
0.0033983737 0.011477367 0.023926968 -0.00995405 0.027870163 0.029053584 -0.007392732 -0.019952007
0.027134914 0.00463915 0.00075385 -0.0013442088 0.0012740721 0.013011362 0.009920345 -0.021327926
0.03242253 -0.004053136 -0.022132836 0.015241919 -0.011699245 -0.004148428 0.007356018 -0.011044987
0.015409208 0.008599505 0.0035523558 0.00324143 0.016419891 -0.009089822 0.015841909 -0.0032190362
0.0032588455 0.0044588097 -0.007702116 0.0040178956 -0.03303101 -0.016031096 0.0016009391 0.0042734
0.0050737034 -0.007349154 -0.008309743 -0.010386568 0.0036021203 -0.010972065 -0.012905836 0.000574865
0.0029625832 0.005858664 0.011199818 -0.006494067 0.003578898 0.0065071518 0.0040214797 -0.004648452
-0.008740938 0.0020952022 -0.009428325 -0.011282807 0.007365833 0.004716645 0.012678634 -0.0036887897
-0.0207953 0.018357202 -0.031422373 -0.012117492 -0.004371754 0.013536686 0.010668238 -0.010757864
-0.019539243 -0.004795583 -0.009416985 -0.0009272288 0.024444526 0.012830168 0.0034340452 -0.0035242178
0.0024357028 0.0033391472 0.0054761334 -0.007116073 -0.0041125086 0.008491386 0.024718443 0.007173018
-0.0121567035 0.005354654 0.00062501844 0.012361288 -0.008368848 0.0040795594 0.0010772853 -0.0067921258
0.013934008 0.0022593192 -0.009574278 -0.0035743597 0.00060056266 0.017057016 -0.013253701 -0.0073431428
-0.001147132 0.016817879 0.008307451 0.020082317 0.0105886925 0.002380062 0.010167333 0.0077083865

fc3.bias f4 [2]
00000000: 3019 89bd 4412 453a
-0.06694257 0.00075176754

bn3.weight f4 [2]
00000000: a2c7 5a3f 7d1f 563f
0.85460865 0.836418

bn3.bias f4 [2]
00000000: eddb 25be fe83 d3bd
-0.16197176 -0.1032791

bn3.running_mean f4 [2]
00000000: 610b 89bd 29a4 443a
-0.066916235 0.00075012684

bn3.running_var f4 [2]
00000000: 0fa6 723a 2c3c 863a
0.0009256312 0.0010241321
