p3_collaboration_and_competition/weights/actor_1_200.pth (torch_old, 51773 bytes, 18 tensors)

fc1.weight f4 [128, 24]
-0.04242154 0.056233425 0.06069605 0.06541122 -0.078080796 -0.0464679 0.06556176 -9.848334e-05
-0.057465374 -0.0030718923 0.014392969 -0.038369082 -0.042657264 -0.083457276 -0.09172382 0.021383611
-0.014426821 0.04212671 0.062674575 -0.094618544 -0.09378012 0.0657167 -0.028947549 -0.11557302
0.03964577 -0.06151047 -0.08089522 -0.012487487 0.020765448 -0.0033956647 0.07030719 0.009406691
0.047383707 -0.0050299447 0.05385644 0.045643345 -0.019315166 -0.10109583 0.05568717 -0.007780039
0.024462331 0.03450512 0.04726953 0.020972393 -0.022656541 0.0153589975 0.012450592 -0.012520765
-0.015068141 -0.006159768 -0.006682635 0.03645109 0.030864237 -0.06671449 0.06450478 -0.0011950794
-0.027553568 0.04239602 0.024264518 0.04259615 -0.05188239 0.043410283 0.035351247 0.09468236
-0.044371948 0.015262028 -0.052448 0.08540926 -0.08114743 -0.09951269 0.046756506 -0.047045823
-0.03035352 -0.062586464 -0.07775851 -0.0109314695 0.0634372 -0.08241185 0.0065076337 0.060309418
0.0817545 0.05566653 -0.0017371462 0.059866093 0.012455162 0.04793869 -0.068489626 -0.07561031
-0.059584923 0.07035947 0.0581853 0.028696295 0.02926314 -0.00033154272 -0.08253268 -0.102023594
0.09360111 0.04680399 0.06472001 -0.030169988 -0.027889593 0.004513718 0.05982098 -0.007519229
-0.043694843 -0.006658726 0.08383387 -0.045867153 0.0943076 0.03461546 0.026366433 0.05504796
0.05764236 -0.08062679 0.07318938 -0.002109359 0.010505446 0.0032230977 0.03425075 -0.06973722
0.06106133 -0.016787354 0.010926466 0.036591545 0.042363934 -0.036376085 0.044315595 -0.0081557585
0.024041282 -0.04805644 -0.047867067 -0.017725578 0.072211556 0.07790673 0.07819405 -0.0129829515
0.08399253 0.047867466 -0.04755539 -0.012986388 0.04292857 0.09040911 0.04549143 0.08061659
-0.027827159 0.0662408 0.0055621336 0.02749977 0.04116533 0.024853185 -0.0530148 0.04411269
-0.01017121 -0.045377553 -0.07785792 0.029306626 0.006081851 -0.07848713 -0.051889833 0.046802934
0.038876347 -0.0263054 0.043432888 -0.009520914 0.064920686 -0.078978635 -0.08054068 0.04543737
-0.015269527 0.03824017 -0.06831836 -0.07469705 0.029096773 0.03222318 -0.052316625 -0.004128344
-0.02802268 -0.06273689 0.057075538 -0.085342064 -0.060087126 0.10408371 0.058854852 0.050048992
0.065598704 0.03783895 0.061664104 -0.024445325 -0.019858085 -0.0069474615 0.08095292 0.022538532
-0.0035555866 0.06920396 0.014120506 0.08610149 -0.048897915 0.09159211 0.056533076 -0.04502757
0.0573851 -0.07763799 0.08448861 -0.054889403 -0.0263052 0.07475261 -0.043381877 -0.059080668
-0.08064708 0.03246445 -0.07584272 0.03244995 -0.06410652 0.035747968 -0.043401532 -0.046344753
0.07177625 0.04572361 0.01267197 -0.035975773 -0.073610455 -0.059108596 -0.012204828 0.015087838
0.07244144 -0.011455187 -0.05466417 0.037757687 0.060322966 0.05491491 0.056905333 0.022702398
-0.065706715 0.0132404715 0.052744254 -0.022465363 0.04563889 0.03619752 -0.060830787 0.0118732955
-0.07259379 0.059817277 -0.023757186 0.010517352 0.017551892 -0.053972296 0.02183368 0.05929303
-0.080011785 -0.06738455 -0.032042522 0.010512496 -0.06033933 0.081438854 -0.019040233 0.05624147
00000000: 35c2 2dbd 0555 663d 6c9c 783d 51f6 853d
00000010: d3e8 9fbd 2055 3ebd 3e45 863d d788 ceb8
00000020: d060 6bbd cd51 49bb 7dd0 6b3c e628 1dbd
00000030: 62b9 2ebd a6eb aabd b3d9 bbbd af2c af3c
00000040: 795e 6cbc 0f8d 2c3d 875b 803d 5ec7 c1bd
00000050: cb0f c0bd 7a96 863d 6923 edbc 8cb1 ecbd
00000060: 9a63 223d 67f2 7bbd 65ac a5bd 5198 4cbc
00000070: 4d1c aa3c cd89 5ebb 37fd 8f3d 861e 1a3c
00000080: 6b15 423d 3cd2 a4bb 9298 5c3d 84f4 3a3d
00000090: d73a 9ebc 550b cfbd 3b18 643d b3ef febb
000000a0: 3a65 c83c 3e55 0d3d b29d 413d 4cce ab3c
000000b0: 369a b9bc 4ea4 7b3c 91fd 4b3c e523 4dbc
000000c0: 5de0 76bc e1d7 c9bb 01fa dabb bd4d 153d
000000d0: ffd6 fc3c 9ba1 88bd 151b 843d 36a4 9cba
000000e0: 05b8 e1bc 73a7 2d3d 62c6 c63c 4d79 2e3d
000000f0: a182 54bd fbce 313d 78cc 103d d3e8 c13d
00000100: 5cbf 35bd 960d 7a3c b7d3 56bd 0deb ae3d
00000110: a030 a6bd 4fcd cbbd c083 3f3d 1fb3 40bd
00000120: f2a7 f8bc 552d 80bd db3f 9fbd e819 33bc
00000130: 5deb 813d 8bc7 a8bd fd3d d53b 0207 773d
00000140: e76e a73d 9602 643d f4b0 e3ba 2636 753d
00000150: bc10 4c3c 5c5b 443d 4a44 8cbd 94d9 9abd
00000160: 520f 74bd a018 903d b653 6e3d 7e14 eb3c
00000170: 41b9 ef3c e9d2 adb9 e506 a9bd bff1 d0bd
00000180: f0b1 bf3d 8ab5 3f3d ed8b 843d 0d27 f7bc
00000190: b778 e4bc d0e7 933b d806 753d dd63 f6bb
000001a0: 5df9 32bd 7131 dabb 18b1 ab3d 32df 3bbd
000001b0: 5824 c13d f1c8 0d3d 6bfe d73c f879 613d
000001c0: 651a 6c3d a91f a5bd 50e4 953d 2c3d 0abb
000001d0: 091f 2c3c 9b3a 533b 844a 0c3d 63d2 8ebd
000001e0: 721b 7a3d a285 89bc ec04 333c 04e1 153d
000001f0: ce85 2d3d 17ff 14bd 4584 353d bb9f 05bc
00000200: 39f2 c43c d4d6 44bd 4210 44bd 3b35 91bc
00000210: a7e3 933d 908d 9f3d 3424 a03d 72b6 54bc
00000220: 4704 ac3d ad10 443d 71c9 42bd dcc4 54bc
00000230: ded5 2f3d 6928 b93d 3955 3a3d 501a a53d
00000240: c8f5 e3bc 42a9 873d 8f42 b63b 3347 e13c
00000250: fa9c 283d e898 cb3c 0c26 59bd 82af 343d
00000260: 26a5 26bc d0dd 39bd f973 9fbd 7314 f03c
00000270: 444a c73b dcbd a0bd 6f8a 54bd 6fb4 3f3d
00000280: ce3c 1f3d 6c7e d7bc afe6 313d 9cfd 1bbc
00000290: 23f5 843d 8dbf a1bd 83f2 a4bd 891c 3a3d
000002a0: 0a2d 7abc b9a1 1c3d 7fea 8bbd c4fa 98bd
000002b0: 5b5c ee3c 74fc 033d f549 56bd 0f47 87bb
000002c0: d28f e5bc 337c 80bd 0ac8 693d d2c7 aebd
000002d0: eb1d 76bd d729 d53d c911 713d 2c00 4d3d
000002e0: 9d58 863d 04fd 1a3d 8093 7c3d 9041 c8bc
000002f0: 6cad a2bc 88a7 e3bb a5ca a53d baa2 b83c
00000300: d804 69bb ceba 8d3d b259 673c fa55 b03d
00000310: 2e49 48bd a594 bb3d 3a8f 673d d46e 38bd
00000320: a30c 6b3d ab00 9fbd 5d08 ad3d b6d3 60bd
00000330: 017e d7bc e517 993d 32b1 31bd 92fe 71bd
00000340: 4c2a a5bd 71f9 043d 6e53 9bbd 3dea 043d
00000350: 474a 83bd 766c 123d cec5 31bd ffd3 3dbd
00000360: 6dff 923d ae48 3b3d 189e 4f3c 555b 13bd
00000370: 14c1 96bd db1b 72bd c2f6 47bc fb32 773c
00000380: 2d5c 943d 89ae 3bbc 89e7 5fbd cea7 1a3d
00000390: 3715 773d 75ee 603d 9115 693d 61fa b93c
000003a0: 3e91 86bd 90ee 583c 5c0a 583d 4809 b8bc
000003b0: d8ef 3a3d da43 143d b429 79bd 3688 423c
000003c0: 0eac 94bd f602 753d 6e9e c2bc f950 2c3c
000003d0: fcc8 8f3c 0e12 5dbd 8cdc b23c 40dd 723d
000003e0: 38dd a3bd e900 8abd 053f 03bd 9b3c 2c3c
000003f0: 6026 77bd 6ac9 a63d 43fa 9bbc 755d 663d

fc1.bias f4 [128]
-0.116356075 0.072204955 -0.20160292 -0.108939596 -0.042105686 0.08528107 0.06796334 -0.1488083
0.035571665 -0.07555423 -0.07947929 -0.01751008 0.11883463 0.16464421 0.20440172 0.14503293
0.13521105 0.07532657 0.06753894 -0.08621834 -0.11472803 -0.16611473 0.007793246 0.08459148
-0.16206469 -0.13341829 0.16888104 0.15089284 -0.1540481 -0.1782351 -0.07421294 -0.14659844
0.0487264 -0.07024576 0.035091244 -0.0164194 0.1105471 -0.04968346 0.027789643 -0.04479984
0.047715656 0.012641971 0.14737803 -0.09976125 0.08064014 -0.04243965 0.107024595 -0.14750318
-0.13683373 -0.067756586 0.12671587 0.05441094 0.054608155 -0.10482467 0.1305779 -0.12269884
0.059482686 0.096454374 0.1990371 0.012597868 -0.08732126 0.08629101 0.19141588 -0.16523328
-0.19350834 -0.016797999 -0.09203745 -0.08933546 -0.13208471 0.041597668 -0.0889425 0.097565554
0.18915646 -0.18452409 0.012735032 0.19881581 0.22761723 -0.077480696 0.13001208 0.07527241
0.12235904 -0.011252698 -0.04733323 -0.08427703 0.02506173 0.05198947 -0.0717352 -0.16097395
0.18093497 -0.124800846 -0.020527383 -0.08302553 -0.057981364 -0.2040051 -0.08728341 0.059419468
0.12010281 0.19832718 -0.10416729 -0.098830685 -0.1604401 -0.07564171 -0.16672479 -0.09976683
-0.05181401 0.20852683 -0.13648048 -0.14051925 -0.05544168 0.12500209 -0.026119161 -0.0009676547
0.16812357 0.123733856 0.17315266 -0.11684312 0.16033752 -0.18880409 -0.14197622 -0.0038413445
0.067713104 -0.007916081 0.19579257 -0.019871611 -0.088402696 -0.030992433 -0.021054924 0.051064108
00000000: 184c eebd 31e0 933d ff70 4ebe b91b dfbd
00000010: 0377 2cbd d7a7 ae3d 5d30 8b3d 3461 18be
00000020: 98b3 113d 2dbc 9abd 0ac6 a2bd 4d71 8fbc
00000030: 925f f33d 7e98 283e af4e 513e 8383 143e
00000040: c474 0a3e d144 9a3d db51 8a3d 3e93 b0bd
00000050: 88f6 eabd fb19 2abe 7c5e ff3b 4c3e ad3d
00000060: 49f4 25be ce9e 08be 27ef 2c3e a783 1a3e
00000070: c9be 1dbe 4383 36be f4fc 97bd e71d 16be
00000080: 5595 473d 02dd 8fbd d6bb 0f3d fa81 86bc
00000090: 8566 e23d e280 4bbd 1ba7 e33c 0980 37bd
000000a0: 7e71 433d 4520 4f3c 44ea 163e a04f ccbd
000000b0: a826 a53d 33d5 2dbd b62f db3d 130b 17be
000000c0: 241e 0cbe f7c3 8abd cec1 013e 01de 5e3d
000000d0: cdac 5f3d 51ae d6bd 37b6 053e 8849 fbbd
000000e0: 1ea4 733d df89 c53d 62d0 4b3e 4a67 4e3c
000000f0: 7dd5 b2bd 57b9 b03d 8602 443e ea32 29be
00000100: 0d27 46be f59b 89bc 217e bcbd 82f5 b6bd
00000110: 3741 07be 5162 2a3d 7c27 b6bd 73d0 c73d
00000120: 3bb2 413e e2f3 3cbe 98a6 503c 5f96 4b3e
00000130: 7e14 693e 33ae 9ebd e321 053e 6c28 9a3d
00000140: 6097 fa3d 3c5d 38bc 7de0 41bd 6f99 acbd
00000150: 424e cd3c e9f2 543d e8e9 92bd 5bd6 24be
00000160: 0447 393e 9697 ffbd 0b29 a8bc 4a09 aabd
00000170: de7d 6dbd b7e6 50be a5c1 b2bd d461 733d
00000180: 76f8 f53d 4816 4b3e a955 d5bd be67 cabd
00000190: 694a 24be 0aea 9abd e7b9 2abe 8d52 ccbd
000001a0: ed3a 54bd 0f88 553e 8ac1 0bbe 47e4 0fbe
000001b0: d116 63bd 8c00 003e daf7 d5bc 35aa 7dba
000001c0: 9628 2c3e 2d68 fd3d ee4e 313e 724b efbd
000001d0: 852f 243e dc55 41be 3762 11be 11bf 7bbb
000001e0: 2bad 8a3d 73b2 01bc d97d 483e cac9 a2bc
000001f0: 790c b5bd d8e3 fdbc 607b acbc 9928 513d

bn1.weight f4 [128]
0.7664148 0.07206205 0.55802876 0.9064611 0.39698365 0.7336839 0.42768273 0.9802999
0.4924072 0.82665104 0.3373607 0.042975042 0.3102915 0.8408203 0.49156022 0.43122053
0.89836305 0.19004741 0.16306895 0.6762822 0.96561265 0.6617605 0.32038867 0.70526904
0.7437963 0.10264792 0.9257077 0.5369391 0.28980985 0.024811503 0.60934305 0.37303707
0.59596527 0.11467322 0.66402376 0.22745839 0.9046343 0.5221483 0.7489439 0.8097466
0.9610148 0.57635117 0.90393466 0.08311762 0.8552428 0.84680694 0.25089023 0.2319898
0.9198913 0.9221468 0.10967059 0.5314081 0.1284541 0.7673466 0.06670171 0.28434262
0.8845931 0.9148048 0.93687713 0.5611548 0.06141232 0.8107731 0.90863764 0.8808499
0.80533355 0.454944 0.7498987 0.609834 0.281773 0.83027416 0.31995136 0.79315597
0.46408543 0.4563036 0.7053884 0.42263967 0.6891928 0.09120345 0.010957789 0.5850977
0.3871833 0.28206533 0.06583619 0.5503888 0.26987514 0.94385576 0.11534918 0.31004724
0.400585 0.5908007 0.04997995 0.77292395 0.037383586 0.2501896 0.58562005 0.43074897
0.56408876 0.011197569 0.17749779 0.83641875 0.69277275 0.7286337 0.7547495 0.84451526
0.7373128 0.34554946 0.23862767 0.18740323 0.6510074 0.479865 0.2533397 0.83425885
0.51315194 0.44988427 0.36830294 0.13349305 0.90520054 0.030133128 0.052596252 0.5881016
0.29441467 0.874062 0.48366898 0.26865882 0.4908204 0.42234752 0.41997418 0.4360069
00000000: c333 443f 4595 933d f9da 0e3f d60d 683f
00000010: 7141 cb3e b5d2 3b3f 3bf9 da3e eff4 7a3f
00000020: cc1c fc3e 679f 533f 8bba ac3e 9906 303d
00000030: 87de 9e3e 0040 573f c8ad fb3e f0c8 dc3e
00000040: 1ffb 653f ca9b 423e 8cfb 263e d520 2d3f
00000050: 6432 773f 2369 293f fc09 a43e 838c 343f
00000060: 6f69 3e3f 1339 d23d 2efb 6c3f d774 093f
00000070: f561 943e 7e41 cb3c e8fd 1b3f b7fe be3e
00000080: 2e91 183f cbd9 ea3d 76fd 293f daea 683e
00000090: 1d96 673f 83ab 053f caba 3f3f 8e4b 4f3f
000000a0: 1105 763f c08b 133f 4368 673f 9239 aa3d
000000b0: 31f1 5a3f 57c8 583f af74 803e bc8e 6d3e
000000c0: ff7d 6b3f d011 6c3f f99a e03d 5c0a 083f
000000d0: 7989 033e d470 443f e89a 883d 5b95 913e
000000e0: b274 623f a630 6a3f 2ed7 6f3f d7a7 0f3f
000000f0: 7c8b 7b3d d38e 4f3f 7a9c 683f 617f 613f
00000100: 572a 4e3f 6cee e83e 5cf9 3f3f 151e 1c3f
00000110: 8d44 903e d98c 543f aad0 a33e 450c 4b3f
00000120: 9b9c ed3e a0a0 e93e 5694 343f 3a64 d83e
00000130: f06e 303f e0c8 ba3d 4c88 333c f6c8 153f
00000140: e43c c63e de6a 903e 20d5 863d 48e6 0c3f
00000150: 132d 8a3e 88a0 713f 313c ec3d 83be 9e3e
00000160: 7a19 cd3e b73e 173f c7b7 4c3d 58de 453f
00000170: 881f 193d da18 803e 32eb 153f 218b dc3e
00000180: 1f68 103f 0276 373c fbc1 353e 8a1f 563f
00000190: 8e59 313f bd87 3a3f 4337 413f 2732 583f
000001a0: 88c0 3c3f dceb b03e d05a 743e a2e6 3f3e
000001b0: 6ca8 263f deb0 f53e beb5 813e fd91 553f
000001c0: ed5d 033f 3b57 e63e 3492 bc3e 67b2 083e
000001d0: 39bb 673f c0d9 f63c 2b6f 573d d48d 163f
000001e0: 85bd 963e 87c2 5f3f 76a3 f73e a68d 893e
000001f0: d04c fb3e ef3d d83e db06 d73e 4c3c df3e

bn1.bias f4 [128]
-0.020255344 -0.008965681 0.0164246 0.0035272597 -0.038939595 0.031632096 -0.016795859 -0.0087009715
-0.026815811 0.045797355 -0.014020344 -0.02441794 0.019837437 -0.018816583 -0.014343282 0.015569966
-0.023462443 0.034211133 0.01864797 0.032868553 -0.027098496 -0.026313782 -0.007328867 -0.021306075
0.029865563 -0.018706473 -0.02206151 -0.024116943 -0.015108852 0.023627 0.0059609003 -0.010686691
0.0491468 0.00646627 -0.011229308 -0.0008373171 0.017507866 0.023301532 -0.0086030355 0.011725753
0.03500729 0.043400478 0.0099535575 0.027751809 -0.03074376 0.017361015 -0.013875628 -0.0059560295
-0.018374661 0.040156484 -0.00665468 0.015309682 0.009891629 0.035111845 -0.012516809 0.0066299536
0.015825164 0.016623965 0.0008734568 0.042029765 -0.026138961 -0.011393278 0.015189811 0.0019015536
0.022860406 -0.015753202 0.019405384 -0.024859855 0.02760683 -0.02032927 0.018753694 0.037297662
0.01998385 -0.0035101739 -0.040069498 -0.00092062546 -0.04038071 0.023390293 -0.048908323 0.040090173
-0.0136450315 0.024069948 0.014487544 0.025396792 0.0010391194 0.030468617 -0.019768622 -0.002567191
-0.031094214 0.025573239 -0.038285553 0.050407946 -0.0057785343 0.011414346 -0.024258481 -0.014641287
-0.024629517 0.021172827 0.02400502 0.021855196 0.022000892 -0.001765524 -0.024805207 0.011612371
-0.006641662 0.006573469 0.0044507645 0.016443158 0.024959926 0.012733652 0.028680049 0.035238035
-0.020796675 0.00887304 0.025741402 0.027257953 -0.002383512 -0.04151802 -0.005489792 0.0030470868
0.031509016 -0.001607451 -0.022544824 -0.0028120177 0.01638068 0.0031748156 -0.026807206 -0.013671845
00000000: 89ee a5bc cbe4 12bc e28c 863c 9929 673b
00000010: 207f 1fbd a890 013d 7897 89bc 858e 0ebc
00000020: d5ac dbbc 0296 3b3d 96b5 65bc 2208 c8bc
00000030: 1f82 a23c 3c25 9abc 1600 6bbc 2c19 7f3c
00000040: 4f34 c0bc f920 0c3d a1c3 983c 2da1 063d
00000050: aafd ddbc 0090 d7bc fe26 f0bb 148a aebc
00000060: a0a8 f43c 513e 99bc 57ba b4bc e590 c5bc
00000070: 1e8b 77bc 698d c13c a853 c33b 3b17 2fbc
00000080: 284e 493d 01e3 d33b 22fb 37bc 667f 5bba
00000090: a86c 8f3c dbe2 be3c bff3 0cbc 5f1d 403c
000000a0: ce63 0f3d b3c4 313d 3f14 233c c357 e33c
000000b0: 56da fbbc b038 8e3c 9a56 63bc cc2a c3bb
000000c0: 7586 96bc 207b 243d 800f dabb 76d5 7a3c
000000d0: 8010 223c 70d1 0f3d 4d13 4dbc 1540 d93b
000000e0: c6a3 813c fb2e 883c b2f8 643a 6727 2c3d
000000f0: 6021 d6bc dfaa 3abc afde 783c 8d3d f93a
00000100: bf45 bb3c dc0c 81bc 0af8 9e3c e5a6 cbbc
00000110: b827 e23c 9289 a6bc 59a1 993c 6fc5 183d
00000120: 2cb5 a33c f20a 66bb ea1f 24bd 2156 71ba
00000130: 3e66 25bd 009d bf3c 1854 48bd 9835 243d
00000140: 698f 5fbc 572e c53c 2a5d 6d3c ef0c d03c
00000150: 1033 883a 5299 f93c cef1 a1bc 513e 28bb
00000160: 4bb9 febc f87e d13c 50d1 1cbd 9078 4e3d
00000170: dc59 bdbb 3d03 3b3c b9b9 c6bc 02e2 6fbc
00000180: d7c3 c9bc a372 ad3c 2da6 c43c ab09 b33c
00000190: 373b b43c 2869 e7ba 4a34 cbbc d041 3e3c
000001a0: 4da2 d9bb 4166 d73b b8d7 913b cdb3 863c
000001b0: c278 cc3c cfa0 503c 6cf2 ea3c c255 103d
000001c0: ca5d aabc 3a60 113c a2df d23c 124c df3c
000001d0: b234 1cbb cd0e 2abd b7e3 b3bb a2b1 473b
000001e0: 990f 013d 1bb1 d2ba ecaf b8bc d449 38bb
000001f0: c730 863c 9110 503b c99a dbbc e0ff 5fbc

bn1.running_mean f4 [128]
0.9652246 0.45882422 0.6033811 0.2672 1.0398985 0.4074568 0.34683016 0.9423387
0.943906 0.078544974 1.3263708 1.286363 0.13961536 0.36305597 1.0094154 0.28573582
0.17016707 0.6802915 0.71105397 0.20160358 0.21716191 1.0357054 0.61299425 0.5468868
0.26654735 0.16378255 0.33603787 0.39428997 0.5939683 0.47139457 0.11511224 0.12624006
1.1212136 0.46300095 0.31504062 0.052413438 0.60596097 0.7432682 0.20101003 0.062193252
0.24773999 0.7659461 0.64154786 0.40131956 0.35712534 0.12099586 0.26133606 0.22510599
0.515634 0.07683245 1.0206276 0.092701316 0.8719168 0.71898735 0.9106507 0.072328515
0.43770948 0.8757479 0.65246433 0.547734 0.9715954 0.4631952 0.7649245 0.69272995
0.803329 0.9063363 0.9539099 0.30038434 0.9288852 0.32803446 0.25418943 0.43694243
0.3970116 0.7798573 0.9220281 1.1888779 1.478807 0.400012 0.78304374 0.053555686
0.8553777 0.8461754 0.5362832 0.6743239 0.47069862 0.2474671 0.69627583 0.9043826
0.5900198 0.51851463 0.49462357 0.470287 0.5115126 0.61955667 0.3171677 1.0613562
1.705051 0.70684206 0.1750967 0.5404541 0.1118853 0.047514267 0.41541272 0.9562249
0.9572685 0.637114 0.031700544 0.089975186 0.49128807 0.8174778 0.94047207 0.1854403
0.26943758 0.67875785 0.08746532 0.6664536 1.469195 0.08204376 0.051831964 0.7609472
0.2657373 0.33145413 0.8089413 0.20354459 0.4796006 0.7077223 0.18708448 1.2176464
00000000: f618 773f 02eb ea3e 2f77 1a3f 70ce 883e
00000010: 651b 853f 2d9e d03e b993 b13e 1c3d 713f
00000020: d3a3 713f 30dc a03d 85c6 a93f 8ba7 a43f
00000030: 54f7 0e3e 79e2 b93e 8634 813f f74b 923e
00000040: 4740 2e3e 9527 2e3f a207 363f 2b71 4e3e
00000050: b15f 5e3e ff91 843f 31ed 1c3f c600 0c3f
00000060: e578 883e 9db6 273e 280d ac3e 60e0 c93e
00000070: 4e0e 183f a15a f13e f7bf eb3d 1345 013e
00000080: ed83 8f3f 760e ed3e 014d a13e 79af 563d
00000090: 4220 1b3f d346 3e3f 93d5 4d3e 5abe 7e3d
000000a0: 8daf 7d3e 0b15 443f 7b3c 243f c279 cd3e
000000b0: 22d9 b63e adcc f73d d7cd 853e 2f82 663e
000000c0: 9700 043f 555a 9d3d eda3 823f 30da bd3d
000000d0: f035 5f3f 8e0f 383f 6720 693f f920 943d
000000e0: 751b e03e 0431 603f e707 273f 4c38 0c3f
000000f0: 7aba 783f ec27 ed3e 18d2 433f c056 313f
00000100: f8a6 4d3f a805 683f 7033 743f facb 993e
00000110: 6ccb 6d3f 22f4 a73e 1e25 823e ebb6 df3e
00000120: 1b45 cb3e baa4 473f 090a 6c3f 272d 983f
00000130: 8c49 bd3f 5fce cc3e 8e75 483f 355d 5b3d
00000140: 08fa 5a3f f39e 583f db49 093f 7ea0 2c3f
00000150: 69ff f03e 0468 7d3e 223f 323f 9e85 673f
00000160: 8a0b 173f 60bd 043f 4d3f fd3e 75c9 f03e
00000170: 7df2 023f 449b 1e3f ce63 a23e 85da 873f
00000180: 1c3f da3f 9af3 343f 8d4c 333e 335b 0a3f
00000190: 1f24 e53d 529e 423d fab0 d43e 28cb 743f
000001a0: 8c0f 753f e719 233f 6ed8 013d e944 b83d
000001b0: 1c8a fb3e 3a46 513f c7c2 703f 10e4 3d3e
000001c0: b9f3 893e 13c3 2d3f 0521 b33d b49c 2a3f
000001d0: 950e bc3f 8f06 a83d c14d 543d 70cd 423f
000001e0: b80e 883e 5bb4 a93e c716 4f3f fe6d 503e
000001f0: 368e f53e 4a2d 353f 1393 3f3e d6db 9b3f

bn1.running_var f4 [128]
1.2326667 0.79644006 0.70386213 0.24232838 2.8539371 0.4648079 0.49403828 2.2134793
1.1858923 0.061885346 1.2629346 1.1503158 0.21972969 0.5160898 1.1655349 0.2905904
0.11987523 0.31570297 1.126651 0.16023526 0.2677991 0.71477634 1.3702307 0.35547855
0.36662027 0.10592316 0.4349053 0.20954911 0.376825 0.60057646 0.15601923 0.12043048
1.286677 0.347063 0.33029532 0.031716403 0.8925055 0.7146101 0.30973962 0.027771015
0.16275755 0.5158827 0.438839 0.5779459 0.37714422 0.13007148 0.3211015 0.17186297
0.5421185 0.017934179 0.3705955 0.057754938 1.6262548 0.9386001 1.7606759 0.032572757
0.44860116 0.8393396 0.5929168 0.9791887 1.3774401 0.30113566 1.1447583 0.6676259
1.1700205 1.1459142 1.2798896 0.2283243 0.7425492 0.49212068 0.28677073 0.28874987
0.21988426 1.5284863 1.0668075 1.415951 0.71054155 0.48634043 0.706538 0.0161732
1.1382202 0.81284654 0.67030734 1.2134428 0.76141363 0.3395798 0.61882514 1.0526378
0.38744715 0.71456087 0.5091732 0.6257009 0.45779166 0.85951203 0.3447091 1.9317093
1.9110771 0.6260998 0.10804413 0.7005432 0.06299645 0.0499695 0.7450245 0.5599815
0.89747345 0.52957827 0.019259755 0.123739205 0.599687 0.48961282 1.3790905 0.12952846
0.2938251 0.4378114 0.11628505 1.1277748 2.3844287 0.06315361 0.03680807 1.2183524
0.32641536 0.3401134 0.6101327 0.22679506 0.9130587 0.5163761 0.13360721 0.99236614
00000000: 06c8 9d3f 7fe3 4b3f 4f30 343f ee24 783e
00000010: e8a6 3640 4dfb ed3e 96f2 fc3e a5a9 0d40
00000020: 52cb 973f 7d7b 7d3d d7a7 a13f 8c3d 933f
00000030: d200 613e 761e 043f 3f30 953f 44c8 943e
00000040: 2581 f53d d2a3 a13e 1a36 903f b614 243e
00000050: f71c 893e 95fb 363f b863 af3f 4901 b63e
00000060: a7b5 bb3e 3eee d83d e8ab de3e 0b94 563e
00000070: 35ef c03e 61bf 193f 81c3 1f3e 41a4 f63d
00000080: d5b1 a43f 3eb2 b13e 781c a93e 0fe9 013d
00000090: 3e7b 643f b0f0 363f 3196 9e3e 0a80 e33c
000000a0: eaa9 263e e310 043f 81af e03e 43f4 133f
000000b0: 0c19 c13e 7531 053e 6a67 a43e d9fc 2f3e
000000c0: 47c8 0a3f b3ea 923c b2be bd3e 7190 6c3d
000000d0: 1e29 d03f 1948 703f d45d e13f 036b 053d
000000e0: 0daf e53e f6de 563f 65c9 173f 1cac 7a3f
000000f0: f54f b03f 742e 9a3e 7187 923f 88e9 2a3f
00000100: 3bc3 953f 51ad 923f 6cd3 a33f d8cd 693e
00000110: b417 3e3f 3ef7 fb3e 9dd3 923e 06d7 933e
00000120: 5729 613e 70a5 c33f 268d 883f e23d b53f
00000130: 0de6 353f 9d01 f93e addf 343f a97d 843c
00000140: 33b1 913f b616 503f 4399 2b3f 1852 9b3f
00000150: 01ec 423f 67dd ad3e 536b 1e3f d6bc 863f
00000160: 795f c63e 76ed 363f 2d59 023f ef2d 203f
00000170: ab63 ea3e fb08 5c3f b67d b03e 4042 f73f
00000180: 2d9e f43f 1448 203f 3e46 dd3d cd56 333f
00000190: 4804 813d d2ac 4c3d edb9 3e3f f35a 0f3f
000001a0: d2c0 653f 7192 073f a2c6 9d3c fb6a fd3d
000001b0: 1685 193f 88ae fa3e 0a86 b03f 1ca3 043e
000001c0: 3e70 963e d128 e03e db26 ee3d ed5a 903f
000001d0: 7b9a 1840 ae56 813d 0fc4 163d f9f2 9b3f
000001e0: ea1f a73e 5823 ae3e a831 1c3f f73c 683e
000001f0: 37be 693f 3931 043f 54d0 083e b50b 7e3f

fc2.weight f4 [64, 128]
0.0047876798 0.073328726 0.104343265 0.09959729 -0.019267 -0.04441047 0.018878892 0.054835152
0.112748004 -0.039826013 -0.10113037 -0.00067605654 0.0073305387 -0.004219949 -0.10567775 0.069132455
-0.0002799176 0.0009997957 0.046864208 0.04191433 -0.10833902 0.06459491 0.07878039 0.040617153
-0.08511711 -0.12351542 -0.031158412 -0.07339002 -0.048118696 0.0939735 -0.043220036 -0.058700804
0.0851003 0.10342995 -0.071593314 0.05406503 -0.11292224 0.009968032 0.116288565 0.012402531
0.11746229 0.05555245 0.030590089 -0.10631986 -0.11621194 0.027632127 -0.08394208 -0.008671249
0.0002483895 -0.11030854 0.08333852 -0.040562347 0.01622333 0.06305389 -0.105413176 -0.07974511
0.03323312 0.056266505 -0.11133741 -0.011252418 0.04599751 -0.033181902 0.036649276 0.1062241
-0.06336065 0.067454726 -0.016743097 0.101727955 -0.027672244 -0.07466494 -0.06311481 -0.10342849
-0.11203227 -0.10093051 0.026324287 0.058005314 0.047103476 0.02742345 0.01694104 -0.020290272
0.08102138 -0.055908848 0.051477287 0.06998503 -0.13904396 -0.023952747 0.051077913 -0.034772377
0.09203428 0.029597094 0.051740002 -0.05785463 0.088606246 0.0662821 0.05194344 -0.09401407
0.0401437 -0.01578243 -0.06679412 0.08796398 -0.018019931 0.0017240867 0.08046513 -0.01018964
-0.085539214 0.0012542522 0.12211718 0.10154978 0.06695838 -0.101904675 -0.0046179034 -0.100567475
-0.058926467 0.099420965 -0.08494532 -0.06789959 -0.12428533 0.015810281 0.1178435 0.047669705
-0.025621545 -0.097976685 0.046605576 -0.13810429 -0.08165406 -0.105871245 0.0029889722 -0.09318201
0.063511364 -0.0067589763 -0.01747984 0.08712344 0.071828835 -0.13566238 0.07220534 0.012992698
-0.086574 -0.026638638 0.08024051 -0.056180406 0.020773018 0.115936235 0.06315311 -0.008182685
0.061478622 -0.07424 -0.08364998 0.0645922 -0.06715352 -0.007084959 -0.009863274 -0.004385173
0.0626753 0.09438066 0.088119924 -0.097494796 0.019470073 -0.029175282 0.0890022 0.05903076
-0.086833745 0.10258432 -0.0007220193 0.08168498 -0.1274983 0.058056276 -0.066581614 -0.004125254
0.019042974 0.033163734 0.12308052 -0.044794235 0.033376724 0.06661994 -0.017751243 -0.03740533
0.037483964 -0.048716202 0.016125739 0.08213371 -0.04180387 -0.050485373 -0.07504128 0.023892649
-0.017960062 -0.118203096 -0.037816122 -0.0739175 -0.10176684 -0.047893632 0.007741792 0.0489968
-0.043953385 -0.011776439 0.0561078 -0.008164823 0.0877342 0.09094638 -0.020976782 -0.12560153
0.09214612 0.054601304 0.046530772 -0.07844541 -0.10470195 0.058359437 0.11379004 -0.12048893
0.075348616 0.04426836 0.09879438 -0.048767753 0.10074454 -0.093613036 -0.11020614 0.06071812
0.084404 0.0011290574 0.06210219 0.0042139497 0.078188755 -0.072270915 2.5982692e-05 -0.1285653
0.11835508 -0.0477518 -0.03639228 0.07181219 -0.09313541 0.07157167 0.07671198 -0.045162402
-0.012057972 0.0068921596 0.0322431 0.1144059 -0.03958227 -0.051737487 0.015422274 0.11382297
0.05270946 0.12639597 0.029537817 -0.047921486 -0.02708155 -0.007593136 -0.06178561 -0.09517506
-0.014731393 -0.11642548 -0.056583636 -0.020249803 0.06523256 0.12706658 -0.08119973 -0.078550175
00000000: f8e1 9c3b 5f2d 963d ecb1 d53d aaf9 cb3d
00000010: d4d5 9dbc c1e7 35bd e8a7 9a3c d39a 603d
00000020: 6de8 e63d 9a20 23bd 701d cfbd 6339 31ba
00000030: 0435 f03b 7f47 8abb 946d d8bd 5195 8d3d
00000040: e8c1 92b9 940b 833a aff4 3f3d 5cae 2b3d
00000050: d9e0 ddbd 564a 843d 9d57 a13d 2c5e 263d
00000060: e151 aebd a7f5 fcbd ed3f ffbc 824d 96bd
00000070: 1c18 45bd 2e75 c03d 7e07 31bd 4170 70bd
00000080: 1149 ae3d 15d3 d33d 849f 92bd 4b73 5d3d
00000090: c643 e7bd f550 233c b328 ee3d fc33 4b3c
000000a0: 1290 f03d f78a 633d 1198 fa3c 3abe d9bd
000000b0: 8700 eebd c55c e23c d3e9 abbd db11 0ebc
000000c0: 463a 8239 72e9 e1bd 63ad aa3d b424 26bd
000000d0: cae6 843c 6622 813d dde2 d7bd 6751 a3bd
000000e0: 741f 083d b577 663d de04 e4bd 105c 38bc
000000f0: e367 3c3d bfe9 07bd 8d1d 163d 058c d93d
00000100: 3ac3 81bd b425 8a3d d228 89bc bf56 d03d
00000110: e7b0 e2bc efe9 98bd 5642 81bd 51d2 d3bd
00000120: 2d71 e5bd a8b4 cebd 08a6 d73c fb96 6d3d
00000130: 93ef 403d 25a7 e03c f0c7 8a3c c937 a6bc
00000140: 8aee a53d ad00 65bd d9d9 523d 5054 8f3d
00000150: 8a61 0ebe 8d38 c4bc 1337 513d 7b6d 0ebd
00000160: 787c bc3d 9b75 f23c 53ed 533d faf8 6cbd
00000170: 3177 b53d e9be 873d a5c2 543d 738a c0bd
00000180: b86d 243d 284a 81bc 5bcb 88bd 7626 b43d
00000190: 899e 93bc c0fa e13a e7ca a43d 73f2 26bc
000001a0: 2f2f afbd b865 a43a 9218 fa3d 55f9 cf3d
000001b0: 7a21 893d 66b3 d0bd c851 97bb 52f6 cdbd
000001c0: e15c 71bd 389d cb3d d0f7 adbd f10e 8bbd
000001d0: 4f89 febd 9084 813c ef57 f13d 4f41 433d
000001e0: 46e4 d1bc 00a8 c8bd 7de5 3e3d 366b 0dbe
000001f0: 3e3a a7bd 06d3 d8bd a2e2 433b 36d6 bebd
00000200: 3f12 823d 677a ddbb e231 8fbc c66d b23d
00000210: ff1a 933d 14eb 0abe 65e0 933d 53df 543c
00000220: b64d b1bd 4639 dabc 2355 a43d 6d1d 66bd
00000230: 2d2c aa3c fa6f ed3d 6b56 813d ab10 06bc
00000240: 02d1 7b3d 240b 98bd ae50 abbd ea48 843d
00000250: c987 89bd f228 e8bb 9299 21bc 7fb1 8fbb
00000260: e85b 803d a64a c13d 3878 b43d 5aab c7bd
00000270: b47f 9f3c 0001 efbc c946 b63d 3dca 713d
00000280: e4d5 b1bd ba17 d23d e545 3dba 744a a73d
00000290: ea8e 02be 6bcc 6d3d f15b 88bd 242d 87bb
000002a0: 0300 9c3c b2d6 073d a411 fc3d 297a 37bd
000002b0: 08b6 083d 0970 883d 0e6b 91bc 5536 19bd
000002c0: c988 193d a48a 47bd 201a 843c b835 a83d
000002d0: 893a 2bbd c0c9 4ebd 3eaf 99bd 84ba c33c
000002e0: fb20 93bc 7714 f2bd 14e5 1abd 0f62 97bd
000002f0: 226b d0bd 1d2c 44bd dcae fd3b deb0 483d
00000300: 7708 34bd f7f1 40bc 4bd1 653d c0c5 05bc
00000310: fdad b33d 1842 ba3d 80d7 abbc b09d 00be
00000320: 1bb7 bc3d 9ea5 5f3d 0d97 3e3d fda7 a0bd
00000330: fa6d d6bd 4e0a 6f3d c10a e93d e6c2 f6bd
00000340: 6050 9a3d bd52 353d b554 ca3d b2c0 47bd
00000350: 2753 ce3d 31b8 bfbd c2b3 e1bd 90b3 783d
00000360: 01dc ac3d e1fc 933a de5e 7e3d 2c15 8a3b
00000370: 6d21 a03d c602 94bd 68f5 d937 9fa6 03be
00000380: 2664 f23d 6497 43bd 1210 15bd 4512 933d
00000390: c7bd bebd 2b94 923d 2c1b 9d3d 36fc 38bd
000003a0: cd8e 45bc a0d7 e13b 5711 043d a44d ea3d
000003b0: 0521 22bd b0ea 53bd b5ad 7c3c 041c e93d
000003c0: e0e5 573d f26d 013e 4bf9 f13c 5249 44bd
000003d0: 20da ddbc d7cf f8bb e812 7dbd 24eb c2bd
000003e0: f15b 71bc 7b70 eebd 3ec4 67bd eae2 a5bc
000003f0: a698 853d be1d 023e 0b4c a6bd eade a0bd

fc2.bias f4 [64]
-0.03995336 0.075982705 -0.011797012 -0.05458576 0.094636574 0.031984642 0.062451832 0.06254579
-0.06273026 0.07194165 -0.045015473 0.080103025 0.041578904 -0.028535724 0.020324524 -0.06295466
0.05026845 -0.07351452 -0.081214845 -0.050815836 -0.06749782 0.012354293 0.03537659 0.002840985
0.021852816 -0.016684268 0.05572694 0.017197398 -0.059154537 0.059083384 -0.061252963 -0.090433285
-0.06101796 -0.048869096 0.013073597 -0.025280243 -0.04016074 -0.069182605 -0.06738124 0.011668476
0.042180084 -0.012522085 -0.078453094 -0.096500464 0.06740608 0.03846359 0.07565534 0.06926947
0.04078233 -0.08308417 -0.07168826 -0.06067694 -0.09184933 -0.07597977 -0.034265604 0.060855336
-0.06663307 -0.03437601 0.058940604 -0.0073507824 -0.034047373 -0.04293501 -0.07212851 -0.035277944
00000000: 22a6 23bd d29c 9b3d 4148 41bc 5195 5fbd
00000010: d2d0 c13d 5402 033d 7ecd 7f3d 0218 803d
00000020: b978 80bd 2556 933d 2562 38bd 0e0d a43d
00000030: a44e 2a3d c0c3 e9bc 9e7f a63c 5fee 80bd
00000040: 4ae6 4d3d c88e 96bd f853 a6bd 4424 50bd
00000050: 4c3c 8abd a969 4a3c 0be7 103d d22f 3a3b
00000060: ad04 b33c 72ad 88bc ef41 643d 8fe1 8c3c
00000070: 074c 72bd 6b01 723d 63e4 7abd 1635 b9bd
00000080: f8ed 79bd f62a 48bd a432 563c 8318 cfbc
00000090: 977f 24bd 9caf 8dbd 2dff 89bd 232d 3f3c
000000a0: 06c5 2c3d 6e29 4dbc 04ac a0bd 09a2 c5bd
000000b0: 330c 8a3d ff8b 1d3d 30f1 9a3d 27dd 8d3d
000000c0: 5f0b 273d 0928 aabd 4bd1 92bd 6288 78bd
000000d0: 801b bcbd 489b 9bbd 175a 0cbd 7243 793d
000000e0: eb76 88bd dccd 0cbd b46b 713d d5de f0bb
000000f0: 4275 0bbd 9fdc 2fbd 1db8 93bd 9b7f 10bd

bn2.weight f4 [64]
0.99648345 0.6641666 0.6052241 0.74238026 0.7621592 0.5811856 0.6276648 0.80590683
0.12532638 0.25462842 0.46844772 0.8482121 0.83942354 0.32050735 0.12991606 0.9311468
0.17498967 0.4617045 0.3555891 0.9124373 0.2133437 0.0074854353 0.16518342 0.40160578
0.26003912 0.9103043 0.588304 0.7833848 0.040589333 0.29372108 0.6356965 0.30348563
0.049604803 0.68364096 0.1018147 0.6600472 0.8171068 0.35683268 0.029795047 0.117041975
0.26331025 0.63924617 0.88819194 0.9555803 0.047971766 0.8458565 0.6741144 0.36976713
0.5507903 0.9725572 0.7485181 0.53715014 0.23719043 0.07722381 0.31525183 0.22844729
0.8139159 0.47186422 0.62203854 0.103186324 0.5673575 0.8905573 0.28284883 0.5929237
00000000: 8a19 7f3f d306 2a3f f7ef 1a3f a20c 3e3f
00000010: de1c 433f 94c8 143f a4ae 203f e94f 4e3f
00000020: 8f55 003e a85e 823e 61d8 ef3e 6e24 593f
00000030: 76e4 563f 8a19 a43e b708 053e a35f 6e3f
00000040: 7e30 333e 8864 ec3e c60f b63e 7e95 693f
00000050: c576 5a3e 6248 f53b d825 293e 469f cd3e
00000060: d923 853e b409 693f 179b 163f e88b 483f
00000070: 0041 263d 9c62 963e 01bd 223f 7862 9b3e
00000080: 682e 4b3d 1803 2f3f 3a84 d03d daf8 283f
00000090: e92d 513f c6b2 b63e be14 f43c b4b3 ef3d
000000a0: 9ad0 863e a3a5 233f 8c60 633f e9a0 743f
000000b0: 0b7e 443d 0d8a 583f c392 2c3f 1e52 bd3e
000000c0: 9800 0d3f 82f9 783f e29e 3f3f ac82 093f
000000d0: 0ce2 723e 8427 9e3d b068 a13e 16ee 693e
000000e0: cb5c 503f 3098 f13e eb3d 1f3f 5a53 d33d
000000f0: 573e 113f 90fb 633f 90d1 903e d9c9 173f

bn2.bias f4 [64]
4.7916732e-08 -2.597585e-07 4.9384084e-08 -2.9472508e-07 -2.0217673e-08 -1.8844746e-08 -9.316741e-08 2.276454e-07
-7.40238e-08 2.1240535e-08 1.0405151e-08 6.3584885e-08 3.3368713e-07 4.6807656e-07 -2.8074996e-07 -3.9565487e-07
-1.1834729e-07 -9.288729e-08 1.6117217e-07 3.850347e-07 -4.2287033e-07 -3.1737682e-07 3.4694162e-07 4.1041372e-07
-3.7352046e-07 -2.2019648e-07 3.3707738e-07 2.4886467e-07 -4.970343e-08 -3.380244e-07 -7.723728e-08 4.927893e-08
-4.4461808e-07 1.1687506e-07 8.493527e-08 -2.7153175e-07 4.939634e-07 1.1287912e-08 1.9123519e-07 5.117127e-07
3.627775e-07 -8.533574e-08 -3.1854344e-07 5.351611e-07 -9.951893e-08 -6.444104e-08 -2.9157653e-07 9.803984e-08
-8.470649e-09 3.947492e-08 1.8788437e-07 1.5209788e-07 1.2767538e-06 7.113358e-07 9.101843e-08 -1.5712597e-07
7.4267014e-08 4.790621e-07 1.7777936e-07 9.318532e-08 -1.4595959e-07 3.5048953e-07 4.13636e-07 4.1224115e-07
00000000: 01cd 4d33 f074 8bb4 601a 5433 b53a 9eb4
00000010: 22ab adb2 09e0 a1b2 5313 c8b3 b16e 7434
00000020: 04f7 9eb3 6e74 b632 57c2 3232 298c 8833
00000030: 9c25 b334 f44b fb34 fbb9 96b4 646a d4b4
00000040: 1c26 feb3 5479 c7b3 ab0e 2d34 c4b6 ce34
00000050: db06 e3b4 f063 aab4 4b43 ba34 d556 dc34
00000060: 4388 c8b4 266f 6cb4 90f7 b434 b39b 8534
00000070: 8079 55b3 b879 b5b4 a5dd a5b3 c2a6 5333
00000080: d8b3 eeb4 befc fa33 a965 b633 0ac7 91b4
00000090: e898 0435 c3ec 4132 5456 4d34 a15c 0935
000000a0: c3c3 c234 d241 b7b3 4704 abb4 fea7 0f35
000000b0: 1cb7 d5b3 d662 8ab3 f989 9cb4 f989 d233
000000c0: 4f86 11b2 228b 2933 43bd 4934 5950 2334
000000d0: ed5c ab35 a0f2 3e35 e975 c333 75b6 28b4
000000e0: b97c 9f33 e698 0035 9ee3 3e34 2c1d c833
000000f0: 11b9 1cb4 ea2a bc34 b311 de34 fe51 dd34

bn2.running_mean f4 [64]
0.2721223 0.2083356 0.22300623 0.23685664 0.2144298 0.15836048 0.24287306 0.20583151
0.14469628 0.27374363 0.1797735 0.29229048 0.1855859 0.1809526 0.15800868 0.18031299
0.1733363 0.07466558 0.09394055 0.07938421 0.1166442 0.15016578 0.22489172 0.14473805
0.18343125 0.20192176 0.25819513 0.2433515 0.14658895 0.24407253 0.12176038 0.043692395
0.12985621 0.13823889 0.14823616 0.17115003 0.07365309 0.10933983 0.11798412 0.162222
0.14894249 0.13831711 0.100193165 0.06501944 0.26283002 0.19218758 0.18339717 0.2361357
0.1349269 0.104635574 0.16088489 0.1298813 0.09159808 0.084773526 0.15419476 0.24557985
0.17013288 0.119323105 0.16396213 0.14456369 0.16883484 0.118224554 0.08995797 0.062379062
00000000: 9d53 8b3e ed55 553e bf5b 643e 8c8a 723e
00000010: 7c93 5b3e 4029 223e b7b3 783e 7fc5 523e
00000020: 432b 143e 2028 8c3e 8b16 383e 19a7 953e
00000030: 3b0a 3e3e a34b 393e 07cd 213e f8a3 383e
00000040: 127f 313e 45ea 983d e763 c03d 3094 a23d
00000050: 28e3 ee3d 0fc5 193e 044a 663e 3636 143e
00000060: 67d5 3b3e 94c4 4e3e 2732 843e 2331 793e
00000070: 6a1b 163e 26ee 793e 825d f93d ccf6 323d
00000080: 07f9 043e 7f8e 0d3e 38cb 173e f441 2f3e
00000090: 6ed7 963d 90ed df3d a9a1 f13d 861d 263e
000000a0: 6184 183e 00a3 0d3e 1332 cd3d ea28 853d
000000b0: a891 863e d2cc 443e 78cc 3b3e 8fcd 713e
000000c0: 472a 0a3e 2d4b d63d 02bf 243e 9aff 043e
000000d0: c697 bb3d be9d ad3d 3be5 1d3e 4979 7b3e
000000e0: 5037 2e3e ac5f f43d b0e5 273e 8108 143e
000000f0: 0ae3 2c3e b71f f23d e23b b83d 3081 7f3d

bn2.running_var f4 [64]
0.19552456 0.10794532 0.13427801 0.1119335 0.07992555 0.049751054 0.13570681 0.11390884
0.050181232 0.13639134 0.13506073 0.19012967 0.056982096 0.11235048 0.09994641 0.09180108
0.06621439 0.023497414 0.022811621 0.018091982 0.03496712 0.073040344 0.09022059 0.045297492
0.06882028 0.13800529 0.10879072 0.09660463 0.052527353 0.0971187 0.044359226 0.013720522
0.05954997 0.06562075 0.04422013 0.093144745 0.021429785 0.035192676 0.03539434 0.066010684
0.06972353 0.053809296 0.021251967 0.019237477 0.20286942 0.08862202 0.06737657 0.08096403
0.04047131 0.055046402 0.048317317 0.049909048 0.034356646 0.014264791 0.077113435 0.14770286
0.060124267 0.029494151 0.0544872 0.05125764 0.05349528 0.034177084 0.029919919 0.01260095
00000000: 9737 483e 7012 dd3d 2d80 093e 643d e53d
00000010: 02b0 a33d c3c7 4b3d baf6 0a3e 0a49 e93d
00000020: d68a 4d3d 2caa 0b3e 5c4d 0a3e 5ab1 423e
00000030: 0f66 693d 0218 e63d b4b0 cc3d 3402 bc3d
00000040: 699b 873d a67d c03c 70df ba3c a335 943c
00000050: af39 0f3d 2d96 953d 93c5 b83d dd89 393d
00000060: a6f1 8c3d 4251 0d3e abcd de3d a6d8 c53d
00000070: ec26 573d 2be6 c63d 05b2 353d 0acc 603c
00000080: abea 733d 2c64 863d 2b20 353d acc2 be3d
00000090: 848d af3c 3226 103d a8f9 103d 9c30 873d
000000a0: 36cb 8e3d 2367 5c3d 9b18 ae3c ea97 9d3c
000000b0: 00bd 4f3e 767f b53d bafc 893d 78d0 a53d
000000c0: 3fc5 253d 5678 613d 61e8 453d 6e6d 4c3d
000000d0: 8eb9 0c3d dfb6 693c a6ed 9d3d 6b3f 173e
000000e0: dd44 763d b89d f13c f82d 5f3d 88f3 513d
000000f0: de1d 5b3d 45fd 0b3d 9e1a f53c 3774 4e3c

fc3.weight f4 [2, 64]
-0.00056928385 0.006449239 0.0018180727 0.006751184 0.000583106 0.0007749472 0.0065476806 -0.0051112655
0.0006152587 -0.0022600782 -0.0014104769 0.0015185345 -0.0053376374 -0.010928892 0.006316035 0.012069431
0.0050537707 0.0070146816 0.0038906503 -0.008867617 0.009466513 0.007369055 -0.008675867 -0.013568859
0.010563368 0.0053424654 -0.0073523195 -0.0033105777 -0.0009808738 0.014794711 0.0067240437 -0.01233488
0.010698202 -0.0037803885 -0.0032663052 0.006898762 -0.011930514 -0.0020582858 -0.005216741 -0.011951109
-0.0040511684 0.0013233167 0.009030647 -0.01100359 0.0076258113 0.0018000454 0.008120175 -0.0039089127
0.0033545033 -0.0034265136 -0.0029799535 -0.0041600177 -0.02273234 -0.021498144 -0.0035469707 0.008058973
0.00399481 -0.004130042 -0.0073429756 -9.517164e-05 0.003467248 -0.011132999 -0.013117261 -0.00782858
0.0041309497 0.0012704671 0.004555884 -0.0031221153 0.0012830162 -0.0017679617 0.004436651 -0.0010474584
-0.0169586 0.0030612573 -0.0024408412 -0.004980212 0.004781886 0.003450506 0.0068571884 0.0016088341
-0.007193809 0.012984673 -0.011630118 -0.014173796 -0.0007875325 0.002337889 0.009895057 -0.00066622556
-0.008555377 -0.0046427427 -0.0030400804 0.00079247594 0.021192739 -0.0034161601 -0.0010543297 0.0045754104
0.0013296971 0.002110157 0.0031691622 0.00021967682 -0.0065851198 0.00604684 0.009417394 0.0046660947
-0.0138303405 0.00078007614 0.015118177 0.0059318417 -0.0035201795 0.0022672985 0.0024740722 -0.002854458
0.0067591025 -0.00012421006 -0.009490102 0.00054179394 0.00674029 0.019095639 -0.0052978345 -0.0068087005
-0.0020017598 0.008813513 0.009850096 0.007226541 0.0026361172 0.0004663329 -0.002742452 0.010067803
00000000: fe3b 15ba 2354 d33b 664c ee3a 0939 dd3b
00000010: 95db 183a d425 4b3a ed8d d63b 677c a7bb
00000020: 5049 213a d21d 14bb c0df b8ba 9009 c73a
00000030: 59e7 aebb 180f 33bc bef6 ce3b ddbe 453c
00000040: 1a9a a53b 6adb e53b 48fa 7e3b 7b49 11bc
00000050: 6f19 1b3c 1d78 f13b 3925 0ebc eb4f 5ebc
00000060: fa11 2d3c d90f af3b baeb f0bb 47f6 58bb
00000070: aa90 80ba 8465 723c 5e55 dc3b 3d18 4abc
00000080: 8347 2f3c 65c0 77bb 820f 56bb 030f e23b
00000090: 3478 43bc 4ee4 06bb 32f1 aabb 96ce 43bc
000000a0: aabf 84bb 2473 ad3a 47f5 133c 6748 34bc
000000b0: f1e1 f93b 80ef eb3a 7c0a 053c 5616 80bb
000000c0: 3ad7 5b3b 5c8f 60bb 534b 43bb c250 88bb
000000d0: 2c39 babc e01c b0bc 4b74 68bb c809 043c
000000e0: e5e6 823b 4e55 87bb 589d f0bb e396 c7b8
000000f0: c53a 633b 2f67 36bc c8e9 56bc 7243 00bc
00000100: eb5c 873b cd85 a63a 8649 953b 679c 4cbb
00000110: e12a a83a f3ba e7ba 5361 913b df4a 89ba
00000120: c3ec 8abc 609f 483b 85f6 1fbb 0c31 a3bb
00000130: 5eb1 9c3b e221 623b 44b2 e03b 84df d23a
00000140: 0bba ebbb aabd 543c 408c 3ebc 3639 68bc
00000150: 6972 4eba 4537 193b e11e 223c a4a5 2eba
00000160: da2b 0cbc 2622 98bb 163c 47bb 29be 4f3a
00000170: 659c ad3c a8e1 5fbb 6f31 8aba 53ed 953b
00000180: 3b49 ae3a 8f4a 0a3b b8b1 4f3b 0c59 6639
00000190: fdc7 d7bb 9224 c63b 6a4b 1a3c 0ae6 983b
000001a0: a798 62bc 067e 4c3a 3bb2 773c e55f c23b
000001b0: d0b2 66bb f596 143b 0b24 223b dc11 3bbb
000001c0: 767b dd3b 623e 02b9 5f7c 1bbc 2d07 0e3a
000001d0: a7dd dc3b 756e 9c3c 7599 adbb 851b dfbb
000001e0: f52f 03bb 8e66 103c 4c62 213c 9fcc ec3b
000001f0: b5c2 2c3b 247e f439 b6ba 33bb 6df3 243c

fc3.bias f4 [2]
-0.06689872 0.00048151752
00000000: 3202 89bd 3074 fc39

bn3.weight f4 [2]
0.6442549 0.7357741
00000000: e4ed 243f b15b 3c3f

bn3.bias f4 [2]
-0.07013898 0.03880922
00000000: 07a5 8fbd 6bf6 1e3d

bn3.running_mean f4 [2]
-0.06689255 0.00048551988
00000000: f6fe 88bd 608d fe39

bn3.running_var f4 [2]
0.0008382535 0.0007707844
00000000: 3dbe 5b3a 770e 4a3a
