p3_collaboration_and_competition/weights/actor_1_1200.pth (torch_old, 51773 bytes, 18 tensors)

fc1.weight f4 [128, 24]
0	0xbc811630	-0.01575765
1	0x3dcacacc	0.09901962
2	0x3cdb973f	0.026805518
3	0x3dc28377	0.09497731
4	0xbd9796f2	-0.074018374
5	0xbcaadbfa	-0.020856846
6	0x3d01b9ee	0.031671457
7	0x3cf16706	0.02946807
8	0xbd0e5797	-0.0347515
9	0x3d2aa9ea	0.04166595
10	0x3d6af7eb	0.05736534
11	0x3db93769	0.09043772
12	0xbdadd381	-0.08487607
13	0xbd19161e	-0.03737461
14	0xbd47afb9	-0.048751567
15	0x3e19cb48	0.15018952
16	0xbc27ee73	-0.010249722
17	0x3ddc1d00	0.10747719
18	0x3d17af66	0.037032507
19	0xbd0712cf	-0.03297692
20	0xbe331f1d	-0.17492338
21	0x3e261c14	0.16221648
22	0xbd5f9956	-0.054589592
23	0xbd5ce727	-0.05393138
24	0x3db50183	0.08838179
25	0x3d9d2644	0.07673314
26	0xbd9bc322	-0.07605578
27	0xbdf7c58d	-0.12098227
28	0xbc8628d6	-0.016376894
29	0x3c89cf30	0.016822428
30	0x3d99e68e	0.07514678
31	0xbdcaee5f	-0.09908747
32	0x3d8b4298	0.06799811
33	0x3dc62ce7	0.09676533
34	0xbc45882b	-0.012056391
35	0x3d74db90	0.059779704
36	0xbcd3a004	-0.025833137
37	0xbbd7adb7	-0.0065819877
38	0xbc27898b	-0.010225664
39	0x3bd04650	0.006356038
40	0x3d0c4cca	0.03425292
41	0x3d8ec770	0.069716334
42	0x3d4036fe	0.046927445
43	0xbd776ce5	-0.060406584
44	0xbcc373eb	-0.023858985
45	0x3dab9125	0.083772935
46	0x3c4660d9	0.012108051
47	0xbdc04eec	-0.09390053
48	0xbc2f4120	-0.010696679
49	0x3c458e30	0.012057826
50	0xbd0f8a11	-0.03504378
51	0x3d66e5af	0.056371387
52	0x3d38d970	0.04512924
53	0xbd07996f	-0.03310531
54	0x3d140b5f	0.036143657
55	0x3c99666c	0.018725596
56	0xbc461838	-0.012090735
57	0x3d869a95	0.06572453
58	0xbbcf7cdd	-0.0063320235
59	0x3bb14aa8	0.005410511
60	0xbd4d5bba	-0.050136305
61	0xbd08262d	-0.033239532
62	0x3b9bcd35	0.004754687
63	0x3d6b81b8	0.057496756
64	0xbd1feac9	-0.039042268
65	0x3d172228	0.03689781
66	0xbd347836	-0.044059955
67	0x3dbef4e2	0.093240514
68	0xbdc203e9	-0.09473402
69	0xbe8015e4	-0.250167
70	0x3d61df42	0.055144556
71	0xbd209e7c	-0.039213642
72	0xbd434a5a	-0.04767833
73	0xbd837d67	-0.06420403
74	0xbdd994cc	-0.10624084
75	0xbd1c65f2	-0.03818316
76	0x3d0e3198	0.034715265
77	0xbd764e7e	-0.06013345
78	0xbcb402af	-0.021973936
79	0x3d07677c	0.033057675
80	0x3daddd90	0.08489525
81	0x3d81106e	0.06301962
82	0x3c8fa52b	0.017534813
83	0x3d5f7b78	0.05456111
84	0x3bd1bedf	0.0064009274
85	0x3d3d4a03	0.04621316
86	0xbd49980c	-0.04921727
87	0xbda5b6fc	-0.08091542
88	0xbdd0e2e5	-0.10199527
89	0x3d237e15	0.039915163
90	0x3d6adff0	0.05734247
91	0x3dc73185	0.09726242
92	0x3d1eff6f	0.03881782
93	0x3cdee47f	0.027208565
94	0xbdaac0be	-0.08337544
95	0xbd090a1b	-0.033456903
96	0x3e033592	0.12813404
97	0xbdd332d4	-0.10312429
98	0xba2a2ca3	-0.0006491637
99	0xbe21d144	-0.15802485
100	0xbdea50e0	-0.11441207
101	0x3d4447ca	0.047920026
102	0xbbb5ccdb	-0.0055481023
103	0xbe0a9f6a	-0.13537374
104	0xbcc19614	-0.023631133
105	0xbe05e5f3	-0.13076
106	0x3cea2b8e	0.028585222
107	0xbd83dc3f	-0.06438493
108	0x3c85606f	0.016281335
109	0x3ca9d8a3	0.020733183
110	0xbcec9b3d	-0.028882617
111	0x3d15a028	0.03652969
112	0x3d58f1d9	0.05296502
113	0xbe4846dc	-0.1955828
114	0x3d2326a1	0.03983176
115	0x3cda2061	0.026626768
116	0xbd867b4e	-0.06566487
117	0xba93990b	-0.001126082
118	0x3a6a3ae9	0.000893517
119	0xbd27f0ca	-0.04100112
120	0x3cd4b484	0.025964983
121	0x3d80e5cf	0.062938325
122	0xbc76c28a	-0.01506103
123	0x3d02fe2a	0.03198067
124	0x3dc264a4	0.09491852
125	0xbca77413	-0.02044109
126	0x3c962441	0.018327834
127	0xbc512a27	-0.012766398
128	0x3d01c8df	0.031685706
129	0x3d78c24d	0.060732175
130	0xbd8a0c17	-0.06740587
131	0x3a8aa222	0.0010576884
132	0x3d8010d3	0.06253209
133	0x3e01225d	0.12610765
134	0x3d70412f	0.058655914
135	0x3bbe104f	0.005800284
136	0x3dcbe962	0.099566236
137	0x3e102caf	0.14079545
138	0xbd316f65	-0.043319125
139	0xbd07ba4e	-0.03313666
140	0xbc63ce73	-0.013904202
141	0x3e30ed62	0.17278054
142	0x3d4baf59	0.04972777
143	0x3d77abc8	0.060466558
144	0xbd025625	-0.031820435
145	0xbbdbfdbd	-0.0067135976
146	0xbd92ba1a	-0.07164402
147	0xbcc99eab	-0.024611792
148	0x3cdbfa24	0.026852675
149	0x3d6050e8	0.05476466
150	0xbe0558eb	-0.13022201
151	0xbc030d38	-0.007998757
152	0xbd164df9	-0.036695454
153	0xbe1382c6	-0.14405355
154	0xbd25fe05	-0.040525455
155	0x3d3dcc4e	0.04633742
156	0xbcbe0db7	-0.0231999
157	0x3d034614	0.032049254
158	0xbc6e820f	-0.014557376
159	0x3d82bb25	0.06383351
160	0x3c7360fe	0.014854668
161	0xbde4298f	-0.11140739
162	0x3d1d9a8e	0.038477473
163	0x3c896bd0	0.016775042
164	0x3c87b6fd	0.016566748
165	0x3d7de2eb	0.061983984
166	0xbdaf1818	-0.085495174
167	0x3d92e915	0.07173363
168	0xbd5f5572	-0.054524846
169	0x3e5b023f	0.21387576
170	0xbd717ec3	-0.05895878
171	0xbc8df1eb	-0.01732727
172	0x3cc9d9c0	0.024639964
173	0xbdfec481	-0.12439824
174	0xbd2ff467	-0.04295769
175	0x3d5a13db	0.053241592
176	0xbe06b941	-0.13156606
177	0x3d5f32f7	0.054491963
178	0x3c513010	0.012767807
179	0xbda7f16c	-0.082003444
180	0xbda5fd99	-0.081050105
181	0x3e2d66d0	0.16933751
182	0x3c6e570c	0.014547121
183	0x3d5aad9b	0.05338822
184	0xbd1d4e46	-0.038404725
185	0x3e072492	0.13197544
186	0x3cc8086f	0.024418084
187	0xbdc576ed	-0.09641824
188	0xbd6d557e	-0.05794286
189	0x3e198e75	0.1499575
190	0x3d3306b1	0.043707553
191	0xbd4a7b14	-0.049433783
192	0xbdb1cc1c	-0.08681509
193	0x3dcd7044	0.100311786
194	0xbc836db3	-0.01604352
195	0x3d369f59	0.04458556
196	0xbd1b9c86	-0.03799107
197	0x3d70aa45	0.05875613
198	0x3cd803cc	0.026368998
199	0xbdb13dbe	-0.086543545
200	0xbc25295e	-0.0100806635
201	0xbd7ad678	-0.06123969
202	0x3d3ea530	0.046544254
203	0xbde9d2ac	-0.114171356
204	0xbcaaafab	-0.020835718
205	0x3d9abe15	0.075557865
206	0xbda68e06	-0.081325576
207	0xbdf26848	-0.11836296
208	0xbdfe6137	-0.12420886
209	0x3d11a95e	0.03556191
210	0xbcc4335b	-0.02395027
211	0xbe03074d	-0.12795754
212	0xbd6a2774	-0.05716653
213	0x3c9547e9	0.018222766
214	0x3c0b1eb0	0.008491203
215	0xbe53b74b	-0.2067539
216	0x3da89bc8	0.08232838
217	0xbd8fd71b	-0.0702345
218	0x3c2f1db1	0.010688231
219	0x3cf3fe23	0.029784268
220	0xbd468c4a	-0.048473634
221	0xbd12d1a9	-0.03584448
222	0xbc6877a1	-0.014188678
223	0x3da5938e	0.080847844
224	0x3dbe2bc1	0.09285689
225	0xbdefcc83	-0.117089294
226	0xbd7f0a29	-0.06226555
227	0x3c690476	0.014222255
228	0x3d9bf216	0.076145336
229	0x3ca3f80f	0.020015744
230	0x3d49f2dc	0.049303874
231	0xba5a783c	-0.00083339564
232	0xbd18917b	-0.037248116
233	0xbd9622e4	-0.073308736
234	0x3d316eb8	0.04331848
235	0xbc07be10	-0.0082850605
236	0x3dffd70b	0.12492188
237	0x3d1c0ff8	0.038101166
238	0xbd8fe233	-0.07025566
239	0x3cd56f44	0.026054032
240	0xb7a91555	-2.0156303e-05
241	0x3e013eeb	0.12621658
242	0x3c7d824c	0.01547296
243	0xbceaed29	-0.02867754
244	0xbc8d3575	-0.017237404
245	0xbde43220	-0.11142373
246	0x3d7a1dff	0.061063763
247	0x3ca4a51d	0.020098263
248	0xbd142961	-0.036172275
249	0xbd37e3ed	-0.0448951
250	0xbc39f432	-0.011349725
251	0xbdcfa22c	-0.10138354
252	0xbdbc46ea	-0.09193213
253	0x3da84b9f	0.082175486
254	0x3ad8975b	0.00165246
255	0xbd63f63e	-0.055654757

fc1.bias f4 [128]
0	0xbe1c4dae	-0.15264007
1	0x3d3e5786	0.046470188
2	0xbe18e56e	-0.1493127
3	0xbd117ff0	-0.0355224
4	0xb94ad33d	-0.00019342914
5	0x3da4c6f9	0.080457635
6	0x3dcc2c6e	0.09969412
7	0xbe09ac2d	-0.13444586
8	0xbaa7fb44	-0.0012815972
9	0xbbbfb29a	-0.0058501484
10	0xbe0d7d31	-0.13817288
11	0xbcb844be	-0.022493716
12	0x3e07414c	0.13208503
13	0x3e1fe773	0.15615635
14	0x3e080bb6	0.13285717
15	0x3ca7677b	0.020435086
16	0x3e516be4	0.20451313
17	0x3d46c21c	0.04852496
18	0x3e2e85cf	0.17043231
19	0xbe110bae	-0.14164612
20	0xbd82e7ba	-0.063918546
21	0xbe8f15b1	-0.27946237
22	0x3d5a31b8	0.05327007
23	0x3e3364e4	0.17518955
24	0xbe568fda	-0.20953313
25	0xbe6f2ea7	-0.2335764
26	0x3d856afb	0.065145455
27	0x3e078da9	0.13237633
28	0xbe073db4	-0.13207132
29	0xbe7516c8	-0.23934472
30	0xbdb84b02	-0.089986816
31	0xbe24b70b	-0.1608545
32	0x3d75e538	0.060033053
33	0xbded1c21	-0.11577631
34	0x3c1b44fb	0.009476895
35	0x3dd991db	0.10623523
36	0x3d43124f	0.047624882
37	0xbdaf5245	-0.085606135
38	0x3d4b34d7	0.04961094
39	0x3d5bf788	0.05370286
40	0x3e378fef	0.17926
41	0x3c2ca270	0.010536775
42	0x3c7f5a61	0.015585513
43	0xbe0afa9b	-0.13572161
44	0x3e14d1bf	0.14533137
45	0xbded3897	-0.11583059
46	0x3c8fb777	0.017543538
47	0xbe55ec2f	-0.20890878
48	0xbe02b909	-0.12765898
49	0xbddf58fa	-0.10905643
50	0x3ca7ccd0	0.020483404
51	0x3ce250f1	0.027626486
52	0x3d336e8e	0.043806605
53	0xbd4d9115	-0.05018719
54	0x3bcedd0a	0.006312971
55	0xbe259e3c	-0.16173643
56	0x3d539511	0.051655833
57	0x3c599155	0.013279279
58	0x3e8684aa	0.2627309
59	0xbb0c6cfb	-0.0021427262
60	0xbde408ca	-0.11134489
61	0x3e018c9c	0.12651294
62	0x3e830161	0.2558699
63	0xbe269399	-0.16267242
64	0xbd9f6239	-0.07782406
65	0x3bd2b16a	0.006429841
66	0xbe510e10	-0.2041552
67	0xbbb95609	-0.005656008
68	0xbe3938aa	-0.18088022
69	0x3d60b677	0.054861512
70	0xbe2fa54a	-0.17152897
71	0x3d69ad09	0.057049785
72	0x3db7ddc4	0.08977845
73	0xbe2f4364	-0.17115551
74	0xbce9ad50	-0.028525025
75	0x3e31277c	0.17300218
76	0x3e1df5da	0.15425816
77	0xbc359a46	-0.011084145
78	0x3db620a5	0.08892945
79	0x3d84b116	0.06479089
80	0x3e04adf2	0.1295698
81	0xbcb38b91	-0.021917136
82	0xbd94c157	-0.07263439
83	0xbd576152	-0.052583046
84	0xbd31eaa3	-0.043436658
85	0xbcc7bcd6	-0.024382036
86	0xbe19429f	-0.1496682
87	0xbe3a80dd	-0.1821322
88	0x3e86e859	0.26349142
89	0xbe61f957	-0.22067772
90	0xbe13dbbf	-0.14439295
91	0xbe003d08	-0.12523282
92	0xbdc7cd71	-0.09755982
93	0xbe747ef3	-0.23876552
94	0xbde67376	-0.11252491
95	0x3cdb4697	0.026767058
96	0x3e13cb73	0.14433078
97	0x3dab910b	0.08377274
98	0xbe0374c5	-0.12837513
99	0xbe33b3e5	-0.17549093
100	0xbe5c299e	-0.2150025
101	0xbe5fb79e	-0.21847388
102	0xbdfa0e55	-0.12209765
103	0xbe3e942f	-0.18611215
104	0xbcc3da48	-0.023907796
105	0x3e6c993c	0.2310533
106	0xbdf99e48	-0.12188393
107	0xbe2a6d52	-0.16643265
108	0x3c9a81b0	0.018860668
109	0x3e29f9b5	0.16599162
110	0xbdc41624	-0.095745355
111	0xbda987d3	-0.082778595
112	0x3e29be88	0.16576588
113	0x3de4e85c	0.111771315
114	0x3e29a120	0.1656537
115	0xbe4e7e79	-0.20165433
116	0x3e80e958	0.25178027
117	0xbddd0320	-0.10791612
118	0xbe1de982	-0.15421107
119	0xbc6da97c	-0.01450574
120	0x3d257d54	0.040402725
121	0xbd673d7a	-0.056455113
122	0x3e6ff066	0.23431548
123	0xbda329fe	-0.07966994
124	0xbda87853	-0.08226075
125	0xbe0917c0	-0.13387966
126	0xbdac3de3	-0.084102415
127	0x3e221a9e	0.15830466

bn1.weight f4 [128]
0	0x3f3592e8	0.70927286
1	0x3e41a2e9	0.18909802
2	0x3f07e5fb	0.530853
3	0x3f519706	0.8187107
4	0x3ec1008a	0.37695724
5	0x3f3a4d94	0.72774625
6	0x3ebd2026	0.3693859
7	0x3f62a72b	0.8853633
8	0x3f05b49c	0.52228713
9	0x3f46d4d6	0.7766851
10	0x3ea67e81	0.3251839
11	0x3db2a8a5	0.08723573
12	0x3ec3e71d	0.38262263
13	0x3f508664	0.81455064
14	0x3f127192	0.57204545
15	0x3eff12c8	0.49819016
16	0x3f58e7d0	0.8472872
17	0x3e3598b8	0.17734039
18	0x3ea3689e	0.31915754
19	0x3f3e24e0	0.74275017
20	0x3f7b601f	0.98193544
21	0x3f2fac3d	0.6862219
22	0x3ea20d48	0.31650758
23	0x3f3830d9	0.71949536
24	0x3f2bc12d	0.6709164
25	0x3e47f7cf	0.19528125
26	0x3f63ca26	0.8898033
27	0x3f18dc79	0.59711415
28	0x3e8eac98	0.27866054
29	0x3de034bf	0.109475605
30	0x3f1c24c2	0.6099359
31	0x3ed30659	0.4121578
32	0x3f0a8138	0.5410342
33	0x3e66f5ca	0.22554699
34	0x3f3058d5	0.68885547
35	0x3eaa6769	0.3328202
36	0x3f664753	0.8995258
37	0x3f0b9067	0.54517215
38	0x3f15968f	0.5843286
39	0x3f51e34b	0.81987447
40	0x3f531c6c	0.82465243
41	0x3f06d32f	0.5266599
42	0x3f66f23f	0.9021339
43	0x3e89b761	0.2689772
44	0x3f50d338	0.81572294
45	0x3f50da04	0.81582665
46	0x3ea50942	0.32233626
47	0x3eb2e72a	0.3494199
48	0x3f6c2808	0.9224858
49	0x3f72799c	0.9471681
50	0x3e96fc74	0.2948948
51	0x3f0f0eff	0.5588226
52	0x3e213a4b	0.15744893
53	0x3f3a3080	0.72730255
54	0x3e415a75	0.18882163
55	0x3ec6a1c5	0.38795295
56	0x3f585d96	0.845178
57	0x3f55e9fe	0.8356017
58	0x3f5db942	0.86610806
59	0x3f0f8a61	0.56070524
60	0x3dc5e3aa	0.09662564
61	0x3f448a45	0.7677348
62	0x3f440ce9	0.765822
63	0x3f592379	0.8481975
64	0x3f2c9feb	0.67431515
65	0x3f011668	0.50424814
66	0x3f4665fc	0.77499366
67	0x3f25976b	0.6468417
68	0x3e83961d	0.25700465
69	0x3f384150	0.7197466
70	0x3ebe770e	0.37200207
71	0x3f618060	0.8808651
72	0x3ef3d96d	0.4762682
73	0x3ecde9fc	0.40217578
74	0x3f2c8bbf	0.67400736
75	0x3ecae655	0.39628854
76	0x3f319c60	0.69379234
77	0x3e2e3112	0.17010906
78	0x3ddca26b	0.10773166
79	0x3f0a07df	0.5391826
80	0x3ec03b00	0.37545013
81	0x3e7f7f5e	0.2495093
82	0x3e910e3c	0.28331172
83	0x3f098048	0.53711367
84	0x3e8b7121	0.27234748
85	0x3f61f541	0.8826485
86	0x3e219c54	0.1578229
87	0x3ea9d109	0.33167294
88	0x3ec46529	0.3835843
89	0x3f01ee98	0.5075469
90	0x3e144b3b	0.14481823
91	0x3f61b066	0.8815979
92	0x3e85912c	0.2608732
93	0x3e94ca93	0.29060802
94	0x3f21d8a1	0.63221174
95	0x3edd13ae	0.43179077
96	0x3f03bfcc	0.51464534
97	0xbe0b493e	-0.13602158
98	0x3e6af5e5	0.22945364
99	0x3f5127e6	0.81701505
100	0x3f2f8983	0.685692
101	0x3f2da87b	0.67835206
102	0x3f3d2cce	0.7389649
103	0x3f55a94b	0.83461446
104	0x3f397e34	0.72458196
105	0x3eda5bb6	0.42648095
106	0x3ee728d1	0.45148328
107	0x3e839d1f	0.2570581
108	0x3f1dd515	0.6165326
109	0x3ed279d8	0.41108584
110	0x3e70b331	0.23505856
111	0x3f446004	0.7670901
112	0x3f20a6a8	0.627543
113	0x3edd0f55	0.4317576
114	0x3ee5c4a7	0.44876596
115	0x3e27e1ac	0.1639468
116	0x3f677993	0.9041988
117	0x3e2fbf6e	0.17162868
118	0x3e1eaba1	0.15495159
119	0x3f0fc1fb	0.56155366
120	0x3ed65b14	0.41866362
121	0x3f29ae6c	0.6628177
122	0x3ed6d27f	0.4195747
123	0x3eb21b37	0.34786388
124	0x3ed4bd97	0.41550896
125	0x3ed962b3	0.42458114
126	0x3ee6d9a4	0.45087922
127	0x3ed3e7bd	0.4138774

bn1.bias f4 [128]
0	0xbdc2bb63	-0.095083974
1	0xbc7d2b3d	-0.015452203
2	0x3d352175	0.04422136
3	0xbd684b2e	-0.056712322
4	0xbd228942	-0.03968168
5	0x3dc8ca8d	0.098042585
6	0x3ce73f7f	0.02822852
7	0x3d132236	0.035921298
8	0xbc0e3068	-0.008678533
9	0xbc216a11	-0.009851948
10	0x3b6785ea	0.0035327622
11	0xbd9a413e	-0.07531975
12	0x3d6d4d9e	0.05793535
13	0xbd089a31	-0.033350173
14	0xbb5b0f96	-0.0033426038
15	0x3dc28471	0.094979174
16	0xbd8f1618	-0.06986636
17	0x3e076796	0.13223109
18	0x3db4374e	0.08799611
19	0x3dc7d8c3	0.09758141
20	0x3da21761	0.079146154
21	0x3d9590b0	0.073029876
22	0x3c762752	0.015024023
23	0x3ac164a8	0.0014754729
24	0x3d3ca7bf	0.046058413
25	0x3ca138fe	0.019680496
26	0x3cd03418	0.025415465
27	0xbdba4b59	-0.09096403
28	0xbbbc960a	-0.0057551907
29	0x3e5cccce	0.21562502
30	0x3dd23240	0.10263491
31	0x3bac8657	0.005265038
32	0x3e215776	0.1575602
33	0x3d07f1bf	0.03318953
34	0xbd863039	-0.065521665
35	0x3d63c35e	0.05560624
36	0x3dd21d1d	0.10259459
37	0x3dbfe282	0.09369375
38	0x3dca249b	0.09870263
39	0x3de42525	0.11139897
40	0xbd8e54ef	-0.069497935
41	0x3d0065d4	0.03134711
42	0x3d121f02	0.035674103
43	0x3e189445	0.1490031
44	0xbc76559b	-0.015035058
45	0x3d45588c	0.048180148
46	0x3b888672	0.0041664178
47	0x3c9d361f	0.019190846
48	0xbc304f48	-0.01076109
49	0x3d270477	0.040775742
50	0x3dae6c65	0.08516768
51	0x3dbcef71	0.09225357
52	0x3d7e9eaa	0.062163033
53	0x3e1d52ac	0.15363568
54	0xbe2c876a	-0.16848531
55	0x3dbb13ab	0.09134611
56	0x3da36b10	0.07979405
57	0x3e147e4c	0.14501303
58	0xbdbcd52b	-0.09220346
59	0x3cb156e7	0.021647884
60	0xbc6b1e73	-0.014350521
61	0xbd3b5d96	-0.045743547
62	0xba845ddb	-0.0010098772
63	0x39ff799e	0.00048728002
64	0xbd726d7f	-0.059186455
65	0xbbeda65a	-0.0072524967
66	0x3dd09c94	0.10186115
67	0xbd9fc5e0	-0.078014135
68	0xbdbf7a5c	-0.0934951
69	0x3deb0e60	0.11477351
70	0x3e12ad18	0.14323843
71	0x3de5c821	0.11219812
72	0x3d8a8392	0.06763376
73	0xbd807761	-0.0627277
74	0x3cb83de5	0.022490451
75	0x3c9775cd	0.018488789
76	0xbb635d50	-0.003469307
77	0x3e030706	0.12795648
78	0xbe6896a3	-0.22713713
79	0xbd0b193b	-0.03395961
80	0xbd98d188	-0.0746184
81	0x3cf5ed1f	0.030020295
82	0x3cf6625a	0.030076195
83	0x3dae3250	0.0850569
84	0xbd23148c	-0.039814517
85	0x3e4c50d2	0.19952706
86	0xbd25026b	-0.04028551
87	0xbd9386b7	-0.07203429
88	0xbe0d6de9	-0.13811459
89	0x3e08847c	0.13331789
90	0xbdaf7a6c	-0.08568272
91	0x3e0132e3	0.12617068
92	0xbe1d2225	-0.15345056
93	0x3c48c558	0.012254082
94	0x3d891035	0.06692544
95	0x3dcb0651	0.09913314
96	0x3d006700	0.03134823
97	0x3e1d3e4f	0.153558
98	0x3e7f5700	0.24935532
99	0x3dcf1856	0.101120636
100	0x3d939072	0.07205285
101	0xbda54e10	-0.0807153
102	0xbd8a3529	-0.06748421
103	0x3dd743d2	0.105109826
104	0xbe1b2f56	-0.15154776
105	0x3cbb6e44	0.022879727
106	0x3d8d42c0	0.06897497
107	0x3ddb1d35	0.1069893
108	0x3d05f6c8	0.032706052
109	0x3d404051	0.046936337
110	0x3d903503	0.07041361
111	0x3e37adf6	0.17937455
112	0xbbf289c9	-0.007401679
113	0xbd4b70b9	-0.049668048
114	0x3e1e9e50	0.15490079
115	0x3d75858b	0.05994181
116	0x3cf3c4ec	0.029756986
117	0xbe12fcc6	-0.14354238
118	0xbd466799	-0.048438642
119	0x3c5426ed	0.012948734
120	0x3debc61a	0.11512394
121	0xbc84bcd8	-0.016203329
122	0xbd7d3545	-0.06181838
123	0x3d4aa308	0.049471885
124	0x3e146002	0.14489749
125	0xbb81b922	-0.003958837
126	0x3d834b8e	0.06410895
127	0x3c7ab0ba	0.015300924

bn1.running_mean f4 [128]
0	0x3fb59c15	1.4188257
1	0x3ece9000	0.40344238
2	0x3e01a480	0.12660408
3	0x3f52cae0	0.8234081
4	0x3f361fd4	0.71142316
5	0x3f19c105	0.6006015
6	0x3fb74cc1	1.4320298
7	0x3fefe338	1.8741217
8	0x3fddf0b6	1.7339084
9	0x3e683b6e	0.2267892
10	0x3f615e8a	0.8803488
11	0x4026d8bc	2.6069784
12	0x3e1b66fb	0.15176003
13	0x3f27e9db	0.6559121
14	0x3e9dd6d8	0.30827975
15	0x3e039b56	0.12852225
16	0x3fa632e5	1.2984282
17	0x40205d83	2.5057075
18	0x3d58f908	0.05297187
19	0x3f2c48ee	0.6729878
20	0x3ed0e980	0.40803146
21	0x3fa67213	1.3003563
22	0x4037b595	2.870458
23	0x3f524075	0.82129604
24	0x3e8a92e2	0.27065188
25	0x3eb74003	0.35791025
26	0x3ea091ce	0.3136124
27	0x3ee57b41	0.44820598
28	0x3fc83ff5	1.5644518
29	0x3dcb9f32	0.099424735
30	0x3f4a61be	0.7905539
31	0x3f1a1c24	0.6019919
32	0x3f8190b4	1.0122285
33	0x3fbb5d29	1.4637805
34	0x3f3b2e41	0.7311745
35	0x3d9e7b0d	0.07738314
36	0x3f81c8af	1.0139369
37	0x3f878a12	1.0589011
38	0x3f91b6f3	1.1383957
39	0x3e31a2bf	0.17347239
40	0x3f9f18bb	1.2429422
41	0x3fa4ab50	1.286478
42	0x3ebd9544	0.37027943
43	0x3e16d77b	0.14730637
44	0x3efd7f44	0.49511158
45	0x3f18dcd6	0.5971197
46	0x3fb0dcaa	1.3817341
47	0x3d1558da	0.03646169
48	0x3fc20f40	1.5160904
49	0x3e6419d1	0.22275473
50	0x3e2ea87a	0.17056456
51	0x3d2d83db	0.042362075
52	0x3ecbbc76	0.39792222
53	0x40298aa1	2.6490862
54	0x3e06bb05	0.1315728
55	0x3e198387	0.1499158
56	0x3f1f5ad5	0.62247974
57	0x3f94d13e	1.1626356
58	0x3f8f1d03	1.1180729
59	0x3f46e6cd	0.77695924
60	0x3f8c317e	1.0952604
61	0x3f7d3f71	0.9892493
62	0x3ff1bace	1.8885133
63	0x401836de	2.3783488
64	0x3f6e8e91	0.9318629
65	0x3e66882f	0.22512887
66	0x3f3614f5	0.7112573
67	0x3eeca92a	0.46222812
68	0x3eae426e	0.34035057
69	0x3f2e0118	0.6797042
70	0x3f26ca78	0.6515269
71	0x3f0b7625	0.5447715
72	0x3ed4ce61	0.41563705
73	0x3f006179	0.5014873
74	0x3f4e9768	0.8069978
75	0x3fa041d9	1.2520095
76	0x3f54edf4	0.8317559
77	0x3f9f5551	1.2447912
78	0x3ee881c0	0.4541149
79	0x3f182fa2	0.5944768
80	0x3eb4beac	0.3530172
81	0x3f776f0c	0.9665382
82	0x3c7049e0	0.014666051
83	0x3ef79081	0.48352435
84	0x3f304182	0.68849957
85	0x3fab8576	1.3400104
86	0x3ebc13a4	0.36733735
87	0x3fb6397c	1.4236293
88	0x3f73dad5	0.95255786
89	0x3f76b64b	0.96371907
90	0x3e24fb8c	0.16111583
91	0x3e84edc7	0.2596266
92	0x3d509fac	0.050933525
93	0x3eabb779	0.33538416
94	0x3dd692a6	0.1047719
95	0x3f37f676	0.71860445
96	0x4034e9e9	2.8267767
97	0x3e725e86	0.2366887
98	0x3f1fa215	0.6235669
99	0x3f8574a7	1.0426224
100	0x3ef4762c	0.47746408
101	0x3e5fd3a5	0.2185808
102	0x3e60c003	0.21948247
103	0x3eff74c8	0.49893785
104	0x3fc3d49f	1.5299262
105	0x3e857adb	0.26070294
106	0x3d9c12b9	0.076207586
107	0x3eadd412	0.3395086
108	0x3fbb617a	1.4639122
109	0x401999de	2.4000163
110	0x3e8e1219	0.27748182
111	0x3f1a5733	0.60289305
112	0x3e6f1500	0.23347855
113	0x3ef16cc5	0.47153297
114	0x3cb0011d	0.021484906
115	0x3ea05301	0.31313327
116	0x403928ce	2.8931155
117	0x3c8ab8d6	0.01693384
118	0x3e3fe0a1	0.18738033
119	0x3fa2546b	1.2682012
120	0x3e595fe6	0.21227989
121	0x3f2ca0ca	0.67432845
122	0x3fc642a7	1.5489091
123	0x3e895a4d	0.26826707
124	0x3fb05152	1.3774817
125	0x3f2fc48c	0.6865928
126	0x3e3e4589	0.18581213
127	0x3fd48308	1.6602488

bn1.running_var f4 [128]
0	0x402197ea	2.524897
1	0x3f030f00	0.51194763
2	0x3df346e6	0.11878757
3	0x400e8aad	2.227214
4	0x3f8a427c	1.080154
5	0x3f0c931c	0.5491197
6	0x40c9b5cb	6.3034415
7	0x4089591b	4.292127
8	0x40683c4b	3.62868
9	0x3e6472eb	0.22309463
10	0x3fb6e889	1.4289714
11	0x40a01e50	5.0037003
12	0x3e102d3b	0.14079754
13	0x3f61fef2	0.8827964
14	0x3e557921	0.20846988
15	0x3ddfa57e	0.10920237
16	0x3f89292b	1.0715688
17	0x40ad1dd2	5.40989
18	0x3d250c44	0.0402949
19	0x3f4897f4	0.7835686
20	0x3e1990cb	0.1499664
21	0x3f5a7004	0.8532717
22	0x411ffd64	9.999363
23	0x3f3646f1	0.71202
24	0x3e93bc70	0.28854704
25	0x3eadf8c7	0.33978865
26	0x3ed446fd	0.4146041
27	0x3eb943c7	0.36184523
28	0x3f8225ee	1.0167825
29	0x3d985cc2	0.07439567
30	0x3f6b0894	0.91809964
31	0x3f4bd428	0.796206
32	0x3f82d8c5	1.0222403
33	0x3f535e6b	0.82565945
34	0x3f541d7e	0.828575
35	0x3cb313bd	0.021859998
36	0x3f717295	0.94315463
37	0x3fa33026	1.2749069
38	0x40c32c8a	6.099187
39	0x3d7e6022	0.0621034
40	0x3fe515de	1.7897298
41	0x3fbbb23b	1.4663767
42	0x3ed69d31	0.41916803
43	0x3e0ef190	0.13959336
44	0x3ed88162	0.4228621
45	0x3f2af394	0.6677792
46	0x403b179d	2.9233162
47	0x3ce9f3e8	0.028558686
48	0x3f052889	0.52014977
49	0x3d8f14a9	0.069863625
50	0x3dc18d85	0.09450821
51	0x3cba3d8c	0.022734426
52	0x3f224516	0.63386667
53	0x4086c7d5	4.2118936
54	0x3df86029	0.12127716
55	0x3dd25283	0.10269644
56	0x3f365c45	0.7123454
57	0x401cc11b	2.4492862
58	0x3ffe4a3d	1.9866406
59	0x3f9dfbd1	1.2342473
60	0x3ffff9b9	1.9998084
61	0x3fe8a53d	1.8175427
62	0x408492ac	4.1429043
63	0x3fedc911	1.8576986
64	0x3fa4cf51	1.2875768
65	0x3e563c60	0.20921469
66	0x3ef11c9a	0.47092134
67	0x3f0b9f86	0.5454029
68	0x3ea1ae0e	0.31578106
69	0x3fb641fb	1.4238886
70	0x3f2a6df5	0.6657403
71	0x3ebae1f8	0.36500525
72	0x3f4cf703	0.8006441
73	0x3f0b760e	0.5447701
74	0x3fc230b9	1.5171119
75	0x3fbd92c6	1.4810417
76	0x3f9f09eb	1.2424902
77	0x3fb92e95	1.4467341
78	0x3f3f3e3f	0.74704355
79	0x3f40dac7	0.7533383
80	0x3f0923ac	0.53570056
81	0x3fd2061c	1.6408114
82	0x3c14ddf6	0.009086123
83	0x3f646329	0.89213806
84	0x3f80992f	1.0046748
85	0x40186927	2.381418
86	0x3edbbe07	0.42918417
87	0x40114fb7	2.2704904
88	0x3f166626	0.58749616
89	0x3fea3634	1.8297791
90	0x3e5a290c	0.2130472
91	0x3e552055	0.20813115
92	0x3d2740ab	0.040833157
93	0x3f13e30c	0.5776832
94	0x3d39ff07	0.04540923
95	0x3f4f4a8d	0.8097313
96	0x406f2f42	3.7372594
97	0x3e524b10	0.20536447
98	0x3f88a6f3	1.0675949
99	0x3fbea342	1.4893572
100	0x3ee96d62	0.45591265
101	0x3e3f6d79	0.18694104
102	0x3e940425	0.28909412
103	0x3f11ed73	0.57002944
104	0x4008325c	2.1280737
105	0x3e123c87	0.14280902
106	0x3d3991f3	0.045305204
107	0x3f16a417	0.5884413
108	0x3fe25fda	1.7685502
109	0x4083f662	4.123826
110	0x3e8a9a64	0.27070916
111	0x3edf9467	0.4366791
112	0x3e2bac35	0.1676491
113	0x3ee4cf95	0.44689623
114	0x3ccd6896	0.025074285
115	0x3f437007	0.76342815
116	0x404b24a9	3.1741126
117	0x3c67ac5c	0.014140215
118	0x3e44d165	0.19220503
119	0x40203f63	2.5038688
120	0x3e58a3a1	0.2115617
121	0x40094dcb	2.145373
122	0x40058a3c	2.0865622
123	0x3ea1d27f	0.31605908
124	0x407ec3eb	3.980708
125	0x3f5ab3ef	0.85430807
126	0x3e757d5c	0.23973602
127	0x403293b5	2.7902653

fc2.weight f4 [64, 128]
0	0x3c9cf595	0.019160071
1	0x3e6ee6dd	0.23330255
2	0x3ceca215	0.02888588
3	0x3d94374d	0.0723711
4	0x3cc38c5a	0.023870636
5	0xbd37f66c	-0.04491274
6	0xbc917f88	-0.017761007
7	0x3da7567e	0.08170794
8	0x3e124654	0.1428464
9	0x3ce3280b	0.027729055
10	0xbc745e89	-0.014915117
11	0x3d5cd09e	0.05390989
12	0x3da39c4d	0.079887964
13	0xbbff5683	-0.0077922954
14	0xbdb0b06d	-0.086274005
15	0x3dbb6224	0.09149578
16	0x3d3ce41a	0.046115972
17	0xbd69373e	-0.05693745
18	0x3d8850c4	0.0665603
19	0x3ca80b85	0.020513305
20	0xbd7c7616	-0.061636053
21	0x3d96603c	0.07342574
22	0x3da13753	0.078718804
23	0x3d5ed2a4	0.0544001
24	0xbd1d20e8	-0.03836146
25	0xbd8f4d0c	-0.069971174
26	0x3d1b8b6b	0.037974756
27	0xbca99e22	-0.020705286
28	0xbd84b53f	-0.064798824
29	0x3c9728eb	0.018452128
30	0x3cd90b0a	0.026494522
31	0xbcf06388	-0.029344335
32	0x3db90296	0.09033696
33	0x3e3fe42a	0.18739381
34	0xbd465747	-0.048423078
35	0x3cd35f3a	0.025802244
36	0x3c7339b1	0.014845298
37	0x3d252ae7	0.040324118
38	0x3dbce3ce	0.09223138
39	0xbe1f808b	-0.15576379
40	0x3d4c368a	0.0498567
41	0x3e18357c	0.14864153
42	0xbcb9b827	-0.022670818
43	0xbe292a52	-0.1652005
44	0xbd5b2e81	-0.053511146
45	0x3d018b52	0.031627007
46	0xbbf9ab5a	-0.0076193037
47	0xbd264ab8	-0.0405986
48	0x3c0c32af	0.008557006
49	0xbe134207	-0.14380656
50	0x3e06185a	0.13095227
51	0x3d70c0a0	0.05877745
52	0xbcfd9ac8	-0.030957595
53	0x3cd97177	0.026543362
54	0xbd356bd8	-0.0442923
55	0xbd96f0db	-0.07370158
56	0xbc747a98	-0.014921807
57	0x3e07c0a2	0.13257077
58	0xbd960ede	-0.073270544
59	0xbbedaafd	-0.0072530494
60	0x3d498f71	0.049209062
61	0xbb56ab1f	-0.0032755805
62	0x3d7fb6a2	0.06243003
63	0x3e0d2485	0.13783462
64	0xbdb532d0	-0.08847582
65	0x3d970054	0.073731095
66	0xbdd48ec7	-0.10378795
67	0x3d830c28	0.06398803
68	0xbb7ab089	-0.0038252196
69	0xbd4c620c	-0.049898192
70	0x3c850647	0.016238345
71	0xbe082c3c	-0.13298124
72	0xbda006ab	-0.07813772
73	0x3d077988	0.033074886
74	0xbc48cba2	-0.012255581
75	0x3d995f43	0.07488873
76	0x3d09017a	0.033448674
77	0xbdf40dd9	-0.11916704
78	0x3d8e36e7	0.069440655
79	0xbc92cea9	-0.017920809
80	0x3dbb42ff	0.09143638
81	0xbdaf50e6	-0.08560352
82	0x3e16d5d2	0.14730003
83	0x3d88451c	0.066538066
84	0xbe4372d4	-0.19086772
85	0xbdde8069	-0.10864336
86	0xbd933169	-0.071871586
87	0xbd3700d7	-0.044678535
88	0x3dc6f025	0.09713773
89	0xbc0cae8b	-0.008586536
90	0xbd1a618d	-0.037690688
91	0xbd56e4de	-0.05246436
92	0x3e45d2f5	0.19318755
93	0x3d93558a	0.0719405
94	0xbc7896bc	-0.015172657
95	0xbd9f4be9	-0.077781506
96	0x3ca1130b	0.0196624
97	0xbddac11c	-0.10681364
98	0xbd11bbc1	-0.035579447
99	0x3dd8a5af	0.10578477
100	0x3d0ab718	0.033866018
101	0x3d169ed8	0.03677258
102	0x3d5678ab	0.05236117
103	0x3d030ecd	0.031996537
104	0xbd9805b8	-0.07422966
105	0xbdb8d052	-0.09024109
106	0x3dd2cd6c	0.10293087
107	0x3e09951f	0.13435791
108	0x3d2e3938	0.042535037
109	0xbe038733	-0.12844543
110	0xbc8c0208	-0.017090812
111	0xbded9d8e	-0.11602317
112	0xbd1295d1	-0.035787407
113	0x3dc6309b	0.096772395
114	0x3e10d8da	0.14145222
115	0xbdf5ba9c	-0.119984835
116	0xbe265422	-0.16243032
117	0x3e18f2a2	0.14936307
118	0x3d93a83e	0.07209824
119	0x3cad47c0	0.021152377
120	0xbba8f7a9	-0.0051564765
121	0x3c5e2645	0.013558929
122	0x3d05fc1b	0.03271113
123	0xbdff4e97	-0.12466162
124	0xbdbedfad	-0.093200065
125	0xbe189a6a	-0.14902654
126	0xbd5f2be1	-0.054485206
127	0xbdd2c1e6	-0.102908894
128	0x3c8b4870	0.017002314
129	0xbe03d77c	-0.1287517
130	0xbd8a1e9a	-0.06744118
131	0x3d7c411f	0.06158554
132	0x3db36faf	0.08761536
133	0xbe0a79ed	-0.13523073
134	0x3d6c804d	0.057739545
135	0xbb493800	-0.0030703545
136	0xbdb3425b	-0.08752891
137	0xbceb3742	-0.028712872
138	0x3d43ed71	0.047833864
139	0xbb65e491	-0.0035078863
140	0xbc66f91b	-0.014097477
141	0x3e24c5bb	0.16091053
142	0x3def2c38	0.11678356
143	0xbd874ab0	-0.066060424
144	0x3ced4ee2	0.028968278
145	0xbdbaa672	-0.09113778
146	0xbdf22b8e	-0.11824714
147	0xbd6c0175	-0.057618577
148	0xbd268938	-0.040658206
149	0xbcee98c4	-0.029125579
150	0xb9802981	-0.00024444985
151	0xbbce1699	-0.006289315
152	0x3bdcf50a	0.006743078
153	0x3da3833e	0.07984017
154	0x3dc6b2b8	0.09702057
155	0xbde6c761	-0.11268497
156	0x3d13da78	0.03609702
157	0xbdbaed8a	-0.09127338
158	0x3d057646	0.032583497
159	0x3da00315	0.07813088
160	0xbca6e182	-0.020371202
161	0x3d72c41c	0.059269056
162	0x3a43eb98	0.0007473766
163	0x3d5d6439	0.054050658
164	0xbe0300cb	-0.12793271
165	0x3ddc5790	0.10758889
166	0xbdf14613	-0.11780944
167	0x3d27cc2a	0.04096619
168	0xbb8338fa	-0.004004595
169	0xba99317c	-0.0011687721
170	0x3d868338	0.06567997
171	0x3d849d74	0.06475344
172	0x3dfa5f46	0.12225203
173	0x3dcff4be	0.10154103
174	0xbd0a94a6	-0.03383317
175	0x3db12252	0.08649124
176	0xbd2b1f82	-0.041778095
177	0xbdc4c4d6	-0.09607856
178	0x3c66540b	0.014058123
179	0x3d847c9b	0.06469079
180	0xbd809044	-0.062775165
181	0xbd2ccda2	-0.042188294
182	0xbd9febeb	-0.0780867
183	0x3d2819a1	0.041040067
184	0xbd5dcd7f	-0.054151054
185	0xbe0bb96a	-0.13644949
186	0xbd842c24	-0.06453732
187	0xb9995824	-0.00029248104
188	0xbd04bf3a	-0.03240893
189	0xbcc37a4f	-0.023862032
190	0x3c6d6e8c	0.014491688
191	0x3dd4725a	0.10373373
192	0xbd881b9a	-0.066458896
193	0x3d0a8052	0.033813782
194	0x3bb9bfc9	0.0056686145
195	0xbcb3ef2e	-0.021964636
196	0x3dedf952	0.1161982
197	0x3c0c90ac	0.008579414
198	0xbd032b36	-0.03202363
199	0xbdd6f8aa	-0.10496648
200	0x3d5efceb	0.05444042
201	0x3d3cbe7a	0.04608009
202	0x3cf81183	0.030281788
203	0xbd699535	-0.05702706
204	0xbe01309b	-0.12616198
205	0x3d61598d	0.055017043
206	0x3e4cad27	0.19987927
207	0xbe0f61c0	-0.14002132
208	0x3c8c9719	0.017161893
209	0xbca444fb	-0.020052424
210	0xbaba4948	-0.0014212513
211	0xbdc944c1	-0.09827567
212	0x3d9b390e	0.07579242
213	0xbd130e03	-0.035902034
214	0xbdb62b10	-0.08894932
215	0x3dc3361c	0.09531805
216	0x3da04773	0.07826128
217	0xbbef40af	-0.007301412
218	0x3d9d89d4	0.07692304
219	0x3c9c774e	0.019099858
220	0x3d323008	0.043502837
221	0xbb53699c	-0.0032258993
222	0xbb5ccc4a	-0.0033691102
223	0xbdbb0e2f	-0.09133565
224	0x3dc09a27	0.09404402
225	0xbe693a99	-0.2277626
226	0xbdf2f044	-0.11862233
227	0x3d654da5	0.05598225
228	0xbdcacf10	-0.09902775
229	0x3d2cb2c3	0.042162668
230	0x3db92bae	0.09041534
231	0xbd5dc252	-0.054140396
232	0xbd2f7478	-0.042835683
233	0x3cf4dac5	0.029889474
234	0x3d5d7689	0.054068122
235	0x3de72c51	0.112877496
236	0x3c5d5dfc	0.013511177
237	0xbc8580bd	-0.016296739
238	0x3d34aa00	0.044107437
239	0x3d38dec0	0.045134306
240	0x3e0123c1	0.12611295
241	0x3d9a5ea6	0.07537584
242	0xbd050722	-0.032477506
243	0xbe293de7	-0.1652752
244	0xbce7dd96	-0.028303903
245	0xbd20e87c	-0.039284214
246	0xbdaadf2f	-0.0834335
247	0xbdc9fcb2	-0.09862651
248	0xbcc9cc99	-0.024633693
249	0xbe1556f8	-0.14583957
250	0xbd52db15	-0.051478464
251	0xbafb7aa0	-0.0019186325
252	0x3d11fbf6	0.03564068
253	0x3ddd622c	0.108097404
254	0xbdc029f4	-0.09383002
255	0xbdf1eeb4	-0.11813107

fc2.bias f4 [64]
0	0xbdf496eb	-0.11942848
1	0xbce1b974	-0.027554251
2	0xbc4a643a	-0.012352997
3	0xbdde857a	-0.108653024
4	0xba70f26d	-0.00091913977
5	0x3bdfc6d8	0.006829124
6	0x3dce0dc0	0.10061216
7	0x3d0503ba	0.032474257
8	0xbe277d7a	-0.1635646
9	0x3d3295b9	0.043599818
10	0xbd08f353	-0.033435177
11	0x3cd9dacb	0.026593586
12	0x3d4e5b85	0.05038025
13	0x3bb26647	0.0054443213
14	0xbd954119	-0.07287807
15	0xbd50c6c0	-0.050970793
16	0x3ddb271f	0.10700821
17	0xbd8f73bf	-0.07004499
18	0xbe06cd21	-0.13164188
19	0x3d8fcd9a	0.07021637
20	0xbde40be6	-0.11135082
21	0xbd5bfa38	-0.053705424
22	0x3da58c9b	0.08083459
23	0xbdc5881a	-0.096451
24	0x3d17e811	0.03708655
25	0xbca89558	-0.020579025
26	0xbcdd5905	-0.027019987
27	0xbddedd26	-0.108820245
28	0xbe248273	-0.16065387
29	0x3d0ca002	0.034332283
30	0xbe0192fe	-0.1265373
31	0xbdc927db	-0.09822055
32	0xbe2bcdd4	-0.16777736
33	0xbe11606f	-0.14196943
34	0xbe15b0a2	-0.14618161
35	0xbe19ff36	-0.15038761
36	0xbdb7482e	-0.08949314
37	0xbdf8e882	-0.12153722
38	0xbe12b053	-0.14325075
39	0xbd71eb1b	-0.059062105
40	0xbd978358	-0.07398099
41	0xbdb81778	-0.08988851
42	0xbe0a3d16	-0.13499865
43	0xbdb6bef2	-0.08923139
44	0xbc8ff070	-0.017570704
45	0xbd49720e	-0.049181037
46	0x3d73a3a4	0.05948223
47	0x3c2b3266	0.010449028
48	0xbd841e1e	-0.06451057
49	0xbe1fe66b	-0.15615241
50	0xbe026da4	-0.12737137
51	0xbda2e410	-0.07953656
52	0xbd39d446	-0.045368455
53	0xbdfb5087	-0.12271219
54	0xbdc1204c	-0.09429988
55	0xbd233b46	-0.03985145
56	0xbe259405	-0.16169746
57	0xbd88e63a	-0.06684537
58	0x3d09aa72	0.033609815
59	0xbdbf566f	-0.09342658
60	0xbd4971a1	-0.04918063
61	0xbe27c809	-0.16384901
62	0xbde4b5c1	-0.11167479
63	0xbd0fbe74	-0.03509374

bn2.weight f4 [64]
0	0x3f694a7f	0.91129297
1	0x3f254255	0.6455434
2	0x3f12b480	0.5730667
3	0x3f45ee9a	0.773172
4	0x3f3fe064	0.7495177
5	0x3f21f2f6	0.63261354
6	0x3f1563f5	0.5835565
7	0x3f4f9d7c	0.8109968
8	0x3e33cf95	0.17559655
9	0x3e8a1d77	0.26975605
10	0x3ef3ee77	0.47642872
11	0x3f516f36	0.8181032
12	0x3f5619bb	0.8363301
13	0x3ea4c7f5	0.32183805
14	0x3e4604ca	0.19337764
15	0x3f5d7ae1	0.86515623
16	0x3e4b1e49	0.19835772
17	0x3eedc963	0.46442708
18	0x3ec57796	0.385678
19	0x3f5fdaed	0.8744343
20	0x3e96015f	0.2929792
21	0x3de6042d	0.11231265
22	0x3e3d1451	0.18464781
23	0x3ed1d9ed	0.40986577
24	0x3e8bdd6f	0.27317378
25	0x3f646bb5	0.8922685
26	0x3f113e96	0.56736124
27	0x3f481a8c	0.7816551
28	0x3e0841c4	0.13306338
29	0x3ea49c3e	0.32150453
30	0x3f285ec6	0.6576961
31	0x3e988da3	0.2979556
32	0x3e12aec1	0.14324476
33	0x3f330559	0.69930035
34	0x3e5e25ad	0.2169406
35	0x3f2474d6	0.6424078
36	0x3f50315e	0.8132533
37	0x3ebe9b46	0.3722784
38	0x3e0605a6	0.13088092
39	0x3e0af093	0.13568334
40	0x3ea46755	0.32110086
41	0x3f21c05d	0.6318415
42	0x3f5c0589	0.85945946
43	0x3f66c68d	0.90146714
44	0x3df8bc90	0.121453404
45	0x3f566d2d	0.8376034
46	0x3f27ff62	0.6562406
47	0x3ece6277	0.40309498
48	0x3f1006cd	0.5626038
49	0x3f7005b7	0.9375872
50	0x3f4252fe	0.75907886
51	0x3f09467c	0.53623176
52	0x3e6e6b9c	0.23283237
53	0x3deabfc0	0.11462355
54	0x3eb43876	0.35199326
55	0x3e948245	0.29005638
56	0x3f48bc53	0.7841236
57	0x3eee1d94	0.4650694
58	0x3f277113	0.6540691
59	0x3e1c1aae	0.15244552
60	0x3f0fce7a	0.56174433
61	0x3f5af1e1	0.8552533
62	0x3eb1c0a8	0.34717298
63	0x3f1b384a	0.60632765

bn2.bias f4 [64]
0	0x37269cb0	9.930853e-06
1	0xb746dc39	-1.1852994e-05
2	0x3422ab88	1.5149828e-07
3	0x36ae2ff1	5.191185e-06
4	0x3735b841	1.0831341e-05
5	0xb6b103f4	-5.2754713e-06
6	0xb69cf977	-4.678204e-06
7	0xb7017fb3	-7.7187315e-06
8	0xb889c71b	-6.569755e-05
9	0x3715bdf4	8.925319e-06
10	0xb7c0cc7d	-2.2983406e-05
11	0xb61547f1	-2.2244606e-06
12	0xb7380aca	-1.0969767e-05
13	0x3726283a	9.903737e-06
14	0x37139ebd	8.798842e-06
15	0xb58053f1	-9.561173e-07
16	0xb784149f	-1.5745229e-05
17	0xb775f903	-1.46611155e-05
18	0x37b8fda2	2.2052616e-05
19	0xb590bdc0	-1.0784061e-06
20	0x3780d3c0	1.5357393e-05
21	0xb81a4f3b	-3.679025e-05
22	0xb82c847a	-4.1131374e-05
23	0xb6293466	-2.5213462e-06
24	0xb83fd860	-4.5739464e-05
25	0x36394314	2.7606193e-06
26	0xb6ef7a54	-7.136996e-06
27	0x37005d1b	7.651072e-06
28	0x38810406	6.151949e-05
29	0xb7764e81	-1.4681021e-05
30	0xb2dc21b8	-2.5626704e-08
31	0xb7f822a4	-2.9580035e-05
32	0xb7e52386	-2.731547e-05
33	0x35f6fd05	1.8402067e-06
34	0xb842bb87	-4.6427853e-05
35	0x365f61de	3.3286556e-06
36	0x378e9209	1.6995722e-05
37	0xb79371eb	-1.7576813e-05
38	0x37fd6232	3.0205676e-05
39	0x375a5c5d	1.3015318e-05
40	0xb6f0854e	-7.168076e-06
41	0x3777d886	1.4772761e-05
42	0xb696f644	-4.4990175e-06
43	0x36db0e9c	6.5284094e-06
44	0xb801f08e	-3.098003e-05
45	0x379f21d3	1.8970028e-05
46	0x3754a74f	1.2675139e-05
47	0xb746a9a9	-1.1841222e-05
48	0xb515b8b0	-5.577558e-07
49	0xb7004d95	-7.647458e-06
50	0x36ceb887	6.16076e-06
51	0xb6533de2	-3.147747e-06
52	0xb7d07212	-2.484865e-05
53	0xb79fe723	-1.9061908e-05
54	0x33f8c800	1.158478e-07
55	0x3757f823	1.28727725e-05
56	0x368fdbf9	4.2873403e-06
57	0xb747f8ab	-1.1919222e-05
58	0xb86ab32c	-5.5956814e-05
59	0xb6dd7e7c	-6.601038e-06
60	0x36ea7e6c	6.988461e-06
61	0x371c0e38	9.301635e-06
62	0x373b3342	1.1158003e-05
63	0xb3c01525	-8.944543e-08

bn2.running_mean f4 [64]
0	0x3e11182d	0.14169379
1	0x3e0a2a6d	0.13492747
2	0x3e2137b8	0.15743911
3	0x3c10cd8a	0.008838067
4	0x3e0abfb4	0.13549691
5	0x3de73b5d	0.112906195
6	0x3eb98e23	0.36241254
7	0x3e478090	0.19482636
8	0x3b767249	0.003760474
9	0x3e428754	0.18996936
10	0x3e537b57	0.20652519
11	0x3e82338d	0.25429955
12	0x3e798651	0.24367644
13	0x3e81ce3e	0.25352663
14	0x3db5b2e6	0.08872013
15	0x3e6c872a	0.23098436
16	0x3eac0061	0.3359404
17	0x3df4a5b9	0.119456716
18	0x3c4422b2	0.011971163
19	0x3eb83c62	0.35983568
20	0x3d3fe4f8	0.04684922
21	0x3dbcd30d	0.09219942
22	0x3eb2da1f	0.34932038
23	0x3d627e94	0.055296496
24	0x3e9cbca7	0.3061268
25	0x3e484141	0.19556142
26	0x3cd2efe1	0.025749149
27	0x3cbcfcec	0.023069821
28	0x3d866c01	0.06563569
29	0x3e487334	0.19575197
30	0x3d8030b4	0.062592894
31	0x3bbbfd74	0.005737001
32	0x3c85d098	0.016334817
33	0x3db11dac	0.086482376
34	0x3c75ab46	0.014994448
35	0x3d628a3d	0.055307616
36	0x3d0585a3	0.03259815
37	0x3e135cb4	0.14390832
38	0x3d9f121b	0.07767125
39	0x3d2fb703	0.042899143
40	0x3dc58190	0.09643853
41	0x3e4dcd13	0.20097761
42	0x3dc79d78	0.09746832
43	0x3e8ead7d	0.27866736
44	0x3e071b2e	0.13193962
45	0x3da741b1	0.081668265
46	0x3e743aec	0.23850602
47	0x3dc2797e	0.09495829
48	0x3db761c0	0.08954191
49	0x3d872c00	0.06600189
50	0x3e565b49	0.2093326
51	0x3e8764e8	0.26444173
52	0x3ea02879	0.31280878
53	0x3db35abb	0.0875754
54	0x3d6a2caf	0.05717152
55	0x3d8fc54f	0.070200555
56	0x3da20348	0.07910782
57	0x3d5394f3	0.05165572
58	0x3d0b63c4	0.03403069
59	0x3e04bbbb	0.12962238
60	0x3e6d4538	0.23170936
61	0x3c4d8615	0.012544175
62	0x3e4bbc7d	0.19896121
63	0x3dfe6d6b	0.124232136

bn2.running_var f4 [64]
0	0x3d8ce4cd	0.06879578
1	0x3d981220	0.07425332
2	0x3d697fe1	0.05700672
3	0x3aa2c585	0.0012418485
4	0x3d6836e0	0.056692958
5	0x3cfed5c1	0.031107785
6	0x3e0dacca	0.13835445
7	0x3dbd3484	0.09238532
8	0x3a36e16b	0.0006976339
9	0x3da848a1	0.08216978
10	0x3da7d71d	0.081953265
11	0x3dc41e9e	0.09576152
12	0x3dc1b0dc	0.094575614
13	0x3e09580e	0.13412496
14	0x3d03d430	0.03218478
15	0x3ddc5bc7	0.10759693
16	0x3e0cd123	0.13751654
17	0x3d8b04cb	0.067880236
18	0x3b3a6aca	0.0028445
19	0x3e24b508	0.16084683
20	0x3c869340	0.016427636
21	0x3cbfbfed	0.023406947
22	0x3e48c8fa	0.19607916
23	0x3cc293a0	0.023752034
24	0x3e0cbc9d	0.13743825
25	0x3db15994	0.08659664
26	0x3bc20ba7	0.005921799
27	0x3c1e6306	0.009667164
28	0x3cd5706c	0.026054583
29	0x3dce28c9	0.10066373
30	0x3d00a5a7	0.03140798
31	0x3a85f48d	0.0010219977
32	0x3b22e385	0.002485485
33	0x3d3af757	0.045646038
34	0x3b86e807	0.0041170153
35	0x3cb8dbfb	0.022565832
36	0x3c2500b5	0.010070969
37	0x3d7c8314	0.061648443
38	0x3d02b765	0.03191318
39	0x3c5390f5	0.012912978
40	0x3d144713	0.036200594
41	0x3e05891c	0.13040584
42	0x3d277e31	0.04089183
43	0x3e15f82c	0.14645451
44	0x3d345c0a	0.044033088
45	0x3cb8e74a	0.022571225
46	0x3dd87eb8	0.10571045
47	0x3d2b3836	0.041801654
48	0x3cfff751	0.03124586
49	0x3cf0654c	0.029345177
50	0x3dc6a9d4	0.09700361
51	0x3e25acc0	0.1617918
52	0x3e0626ab	0.13100688
53	0x3cc733b0	0.024316639
54	0x3c8fe5c3	0.017565614
55	0x3cbe87ef	0.023258178
56	0x3d0296f1	0.03188223
57	0x3c4d639b	0.012535955
58	0x3bd1ae37	0.006398942
59	0x3d7393dd	0.059467185
60	0x3e11222d	0.14173193
61	0x3b58dab5	0.0033089344
62	0x3da43d44	0.08019498
63	0x3d7ce613	0.061742853

fc3.weight f4 [2, 64]
0	0xbc03bdbf	-0.008040844
1	0x3cd60979	0.026127564
2	0xbc206c98	-0.009791516
3	0x3d5b8f52	0.053603478
4	0x3c36b77e	0.011152146
5	0x3d3d2d0f	0.04618555
6	0x38cbb0b7	9.71271e-05
7	0xbc1870a1	-0.009304197
8	0xbd9bb12d	-0.07602153
9	0xbcc8d191	-0.024513992
10	0x3c7b880f	0.015352263
11	0x3c3143c7	0.010819382
12	0xbcc30ce1	-0.023809852
13	0xbcc09604	-0.023509033
14	0x3d9bbdaf	0.07604539
15	0xbb4c4aa3	-0.0031172417
16	0x3d13bdfb	0.03606985
17	0x3b499ce6	0.0030763685
18	0xbd1d8b92	-0.038463183
19	0x3c578436	0.01315408
20	0x3d96aada	0.07356806
21	0x3db7a536	0.08967058
22	0x3c2d019c	0.010559466
23	0x3bc1d4da	0.0059152665
24	0xbc3639b6	-0.011122158
25	0xbca15b2e	-0.019696798
26	0xba1c45e5	-0.0005961343
27	0x3c0cd8b8	0.008596592
28	0x3dd8c377	0.10584157
29	0x3d69d58e	0.057088427
30	0x3d11cb4c	0.03559427
31	0xbc55c697	-0.013047836
32	0xbdce8f55	-0.10085932
33	0xbcbf6e19	-0.023367928
34	0xbd018c62	-0.03162802
35	0xbc7edbbb	-0.0155553175
36	0xbd302b20	-0.043009877
37	0xbd13558c	-0.035970256
38	0x3b29f81e	0.0025935243
39	0xbd23f5db	-0.040029388
40	0xbd0d27b8	-0.034461707
41	0xbcb3be7c	-0.021941416
42	0xbc9434ed	-0.018091643
43	0x3b9ea001	0.0048408513
44	0x3da84c2f	0.08217656
45	0xbc22df76	-0.009940973
46	0x3cb7056b	0.02234145
47	0xbb96f52c	-0.0046068635
48	0xbc10cd86	-0.008838063
49	0x3bdc3b2f	0.0067209224
50	0x3c166948	0.009180374
51	0xbc9748ac	-0.01846727
52	0x3cf7c4be	0.030245181
53	0xbbb2894e	-0.005448497
54	0x3d204e1b	0.039136987
55	0xbc84f486	-0.01622988
56	0xbb3e70b9	-0.0029058887
57	0xbc4ccf74	-0.012500633
58	0xbd546781	-0.05185652
59	0x3d16ef18	0.03684911
60	0x3aee2d0d	0.0018171385
61	0x3bbb6963	0.00571935
62	0x3d96d8e8	0.0736559
63	0xbd1a7f8f	-0.037719306
64	0xbc7880ea	-0.015167454
65	0xbc06fdf2	-0.008239256
66	0x3c0c53a1	0.008564861
67	0x3b65ae7e	0.0035046632
68	0xbbe94eb4	-0.007119978
69	0x3a4fbfce	0.00079250045
70	0x3cad2a7e	0.021138426
71	0xbd2062c6	-0.039156698
72	0x3c228a11	0.009920613
73	0x3cdd076f	0.026981084
74	0x3ce5bf74	0.028045394
75	0xbb6b5488	-0.003590854
76	0x3c0a0a6a	0.0084253345
77	0xbd023927	-0.031792786
78	0xbbd032f8	-0.006353732
79	0x3c32c85a	0.010912025
80	0x3c330597	0.010926626
81	0x3d3cd3eb	0.04610054
82	0xbc5f7a04	-0.013639931
83	0xbce58ee1	-0.028022232
84	0xbbb6d9df	-0.0055801715
85	0xbd711f4c	-0.058867738
86	0x3d346105	0.044037838
87	0x3d2d3235	0.04228421
88	0x3d1a347e	0.037647717
89	0xbb41e769	-0.0029587394
90	0x3d17ae97	0.037031736
91	0x3d18843b	0.03723548
92	0x3d9a3397	0.07529371
93	0x3cfe3382	0.03103042
94	0xbc33d964	-0.010977123
95	0x3d1172e1	0.035509948
96	0xbd838153	-0.06421151
97	0xbc0e38e6	-0.008680558
98	0xbdbf953e	-0.093546376
99	0x3ac9f0ce	0.0015406848
100	0xbb8f2282	-0.0043681273
101	0x3bb08e08	0.005388025
102	0xbdcd5ed6	-0.10027854
103	0x3c6ffb22	0.014647277
104	0xbd9c6984	-0.07637313
105	0xbb74b549	-0.00373395
106	0x3d1d93d3	0.038471054
107	0x3abcd56e	0.0014406869
108	0x3bce6231	0.0062983264
109	0xbcb20d3c	-0.021734826
110	0xbc089417	-0.008336089
111	0x3d879726	0.06620626
112	0x3d275d38	0.040860385
113	0x3c7ca22e	0.015419526
114	0xbd61ed3d	-0.05515789
115	0x3c210bde	0.0098294895
116	0x3ce03cce	0.027372744
117	0x3da3b601	0.07993699
118	0xbc1222a0	-0.008919388
119	0xbda19fd4	-0.07891813
120	0xbca78dbd	-0.020453328
121	0xbc9edf91	-0.019393714
122	0x3c1f590d	0.009725821
123	0x3d6a3a20	0.05718434
124	0xbd118483	-0.035526764
125	0xbce32dd2	-0.02773181
126	0x3c3a84f9	0.011384242
127	0xbd0783a3	-0.033084523

fc3.bias f4 [2]
0	0xbd92b779	-0.07163901
1	0x3a4c1478	0.00077850325

bn3.weight f4 [2]
0	0x403baa0f	2.9322546
1	0x4032652c	2.787425

bn3.bias f4 [2]
0	0xbe33eb45	-0.17570217
1	0xbf22d9cb	-0.63613576

bn3.running_mean f4 [2]
0	0xbd92a964	-0.07161215
1	0x3a4c7f33	0.00078009366

bn3.running_var f4 [2]
0	0x3c053d12	0.008132236
1	0x3c5338e9	0.012891986
