p3_collaboration_and_competition/weights/critic_1_900.pth (torch_old, 52380 bytes, 17 tensors)

bn0.weight f4 [24]
000000 69 bc b2 3e cd c0 8a 3e 1e 62 3d 3e 4a 4e 45 3e
       0.3490937 0.2710022 0.1849446 0.19268146
000010 e1 69 8c 3f 39 d6 3f 3f 78 28 e4 3c 7e 5e b7 3a
       1.0969812 0.7493625 0.027851328 0.0013989953
000020 35 0c 7c 3e bb 32 05 3c e7 3f 08 3e e8 9c af 3d
       0.24614032 0.008129771 0.13305627 0.08574849
000030 25 d7 2a 3f e8 d2 35 3f 6b c4 24 3e 65 bd 6f 3e
       0.66734535 0.7102494 0.16090553 0.23412092
000040 df e1 15 3f 73 5f bb 3e e7 1f 05 3e 8c 08 84 3e
       0.58547777 0.3659626 0.13000451 0.2578777
000050 0b e6 79 3f 8e 2a 46 3f eb f1 47 3e b3 19 aa 3e
       0.9761664 0.77408683 0.19525878 0.33222732

bn0.bias f4 [24]
000000 43 03 69 3d 97 2e 29 3d 8b 70 a6 bc 4c bd b9 bd
       0.056887876 0.041304197 -0.020317337 -0.09069309
000010 02 df 07 3e fd 75 05 3d 8f 17 89 bb 40 26 80 3d
       0.13268664 0.032583226 -0.0041837166 0.062572956
000020 b8 5e 66 bd cf ae af 3d 03 a9 9c 3c 76 e6 65 bc
       -0.056242675 0.08578264 0.01912356 -0.014031997
000030 ef 31 9f 3e fc 2f fc 3b 4d 43 91 bc 90 4e c9 bd
       0.31092784 0.00769615 -0.017732287 -0.09829438
000040 9b 41 21 bd 00 59 47 3d 08 72 bd bb 69 66 85 bd
       -0.039369207 0.04866886 -0.005781416 -0.06513674
000050 3b 50 5b 3e 41 92 b1 3c 7e 00 c6 bc f0 b0 b8 bd
       0.21417324 0.021676185 -0.024170157 -0.09018123

bn0.running_mean f4 [24]
000000 ff ab eb c0 9e 85 16 bf 7b f0 01 40 2b d6 f1 3c
       -7.3647456 -0.58797634 2.0303028 0.029521069
000010 4a 80 2f 3d 88 03 3e 40 7b f0 01 40 2b d6 f1 3c
       0.042846955 2.9689655 2.0303028 0.029521069
000020 f9 54 ef c0 5d 00 1a bf 27 dc 0f 40 6b 78 25 3c
       -7.4791226 -0.60156804 2.247812 0.010099511
000030 30 b6 2f 3d ee 7f 3d 40 27 dc 0f 40 6b 78 25 3c
       0.042898357 2.9609332 2.247812 0.010099511
000040 06 db f4 c0 13 f1 1e bf 0e 68 db 3f 3c 33 1b bd
       -7.6517363 -0.620866 1.714113 -0.037890658
000050 d9 07 05 3d 32 1d 3c 40 0e 68 db 3f 3c 33 1b bd
       0.032478187 2.939282 1.714113 -0.037890658

bn0.running_var f4 [24]
000000 bf 0c 51 41 c0 96 86 3f c2 73 7c 43 4e 3d 40 41
       13.065612 1.0514755 252.45218 12.014967
000010 ee 0b 04 42 43 07 5b 40 c2 73 7c 43 4e 3d 40 41
       33.01165 3.4223182 252.45218 12.014967
000020 1e ed 44 41 be ef 87 3f 01 77 80 43 2c 9f 43 41
       12.30789 1.0620039 256.92972 12.22636
000030 1a 31 0a 42 35 c4 5f 40 01 77 80 43 2c 9f 43 41
       34.54795 3.4963505 256.92972 12.22636
000040 a4 f6 35 41 2d d0 8a 3f 2d e7 84 43 11 70 45 41
       11.372715 1.084478 265.80606 12.33986
000050 9e 3e 11 42 c2 3a 6e 40 2d e7 84 43 11 70 45 41
       36.31115 3.7223363 265.80606 12.33986

fcs1.weight f4 [128, 24]
000000 3e 9a 41 3d 07 6e cc bd 6a 06 04 3d f0 c1 9c bd
       0.047266237 -0.099819236 0.03223268 -0.07654178
000010 91 61 a2 3f ba 49 c9 bd 37 fd bd 3d a4 b6 e3 bd
       1.2686025 -0.09828515 0.092768125 -0.1111882
000020 5c ad a5 bd 80 d5 f9 bd 05 bf 5d bd 21 d7 ec 3c
       -0.08089706 -0.12198925 -0.05413725 0.028911175
000030 f7 d9 89 3f 4e eb 08 3d 53 44 22 3d 32 ec 08 3d
       1.0769643 0.03342753 0.03961594 0.03342838
000040 ae 7a de bb e2 0c c4 3d 87 9e 6c 3d 86 dc a1 bd
       -0.006789527 0.0957277 0.05776837 -0.0790339
000050 4a c3 5f 3f 60 f3 02 3e 4f 16 8b bc aa 3d 06 3d
       0.8740736 0.12788153 -0.016978411 0.03277365
000060 d8 e6 de bd f3 27 13 be 82 8b a4 3d 81 5f e1 3d
       -0.10883874 -0.14370708 0.080344215 0.11004544
000070 49 2f 3a 3d ae ed f6 bc 36 16 04 3e 05 9f 03 be
       0.04545525 -0.030142631 0.12899098 -0.1285363
000080 9f 70 25 3d 1d b0 22 be ba 89 d2 be 52 14 4e be
       0.040390607 -0.15887494 -0.41120702 -0.20124939
000090 30 da e8 bd a2 dc c3 3d 4e 52 77 be a5 06 f1 bd
       -0.11369741 0.09563567 -0.2415249 -0.117688455
0000a0 ce a2 fe bd 7f 54 1e 3d 9d db c2 be 02 91 8b bc
       -0.12433396 0.0386548 -0.38058177 -0.017036919
0000b0 29 81 1b bf f3 78 64 3d 76 3e cb be 19 3e 47 3d
       -0.6074396 0.05577941 -0.3969609 0.048643205
0000c0 aa 5b 8f 3e be 1b e2 3d eb 7c e1 bc 3e d9 bf 3b
       0.27999622 0.11040448 -0.027525386 0.0058547547
0000d0 26 d2 61 3e b5 09 30 3d 28 66 2f bd 83 cc 3e be
       0.22052822 0.042978007 -0.042822033 -0.18632703
0000e0 22 10 79 3e 7d 87 8f be 1b 8a 53 bd 55 f4 94 3d
       0.2432256 -0.28033057 -0.05164538 0.07273165
0000f0 ec 31 18 3e 48 bf 81 be 1d 5e 65 bd ff 0b 75 3e
       0.14862794 -0.2534125 -0.055997957 0.23930357
000100 f5 f2 dd 3d 10 c2 83 be ee b9 d4 3e 17 dc 5b 3d
       0.10837356 -0.25733995 0.41548103 0.05367669
000110 48 c2 a2 be 32 7c a3 3d 03 da c3 3e 46 92 ae 3d
       -0.3178885 0.07982673 0.38252267 0.08523993
000120 d5 39 c7 bd 5a 13 a8 bd c5 0e 27 3e 22 0a 9c 3d
       -0.097278275 -0.08206816 0.16314228 0.0761912
000130 6f dc ab ba fb 53 9f 3e 89 10 96 3d ed 6c 9a be
       -0.0013111959 0.3111876 0.073273726 -0.3016123
000140 3b 1c 54 bd 56 6a e8 be dc 5f af 3e f7 81 13 bd
       -0.051784735 -0.45393628 0.34252822 -0.036012616
000150 33 70 cd 3d 34 16 0b be 3e c4 a4 3e d3 8c 09 3e
       0.10031166 -0.13582689 0.3218097 0.13432626
000160 77 d0 af be 1c ef 54 be 8d b2 ce be 75 cd 40 be
       -0.34338734 -0.20794338 -0.40370598 -0.18828376
000170 b9 62 a0 bd df 18 32 be 40 58 02 bf 2a 99 49 be
       -0.0783133 -0.173923 -0.5091591 -0.19687334
000180 b0 79 ce 3d 97 4d 7b 3e d7 47 3a 3d e0 7a e6 3d
       0.10081804 0.24541317 0.045478668 0.11253905
000190 0d a4 b2 3e 79 76 b2 be 81 28 a8 bc e4 62 0d bd
       0.34890786 -0.34856012 -0.020527126 -0.034518138
0001a0 66 62 49 bd 49 71 48 3e c7 bb 82 3d cc 9c d4 3e
       -0.049166106 0.19574465 0.06383472 0.41525877
0001b0 a3 89 90 3e 13 d5 60 be c0 5e c8 3d 84 e2 b6 3e
       0.28230008 -0.21956281 0.09783697 0.35719693
0001c0 b9 3b cb 3d fe b4 27 3e 7e 67 7f bd de 33 f5 bd
       0.099235006 0.16377637 -0.062354557 -0.119727835
0001d0 c4 f1 2a bf 2f f0 08 3f bd eb 42 bd 95 b2 59 be
       -0.66775155 0.5349149 -0.0475881 -0.2125953
0001e0 ab 91 13 be 76 c0 c2 3e 07 a5 5d be a3 2e 80 be
       -0.14411037 0.3803746 -0.21644984 -0.2503558
0001f0 4f d9 17 3e db 71 a3 bd db 9e 96 bd a8 0a 98 be
       0.1482899 -0.079807006 -0.07354518 -0.2969563
000200 08 3d 43 3e 55 56 f4 bd 63 f2 96 bd b4 85 03 bd
       0.1906625 -0.11930529 -0.0737045 -0.03210993
000210 72 0a c5 bc 6d 95 09 3e 61 d7 d6 3c 1c cc 35 bd
       -0.024052832 0.13435908 0.026225748 -0.044384107
000220 30 dc c1 bd b1 ab 62 3e b7 a6 96 bd f8 f9 e8 3d
       -0.094658256 0.22135808 -0.07356017 0.11375803
000230 f2 0f 19 be 8b 23 1f bf 8c fd 95 bd a4 4c 10 3e
       -0.14947489 -0.6216361 -0.07323751 0.14091736
000240 ed 06 a5 bd cf 12 ac 3e 02 2a d6 3e ac 01 62 be
       -0.080579616 0.336081 0.41828924 -0.2207095
000250 b3 17 99 bd 42 4d 58 bd d9 d1 c9 3e 76 a5 49 be
       -0.074752234 -0.052808054 0.39417914 -0.19692025
000260 22 4f ae 3e 41 7e fd bd 09 a6 f5 3e 17 cc 99 bc
       0.3404475 -0.12377597 0.47978237 -0.018774075
000270 af 45 3a 3e f6 f8 84 bd 17 d9 fe 3e dc ac b6 3d
       0.18190645 -0.06492798 0.49775 0.08919689
000280 16 60 be 3c 3d 53 35 bd fe 56 f4 3c fa fc 19 be
       0.023239177 -0.044268835 0.029826637 -0.15037909
000290 f3 b7 b7 3c 8e 05 7f be 91 36 02 bb 61 d6 e0 bd
       0.022426581 -0.24904463 -0.001986895 -0.109783895
0002a0 90 35 a4 bd 9d fe c4 bd 60 b1 36 3e c8 25 86 3e
       -0.08018029 -0.09618876 0.178411 0.262007
0002b0 8d 56 51 bd 43 19 ba 3c 23 ab 62 3e 43 0c 49 be
       -0.051107932 0.022717124 0.22135596 -0.19633584
0002c0 0c 2c 66 3a 0a 50 91 be 93 41 1e 3e 69 fc 80 3e
       0.0008780367 -0.28381377 0.15454702 0.25192574
0002d0 0a 10 93 be d9 96 39 bc bf a8 15 3e 93 4b b4 3e
       -0.28723174 -0.011327469 0.14615153 0.3521391
0002e0 12 01 db 3b 02 23 a4 bd 08 cd 36 3c 8f ae f3 bb
       0.006683477 -0.0801449 0.011157282 -0.0074365805
0002f0 15 29 96 be 14 d2 c5 3e 9d d1 b9 3d 0e 3e bd 3d
       -0.29328218 0.3863684 0.09073184 0.092403516
000300 e4 35 79 bd 19 4b 53 3e cf 9c 8e bc c5 24 c9 bc
       -0.06084241 0.20634116 -0.017408757 -0.024553666
000310 22 25 97 3d 15 28 68 3c 89 bb b2 bd 50 f0 4a be
       0.073801294 0.014169713 -0.08727176 -0.19818234
000320 cf c6 46 3e 2a 59 3b bd ab b5 e4 3d 75 50 50 3d
       0.19411777 -0.04573933 0.11167463 0.05085798
000330 39 b1 8b 3e cf 76 f7 be 4e 53 39 3e e5 d0 23 bd
       0.27283648 -0.4833283 0.18098184 -0.03999414
000340 f0 1d 08 be f5 eb 2a 3d b5 76 0c bd 00 48 9b bd
       -0.1329267 0.041728932 -0.034292895 -0.07582092
000350 68 34 c5 3d 3e 2b a7 3e f7 ca 8f bd 77 ad be bd
       0.09629136 0.3265018 -0.07021134 -0.093104295
000360 75 5a 72 3d 11 4a 72 be eb 29 ee be 01 99 00 bc
       0.059168298 -0.23661067 -0.46516356 -0.007848979
000370 ed cd f7 3d 01 0b c6 3c 21 9c cc be bf d8 86 bd
       0.12099824 0.024175169 -0.39962867 -0.0658431
000380 2f c0 f1 3c 8c fd 78 bd 17 cd d6 be d1 66 20 3d
       0.029510586 -0.060788676 -0.41953346 0.039160553
000390 d0 85 93 3d 09 59 e8 bc 6a 27 da be b1 82 0a bd
       0.07203257 -0.028362768 -0.42608196 -0.033816043
0003a0 70 f6 f4 3d d1 62 09 3e 1a b3 5b 3e ef 26 1c 3e
       0.11961067 0.13416602 0.2145504 0.15249227
0003b0 75 6b 7f be 18 75 7d bd c7 4c 11 3e 30 0e 34 3e
       -0.24943335 -0.061879247 0.14189444 0.17583537
0003c0 21 39 03 3d cc 70 14 be c8 9d b3 be 18 b4 ea 3d
       0.032036904 -0.14496154 -0.35081315 0.114601314
0003d0 bf 76 84 bd 0b 9c bf bd 7a b5 b1 be c9 93 4d be
       -0.064679615 -0.09355935 -0.34708768 -0.20075907
0003e0 76 9f bf bd 80 ae df bd 3b 57 8a 3e 97 c7 9e 3e
       -0.09356587 -0.10921955 0.27019677 0.3101165
0003f0 45 be 8f bc bc 0b 40 be 10 00 be 3e 8c 73 ec 3e
       -0.017546782 -0.18754476 0.37109423 0.46181905

fcs1.bias f4 [128]
000000 dc 10 a5 be 31 e1 ca be c9 fc de bd e1 ed 7a be
       -0.32239425 -0.39624932 -0.10888059 -0.24504806
000010 c7 05 56 be 04 33 08 bf dc 54 c0 be 4c 04 9c be
       -0.20900641 -0.53202844 -0.37564743 -0.30472028
000020 a7 68 d6 bd 14 3b 25 be b5 8c 29 be 3d db 2a be
       -0.104691796 -0.16135818 -0.16557582 -0.16685195
000030 7c 8f be bd 3b 91 c0 bc 2a f9 53 bd 0c a8 95 bd
       -0.09304711 -0.023506751 -0.051751293 -0.07307443
000040 10 3b 6f be 45 af 9f be e5 9d 87 be 88 be 4f be
       -0.23362374 -0.31188408 -0.2648765 -0.20287526
000050 5a 6b 15 bd 29 fb b4 bd 2b fd 46 bd ab 2c ab bd
       -0.03647933 -0.088369675 -0.048581284 -0.08358129
000060 62 3f 45 be 04 ca 14 be 27 a4 32 bd 74 4f 75 be
       -0.1926246 -0.14530188 -0.04361358 -0.2395609
000070 0c 7f b9 be 1e a0 3e be 9a 9a c2 3c e0 9b 44 be
       -0.36229742 -0.18615767 0.02375536 -0.19200087
000080 db e4 59 be 90 d9 14 be c0 4c 1e 3e c5 9c ff bd
       -0.21278708 -0.14536119 0.15458965 -0.12481073
000090 12 d7 1c be ca 36 4a 3e 34 82 35 bd 89 b3 d9 be
       -0.15316418 0.19747463 -0.044313625 -0.42519787
0000a0 ab 45 76 be af 5e 2e be 47 85 8c be ea 8f 68 be
       -0.24050014 -0.17028306 -0.27445433 -0.22711149
0000b0 3a 20 31 be 06 3f b9 bd 53 79 a0 bd 9f e7 8d be
       -0.1729745 -0.09045224 -0.07835641 -0.27715775
0000c0 ca b4 20 3e 09 4f 93 be 66 7b 3a bd c1 ee b6 bd
       0.15693966 -0.28771237 -0.04552784 -0.089322574
0000d0 bc 35 e6 3d 54 0c ce bd 41 95 88 be 2b f0 49 3c
       0.11240718 -0.10060945 -0.26676372 0.012325327
0000e0 d9 8b 8f 3e e6 5c 84 3d 45 bd 3e be 6f 27 97 bd
       0.28036383 0.064630315 -0.18626888 -0.07380568
0000f0 16 1c cf bd 06 24 c2 3d d0 1d 79 be 87 75 95 be
       -0.10112779 0.09479527 -0.24327779 -0.2919123
000100 8e 0f e8 bd 97 68 5c be 7a 5d b6 bd 4c e8 b8 bd
       -0.11331092 -0.21524273 -0.08904548 -0.09028682
000110 61 6d 05 be 64 45 07 bf de 9a 2e be 98 b4 74 bd
       -0.13030006 -0.52840257 -0.17051265 -0.05974254
000120 b8 22 05 be be de b0 3d 07 96 2d be a8 16 dc bd
       -0.13001525 0.08636235 -0.16951762 -0.10746509
000130 ff 9d bd be 46 2e ef be 00 f1 46 bd 52 83 34 be
       -0.37034604 -0.4671499 -0.04856968 -0.1762822
000140 59 60 0b be e9 04 99 3d 70 04 54 be dc fe 51 be
       -0.13610972 0.0747164 -0.20704818 -0.20507377
000150 11 5f 18 be e8 42 bd bd 2e c7 5f bd a2 92 2a be
       -0.14880015 -0.09241277 -0.054633312 -0.16657498
000160 a4 45 29 bd 62 66 a5 3d 25 ec 0e 3e e1 da 94 be
       -0.04132618 0.080761686 0.1395727 -0.2907324
000170 95 3c ad bd 58 a2 6a be ac 89 f3 bd 55 df 33 bd
       -0.08458821 -0.22913492 -0.11891493 -0.043914158
000180 3f e7 17 3e 08 af df bd 22 77 f0 3d 20 29 9d be
       0.14834307 -0.109220564 0.11741473 -0.30695438
000190 82 cc 8e be 9e 9e a5 be 0a 5f 07 be 45 4c 15 be
       -0.27890402 -0.32347578 -0.13219848 -0.14579876
0001a0 b6 86 0f bd 6e 29 97 be 39 d3 24 3d 6e 25 24 be
       -0.03504058 -0.29523796 0.0402405 -0.16029903
0001b0 70 d6 77 bd fc 9f 2a bc c0 03 84 bd e9 5b 28 bc
       -0.060507238 -0.01041412 -0.06446028 -0.010275819
0001c0 55 05 cd bd 15 fb 43 be e9 bc ab 3d b3 85 81 be
       -0.10010783 -0.19138749 0.08385641 -0.25297317
0001d0 6e 0c 1a be d7 6a 3d 3b 5e 37 bd be 92 9d 5c bd
       -0.15043804 0.0028902793 -0.36956304 -0.05386121
0001e0 b7 51 08 3e ee 9f 3d bc 86 62 91 be 9c 73 2d 3d
       0.13312422 -0.011573775 -0.2839548 0.04234658
0001f0 7c 9e 02 3e 46 22 ea bd b1 27 86 be 62 94 20 be
       0.1275577 -0.114323184 -0.26202157 -0.15681604

bn1.weight f4 [128]
000000 ac 7b 3c 3f 68 12 a0 3d 20 35 70 3f 26 83 0a 3f
       0.7362621 0.07816011 0.9383106 0.54106367
000010 bc f7 95 3e 00 5d 40 3c c6 49 1e 3f 60 e9 bd 3e
       0.2929057 0.011740923 0.6183132 0.37092113
000020 58 ea 1a 3f e8 d3 dd 3d 4b a6 31 3f 70 cd f1 3d
       0.6051383 0.108314335 0.6939437 0.11806762
000030 cb 88 65 3f da ea 07 3f 95 5c 3e 3f 03 ff 4b 3f
       0.89661855 0.5309273 0.7436002 0.7968599
000040 58 6d 73 3f 0f b1 13 3f 49 c7 66 3f e8 cc ac 3d
       0.9508872 0.57692045 0.90147835 0.0843752
000050 9a e8 5b 3f 97 e5 5d 3f 9c 62 78 3e b8 94 76 3e
       0.85901797 0.8667845 0.24256366 0.24080169
000060 b8 9d 69 3f ae dd 66 3f 48 b6 ab 3d 5c 5f 01 3f
       0.91256285 0.90182006 0.08384377 0.5053613
000070 10 e1 fd 3d e5 11 45 3f e8 4a a5 3d 9c 8b 83 3e
       0.12396443 0.7698043 0.08070928 0.2569245
000080 b4 44 61 3f fb f2 6b 3f 59 6c 71 3f 6a 38 0d 3f
       0.8799546 0.92167634 0.9430595 0.55164206
000090 80 0c 6c 3d f6 88 50 3f d9 cd 69 3f 15 a3 62 3f
       0.05762911 0.81458986 0.91329724 0.88530093
0000a0 9d 7e 50 3f c8 95 eb 3e 18 4c 40 3f 1a 04 1c 3f
       0.81443197 0.46012712 0.7511611 0.6094376
0000b0 4a 9b 87 3e 81 2b 53 3f 40 4a a1 3e 27 e9 4a 3f
       0.26485664 0.82488257 0.3150196 0.7926201
0000c0 20 ab e8 3e c8 02 e9 3e 4c 4b 36 3f 60 6b de 3e
       0.45443058 0.45509934 0.71208644 0.43441296
0000d0 35 df 34 3f a0 71 87 3d c0 2d 7d 3c a1 06 11 3f
       0.70653087 0.06613469 0.015452802 0.5665074
0000e0 02 57 c9 3e e0 eb 90 3e f0 d8 54 3d 03 64 0c 3f
       0.39324194 0.28304958 0.0519647 0.54840106
0000f0 54 d3 82 3e 8d ba 73 3f 70 9d ea 3d e2 25 a5 3e
       0.25551856 0.9520653 0.1145581 0.32255465
000100 9a 21 cf 3e 90 21 17 3f d0 d0 27 3d 43 39 46 3f
       0.40455323 0.5903559 0.040970623 0.77431124
000110 10 94 01 3d 58 21 6f 3e fe 6c 19 3f e2 46 da 3e
       0.031635344 0.23352563 0.59931934 0.42632204
000120 bc 9b 0f 3f 00 e9 5d 3b 54 d3 17 3e 85 61 55 3f
       0.56097007 0.0033860803 0.14826709 0.8335193
000130 56 d3 31 3f 44 cd 37 3f ad e0 47 3f 79 82 59 3f
       0.694631 0.71797585 0.78077203 0.8496471
000140 b2 0a 3f 3f d8 5f b1 3e 04 a3 80 3e f4 ff 22 3e
       0.74625695 0.34643435 0.2512437 0.15917951
000150 5d d9 25 3f 9e e5 f8 3e b0 01 85 3e e1 1e 4e 3f
       0.64784795 0.48612684 0.2597785 0.8051587
000160 7b 38 05 3f 02 a5 e4 3e bc 29 be 3e 74 48 0c 3e
       0.5203931 0.4465714 0.37141216 0.13699514
000170 e2 b4 69 3f 40 49 5b 3c a0 e7 2d 3d ad a0 19 3f
       0.9129163 0.013384163 0.042457223 0.60010797
000180 82 cd 8c 3e c5 0b 5f 3f ae 27 f7 3e 46 a2 87 3e
       0.2750054 0.87127334 0.4827246 0.26490992
000190 eb 14 00 3f c0 ba d7 3e cc 8f d7 3e 62 a6 e3 3e
       0.5003192 0.42134666 0.42101896 0.44462878
0001a0 d8 e8 2e 3e a2 a7 ae 3e a0 6f 92 3c 5c 63 36 3e
       0.1708101 0.3411227 0.017875493 0.1781134
0001b0 01 63 09 3f 87 dd 53 3f be 53 f4 3e 75 e6 63 3f
       0.5366669 0.827599 0.4772014 0.89023525
0001c0 30 6a d7 3d da c2 2d 3f e8 5b 1e 3f 82 ad 98 3e
       0.105183005 0.67875445 0.6185899 0.29819876
0001d0 8e 97 34 3f d0 04 3d 3e fa f8 08 3f 5d 99 2b 3f
       0.70543754 0.18458867 0.5350491 0.6703089
0001e0 68 1b 89 3e 28 3a 17 3e e2 1a 52 3f 38 85 c5 3d
       0.26778722 0.14768279 0.8207227 0.0964455
0001f0 43 4c 7e 3f 70 4b a3 3e 36 f2 d7 3e 40 ea 6f 3e
       0.99335116 0.31893492 0.4217698 0.23429203

bn1.bias f4 [128]
000000 00 00 00 00 00 00 00 00 00 00 00 00 00 00 00 00
       0.0 0.0 0.0 0.0
000010 00 00 00 00 00 00 00 00 00 00 00 00 00 00 00 00
       0.0 0.0 0.0 0.0
000020 00 00 00 00 00 00 00 00 00 00 00 00 00 00 00 00
       0.0 0.0 0.0 0.0
000030 00 00 00 00 00 00 00 00 00 00 00 00 00 00 00 00
       0.0 0.0 0.0 0.0
000040 00 00 00 00 00 00 00 00 00 00 00 00 00 00 00 00
       0.0 0.0 0.0 0.0
000050 00 00 00 00 00 00 00 00 00 00 00 00 00 00 00 00
       0.0 0.0 0.0 0.0
000060 00 00 00 00 00 00 00 00 00 00 00 00 00 00 00 00
       0.0 0.0 0.0 0.0
000070 00 00 00 00 00 00 00 00 00 00 00 00 00 00 00 00
       0.0 0.0 0.0 0.0
000080 00 00 00 00 00 00 00 00 00 00 00 00 00 00 00 00
       0.0 0.0 0.0 0.0
000090 00 00 00 00 00 00 00 00 00 00 00 00 00 00 00 00
       0.0 0.0 0.0 0.0
0000a0 00 00 00 00 00 00 00 00 00 00 00 00 00 00 00 00
       0.0 0.0 0.0 0.0
0000b0 00 00 00 00 00 00 00 00 00 00 00 00 00 00 00 00
       0.0 0.0 0.0 0.0
0000c0 00 00 00 00 00 00 00 00 00 00 00 00 00 00 00 00
       0.0 0.0 0.0 0.0
0000d0 00 00 00 00 00 00 00 00 00 00 00 00 00 00 00 00
       0.0 0.0 0.0 0.0
0000e0 00 00 00 00 00 00 00 00 00 00 00 00 00 00 00 00
       0.0 0.0 0.0 0.0
0000f0 00 00 00 00 00 00 00 00 00 00 00 00 00 00 00 00
       0.0 0.0 0.0 0.0
000100 00 00 00 00 00 00 00 00 00 00 00 00 00 00 00 00
       0.0 0.0 0.0 0.0
000110 00 00 00 00 00 00 00 00 00 00 00 00 00 00 00 00
       0.0 0.0 0.0 0.0
000120 00 00 00 00 00 00 00 00 00 00 00 00 00 00 00 00
       0.0 0.0 0.0 0.0
000130 00 00 00 00 00 00 00 00 00 00 00 00 00 00 00 00
       0.0 0.0 0.0 0.0
000140 00 00 00 00 00 00 00 00 00 00 00 00 00 00 00 00
       0.0 0.0 0.0 0.0
000150 00 00 00 00 00 00 00 00 00 00 00 00 00 00 00 00
       0.0 0.0 0.0 0.0
000160 00 00 00 00 00 00 00 00 00 00 00 00 00 00 00 00
       0.0 0.0 0.0 0.0
000170 00 00 00 00 00 00 00 00 00 00 00 00 00 00 00 00
       0.0 0.0 0.0 0.0
000180 00 00 00 00 00 00 00 00 00 00 00 00 00 00 00 00
       0.0 0.0 0.0 0.0
000190 00 00 00 00 00 00 00 00 00 00 00 00 00 00 00 00
       0.0 0.0 0.0 0.0
0001a0 00 00 00 00 00 00 00 00 00 00 00 00 00 00 00 00
       0.0 0.0 0.0 0.0
0001b0 00 00 00 00 00 00 00 00 00 00 00 00 00 00 00 00
       0.0 0.0 0.0 0.0
0001c0 00 00 00 00 00 00 00 00 00 00 00 00 00 00 00 00
       0.0 0.0 0.0 0.0
0001d0 00 00 00 00 00 00 00 00 00 00 00 00 00 00 00 00
       0.0 0.0 0.0 0.0
0001e0 00 00 00 00 00 00 00 00 00 00 00 00 00 00 00 00
       0.0 0.0 0.0 0.0
0001f0 00 00 00 00 00 00 00 00 00 00 00 00 00 00 00 00
       0.0 0.0 0.0 0.0

bn1.running_mean f4 [128]
000000 00 00 00 00 00 00 00 00 00 00 00 00 00 00 00 00
       0.0 0.0 0.0 0.0
000010 00 00 00 00 00 00 00 00 00 00 00 00 00 00 00 00
       0.0 0.0 0.0 0.0
000020 00 00 00 00 00 00 00 00 00 00 00 00 00 00 00 00
       0.0 0.0 0.0 0.0
000030 00 00 00 00 00 00 00 00 00 00 00 00 00 00 00 00
       0.0 0.0 0.0 0.0
000040 00 00 00 00 00 00 00 00 00 00 00 00 00 00 00 00
       0.0 0.0 0.0 0.0
000050 00 00 00 00 00 00 00 00 00 00 00 00 00 00 00 00
       0.0 0.0 0.0 0.0
000060 00 00 00 00 00 00 00 00 00 00 00 00 00 00 00 00
       0.0 0.0 0.0 0.0
000070 00 00 00 00 00 00 00 00 00 00 00 00 00 00 00 00
       0.0 0.0 0.0 0.0
000080 00 00 00 00 00 00 00 00 00 00 00 00 00 00 00 00
       0.0 0.0 0.0 0.0
000090 00 00 00 00 00 00 00 00 00 00 00 00 00 00 00 00
       0.0 0.0 0.0 0.0
0000a0 00 00 00 00 00 00 00 00 00 00 00 00 00 00 00 00
       0.0 0.0 0.0 0.0
0000b0 00 00 00 00 00 00 00 00 00 00 00 00 00 00 00 00
       0.0 0.0 0.0 0.0
0000c0 00 00 00 00 00 00 00 00 00 00 00 00 00 00 00 00
       0.0 0.0 0.0 0.0
0000d0 00 00 00 00 00 00 00 00 00 00 00 00 00 00 00 00
       0.0 0.0 0.0 0.0
0000e0 00 00 00 00 00 00 00 00 00 00 00 00 00 00 00 00
       0.0 0.0 0.0 0.0
0000f0 00 00 00 00 00 00 00 00 00 00 00 00 00 00 00 00
       0.0 0.0 0.0 0.0
000100 00 00 00 00 00 00 00 00 00 00 00 00 00 00 00 00
       0.0 0.0 0.0 0.0
000110 00 00 00 00 00 00 00 00 00 00 00 00 00 00 00 00
       0.0 0.0 0.0 0.0
000120 00 00 00 00 00 00 00 00 00 00 00 00 00 00 00 00
       0.0 0.0 0.0 0.0
000130 00 00 00 00 00 00 00 00 00 00 00 00 00 00 00 00
       0.0 0.0 0.0 0.0
000140 00 00 00 00 00 00 00 00 00 00 00 00 00 00 00 00
       0.0 0.0 0.0 0.0
000150 00 00 00 00 00 00 00 00 00 00 00 00 00 00 00 00
       0.0 0.0 0.0 0.0
000160 00 00 00 00 00 00 00 00 00 00 00 00 00 00 00 00
       0.0 0.0 0.0 0.0
000170 00 00 00 00 00 00 00 00 00 00 00 00 00 00 00 00
       0.0 0.0 0.0 0.0
000180 00 00 00 00 00 00 00 00 00 00 00 00 00 00 00 00
       0.0 0.0 0.0 0.0
000190 00 00 00 00 00 00 00 00 00 00 00 00 00 00 00 00
       0.0 0.0 0.0 0.0
0001a0 00 00 00 00 00 00 00 00 00 00 00 00 00 00 00 00
       0.0 0.0 0.0 0.0
0001b0 00 00 00 00 00 00 00 00 00 00 00 00 00 00 00 00
       0.0 0.0 0.0 0.0
0001c0 00 00 00 00 00 00 00 00 00 00 00 00 00 00 00 00
       0.0 0.0 0.0 0.0
0001d0 00 00 00 00 00 00 00 00 00 00 00 00 00 00 00 00
       0.0 0.0 0.0 0.0
0001e0 00 00 00 00 00 00 00 00 00 00 00 00 00 00 00 00
       0.0 0.0 0.0 0.0
0001f0 00 00 00 00 00 00 00 00 00 00 00 00 00 00 00 00
       0.0 0.0 0.0 0.0

bn1.running_var f4 [128]
000000 00 00 80 3f 00 00 80 3f 00 00 80 3f 00 00 80 3f
       1.0 1.0 1.0 1.0
000010 00 00 80 3f 00 00 80 3f 00 00 80 3f 00 00 80 3f
       1.0 1.0 1.0 1.0
000020 00 00 80 3f 00 00 80 3f 00 00 80 3f 00 00 80 3f
       1.0 1.0 1.0 1.0
000030 00 00 80 3f 00 00 80 3f 00 00 80 3f 00 00 80 3f
       1.0 1.0 1.0 1.0
000040 00 00 80 3f 00 00 80 3f 00 00 80 3f 00 00 80 3f
       1.0 1.0 1.0 1.0
000050 00 00 80 3f 00 00 80 3f 00 00 80 3f 00 00 80 3f
       1.0 1.0 1.0 1.0
000060 00 00 80 3f 00 00 80 3f 00 00 80 3f 00 00 80 3f
       1.0 1.0 1.0 1.0
000070 00 00 80 3f 00 00 80 3f 00 00 80 3f 00 00 80 3f
       1.0 1.0 1.0 1.0
000080 00 00 80 3f 00 00 80 3f 00 00 80 3f 00 00 80 3f
       1.0 1.0 1.0 1.0
000090 00 00 80 3f 00 00 80 3f 00 00 80 3f 00 00 80 3f
       1.0 1.0 1.0 1.0
0000a0 00 00 80 3f 00 00 80 3f 00 00 80 3f 00 00 80 3f
       1.0 1.0 1.0 1.0
0000b0 00 00 80 3f 00 00 80 3f 00 00 80 3f 00 00 80 3f
       1.0 1.0 1.0 1.0
0000c0 00 00 80 3f 00 00 80 3f 00 00 80 3f 00 00 80 3f
       1.0 1.0 1.0 1.0
0000d0 00 00 80 3f 00 00 80 3f 00 00 80 3f 00 00 80 3f
       1.0 1.0 1.0 1.0
0000e0 00 00 80 3f 00 00 80 3f 00 00 80 3f 00 00 80 3f
       1.0 1.0 1.0 1.0
0000f0 00 00 80 3f 00 00 80 3f 00 00 80 3f 00 00 80 3f
       1.0 1.0 1.0 1.0
000100 00 00 80 3f 00 00 80 3f 00 00 80 3f 00 00 80 3f
       1.0 1.0 1.0 1.0
000110 00 00 80 3f 00 00 80 3f 00 00 80 3f 00 00 80 3f
       1.0 1.0 1.0 1.0
000120 00 00 80 3f 00 00 80 3f 00 00 80 3f 00 00 80 3f
       1.0 1.0 1.0 1.0
000130 00 00 80 3f 00 00 80 3f 00 00 80 3f 00 00 80 3f
       1.0 1.0 1.0 1.0
000140 00 00 80 3f 00 00 80 3f 00 00 80 3f 00 00 80 3f
       1.0 1.0 1.0 1.0
000150 00 00 80 3f 00 00 80 3f 00 00 80 3f 00 00 80 3f
       1.0 1.0 1.0 1.0
000160 00 00 80 3f 00 00 80 3f 00 00 80 3f 00 00 80 3f
       1.0 1.0 1.0 1.0
000170 00 00 80 3f 00 00 80 3f 00 00 80 3f 00 00 80 3f
       1.0 1.0 1.0 1.0
000180 00 00 80 3f 00 00 80 3f 00 00 80 3f 00 00 80 3f
       1.0 1.0 1.0 1.0
000190 00 00 80 3f 00 00 80 3f 00 00 80 3f 00 00 80 3f
       1.0 1.0 1.0 1.0
0001a0 00 00 80 3f 00 00 80 3f 00 00 80 3f 00 00 80 3f
       1.0 1.0 1.0 1.0
0001b0 00 00 80 3f 00 00 80 3f 00 00 80 3f 00 00 80 3f
       1.0 1.0 1.0 1.0
0001c0 00 00 80 3f 00 00 80 3f 00 00 80 3f 00 00 80 3f
       1.0 1.0 1.0 1.0
0001d0 00 00 80 3f 00 00 80 3f 00 00 80 3f 00 00 80 3f
       1.0 1.0 1.0 1.0
0001e0 00 00 80 3f 00 00 80 3f 00 00 80 3f 00 00 80 3f
       1.0 1.0 1.0 1.0
0001f0 00 00 80 3f 00 00 80 3f 00 00 80 3f 00 00 80 3f
       1.0 1.0 1.0 1.0

fc2.weight f4 [64, 130]
000000 a3 b3 cb bf 23 85 24 3e 83 99 8a be 58 f3 0c 3f
       -1.5914196 0.16066413 -0.27070245 0.55058813
000010 18 94 ca bd eb 0c 39 3e 40 40 eb 3c a0 54 f7 3e
       -0.09891528 0.18071334 0.02871716 0.4830675
000020 58 8d 32 bf f5 20 cb 3e 26 5b ab be b7 1b b1 bd
       -0.69746923 0.39673582 -0.33467978 -0.08647864
000030 29 f1 9f bf b6 12 59 bd 0c 0f 9b 3e e4 8e 6e 3e
       -1.2495471 -0.05299636 0.30284917 0.23296696
000040 12 dd d0 be 30 35 f7 bd 17 e1 03 be d5 c5 c6 bd
       -0.40793663 -0.120706916 -0.12878834 -0.09705702
000050 e9 9f 2c 3e 3f eb fc 3d e0 72 64 3e 43 e3 1c 3e
       0.16857876 0.12349557 0.22309446 0.15321068
000060 d6 07 99 3d 05 b4 da be 41 2c b8 bc 84 82 6b be
       0.07472198 -0.4271547 -0.02248204 -0.22999007
000070 b2 d5 fc 3d 12 a3 b3 be 2a c4 91 3e 77 bb ee be
       0.12345447 -0.3508535 0.28469974 -0.466274
000080 86 7c 04 3e 62 65 5e 3d 6c 8e 93 3d 8c 0a df be
       0.12938127 0.054295905 0.07204899 -0.43562734
000090 6f 10 5d bf 51 dc 17 3e f6 82 48 be 28 a1 74 bd
       -0.863532 0.14830138 -0.19581208 -0.059724003
0000a0 12 5a dd bd 74 33 e2 3d e3 c4 37 bd 57 13 54 be
       -0.10808195 0.1104497 -0.0448655 -0.20710503
0000b0 ef 3c 97 3d c6 00 d8 3d 9b 7f ce be e8 85 9e bd
       0.07384669 0.105470225 -0.4033173 -0.07740384
0000c0 35 03 6b 3d 30 4e f3 3e 80 2d 76 3c 1f f6 ff bd
       0.057376105 0.4752059 0.0150254965 -0.12498116
0000d0 69 77 ae bd e6 ae 82 3e 27 97 34 3c 19 02 84 bd
       -0.085188694 0.25524062 0.011022366 -0.064457126
0000e0 b1 ac 8d 3b c7 59 42 3d 46 c0 cc be 7a 9f ae 3d
       0.004323565 0.0474489 -0.39990443 0.085265115
0000f0 82 83 1f 3d ed 75 88 3c 6c 0d 52 3b c5 29 1d bf
       0.038943775 0.016657794 0.0032051457 -0.6139186
000100 23 44 08 bf b8 7a 07 3d b1 71 29 3e 0c 01 b8 3c
       -0.5322897 0.033076018 0.16547276 0.022461437
000110 19 76 13 3e aa 69 2e 3f 45 cd ed bd fb de aa be
       0.1440052 0.6812998 -0.11611418 -0.33373246
000120 3f 01 6c bc 8b c7 44 bd 7c ee 47 be ba 19 6e bd
       -0.014404594 -0.04804186 -0.19524568 -0.058130004
000130 aa 76 b0 bd 0d 10 26 3f 97 bf a3 3c 8d 8b e6 3e
       -0.086163834 0.6486824 0.019988818 0.45028344
000140 ab 03 c7 3c 25 e3 24 be c7 c3 cd be 6c 2c 61 be
       0.024293741 -0.16102274 -0.4018843 -0.21989602
000150 be 55 39 3d 00 de d8 3e 99 9c 9a bf ba da e7 3d
       0.045247786 0.42356873 -1.207904 0.11321016
000160 35 69 9d 3e 5a 19 91 be c6 c0 9b 3d 00 5f 81 be
       0.3074433 -0.28339654 0.07605128 -0.25267792
000170 ce 5d 5e bc 35 01 14 be 6a f4 31 be 91 25 09 be
       -0.0135721695 -0.14453585 -0.17378393 -0.13393237
000180 22 4c 0c be 2c 71 e6 3d e9 cc 73 be 07 32 31 3c
       -0.13700917 0.112520546 -0.23808636 0.01081515
000190 f5 43 0b be c4 01 3a be 6f 07 10 3e 24 99 e8 be
       -0.13600142 -0.18164736 0.14065336 -0.45429337
0001a0 a8 3c 43 bb 85 ec 37 3e 62 2e e1 3c f6 5c c2 bd
       -0.0029790793 0.17961319 0.027487937 -0.09490387
0001b0 27 3c aa bd b8 07 d2 be 9f 34 f0 bd c2 03 e4 bd
       -0.083122544 -0.41021514 -0.11728787 -0.11133529
0001c0 5b e0 0b bc df 15 52 3e 2c 2e 7a 3e 70 95 87 3e
       -0.008537377 0.20516156 0.24431676 0.264812
0001d0 80 1c 68 3e 15 4a 98 3e dc 8a b3 be 02 30 ac be
       0.22667122 0.2974402 -0.3506688 -0.33630377
0001e0 b2 17 30 3e ac 0c d0 3d da 3e 82 3d 09 3c 80 be
       0.17196539 0.10158667 0.06359644 -0.25045803
0001f0 05 4a 24 bd 95 3d 0e 3e 79 69 50 bf 08 5b e4 bc
       -0.040109653 0.13890679 -0.8141094 -0.027875438
000200 96 2b 0c bd e0 d8 b7 bc 38 4c 9a bd 06 68 16 be
       -0.034221254 -0.022442281 -0.07534069 -0.1468812
000210 11 03 9c be 52 d1 56 bb e4 f2 c7 3e f7 d6 37 3d
       -0.3047109 -0.0032778573 0.39052498 0.04488274
000220 cf 41 5d be c4 dc 28 3e 2b 1b 74 be fb b8 29 be
       -0.21607135 0.16490465 -0.23838489 -0.1657447
000230 af 93 97 3d ce 83 64 3e a2 c2 88 3d 2e 5f 1b 3e
       0.07401215 0.22315904 0.06677748 0.15173027
000240 2d b3 d7 bd c1 2f b1 3e 8a 63 30 be 12 24 d1 bb
       -0.10532222 0.34606746 -0.17225471 -0.0063824737
000250 eb a6 e4 3c 96 7c 7b be 29 6f 2b 3d 98 96 d7 be
       0.027911624 -0.24559245 0.041854057 -0.4210708
000260 5c c6 5a be 9f fa 3c 3e 0a a0 f6 3e 29 00 8c 3c
       -0.2136473 0.1845498 0.48168975 0.01708992
000270 05 57 e4 bd 55 fc b6 3d 81 ce c9 bd 81 f2 bc 3c
       -0.1114941 0.08934847 -0.098538406 0.023064854
000280 53 e2 0b be 96 69 dc be 05 21 ef be 7b d1 4b 3d
       -0.13660555 -0.43049306 -0.4670488 0.049760323
000290 b5 12 ad be 4a 3c 3f be 53 30 a6 bd 9d 54 bb 3d
       -0.33803335 -0.18675342 -0.08114686 0.09146998
0002a0 64 73 8a 3e 84 9e c5 be fd d4 09 bf 62 e9 99 3d
       0.2704116 -0.385975 -0.5384062 0.07515217
0002b0 c7 1f b6 be 15 8f 23 3d 3b 7a 1a bf 77 a1 11 3e
       -0.3557112 0.039931376 -0.6034276 0.1422175
0002c0 30 8f e0 bd 08 a0 2f bf 16 62 42 3e e2 27 93 be
       -0.10964811 -0.68603563 0.1898273 -0.28741366
0002d0 a4 7e 9b be ff 6e c9 bd db 71 89 ba c9 b1 40 be
       -0.30370057 -0.09835624 -0.0010486202 -0.1881782
0002e0 7d e7 22 bd 8f 43 17 be e3 ca 0b be 80 bf dc 3d
       -0.039771546 -0.14771865 -0.13651614 0.10778713
0002f0 6b 46 f2 3c fc 09 3e be 67 6c b6 3e 7f d0 d6 3d
       0.029574594 -0.18558496 0.3562958 0.10488986
000300 28 1b 2c 3e f7 22 90 be 00 87 97 3e 01 b6 ea be
       0.16807234 -0.28151676 0.29595184 -0.45841983
000310 27 ed c7 be 9a 2d 33 3d 5f 61 d4 bd 72 1d 2f be
       -0.3904812 0.04374466 -0.103701346 -0.17101076
000320 ac 50 6c bd 27 77 7c be 47 69 e4 39 4c 96 39 3d
       -0.057694122 -0.24654828 0.00043565987 0.04530935
000330 f5 c7 89 bd 7e c0 46 3d 4b aa 25 3f 59 ac f2 be
       -0.06727592 0.04852342 0.6471297 -0.47397116
000340 67 a9 ff 3d 12 40 40 be 0a a7 db bd 7e 8b 87 be
       0.12483483 -0.18774441 -0.107252195 -0.26473612
000350 8a 98 a7 3e a1 22 3d be 44 61 7b bd cb d1 9b 3d
       0.32733566 -0.18470241 -0.061372057 0.07608374
000360 0d 6a b5 3c d9 d9 dc bd 95 a7 d9 3d b0 7b 13 bd
       0.022145296 -0.10783739 0.10627667 -0.03600663
000370 13 b9 a5 3e d9 95 11 3e 42 57 b2 bd ad fb 2a be
       0.32367763 0.14217319 -0.08708049 -0.16697569
000380 98 2c 8c 3e 25 00 36 be 8e f0 30 3e d4 bf cd 3e
       0.27377772 -0.17773493 0.17279264 0.40185416
000390 bd e3 2a bf 4d 08 28 3e dd 53 50 3e bd 7d c8 3b
       -0.6675375 0.16409416 0.20344491 0.006118505
0003a0 38 87 43 bd 89 95 7a bd 79 ad 74 3e 0c bb 50 3e
       -0.047736377 -0.061177764 0.238943 0.20383853
0003b0 bb 5c 17 be 2f f1 2b bf d7 53 5a bd 2f cb 8b bc
       -0.14781468 -0.6716489 -0.053302612 -0.017064659
0003c0 d9 bf ab bc ca e2 96 3d 7e 16 e8 be 50 fd a5 be
       -0.020965504 0.07367475 -0.4532966 -0.32419825
0003d0 c6 22 35 be 29 a3 aa 3c f5 18 aa bd 41 97 b7 3c
       -0.17689046 0.020829754 -0.083055414 0.02241099
0003e0 4c e2 bc 3d 83 24 4e bd 40 e9 c4 3c b0 bc 40 3e
       0.0922285 -0.05032779 0.024037004 0.18821979
0003f0 49 74 08 3f ad 35 e8 bd 6d 46 0a be b4 f6 fc 3e
       0.5330244 -0.11338363 -0.13503428 0.4940697

fc2.bias f4 [64]
000000 f8 60 36 3d 45 50 66 3e 48 36 88 bc b4 3b 81 bc
       0.04452607 0.22491558 -0.016627446 -0.015775539
000010 ae 15 3c 3c 4f 69 ed bc 16 be 13 3d 0b 13 7e bd
       0.011479778 -0.02898088 0.036069952 -0.06202988
000020 13 62 55 bc 8d 93 fb 3d 4d 0e 60 3d 05 21 b3 bc
       -0.013023871 0.122840025 0.05470114 -0.02186633
000030 71 5f 96 3e 20 a7 15 3e 64 d6 e7 3d 78 93 4f bd
       0.2936969 0.14614534 0.11320189 -0.050677747
000040 4e de e0 3d 8d 66 c3 3d 06 6c 44 bd 37 2d a8 3d
       0.10979901 0.095410444 -0.04795458 0.08211749
000050 bc 68 07 3e fa 3b 74 3e 05 dc de bd a4 81 1e 3e
       0.13223547 0.23851004 -0.10881809 0.15479141
000060 9a 8a 89 bd 21 2e 22 3e 1a 8a 3f bd 4c c9 56 bd
       -0.06715889 0.1583791 -0.046762563 -0.052438065
000070 f5 62 a5 3c d6 37 52 3d 40 c3 7d 3d dd 91 1b be
       0.020188788 0.05132278 0.061953783 -0.15192361
000080 4c 29 3b 3c 1b 4d 1c be 1c b0 02 3e 48 a0 ad bd
       0.01142342 -0.15263788 0.12762493 -0.08477837
000090 0f da 13 be e4 7f 36 3d 85 7d 11 3e e0 4c 22 3d
       -0.14438652 0.04455556 0.14208038 0.039624095
0000a0 4d 69 99 bd a0 4a df bd 84 48 0f be bd 6d e7 3c
       -0.07490788 -0.109029055 -0.13992506 0.02825057
0000b0 6a e0 a7 3d e9 99 08 3e b2 aa 04 3e ca fb 36 bd
       0.081971005 0.13339962 0.1295574 -0.04467372
0000c0 0b 45 dc bd 62 61 66 3d a7 bb 27 be ea 62 5e 3d
       -0.107553564 0.056245215 -0.16380177 0.05429355
0000d0 8b 8c 50 bc 4d fa 86 bc 18 bb b5 3d d4 54 70 3d
       -0.012728821 -0.016476775 0.08873576 0.05867465
0000e0 bf 9b 1a 3e ed a8 83 3d fa 7f 29 3b ec 59 98 bd
       0.15098475 0.064287044 0.0025863633 -0.07439026
0000f0 52 81 93 3d 0c 43 fe 3d f9 45 8a 3d 90 c2 09 be
       0.072024 0.12415132 0.067516275 -0.13453126

bn2.weight f4 [64]
000000 b8 ad 9c 3d 00 8c a3 3d 2d 6f 1d 3f 70 f5 98 3e
       0.07650322 0.07985687 0.61497766 0.29874754
000010 ce 48 f0 3e 30 8d 35 3e 9a 64 23 3f f3 88 6c 3f
       0.46930546 0.1772964 0.6382538 0.9239647
000020 48 29 70 3e 6f bb 0a 3f c0 af e7 3e 16 27 e2 3e
       0.23453248 0.5419225 0.45251274 0.44170445
000030 20 c6 9a 3c 28 2d d8 3d 8e f2 b9 3e 16 f0 3e 3f
       0.018893301 0.10555488 0.36317867 0.7458509
000040 6e fa 05 3f b0 7a 47 3d a2 c8 76 3f a8 76 96 3e
       0.5233525 0.04870099 0.9639989 0.29387403
000050 78 72 aa 3d 52 b5 07 3f a4 02 65 3e 83 ba 71 3f
       0.083226144 0.5301105 0.22364289 0.9442522
000060 2a 71 9c 3e f3 b8 0e 3f 18 3b fd 3d a0 5c c2 3c
       0.30555087 0.5575096 0.12364787 0.023725808
000070 32 84 d3 3e a0 b6 72 3f 1b e1 5d 3f da a6 0d 3f
       0.41311795 0.94809914 0.8667161 0.5533272
000080 7c 54 20 3f a9 e6 21 3f 4e 2f 04 3f 18 c4 ba 3e
       0.6262891 0.63242584 0.5163468 0.36477733
000090 40 ee 99 3e 88 39 0a 3e a4 59 22 3e 09 4e 1d 3f
       0.30064583 0.13498509 0.15854508 0.614472
0000a0 10 c4 6d 3e 6d 9e 00 3f 2d 06 0a 3f 78 97 1d 3f
       0.23219323 0.5024174 0.53915673 0.6155925
0000b0 a0 68 2f 3e 7a fe 68 3f ef 72 5d 3f 73 e6 7a 3f
       0.17129755 0.910133 0.865035 0.9800789
0000c0 e0 5e 4e 3e 48 d4 79 3e d5 7e 64 3f 35 08 1c 3f
       0.2015338 0.24397385 0.8925603 0.6095002
0000d0 40 65 0f 3c 7d 53 0c 3f b6 ef 19 3f 14 10 e7 3e
       0.008752167 0.54814893 0.60131395 0.45129454
0000e0 2c 0f b6 3e a0 43 15 3d 00 9a 86 3a 01 10 4a 3f
       0.3555845 0.036441445 0.0010269284 0.7893067
0000f0 02 52 8c 3e b8 f5 5a 3f 50 ce 59 3f 8c b5 73 3e
       0.27406317 0.8553119 0.8508043 0.23799723

bn2.bias f4 [64]
000000 00 00 00 00 00 00 00 00 00 00 00 00 00 00 00 00
       0.0 0.0 0.0 0.0
000010 00 00 00 00 00 00 00 00 00 00 00 00 00 00 00 00
       0.0 0.0 0.0 0.0
000020 00 00 00 00 00 00 00 00 00 00 00 00 00 00 00 00
       0.0 0.0 0.0 0.0
000030 00 00 00 00 00 00 00 00 00 00 00 00 00 00 00 00
       0.0 0.0 0.0 0.0
000040 00 00 00 00 00 00 00 00 00 00 00 00 00 00 00 00
       0.0 0.0 0.0 0.0
000050 00 00 00 00 00 00 00 00 00 00 00 00 00 00 00 00
       0.0 0.0 0.0 0.0
000060 00 00 00 00 00 00 00 00 00 00 00 00 00 00 00 00
       0.0 0.0 0.0 0.0
000070 00 00 00 00 00 00 00 00 00 00 00 00 00 00 00 00
       0.0 0.0 0.0 0.0
000080 00 00 00 00 00 00 00 00 00 00 00 00 00 00 00 00
       0.0 0.0 0.0 0.0
000090 00 00 00 00 00 00 00 00 00 00 00 00 00 00 00 00
       0.0 0.0 0.0 0.0
0000a0 00 00 00 00 00 00 00 00 00 00 00 00 00 00 00 00
       0.0 0.0 0.0 0.0
0000b0 00 00 00 00 00 00 00 00 00 00 00 00 00 00 00 00
       0.0 0.0 0.0 0.0
0000c0 00 00 00 00 00 00 00 00 00 00 00 00 00 00 00 00
       0.0 0.0 0.0 0.0
0000d0 00 00 00 00 00 00 00 00 00 00 00 00 00 00 00 00
       0.0 0.0 0.0 0.0
0000e0 00 00 00 00 00 00 00 00 00 00 00 00 00 00 00 00
       0.0 0.0 0.0 0.0
0000f0 00 00 00 00 00 00 00 00 00 00 00 00 00 00 00 00
       0.0 0.0 0.0 0.0

bn2.running_mean f4 [64]
000000 00 00 00 00 00 00 00 00 00 00 00 00 00 00 00 00
       0.0 0.0 0.0 0.0
000010 00 00 00 00 00 00 00 00 00 00 00 00 00 00 00 00
       0.0 0.0 0.0 0.0
000020 00 00 00 00 00 00 00 00 00 00 00 00 00 00 00 00
       0.0 0.0 0.0 0.0
000030 00 00 00 00 00 00 00 00 00 00 00 00 00 00 00 00
       0.0 0.0 0.0 0.0
000040 00 00 00 00 00 00 00 00 00 00 00 00 00 00 00 00
       0.0 0.0 0.0 0.0
000050 00 00 00 00 00 00 00 00 00 00 00 00 00 00 00 00
       0.0 0.0 0.0 0.0
000060 00 00 00 00 00 00 00 00 00 00 00 00 00 00 00 00
       0.0 0.0 0.0 0.0
000070 00 00 00 00 00 00 00 00 00 00 00 00 00 00 00 00
       0.0 0.0 0.0 0.0
000080 00 00 00 00 00 00 00 00 00 00 00 00 00 00 00 00
       0.0 0.0 0.0 0.0
000090 00 00 00 00 00 00 00 00 00 00 00 00 00 00 00 00
       0.0 0.0 0.0 0.0
0000a0 00 00 00 00 00 00 00 00 00 00 00 00 00 00 00 00
       0.0 0.0 0.0 0.0
0000b0 00 00 00 00 00 00 00 00 00 00 00 00 00 00 00 00
       0.0 0.0 0.0 0.0
0000c0 00 00 00 00 00 00 00 00 00 00 00 00 00 00 00 00
       0.0 0.0 0.0 0.0
0000d0 00 00 00 00 00 00 00 00 00 00 00 00 00 00 00 00
       0.0 0.0 0.0 0.0
0000e0 00 00 00 00 00 00 00 00 00 00 00 00 00 00 00 00
       0.0 0.0 0.0 0.0
0000f0 00 00 00 00 00 00 00 00 00 00 00 00 00 00 00 00
       0.0 0.0 0.0 0.0

bn2.running_var f4 [64]
000000 00 00 80 3f 00 00 80 3f 00 00 80 3f 00 00 80 3f
       1.0 1.0 1.0 1.0
000010 00 00 80 3f 00 00 80 3f 00 00 80 3f 00 00 80 3f
       1.0 1.0 1.0 1.0
000020 00 00 80 3f 00 00 80 3f 00 00 80 3f 00 00 80 3f
       1.0 1.0 1.0 1.0
000030 00 00 80 3f 00 00 80 3f 00 00 80 3f 00 00 80 3f
       1.0 1.0 1.0 1.0
000040 00 00 80 3f 00 00 80 3f 00 00 80 3f 00 00 80 3f
       1.0 1.0 1.0 1.0
000050 00 00 80 3f 00 00 80 3f 00 00 80 3f 00 00 80 3f
       1.0 1.0 1.0 1.0
000060 00 00 80 3f 00 00 80 3f 00 00 80 3f 00 00 80 3f
       1.0 1.0 1.0 1.0
000070 00 00 80 3f 00 00 80 3f 00 00 80 3f 00 00 80 3f
       1.0 1.0 1.0 1.0
000080 00 00 80 3f 00 00 80 3f 00 00 80 3f 00 00 80 3f
       1.0 1.0 1.0 1.0
000090 00 00 80 3f 00 00 80 3f 00 00 80 3f 00 00 80 3f
       1.0 1.0 1.0 1.0
0000a0 00 00 80 3f 00 00 80 3f 00 00 80 3f 00 00 80 3f
       1.0 1.0 1.0 1.0
0000b0 00 00 80 3f 00 00 80 3f 00 00 80 3f 00 00 80 3f
       1.0 1.0 1.0 1.0
0000c0 00 00 80 3f 00 00 80 3f 00 00 80 3f 00 00 80 3f
       1.0 1.0 1.0 1.0
0000d0 00 00 80 3f 00 00 80 3f 00 00 80 3f 00 00 80 3f
       1.0 1.0 1.0 1.0
0000e0 00 00 80 3f 00 00 80 3f 00 00 80 3f 00 00 80 3f
       1.0 1.0 1.0 1.0
0000f0 00 00 80 3f 00 00 80 3f 00 00 80 3f 00 00 80 3f
       1.0 1.0 1.0 1.0

fc3.weight f4 [1, 64]
000000 06 a1 b4 3d a0 bd 13 bd 29 9e 96 be a7 5b 77 3d
       0.08819775 -0.036069512 -0.29417542 0.06039014
000010 13 17 db 3d 50 13 f7 bd 06 74 d8 3d 84 38 18 bb
       0.106977604 -0.120642304 0.10569005 -0.0023227045
000020 86 94 80 be 13 f1 5f bd 89 50 8b be 0c a4 47 3d
       -0.25113314 -0.054673266 -0.2720988 0.04874043
000030 05 77 2f bd 21 65 d6 3d 7c 8b c4 bd a5 ab 09 bd
       -0.042838115 0.104685076 -0.09596917 -0.03361096
000040 af 64 90 bd 42 25 5b 3e 08 43 6a bd d1 b4 54 bd
       -0.07050454 0.21400931 -0.057192832 -0.051930252
000050 cc ce 11 3e 52 38 32 be 4a c6 3a be 97 f4 8d bd
       0.14239043 -0.17404297 -0.18239704 -0.069314174
000060 b6 39 17 bd 83 a4 31 bd e1 bc 64 3e 4b 56 2a be
       -0.03692027 -0.04336978 0.22337677 -0.1663448
000070 18 f0 a9 bd f2 10 3e 3e 3b a9 83 3e db 88 7c be
       -0.082977474 0.18561152 0.2571505 -0.24661581
000080 51 69 81 bd c7 b3 4d be fe 66 ea bd 58 a5 a1 bd
       -0.06318916 -0.20088111 -0.114454255 -0.07892865
000090 a1 15 01 be 5c ae 8c be fa d3 d4 bd 72 b0 b1 3e
       -0.12605907 -0.27476776 -0.10391994 0.3470493
0000a0 f6 7a b1 bd cb 0f d6 bd dc 9e f5 3c 45 b0 41 3e
       -0.08666031 -0.10452231 0.029982977 0.18914898
0000b0 a2 80 24 3e 98 48 04 3e a0 f6 ce 3d 50 07 fd 3d
       0.16064695 0.12918317 0.10105634 0.123549104
0000c0 a6 93 d9 bc 2e cf a4 be e0 2f 10 be da bf 7b 3e
       -0.026559662 -0.32189316 -0.14080763 0.24584904
0000d0 ae 5f 98 be a0 b1 9e 3e bb ec 93 bd e7 1a 2e 3e
       -0.29760498 0.30994892 -0.07222887 0.1700245
0000e0 da 48 7b be 7b 53 bf 3d ed 2c 5e bd a5 63 5b bd
       -0.2453951 0.093420945 -0.054242063 -0.053561825
0000f0 24 00 e2 3d 7d a0 96 bd 68 3a 3a bd 97 d4 fd 3d
       0.11035183 -0.073548295 -0.045465857 0.12394064
