p3_collaboration_and_competition/weights/critic_1_500.pth (torch_old, 52380 bytes, 17 tensors)

bn0.weight f4 [24]
000000 d3 a4 1b 3f 63 b2 ef 3e 1f 99 0f 3f 02 a8 aa 3e
       0.60798377 0.46815786 0.5609302 0.33331305
000010 37 c1 89 3f 07 48 37 3f 85 a3 9b 3e f8 e7 0b bc
       1.076209 0.7159428 0.30398193 -0.008539192
000020 1c c8 1b 3f 23 3a 14 3e a8 4c f3 3e 3c e4 46 3e
       0.6085222 0.14475302 0.47519422 0.19423002
000030 cf ab 6f 3f b0 fe 73 3f 21 5e 0a 3f 28 3d af 3e
       0.93621534 0.953105 0.5404988 0.34226346
000040 1d b7 3a 3f b0 58 b3 3e 23 79 ad 3e f9 ac f7 3e
       0.7293566 0.350286 0.33881482 0.48374155
000050 31 af 51 3f 1e ad 24 3f 3d 65 ea 3e 50 b4 06 3f
       0.81907946 0.64326656 0.45780364 0.52618885

bn0.bias f4 [24]
000000 62 03 5e 3c 8d c5 c5 bb da 92 a9 bc 04 4d 68 bc
       0.013550611 -0.006035513 -0.020699907 -0.014178518
000010 71 98 c9 3d a5 86 61 bc d7 aa 31 bc 7d b8 f4 3d
       0.09843529 -0.013765012 -0.010843954 0.11949251
000020 f3 ee 0e bd 90 ea e6 3d 2a 45 3a 3d 5d f6 a5 3d
       -0.03489585 0.11275208 0.045476116 0.08103631
000030 9e b1 3f 3e 42 0e 73 bd ab f5 82 bc b1 36 d5 3b
       0.187201 -0.05933977 -0.015986284 0.006506764
000040 6c 6e c1 3c 98 85 25 3d 14 30 dd 3c 71 4b ba 3c
       0.023612224 0.040410608 0.027000464 0.022741051
000050 b9 ba 12 3e 52 ec 01 bc 5a 70 f6 3c f2 02 2a 3c
       0.14329042 -0.007929878 0.03008287 0.010376679

bn0.running_mean f4 [24]
000000 1e 27 ea c0 12 8d 84 bf c8 2f 49 3f e1 b2 11 3e
       -7.317275 -1.0355551 0.78588533 0.14228393
000010 23 04 96 3d 24 2d 46 40 c8 2f 49 3f e1 b2 11 3e
       0.07325008 3.0965052 0.78588533 0.14228393
000020 6c 68 f5 c0 36 3a 8c bf a9 8d 9a 3f a2 ad 0e 3e
       -7.668997 -1.0955265 1.2074481 0.13933423
000030 06 69 8f 3d 5e 4a 43 40 a9 8d 9a 3f a2 ad 0e 3e
       0.070024535 3.051414 1.2074481 0.13933423
000040 e2 70 00 c1 c3 b7 93 bf a4 ac ae 3f 01 75 0f 3e
       -8.027559 -1.1540455 1.3646436 0.14009477
000050 ec 36 b4 3d 36 a6 3d 40 a4 ac ae 3f 01 75 0f 3e
       0.08799538 2.9632697 1.3646436 0.14009477

bn0.running_var f4 [24]
000000 60 43 62 41 cc bc 78 3f 29 f9 11 43 75 4c b2 40
       14.141449 0.9716308 145.97328 5.571833
000010 af 76 19 42 9d 3a 9b 40 29 f9 11 43 75 4c b2 40
       38.365902 4.850905 145.97328 5.571833
000020 c5 8f 40 41 41 bb 77 3f 7f ab 1a 43 ad d7 ba 40
       12.0351 0.967701 154.6699 5.8388276
000030 ee 91 26 42 62 99 a9 40 7f ab 1a 43 ad d7 ba 40
       41.64251 5.2999735 154.6699 5.8388276
000040 85 0e 19 41 be 79 73 3f a7 b9 21 43 48 25 c7 40
       9.566045 0.9510764 161.7252 6.223301
000050 06 a5 34 42 69 ae c4 40 a7 b9 21 43 48 25 c7 40
       45.161156 6.1462903 161.7252 6.223301

fcs1.weight f4 [128, 24]
000000 ea 10 ca 3d 52 55 d6 bd 40 d1 dd bd a3 59 18 3d
       0.09866507 -0.10465492 -0.10830927 0.03719486
000010 97 b9 81 3f 4e f3 3f 3e 70 57 14 3c 7d 6b 67 3d
       1.0134763 0.18745157 0.00905405 0.056498993
000020 dc f6 7d 3c 17 e6 07 3d e9 cb 96 bd 32 bb b6 3d
       0.01550075 0.033178415 -0.073631115 0.089224234
000030 cd 39 80 3f fd cf 93 3d 7a 24 47 bd f7 d2 47 bd
       1.0017639 0.07217405 -0.04861877 -0.048785176
000040 65 fb 6d 3c 4b df 17 3e 5c 20 a1 bc 1e 45 88 bd
       0.014525269 0.14831273 -0.01966875 -0.06653808
000050 af fc 0e 3f b8 12 61 bd 69 31 c4 bd 3b b1 3a 3d
       0.55854315 -0.054949492 -0.09579737 0.045579176
000060 ea 97 69 bc 74 24 d9 bd e3 2e c7 3d 0b 10 03 3c
       -0.014257411 -0.10602656 0.0972574 0.00799943
000070 22 ad 0c be 17 d7 0e 3e 1a 84 ac 3d 9b 52 1b bd
       -0.1373792 0.13949238 0.08423634 -0.037920576
000080 a0 a3 bc bd 09 eb fc bd 90 e2 93 be 56 c2 36 bd
       -0.092108965 -0.12349517 -0.2888379 -0.044618927
000090 70 7c c0 be 7e d8 4a 3e e8 a6 34 be 0b ca e8 bc
       -0.37594938 0.19809148 -0.17641795 -0.028416654
0000a0 a4 4e 28 be d6 f9 9b bd 72 36 e2 bd ff 36 40 bd
       -0.16436249 -0.07616012 -0.11045541 -0.04692745
0000b0 4b d5 17 bf df ce 17 3e 5d 16 d3 bd 9e e8 6c 3c
       -0.59309834 0.14825009 -0.10307 0.014459757
0000c0 18 ee a9 3d 96 76 7a 3d a2 75 af 3d 33 c6 04 3e
       0.08297366 0.06114825 0.085673586 0.12966232
0000d0 f3 78 4c 3e d8 df 06 be 46 d1 9d 3d 60 e2 cd bd
       0.19968013 -0.13171327 0.07705931 -0.10052943
0000e0 71 0f 5b 3d b5 f7 fc bd 0a 4a 89 bd 00 6e 51 bd
       0.053481523 -0.12351934 -0.06703575 -0.051130295
0000f0 ca 4d 1e 3e b3 50 aa bd ba 7e a2 bd 16 b4 77 3d
       0.15459362 -0.083161734 -0.079343274 0.060474478
000100 64 25 9f 3d 2b aa 42 be 4d ab 64 3e 1a 94 5a bd
       0.077708036 -0.19010226 0.22330971 -0.053363897
000110 7a 90 0d be b0 2a a0 3c 19 74 47 3e 40 43 d2 bc
       -0.13824645 0.019551605 0.19477881 -0.025666833
000120 b1 07 eb bd 01 e3 94 bd 16 aa 68 3d e4 ca 96 bc
       -0.114760764 -0.0726986 0.05680283 -0.018407293
000130 43 77 6d bc f0 16 5b 3e 39 1d 9a bc 83 1c f5 bd
       -0.014493766 0.21395469 -0.018812763 -0.11968329
000140 14 77 ac bd c4 d6 31 be eb 15 e7 3d 1d 4a 82 bd
       -0.0842115 -0.17367083 0.112834774 -0.06361792
000150 3b b1 98 3c bc 39 8d bd 2f 10 ed 3c cb 75 5d 3c
       0.018639198 -0.068957776 0.028938381 0.013516854
000160 ab 56 92 bd 5f 6c cb bd 9e 6c eb bd f3 bf a2 bd
       -0.07145437 -0.099327795 -0.114953265 -0.07946768
000170 1e 78 d9 bd 8d 32 7d bd 5e d1 39 be 86 71 d2 bd
       -0.10618614 -0.061815787 -0.18146273 -0.10275559
000180 63 27 bd 3e 24 90 77 3e 75 d1 30 3d 8d 89 51 3d
       0.36944112 0.24176079 0.043168504 0.05115657
000190 24 1a 5b 3e 66 38 1e 3e fc d9 15 bd 57 7a 84 bd
       0.2139669 0.15451202 -0.03658484 -0.06468647
0001a0 7c cc 3d 3e a6 51 2b 3e b2 aa 00 3d 22 eb 7e bd
       0.18535036 0.16730365 0.031412788 -0.06223596
0001b0 24 e0 c1 3d b4 49 dc 3d 40 9b 75 3d a3 2b d3 bd
       0.094665796 0.10756245 0.05996251 -0.103110574
0001c0 77 02 e3 3d ae 65 e7 3d ff 76 bc bd 5c 15 86 bd
       0.110844545 0.11298691 -0.09202384 -0.06547043
0001d0 1a f5 8a be 4f 48 12 3e 1a 32 a7 bd ef 06 27 be
       -0.27140123 0.14285396 -0.08163853 -0.16311239
0001e0 0f 78 d1 3b 70 ea 1f 3e 8c 90 29 be 86 7c aa bd
       0.006392486 0.15616775 -0.16559047 -0.08324532
0001f0 db f5 e2 3d 9f d3 a7 bd e9 b7 60 bd 7a ac d5 bd
       0.110820495 -0.081946604 -0.05486289 -0.10433288
000200 d5 03 fc 3d c3 22 78 3d b3 bc 15 bd de 00 ad 3c
       0.123054184 0.060580026 -0.03655691 0.021118578
000210 c5 68 8b 3c cc e8 36 bb 83 dd 2f 3b 60 79 8f bd
       0.017017731 -0.0027909754 0.0026834912 -0.07005572
000220 bb a8 e6 3b e1 96 83 3d c2 27 bb bc de e8 57 3e
       0.007039157 0.06425262 -0.022846106 0.21084926
000230 5d 38 23 be a9 9e 92 be cd 1a 27 bb 9b 27 5d 3e
       -0.1593947 -0.28636673 -0.0025498152 0.2159714
000240 c1 85 93 3d 54 16 17 3e 4a 8c 5f 3d 71 e0 83 be
       0.07203246 0.14754611 0.05457715 -0.25757173
000250 de 23 dd 3c 1c 75 e6 bc 65 f5 3a 3d 7e c6 34 be
       0.026994642 -0.028132014 0.045644183 -0.17653844
000260 93 68 1a 3e d9 94 16 be b5 0d 60 3e a1 8d 14 be
       0.15078954 -0.14705218 0.21880229 -0.14507152
000270 82 b3 fb 3d f6 e1 e5 bd e5 ca 2e 3e 55 84 df bc
       0.12290098 -0.11224739 0.17069586 -0.02728478
000280 97 8a a9 bd 1d d8 63 bd 5d 77 9a 3c 59 32 2e be
       -0.08278387 -0.055626024 0.018855745 -0.17011394
000290 c3 7c 9c bd 8a 63 4d be b7 61 3f bc d9 98 09 be
       -0.07640984 -0.20057502 -0.011681012 -0.13437213
0002a0 84 5d 2b 3d a1 c0 c5 be 57 27 aa 3d 21 8a 16 3d
       0.04183723 -0.38623527 0.08308285 0.036752824
0002b0 9a f9 56 be 37 58 c4 bd 31 af b6 3d 05 cf f8 bc
       -0.20993653 -0.09587138 0.08920134 -0.030372152
0002c0 05 0a c6 3d 35 61 8b be 28 42 36 3e 73 72 e3 3d
       0.0966988 -0.272226 0.17798674 0.11105814
0002d0 9b aa c0 be e8 ff ca 3c 36 60 d9 3d cc 9e 30 3e
       -0.37630162 0.024780229 0.10614054 0.17248076
0002e0 86 8a 62 bd ca bb 94 be 1b 01 6e be fd c3 aa 3c
       -0.055307887 -0.29049522 -0.23242609 0.020845408
0002f0 09 2f aa be 61 49 0f 3e 07 01 08 be 83 b3 d7 3d
       -0.3323901 0.13992836 -0.13281642 0.10532286
000300 4e 01 36 bd d7 5e e6 3d 24 aa 87 bd f2 3c b7 bd
       -0.044434838 0.11248558 -0.066242486 -0.08947171
000310 ac 52 5c 3e c1 dd 07 3d 79 a8 01 be 01 b9 d7 bd
       0.21515912 0.033170465 -0.12661923 -0.105333336
000320 57 6d fd 3d 5b 39 cb 3b 43 ba e2 3d 30 04 58 bb
       0.123743705 0.0062019057 0.11070683 -0.003296148
000330 05 55 2c 3e de 1f 0d be 20 3c 29 3e 96 c0 f1 bd
       0.16829307 -0.13781688 0.16526842 -0.11804311
000340 30 3a f1 bb 59 10 c3 3d 35 74 d0 bc 6e f2 3f bc
       -0.007361673 0.095246024 -0.025446037 -0.011715515
000350 92 7a d2 3d 83 e4 42 3e 68 c0 92 bd a6 6b 28 bd
       0.10277285 0.19032483 -0.07165605 -0.041118287
000360 4a 13 a4 bd 01 a2 44 be 3c 70 75 be 03 45 51 bd
       -0.080114916 -0.19202425 -0.23968595 -0.051091205
000370 50 a4 5b 3e 26 90 8c bc 34 fb 59 be e9 7e 1c be
       0.21449399 -0.01715858 -0.21287233 -0.15282787
000380 17 8e 82 39 50 c3 76 be 6f e8 59 be 43 03 f2 3d
       0.00024901397 -0.24097943 -0.21280073 0.118170284
000390 d9 01 ab 3b d4 fa 29 3d a8 ad 4e be 0e f9 87 3d
       0.005218726 0.041498974 -0.20183432 0.066393
0003a0 3c 1a 88 3d c6 03 4f bd 65 c0 a3 3e b3 56 dc 3d
       0.06645629 -0.050540708 0.31982723 0.10758724
0003b0 aa b5 17 be c0 ce 73 bd 44 9b 59 3e 44 63 11 3e
       -0.14815393 -0.059523344 0.21250635 0.14198023
0003c0 db 2b 66 bd 64 63 36 be 14 58 03 be 14 dd f1 bc
       -0.056194168 -0.17811352 -0.12826568 -0.029524364
0003d0 20 65 15 3d 41 db 46 bd 8f 2e 3c be e2 90 bd bd
       0.036473393 -0.04854894 -0.18377136 -0.0925615
0003e0 0a e1 f8 bd c9 79 fd bd f7 e2 7e 3e 01 45 74 3b
       -0.12152298 -0.12376744 0.24891268 0.0037272575
0003f0 75 07 b5 3d d1 33 01 bd 5d 49 a5 3e 24 8d 92 3d
       0.08839313 -0.031543557 0.32282534 0.07155827

fcs1.bias f4 [128]
000000 ab ae 07 be 4d a5 8f be 74 44 4b 3b e7 ab d8 bc
       -0.13250224 -0.28055802 0.0031016143 -0.026449157
000010 86 75 67 be ae b3 8d be a8 96 a7 be a0 f0 37 be
       -0.22603425 -0.27676147 -0.3273213 -0.17962885
000020 76 1c c8 3b a1 4d 4f be f2 c4 84 bd f7 4e c1 bd
       0.0061069084 -0.20244457 -0.06482877 -0.094388895
000030 c8 91 0d 3d 27 65 29 3c 86 dd 36 bd b1 03 ef bd
       0.034562856 0.010339058 -0.044644855 -0.11670626
000040 59 b4 dc bd 0c 6d 19 be 5e d0 a7 bd 86 f5 48 be
       -0.10776586 -0.14983004 -0.0819404 -0.1962491
000050 36 2d 72 bd 03 44 8c bd b1 a2 37 bd 27 d8 07 be
       -0.059125148 -0.0684891 -0.04483289 -0.1326605
000060 a6 5e a5 be c2 c4 b0 bd 01 52 99 3d 5b ab c9 bc
       -0.32298774 -0.086312786 0.07486344 -0.024617841
000070 48 ed e2 bd d2 88 43 bc e4 3e 99 3d 12 4b 82 be
       -0.11080414 -0.011934476 0.074826986 -0.254479
000080 91 52 fb bd 8d 81 b9 bd 71 5d 0f 3e ad 36 83 3c
       -0.12271608 -0.09057913 0.14000489 0.016017282
000090 4d e9 28 be a3 10 b9 3d 0b e4 45 3d df f2 5f be
       -0.16495247 0.09036376 0.04831318 -0.21869992
0000a0 9b af 46 be 4d 0d 12 bc c2 e9 06 be c1 fb 63 bd
       -0.19402926 -0.008914304 -0.13175109 -0.055660013
0000b0 2c 4c e7 bd 3e 8b 3d bd c3 9e ee bd 60 6a 39 bd
       -0.112938255 -0.04627537 -0.11651375 -0.045267463
0000c0 96 7b 03 3e b7 c9 6d be 77 16 a2 3c 1e 20 0b 3e
       0.12840113 -0.2322148 0.019786103 0.1358647
0000d0 d8 1a 18 3e b2 b0 1a be 74 3d 58 bc 2a 43 16 3d
       0.1485399 -0.15106466 -0.013198245 0.036685146
0000e0 fa dd 5d 3e 38 f5 3f 3d 13 73 19 be 1c e5 17 be
       0.21666709 0.04686472 -0.14985304 -0.14833492
0000f0 be 5d 5e bd 16 a8 4c 3d 75 f6 7d be 3f 70 91 be
       -0.05428862 0.049964987 -0.24801047 -0.2840595
000100 fa de d7 3d 07 db 32 be 3d ec 06 be 03 3b c1 bc
       0.10540576 -0.17466365 -0.13176055 -0.02358771
000110 03 b3 c7 bd 43 bd 8d be f6 39 d9 bd 79 6b bd bc
       -0.09750941 -0.27683458 -0.10606758 -0.023122536
000120 a0 e8 65 3d e9 8f 17 3e f5 e5 ab bd f5 c1 81 bd
       0.05613005 0.14800991 -0.0839347 -0.063358225
000130 68 bf 6e be d3 9a 80 be bf ab 47 be c3 4a 00 be
       -0.23315203 -0.25118122 -0.1949911 -0.1252852
000140 3c b6 29 be 7e 75 ba 3d d1 eb db bd 57 a4 61 be
       -0.16573423 0.09104441 -0.10738338 -0.22035347
000150 ef 31 17 be d6 c0 c9 3d 92 b9 f4 bd 15 7e a4 bd
       -0.14765142 0.09851234 -0.11949457 -0.08031861
000160 2f 82 e8 3c 01 24 94 3d ce 86 fe 3d cd 50 b4 bd
       0.028382389 0.0723343 0.12428056 -0.08804474
000170 23 8c 85 3d ea 7d 84 be c1 f5 1a be 7c 3e 2b bc
       0.065208696 -0.25877315 -0.1513281 -0.010451909
000180 c1 33 b6 3d 4e 7e b3 bd fc a3 12 3e b4 2e ad bd
       0.0889659 -0.08764325 0.14320368 -0.084561735
000190 01 64 96 bd 31 24 86 bd 6f 17 52 bd 35 a8 d8 3c
       -0.07343293 -0.06549872 -0.05129188 0.026447395
0001a0 2b c1 0d 3e 62 79 70 be 01 57 fb 3c a0 83 87 3d
       0.13843219 -0.23483804 0.030681135 0.06616902
0001b0 d5 e8 84 bd 46 fe d3 3d 15 9f 6a 3c 6c c4 28 3e
       -0.06489722 0.10351233 0.014320155 0.16481179
0001c0 cf f1 9d bd 1b bd 0f 3d 42 6a bd bb 14 c3 d4 be
       -0.07712137 0.035092454 -0.005780489 -0.41555083
0001d0 34 63 19 be ea 6c 08 3c ea d2 7a bd a1 da 77 bd
       -0.14979249 0.008326748 -0.0612363 -0.060511235
0001e0 75 d5 3b 3e fb 41 70 bd 97 95 40 be 22 31 86 3d
       0.18343146 -0.058656674 -0.18807064 0.0655234
0001f0 55 52 4c 3e 45 28 67 bd a4 3c 87 be b1 e0 86 3c
       0.19953282 -0.05643489 -0.26413453 0.016464563

bn1.weight f4 [128]
000000 ac 7b 3c 3f 68 12 a0 3d 20 35 70 3f 26 83 0a 3f
       0.7362621 0.07816011 0.9383106 0.54106367
000010 bc f7 95 3e 00 5d 40 3c c6 49 1e 3f 60 e9 bd 3e
       0.2929057 0.011740923 0.6183132 0.37092113
000020 58 ea 1a 3f e8 d3 dd 3d 4b a6 31 3f 70 cd f1 3d
       0.6051383 0.108314335 0.6939437 0.11806762
000030 cb 88 65 3f da ea 07 3f 95 5c 3e 3f 03 ff 4b 3f
       0.89661855 0.5309273 0.7436002 0.7968599
000040 58 6d 73 3f 0f b1 13 3f 49 c7 66 3f e8 cc ac 3d
       0.9508872 0.57692045 0.90147835 0.0843752
000050 9a e8 5b 3f 97 e5 5d 3f 9c 62 78 3e b8 94 76 3e
       0.85901797 0.8667845 0.24256366 0.24080169
000060 b8 9d 69 3f ae dd 66 3f 48 b6 ab 3d 5c 5f 01 3f
       0.91256285 0.90182006 0.08384377 0.5053613
000070 10 e1 fd 3d e5 11 45 3f e8 4a a5 3d 9c 8b 83 3e
       0.12396443 0.7698043 0.08070928 0.2569245
000080 b4 44 61 3f fb f2 6b 3f 59 6c 71 3f 6a 38 0d 3f
       0.8799546 0.92167634 0.9430595 0.55164206
000090 80 0c 6c 3d f6 88 50 3f d9 cd 69 3f 15 a3 62 3f
       0.05762911 0.81458986 0.91329724 0.88530093
0000a0 9d 7e 50 3f c8 95 eb 3e 18 4c 40 3f 1a 04 1c 3f
       0.81443197 0.46012712 0.7511611 0.6094376
0000b0 4a 9b 87 3e 81 2b 53 3f 40 4a a1 3e 27 e9 4a 3f
       0.26485664 0.82488257 0.3150196 0.7926201
0000c0 20 ab e8 3e c8 02 e9 3e 4c 4b 36 3f 60 6b de 3e
       0.45443058 0.45509934 0.71208644 0.43441296
0000d0 35 df 34 3f a0 71 87 3d c0 2d 7d 3c a1 06 11 3f
       0.70653087 0.06613469 0.015452802 0.5665074
0000e0 02 57 c9 3e e0 eb 90 3e f0 d8 54 3d 03 64 0c 3f
       0.39324194 0.28304958 0.0519647 0.54840106
0000f0 54 d3 82 3e 8d ba 73 3f 70 9d ea 3d e2 25 a5 3e
       0.25551856 0.9520653 0.1145581 0.32255465
000100 9a 21 cf 3e 90 21 17 3f d0 d0 27 3d 43 39 46 3f
       0.40455323 0.5903559 0.040970623 0.77431124
000110 10 94 01 3d 58 21 6f 3e fe 6c 19 3f e2 46 da 3e
       0.031635344 0.23352563 0.59931934 0.42632204
000120 bc 9b 0f 3f 00 e9 5d 3b 54 d3 17 3e 85 61 55 3f
       0.56097007 0.0033860803 0.14826709 0.8335193
000130 56 d3 31 3f 44 cd 37 3f ad e0 47 3f 79 82 59 3f
       0.694631 0.71797585 0.78077203 0.8496471
000140 b2 0a 3f 3f d8 5f b1 3e 04 a3 80 3e f4 ff 22 3e
       0.74625695 0.34643435 0.2512437 0.15917951
000150 5d d9 25 3f 9e e5 f8 3e b0 01 85 3e e1 1e 4e 3f
       0.64784795 0.48612684 0.2597785 0.8051587
000160 7b 38 05 3f 02 a5 e4 3e bc 29 be 3e 74 48 0c 3e
       0.5203931 0.4465714 0.37141216 0.13699514
000170 e2 b4 69 3f 40 49 5b 3c a0 e7 2d 3d ad a0 19 3f
       0.9129163 0.013384163 0.042457223 0.60010797
000180 82 cd 8c 3e c5 0b 5f 3f ae 27 f7 3e 46 a2 87 3e
       0.2750054 0.87127334 0.4827246 0.26490992
000190 eb 14 00 3f c0 ba d7 3e cc 8f d7 3e 62 a6 e3 3e
       0.5003192 0.42134666 0.42101896 0.44462878
0001a0 d8 e8 2e 3e a2 a7 ae 3e a0 6f 92 3c 5c 63 36 3e
       0.1708101 0.3411227 0.017875493 0.1781134
0001b0 01 63 09 3f 87 dd 53 3f be 53 f4 3e 75 e6 63 3f
       0.5366669 0.827599 0.4772014 0.89023525
0001c0 30 6a d7 3d da c2 2d 3f e8 5b 1e 3f 82 ad 98 3e
       0.105183005 0.67875445 0.6185899 0.29819876
0001d0 8e 97 34 3f d0 04 3d 3e fa f8 08 3f 5d 99 2b 3f
       0.70543754 0.18458867 0.5350491 0.6703089
0001e0 68 1b 89 3e 28 3a 17 3e e2 1a 52 3f 38 85 c5 3d
       0.26778722 0.14768279 0.8207227 0.0964455
0001f0 43 4c 7e 3f 70 4b a3 3e 36 f2 d7 3e 40 ea 6f 3e
       0.99335116 0.31893492 0.4217698 0.23429203

bn1.bias f4 [128]
000000 00 00 00 00 00 00 00 00 00 00 00 00 00 00 00 00
       0.0 0.0 0.0 0.0
000010 00 00 00 00 00 00 00 00 00 00 00 00 00 00 00 00
       0.0 0.0 0.0 0.0
000020 00 00 00 00 00 00 00 00 00 00 00 00 00 00 00 00
       0.0 0.0 0.0 0.0
000030 00 00 00 00 00 00 00 00 00 00 00 00 00 00 00 00
       0.0 0.0 0.0 0.0
000040 00 00 00 00 00 00 00 00 00 00 00 00 00 00 00 00
       0.0 0.0 0.0 0.0
000050 00 00 00 00 00 00 00 00 00 00 00 00 00 00 00 00
       0.0 0.0 0.0 0.0
000060 00 00 00 00 00 00 00 00 00 00 00 00 00 00 00 00
       0.0 0.0 0.0 0.0
000070 00 00 00 00 00 00 00 00 00 00 00 00 00 00 00 00
       0.0 0.0 0.0 0.0
000080 00 00 00 00 00 00 00 00 00 00 00 00 00 00 00 00
       0.0 0.0 0.0 0.0
000090 00 00 00 00 00 00 00 00 00 00 00 00 00 00 00 00
       0.0 0.0 0.0 0.0
0000a0 00 00 00 00 00 00 00 00 00 00 00 00 00 00 00 00
       0.0 0.0 0.0 0.0
0000b0 00 00 00 00 00 00 00 00 00 00 00 00 00 00 00 00
       0.0 0.0 0.0 0.0
0000c0 00 00 00 00 00 00 00 00 00 00 00 00 00 00 00 00
       0.0 0.0 0.0 0.0
0000d0 00 00 00 00 00 00 00 00 00 00 00 00 00 00 00 00
       0.0 0.0 0.0 0.0
0000e0 00 00 00 00 00 00 00 00 00 00 00 00 00 00 00 00
       0.0 0.0 0.0 0.0
0000f0 00 00 00 00 00 00 00 00 00 00 00 00 00 00 00 00
       0.0 0.0 0.0 0.0
000100 00 00 00 00 00 00 00 00 00 00 00 00 00 00 00 00
       0.0 0.0 0.0 0.0
000110 00 00 00 00 00 00 00 00 00 00 00 00 00 00 00 00
       0.0 0.0 0.0 0.0
000120 00 00 00 00 00 00 00 00 00 00 00 00 00 00 00 00
       0.0 0.0 0.0 0.0
000130 00 00 00 00 00 00 00 00 00 00 00 00 00 00 00 00
       0.0 0.0 0.0 0.0
000140 00 00 00 00 00 00 00 00 00 00 00 00 00 00 00 00
       0.0 0.0 0.0 0.0
000150 00 00 00 00 00 00 00 00 00 00 00 00 00 00 00 00
       0.0 0.0 0.0 0.0
000160 00 00 00 00 00 00 00 00 00 00 00 00 00 00 00 00
       0.0 0.0 0.0 0.0
000170 00 00 00 00 00 00 00 00 00 00 00 00 00 00 00 00
       0.0 0.0 0.0 0.0
000180 00 00 00 00 00 00 00 00 00 00 00 00 00 00 00 00
       0.0 0.0 0.0 0.0
000190 00 00 00 00 00 00 00 00 00 00 00 00 00 00 00 00
       0.0 0.0 0.0 0.0
0001a0 00 00 00 00 00 00 00 00 00 00 00 00 00 00 00 00
       0.0 0.0 0.0 0.0
0001b0 00 00 00 00 00 00 00 00 00 00 00 00 00 00 00 00
       0.0 0.0 0.0 0.0
0001c0 00 00 00 00 00 00 00 00 00 00 00 00 00 00 00 00
       0.0 0.0 0.0 0.0
0001d0 00 00 00 00 00 00 00 00 00 00 00 00 00 00 00 00
       0.0 0.0 0.0 0.0
0001e0 00 00 00 00 00 00 00 00 00 00 00 00 00 00 00 00
       0.0 0.0 0.0 0.0
0001f0 00 00 00 00 00 00 00 00 00 00 00 00 00 00 00 00
       0.0 0.0 0.0 0.0

bn1.running_mean f4 [128]
000000 00 00 00 00 00 00 00 00 00 00 00 00 00 00 00 00
       0.0 0.0 0.0 0.0
000010 00 00 00 00 00 00 00 00 00 00 00 00 00 00 00 00
       0.0 0.0 0.0 0.0
000020 00 00 00 00 00 00 00 00 00 00 00 00 00 00 00 00
       0.0 0.0 0.0 0.0
000030 00 00 00 00 00 00 00 00 00 00 00 00 00 00 00 00
       0.0 0.0 0.0 0.0
000040 00 00 00 00 00 00 00 00 00 00 00 00 00 00 00 00
       0.0 0.0 0.0 0.0
000050 00 00 00 00 00 00 00 00 00 00 00 00 00 00 00 00
       0.0 0.0 0.0 0.0
000060 00 00 00 00 00 00 00 00 00 00 00 00 00 00 00 00
       0.0 0.0 0.0 0.0
000070 00 00 00 00 00 00 00 00 00 00 00 00 00 00 00 00
       0.0 0.0 0.0 0.0
000080 00 00 00 00 00 00 00 00 00 00 00 00 00 00 00 00
       0.0 0.0 0.0 0.0
000090 00 00 00 00 00 00 00 00 00 00 00 00 00 00 00 00
       0.0 0.0 0.0 0.0
0000a0 00 00 00 00 00 00 00 00 00 00 00 00 00 00 00 00
       0.0 0.0 0.0 0.0
0000b0 00 00 00 00 00 00 00 00 00 00 00 00 00 00 00 00
       0.0 0.0 0.0 0.0
0000c0 00 00 00 00 00 00 00 00 00 00 00 00 00 00 00 00
       0.0 0.0 0.0 0.0
0000d0 00 00 00 00 00 00 00 00 00 00 00 00 00 00 00 00
       0.0 0.0 0.0 0.0
0000e0 00 00 00 00 00 00 00 00 00 00 00 00 00 00 00 00
       0.0 0.0 0.0 0.0
0000f0 00 00 00 00 00 00 00 00 00 00 00 00 00 00 00 00
       0.0 0.0 0.0 0.0
000100 00 00 00 00 00 00 00 00 00 00 00 00 00 00 00 00
       0.0 0.0 0.0 0.0
000110 00 00 00 00 00 00 00 00 00 00 00 00 00 00 00 00
       0.0 0.0 0.0 0.0
000120 00 00 00 00 00 00 00 00 00 00 00 00 00 00 00 00
       0.0 0.0 0.0 0.0
000130 00 00 00 00 00 00 00 00 00 00 00 00 00 00 00 00
       0.0 0.0 0.0 0.0
000140 00 00 00 00 00 00 00 00 00 00 00 00 00 00 00 00
       0.0 0.0 0.0 0.0
000150 00 00 00 00 00 00 00 00 00 00 00 00 00 00 00 00
       0.0 0.0 0.0 0.0
000160 00 00 00 00 00 00 00 00 00 00 00 00 00 00 00 00
       0.0 0.0 0.0 0.0
000170 00 00 00 00 00 00 00 00 00 00 00 00 00 00 00 00
       0.0 0.0 0.0 0.0
000180 00 00 00 00 00 00 00 00 00 00 00 00 00 00 00 00
       0.0 0.0 0.0 0.0
000190 00 00 00 00 00 00 00 00 00 00 00 00 00 00 00 00
       0.0 0.0 0.0 0.0
0001a0 00 00 00 00 00 00 00 00 00 00 00 00 00 00 00 00
       0.0 0.0 0.0 0.0
0001b0 00 00 00 00 00 00 00 00 00 00 00 00 00 00 00 00
       0.0 0.0 0.0 0.0
0001c0 00 00 00 00 00 00 00 00 00 00 00 00 00 00 00 00
       0.0 0.0 0.0 0.0
0001d0 00 00 00 00 00 00 00 00 00 00 00 00 00 00 00 00
       0.0 0.0 0.0 0.0
0001e0 00 00 00 00 00 00 00 00 00 00 00 00 00 00 00 00
       0.0 0.0 0.0 0.0
0001f0 00 00 00 00 00 00 00 00 00 00 00 00 00 00 00 00
       0.0 0.0 0.0 0.0

bn1.running_var f4 [128]
000000 00 00 80 3f 00 00 80 3f 00 00 80 3f 00 00 80 3f
       1.0 1.0 1.0 1.0
000010 00 00 80 3f 00 00 80 3f 00 00 80 3f 00 00 80 3f
       1.0 1.0 1.0 1.0
000020 00 00 80 3f 00 00 80 3f 00 00 80 3f 00 00 80 3f
       1.0 1.0 1.0 1.0
000030 00 00 80 3f 00 00 80 3f 00 00 80 3f 00 00 80 3f
       1.0 1.0 1.0 1.0
000040 00 00 80 3f 00 00 80 3f 00 00 80 3f 00 00 80 3f
       1.0 1.0 1.0 1.0
000050 00 00 80 3f 00 00 80 3f 00 00 80 3f 00 00 80 3f
       1.0 1.0 1.0 1.0
000060 00 00 80 3f 00 00 80 3f 00 00 80 3f 00 00 80 3f
       1.0 1.0 1.0 1.0
000070 00 00 80 3f 00 00 80 3f 00 00 80 3f 00 00 80 3f
       1.0 1.0 1.0 1.0
000080 00 00 80 3f 00 00 80 3f 00 00 80 3f 00 00 80 3f
       1.0 1.0 1.0 1.0
000090 00 00 80 3f 00 00 80 3f 00 00 80 3f 00 00 80 3f
       1.0 1.0 1.0 1.0
0000a0 00 00 80 3f 00 00 80 3f 00 00 80 3f 00 00 80 3f
       1.0 1.0 1.0 1.0
0000b0 00 00 80 3f 00 00 80 3f 00 00 80 3f 00 00 80 3f
       1.0 1.0 1.0 1.0
0000c0 00 00 80 3f 00 00 80 3f 00 00 80 3f 00 00 80 3f
       1.0 1.0 1.0 1.0
0000d0 00 00 80 3f 00 00 80 3f 00 00 80 3f 00 00 80 3f
       1.0 1.0 1.0 1.0
0000e0 00 00 80 3f 00 00 80 3f 00 00 80 3f 00 00 80 3f
       1.0 1.0 1.0 1.0
0000f0 00 00 80 3f 00 00 80 3f 00 00 80 3f 00 00 80 3f
       1.0 1.0 1.0 1.0
000100 00 00 80 3f 00 00 80 3f 00 00 80 3f 00 00 80 3f
       1.0 1.0 1.0 1.0
000110 00 00 80 3f 00 00 80 3f 00 00 80 3f 00 00 80 3f
       1.0 1.0 1.0 1.0
000120 00 00 80 3f 00 00 80 3f 00 00 80 3f 00 00 80 3f
       1.0 1.0 1.0 1.0
000130 00 00 80 3f 00 00 80 3f 00 00 80 3f 00 00 80 3f
       1.0 1.0 1.0 1.0
000140 00 00 80 3f 00 00 80 3f 00 00 80 3f 00 00 80 3f
       1.0 1.0 1.0 1.0
000150 00 00 80 3f 00 00 80 3f 00 00 80 3f 00 00 80 3f
       1.0 1.0 1.0 1.0
000160 00 00 80 3f 00 00 80 3f 00 00 80 3f 00 00 80 3f
       1.0 1.0 1.0 1.0
000170 00 00 80 3f 00 00 80 3f 00 00 80 3f 00 00 80 3f
       1.0 1.0 1.0 1.0
000180 00 00 80 3f 00 00 80 3f 00 00 80 3f 00 00 80 3f
       1.0 1.0 1.0 1.0
000190 00 00 80 3f 00 00 80 3f 00 00 80 3f 00 00 80 3f
       1.0 1.0 1.0 1.0
0001a0 00 00 80 3f 00 00 80 3f 00 00 80 3f 00 00 80 3f
       1.0 1.0 1.0 1.0
0001b0 00 00 80 3f 00 00 80 3f 00 00 80 3f 00 00 80 3f
       1.0 1.0 1.0 1.0
0001c0 00 00 80 3f 00 00 80 3f 00 00 80 3f 00 00 80 3f
       1.0 1.0 1.0 1.0
0001d0 00 00 80 3f 00 00 80 3f 00 00 80 3f 00 00 80 3f
       1.0 1.0 1.0 1.0
0001e0 00 00 80 3f 00 00 80 3f 00 00 80 3f 00 00 80 3f
       1.0 1.0 1.0 1.0
0001f0 00 00 80 3f 00 00 80 3f 00 00 80 3f 00 00 80 3f
       1.0 1.0 1.0 1.0

fc2.weight f4 [64, 130]
000000 5a 74 19 3d de 79 4e 3c 0f f8 6b bd 09 4d 27 3e
       0.037464477 0.012602298 -0.057609614 0.1633798
000010 d5 00 1d be 83 70 4a 3c 2f a8 78 be 3f 0a bc 3e
       -0.15332349 0.012355926 -0.24282907 0.36726567
000020 88 b4 b3 bc e8 51 b1 3d a4 74 e1 bc af 93 b6 bd
       -0.02193667 0.086582005 -0.027521439 -0.08914887
000030 b9 9b 89 bd 46 d5 d2 bd 4a b1 77 3e 5e 19 a4 bd
       -0.06719155 -0.10294585 0.24188724 -0.08012651
000040 94 8d 09 be 5f d6 27 3d b8 59 28 3e 85 3c 50 be
       -0.13432914 0.040975925 0.16440475 -0.20335586
000050 2e 2e c8 bc 32 d5 c1 3d f8 71 c8 3d 0e 06 0f bd
       -0.024436083 0.09464492 0.09787363 -0.034917884
000060 ea ef a1 be 79 8d 0e be 78 d7 4e be d2 17 ab 3c
       -0.31628352 -0.13921155 -0.20199382 0.020885382
000070 d3 a0 1b 3e dd 2e b5 be e9 99 08 be 66 11 11 bf
       0.15198068 -0.35387316 -0.13339962 -0.5666717
000080 77 34 f6 3c 87 da 3e 3e be 3f bd bd 3b 57 86 be
       0.030054314 0.18638049 -0.092406735 -0.26238427
000090 9e 62 25 bf 7d cf e5 3c 5c 38 9f bd ed aa 09 bf
       -0.646036 0.02805304 -0.077744216 -0.5377644
0000a0 49 39 86 3d 27 72 8d 3c 30 f9 25 be 72 76 20 3e
       0.06553895 0.017266346 -0.16208339 0.15670183
0000b0 35 0f 53 bb ee 2a 2c bd 61 4d 1e bf 88 10 06 3e
       -0.003220511 -0.04203313 -0.6183682 0.13092244
0000c0 7a 61 34 be 14 e3 08 3e 7f f8 94 3d 3a 14 b1 be
       -0.1761531 0.13367873 0.07273959 -0.34585744
0000d0 52 5b 55 3c 07 f3 d8 3e bb 19 9f be 08 6b 88 3d
       0.013022261 0.42372915 -0.31074318 0.066610396
0000e0 5c 3f 50 3d ff 07 2d 3d f9 1b e4 be f4 cd 73 be
       0.050841674 0.042243954 -0.4455259 -0.23809034
0000f0 db ee cc 3d d4 12 86 bd f7 12 33 3e 64 2c 98 be
       0.100064956 -0.0654656 0.17487703 -0.29721367
000100 18 35 35 b9 59 83 60 bd 3c df 4e 3e de 2e 27 3e
       -0.00017281284 -0.054812763 0.20202345 0.16326472
000110 f2 48 aa 3e c0 33 c1 3c 66 49 d5 bd 4a d0 d9 3c
       0.33258778 0.023584247 -0.1041439 0.026588578
000120 56 31 82 3d 41 1b 0b 3d 46 99 d7 3e 26 d0 00 be
       0.06357066 0.03396154 0.42109126 -0.12579402
000130 db b9 bf 3b ba 9e 7e be 80 a8 45 3d 7b f8 0d 3e
       0.005851013 -0.24865237 0.048256397 0.13864319
000140 f2 0d 5a 3d 53 1a 23 bd 8f db f6 3d ba 57 71 3d
       0.053235956 -0.039820027 0.12053596 0.058921553
000150 9d 00 97 bc 09 b2 54 3e fd e4 f7 be c7 b9 4c 3c
       -0.01843291 0.2077104 -0.48416892 0.012495465
000160 76 44 bb 3d 5e f4 7e bd f1 05 c1 bc a1 0b 48 be
       0.09143917 -0.062244765 -0.023562403 -0.19535686
000170 25 91 a4 bd a5 c0 68 3d 5e 16 9c bc a3 f5 ca bd
       -0.080354966 0.056824345 -0.019053634 -0.09910133
000180 f0 4c 3f bd a4 d9 27 3e 1c 5a 5a 3d 80 f9 79 3e
       -0.046704233 0.16391617 0.05330859 0.24411583
000190 b1 ea dc bc ab 01 02 be fb e7 80 bd 9c fc 16 be
       -0.026967378 -0.12695949 -0.06294247 -0.147448
0001a0 ee ff 0a be ed 6b 89 3d d8 e6 5e bd bc 38 3c 3d
       -0.13574192 0.06710038 -0.05441937 0.045952544
0001b0 a7 04 2d 3d a0 d8 05 bd c2 cd 25 bd 10 b4 70 3d
       0.042240765 -0.032677293 -0.04047943 0.05876547
0001c0 69 76 45 3e 57 c8 34 be a2 d3 0b be 45 f9 5e 3e
       0.19283451 -0.17654549 -0.1365495 0.21774776
0001d0 d4 13 9a 3e 59 f7 bd 3d 34 86 ee bc a6 64 87 be
       0.30093253 0.092756934 -0.029116727 -0.26443976
0001e0 d9 a4 bb bd 98 ae 79 3d 50 1d e2 3d 45 77 91 be
       -0.091623016 0.06095752 0.11040747 -0.28411308
0001f0 a9 d9 84 3d 94 c6 34 3e 86 3e 6a bf dd 27 25 3d
       0.06486828 0.17653877 -0.91501653 0.04032122
000200 20 f2 3a bd 0f e6 80 bc 3c dc ee b9 f2 60 4d be
       -0.045641065 -0.0157347 -0.00045558985 -0.20056513
000210 ab ee 0e bd a9 cd b7 3c 41 2e ed bd c3 48 35 be
       -0.03489558 0.022436934 -0.11581088 -0.17703538
000220 74 25 81 be f4 80 3b 3e 7e 02 ea bd 73 33 ab bb
       -0.25223887 0.1831091 -0.114262566 -0.005224639
000230 96 04 7c 3b 12 1e f0 be f7 6f ca 3d 02 04 7c 3b
       0.0038454882 -0.46897942 0.09884637 0.0038454537
000240 db cf f0 bd 33 f2 54 3d 7a 7a 36 be e0 89 18 bd
       -0.11758395 0.05198879 -0.17820159 -0.037240863
000250 fb b2 90 be 2a bd 8e be 77 9f 19 3e 63 fa f9 bd
       -0.2826155 -0.27878696 0.15002237 -0.122059606
000260 d6 ea a5 bd fa 79 3b 3d 6b 3d d2 3d d1 05 24 3d
       -0.08101432 0.045770623 0.10265621 0.04004461
000270 04 65 b5 3d 2d 73 0b 3d e0 4c 74 bd ce db 4c be
       0.08857158 0.034045387 -0.059643626 -0.20005724
000280 b5 fc 72 bd 46 8f f3 3b 7b 65 f8 bd 1f 97 72 be
       -0.05932303 0.007432851 -0.12128731 -0.2369046
000290 74 47 d2 bd 23 9f 22 be 67 1e e9 bd c0 69 e6 3d
       -0.10267535 -0.15881018 -0.11382752 0.11250639
0002a0 d6 50 df 3d 24 5d 27 bf f9 9b 4f be ff 81 b8 3c
       0.1090409 -0.65376496 -0.20274343 0.022522924
0002b0 2e a0 be be bb 00 85 bb fd 43 b7 3d 76 51 10 bd
       -0.37231582 -0.004058925 0.089485146 -0.035233937
0002c0 38 af 7c be 4a c5 e9 bd c8 9a 28 3e e1 a3 dd bc
       -0.24676216 -0.11414583 0.16465294 -0.027055683
0002d0 21 a6 c0 3d fc e0 ec bc f4 e0 36 bd 88 a5 e0 3c
       0.094066866 -0.028915875 -0.044648126 0.027422681
0002e0 fa cb 0b 3e 79 a0 33 3d e6 52 85 3a 1c f5 36 3c
       0.1365203 0.04385421 0.00101718 0.011166837
0002f0 33 3c 9c bd f3 53 17 bf f2 c2 97 bc cb 3b a8 3d
       -0.076286696 -0.5911247 -0.018525574 0.082145296
000300 ad 30 6a 3e ce 60 a3 bd 81 fc a0 bd 4d 99 35 be
       0.22870131 -0.079774484 -0.07860661 -0.17734261
000310 bb a4 85 bd 84 51 97 be ad e3 d6 be 60 1c 03 be
       -0.065255605 -0.2955438 -0.41970578 -0.12803793
000320 03 34 e6 bc 22 bd 9e be 69 c7 a1 bd 02 9b 21 3e
       -0.028100973 -0.31003672 -0.078993626 0.15781787
000330 ca 24 17 3e 1d 13 60 3d fa 86 bc 3c 37 1a 2f bd
       0.14760128 0.054705728 0.02301358 -0.04274961
000340 04 e9 ed bb a5 a1 5e be 0c 58 99 be 51 a8 97 3c
       -0.0072604436 -0.2174135 -0.29949987 0.018512877
000350 85 50 80 3d ef 5c 8c be 25 9e ed 3d 9b 61 35 3d
       0.06265358 -0.27414653 0.11602429 0.044282537
000360 ae 4a e1 bc fd f3 31 be 3c 81 0f 3d 1f de 24 bb
       -0.02750143 -0.1737823 0.035035357 -0.0025156809
000370 1c 38 7c 3d b8 6c c9 bd f4 9e 3d bd 0d dc 2f be
       0.061576948 -0.098351896 -0.046294168 -0.17173786
000380 e3 73 8a 3d f0 3b d3 bb d5 13 b0 3d 07 b5 39 3b
       0.06760385 -0.006446354 0.08597533 0.002833666
000390 2b 11 43 be ad 3a fc 3d d7 f6 57 3e f4 73 8d bd
       -0.19049518 0.12315879 0.21090256 -0.06906882
0003a0 da 04 81 3d f1 c2 bf 3d bb 20 03 3e 80 68 3f 3d
       0.062997535 0.09363354 0.12805454 0.04673052
0003b0 e5 80 eb 3d 7e e7 8f bd f6 fd 5b 3d 35 6b c0 3d
       0.11499194 -0.070265755 0.053708993 0.09395448
0003c0 52 0b 1a bd 7f 53 12 bc ba 5b 32 be d4 da 0a bc
       -0.037608452 -0.00893104 -0.17417803 -0.008475024
0003d0 62 28 0b bd d7 7f 44 3e 44 b5 8c be c0 8d 98 3d
       -0.03397406 0.19189392 -0.27482045 0.07448912
0003e0 c4 80 7e bd 10 27 ff bd 8b db b6 3c db d7 1e bd
       -0.06213452 -0.124586225 0.022321483 -0.038780075
0003f0 f5 d3 97 3e 28 a0 a4 3d 68 9c 17 bd 74 1f cb 3d
       0.29653898 0.0803836 -0.037014395 0.099181086

fc2.bias f4 [64]
000000 bf 4e 16 3d 02 b9 d8 3d 28 04 be bd 2f 0c 59 3b
       0.036696192 0.105821624 -0.092781365 0.0033118834
000010 f3 b6 23 bd 49 dc 87 3c f5 c8 9c bc 60 b2 4f bd
       -0.039969396 0.016584532 -0.019138793 -0.05070722
000020 ba 92 16 bd b1 0b ce 3d 1e 50 12 bd 90 fb 11 bd
       -0.036761023 0.10060824 -0.035720937 -0.0356403
000030 17 ef c2 3d b9 ed 3b 3d 90 41 c1 3d aa 41 fb bc
       0.09518259 0.045881007 0.09436333 -0.03067096
000040 7a 79 22 3c 36 eb 95 3d 06 6c 44 bd 11 9f 9a 3d
       0.009916658 0.073202536 -0.04795458 0.07549871
000050 e0 12 75 3d be 0f b6 3d d1 7e 8a bd 13 83 96 3d
       0.059832454 0.08889721 -0.067624696 0.07349219
000060 2a 82 aa bd 47 83 08 3d 22 e4 e4 3c 68 5d e1 bc
       -0.08325608 0.03332832 0.027940813 -0.02751036
000070 70 8b 30 3d 2b 01 e5 3c 62 1e 08 3e 97 a2 58 be
       0.043101728 0.027954658 0.1329284 -0.21155773
000080 e2 fd 8d bd 04 0a 8d bd 35 0b c2 3d 8d ab 64 bd
       -0.0693319 -0.06886676 0.09474794 -0.055827666
000090 a5 68 74 bd a5 9c 82 3d bd a1 52 3d ee e7 eb 3c
       -0.05967011 0.06377534 0.051423777 0.028797116
0000a0 10 7b da bd f9 55 59 be 8e e1 da bd 9f dd 30 3d
       -0.106680036 -0.21224202 -0.106875524 0.043180104
0000b0 c2 2a 68 3b cb 1c 78 3d c7 6b e2 3d 1e 5f 87 3d
       0.0035425876 0.060574334 0.11055713 0.06609939
0000c0 9f b6 ab bd 98 5b 58 bb 26 70 cb bb 7c ae 0e bd
       -0.083844416 -0.0033013579 -0.0062084375 -0.03483437
0000d0 4c 3c ae 3d 4b 17 61 bc 5d 83 29 3d 6b 17 ab 3d
       0.085075945 -0.013738464 0.041385043 0.08354076
0000e0 b1 c4 9c bd da bd e1 bd 4c 8e 95 3d fd 4e 94 bd
       -0.076547034 -0.110225394 0.073025316 -0.07241628
0000f0 65 94 36 bc 95 3e 54 3b 6f a8 c6 3d 81 58 88 bd
       -0.011143778 0.0032385935 0.09700095 -0.06657506

bn2.weight f4 [64]
000000 b8 ad 9c 3d 00 8c a3 3d 2d 6f 1d 3f 70 f5 98 3e
       0.07650322 0.07985687 0.61497766 0.29874754
000010 ce 48 f0 3e 30 8d 35 3e 9a 64 23 3f f3 88 6c 3f
       0.46930546 0.1772964 0.6382538 0.9239647
000020 48 29 70 3e 6f bb 0a 3f c0 af e7 3e 16 27 e2 3e
       0.23453248 0.5419225 0.45251274 0.44170445
000030 20 c6 9a 3c 28 2d d8 3d 8e f2 b9 3e 16 f0 3e 3f
       0.018893301 0.10555488 0.36317867 0.7458509
000040 6e fa 05 3f b0 7a 47 3d a2 c8 76 3f a8 76 96 3e
       0.5233525 0.04870099 0.9639989 0.29387403
000050 78 72 aa 3d 52 b5 07 3f a4 02 65 3e 83 ba 71 3f
       0.083226144 0.5301105 0.22364289 0.9442522
000060 2a 71 9c 3e f3 b8 0e 3f 18 3b fd 3d a0 5c c2 3c
       0.30555087 0.5575096 0.12364787 0.023725808
000070 32 84 d3 3e a0 b6 72 3f 1b e1 5d 3f da a6 0d 3f
       0.41311795 0.94809914 0.8667161 0.5533272
000080 7c 54 20 3f a9 e6 21 3f 4e 2f 04 3f 18 c4 ba 3e
       0.6262891 0.63242584 0.5163468 0.36477733
000090 40 ee 99 3e 88 39 0a 3e a4 59 22 3e 09 4e 1d 3f
       0.30064583 0.13498509 0.15854508 0.614472
0000a0 10 c4 6d 3e 6d 9e 00 3f 2d 06 0a 3f 78 97 1d 3f
       0.23219323 0.5024174 0.53915673 0.6155925
0000b0 a0 68 2f 3e 7a fe 68 3f ef 72 5d 3f 73 e6 7a 3f
       0.17129755 0.910133 0.865035 0.9800789
0000c0 e0 5e 4e 3e 48 d4 79 3e d5 7e 64 3f 35 08 1c 3f
       0.2015338 0.24397385 0.8925603 0.6095002
0000d0 40 65 0f 3c 7d 53 0c 3f b6 ef 19 3f 14 10 e7 3e
       0.008752167 0.54814893 0.60131395 0.45129454
0000e0 2c 0f b6 3e a0 43 15 3d 00 9a 86 3a 01 10 4a 3f
       0.3555845 0.036441445 0.0010269284 0.7893067
0000f0 02 52 8c 3e b8 f5 5a 3f 50 ce 59 3f 8c b5 73 3e
       0.27406317 0.8553119 0.8508043 0.23799723

bn2.bias f4 [64]
000000 00 00 00 00 00 00 00 00 00 00 00 00 00 00 00 00
       0.0 0.0 0.0 0.0
000010 00 00 00 00 00 00 00 00 00 00 00 00 00 00 00 00
       0.0 0.0 0.0 0.0
000020 00 00 00 00 00 00 00 00 00 00 00 00 00 00 00 00
       0.0 0.0 0.0 0.0
000030 00 00 00 00 00 00 00 00 00 00 00 00 00 00 00 00
       0.0 0.0 0.0 0.0
000040 00 00 00 00 00 00 00 00 00 00 00 00 00 00 00 00
       0.0 0.0 0.0 0.0
000050 00 00 00 00 00 00 00 00 00 00 00 00 00 00 00 00
       0.0 0.0 0.0 0.0
000060 00 00 00 00 00 00 00 00 00 00 00 00 00 00 00 00
       0.0 0.0 0.0 0.0
000070 00 00 00 00 00 00 00 00 00 00 00 00 00 00 00 00
       0.0 0.0 0.0 0.0
000080 00 00 00 00 00 00 00 00 00 00 00 00 00 00 00 00
       0.0 0.0 0.0 0.0
000090 00 00 00 00 00 00 00 00 00 00 00 00 00 00 00 00
       0.0 0.0 0.0 0.0
0000a0 00 00 00 00 00 00 00 00 00 00 00 00 00 00 00 00
       0.0 0.0 0.0 0.0
0000b0 00 00 00 00 00 00 00 00 00 00 00 00 00 00 00 00
       0.0 0.0 0.0 0.0
0000c0 00 00 00 00 00 00 00 00 00 00 00 00 00 00 00 00
       0.0 0.0 0.0 0.0
0000d0 00 00 00 00 00 00 00 00 00 00 00 00 00 00 00 00
       0.0 0.0 0.0 0.0
0000e0 00 00 00 00 00 00 00 00 00 00 00 00 00 00 00 00
       0.0 0.0 0.0 0.0
0000f0 00 00 00 00 00 00 00 00 00 00 00 00 00 00 00 00
       0.0 0.0 0.0 0.0

bn2.running_mean f4 [64]
000000 00 00 00 00 00 00 00 00 00 00 00 00 00 00 00 00
       0.0 0.0 0.0 0.0
000010 00 00 00 00 00 00 00 00 00 00 00 00 00 00 00 00
       0.0 0.0 0.0 0.0
000020 00 00 00 00 00 00 00 00 00 00 00 00 00 00 00 00
       0.0 0.0 0.0 0.0
000030 00 00 00 00 00 00 00 00 00 00 00 00 00 00 00 00
       0.0 0.0 0.0 0.0
000040 00 00 00 00 00 00 00 00 00 00 00 00 00 00 00 00
       0.0 0.0 0.0 0.0
000050 00 00 00 00 00 00 00 00 00 00 00 00 00 00 00 00
       0.0 0.0 0.0 0.0
000060 00 00 00 00 00 00 00 00 00 00 00 00 00 00 00 00
       0.0 0.0 0.0 0.0
000070 00 00 00 00 00 00 00 00 00 00 00 00 00 00 00 00
       0.0 0.0 0.0 0.0
000080 00 00 00 00 00 00 00 00 00 00 00 00 00 00 00 00
       0.0 0.0 0.0 0.0
000090 00 00 00 00 00 00 00 00 00 00 00 00 00 00 00 00
       0.0 0.0 0.0 0.0
0000a0 00 00 00 00 00 00 00 00 00 00 00 00 00 00 00 00
       0.0 0.0 0.0 0.0
0000b0 00 00 00 00 00 00 00 00 00 00 00 00 00 00 00 00
       0.0 0.0 0.0 0.0
0000c0 00 00 00 00 00 00 00 00 00 00 00 00 00 00 00 00
       0.0 0.0 0.0 0.0
0000d0 00 00 00 00 00 00 00 00 00 00 00 00 00 00 00 00
       0.0 0.0 0.0 0.0
0000e0 00 00 00 00 00 00 00 00 00 00 00 00 00 00 00 00
       0.0 0.0 0.0 0.0
0000f0 00 00 00 00 00 00 00 00 00 00 00 00 00 00 00 00
       0.0 0.0 0.0 0.0

bn2.running_var f4 [64]
000000 00 00 80 3f 00 00 80 3f 00 00 80 3f 00 00 80 3f
       1.0 1.0 1.0 1.0
000010 00 00 80 3f 00 00 80 3f 00 00 80 3f 00 00 80 3f
       1.0 1.0 1.0 1.0
000020 00 00 80 3f 00 00 80 3f 00 00 80 3f 00 00 80 3f
       1.0 1.0 1.0 1.0
000030 00 00 80 3f 00 00 80 3f 00 00 80 3f 00 00 80 3f
       1.0 1.0 1.0 1.0
000040 00 00 80 3f 00 00 80 3f 00 00 80 3f 00 00 80 3f
       1.0 1.0 1.0 1.0
000050 00 00 80 3f 00 00 80 3f 00 00 80 3f 00 00 80 3f
       1.0 1.0 1.0 1.0
000060 00 00 80 3f 00 00 80 3f 00 00 80 3f 00 00 80 3f
       1.0 1.0 1.0 1.0
000070 00 00 80 3f 00 00 80 3f 00 00 80 3f 00 00 80 3f
       1.0 1.0 1.0 1.0
000080 00 00 80 3f 00 00 80 3f 00 00 80 3f 00 00 80 3f
       1.0 1.0 1.0 1.0
000090 00 00 80 3f 00 00 80 3f 00 00 80 3f 00 00 80 3f
       1.0 1.0 1.0 1.0
0000a0 00 00 80 3f 00 00 80 3f 00 00 80 3f 00 00 80 3f
       1.0 1.0 1.0 1.0
0000b0 00 00 80 3f 00 00 80 3f 00 00 80 3f 00 00 80 3f
       1.0 1.0 1.0 1.0
0000c0 00 00 80 3f 00 00 80 3f 00 00 80 3f 00 00 80 3f
       1.0 1.0 1.0 1.0
0000d0 00 00 80 3f 00 00 80 3f 00 00 80 3f 00 00 80 3f
       1.0 1.0 1.0 1.0
0000e0 00 00 80 3f 00 00 80 3f 00 00 80 3f 00 00 80 3f
       1.0 1.0 1.0 1.0
0000f0 00 00 80 3f 00 00 80 3f 00 00 80 3f 00 00 80 3f
       1.0 1.0 1.0 1.0

fc3.weight f4 [1, 64]
000000 32 57 5d 3e 86 1f 1e bd 78 6b eb bd d6 42 0f 3e
       0.21615294 -0.03860428 -0.114951074 0.1399034
000010 45 e1 1f 3e 3c eb 20 bd d6 4d 08 3e 4f de a0 bb
       0.15613277 -0.039286837 0.13310942 -0.0049093137
000020 d3 c6 71 bd dc 08 e8 bc 0c 89 9f bd 14 b0 00 3e
       -0.059027504 -0.028324537 -0.077898115 0.12567168
000030 8a 20 88 bc bb 57 48 3e 29 50 9d bc 87 6e 32 be
       -0.016617078 0.19564717 -0.019203262 -0.17424975
000040 39 51 06 bd 9b 34 3b 3e 08 43 6a bd 7c 79 00 bd
       -0.032792304 0.18281786 -0.057192832 -0.031365857
000050 d1 d7 35 3e 1b b1 d9 bc ae 8f 1a bd 9d 90 a6 bc
       0.17758109 -0.026573708 -0.03773468 -0.020332629
000060 6e 81 c3 bd c1 0b 0e bd 38 bd 5d 3e 17 f9 50 bd
       -0.09546171 -0.03467918 0.21654212 -0.0510188
000070 dd 4d 19 bd 6c 38 40 3e 2f 69 28 3e b6 42 5d bd
       -0.03742777 0.18771523 0.16446374 -0.0540187
000080 f7 d6 92 bc 28 03 a6 bd 1c 53 e6 bc 47 18 bf bd
       -0.017924769 -0.08106071 -0.028115802 -0.093308024
000090 a0 7a 2f be f8 8e 97 bd 53 cc 61 bd 7d a0 45 3e
       -0.17136621 -0.07400316 -0.0551265 0.19299503
0000a0 da 60 88 bd 23 b4 8c bd af 15 83 3c 12 9d 01 3e
       -0.06659098 -0.06870296 0.01600155 0.12657574
0000b0 75 fa 4b 3e aa 76 00 3e 09 fb 32 3e 3c e3 5c 3e
       0.1991976 0.12545267 0.17478575 0.21571058
0000c0 f1 fc eb bc 68 f3 1f be 7c c9 53 bd c2 22 c7 3d
       -0.028807135 -0.15620196 -0.051705822 0.097234264
0000d0 e8 bc d2 bc 7a ae cc 3d 89 94 5e bd 5b 9c 38 3e
       -0.025724843 0.09994216 -0.054340873 0.18028395
0000e0 09 19 41 bd 4b 8a f2 3d 6e 25 b5 bc 26 27 8b bc
       -0.047143016 0.118427835 -0.022112574 -0.01698644
0000f0 3a 72 44 3e 27 cf f7 bc 33 67 f0 bd 24 08 2f 3e
       0.19184199 -0.030250145 -0.11738434 0.17092949
