p3_collaboration_and_competition/weights/critic_1_800.pth (torch_old, 52380 bytes, 17 tensors)

bn0.weight f4 [24]
0	0x3f09980b	0.53747624
1	0x3ecb1bca	0.3966964
2	0x3ed60023	0.4179698
3	0x3ea4a01e	0.3215341
4	0x3f8cf454	1.1012063
5	0x3f2e2a33	0.6803314
6	0x3e2a6dd5	0.1664346
7	0xbcbbb3e7	-0.022912933
8	0x3eeb7f5f	0.45995614
9	0x3dbdfe2f	0.09276997
10	0x3e96c23b	0.2944506
11	0x3e2a82c3	0.16651444
12	0x3f368ca8	0.71308374
13	0x3f48959b	0.7835328
14	0x3ec91e1c	0.39280784
15	0x3e96865a	0.29399377
16	0x3f3904b0	0.7227278
17	0x3eb267ba	0.34844762
18	0x3e8f1478	0.27945304
19	0x3ed51473	0.41617164
20	0x3f6cb810	0.9246836
21	0x3f3c6f31	0.73607165
22	0x3ebadfcb	0.36498865
23	0x3ee01d29	0.43772247

bn0.bias f4 [24]
0	0xbc5bf355	-0.013424714
1	0x3d616281	0.05502558
2	0xbcdcca4a	-0.026951928
3	0xbdfe3e16	-0.12414186
4	0x3e032f39	0.12810983
5	0x3b3012f6	0.002686677
6	0xbd5a8c76	-0.05335661
7	0x3e068d14	0.13139755
8	0xbdf3e324	-0.11908558
9	0x3e0ade44	0.1356135
10	0x3cd3efe2	0.025871221
11	0xbc10a44b	-0.008828233
12	0x3e891c23	0.2677928
13	0x3b50dea6	0.003187099
14	0xbdbf9794	-0.09355083
15	0xbdb2f287	-0.08737665
16	0xbd1fedfa	-0.03904531
17	0x3d9f7d85	0.07787613
18	0xbd3f010d	-0.04663186
19	0xbbf22538	-0.0073896907
20	0x3e43099a	0.19046631
21	0x3c1abbcd	0.009444189
22	0xbc4e9899	-0.012609624
23	0xbd5bca46	-0.0536597

bn0.running_mean f4 [24]
0	0xc0efa5fc	-7.489012
1	0xbf233f8a	-0.6376883
2	0x3f17117e	0.59011066
3	0x3d9fa410	0.07794964
4	0xbbc8a6cc	-0.0061233994
5	0x4049d15b	3.153403
6	0x3f17117e	0.59011066
7	0x3d9fa410	0.07794964
8	0xc0f83338	-7.7562523
9	0xbf2e1f80	-0.68016815
10	0x3f828679	1.0197288
11	0x3d50b807	0.050956752
12	0xbc465fc9	-0.012107798
13	0x40497c8a	3.1482263
14	0x3f828679	1.0197288
15	0x3d50b807	0.050956752
16	0xc1007811	-8.029313
17	0xbf38be3b	-0.7216527
18	0x3f5c6715	0.8609479
19	0x3c122df4	0.008922089
20	0xbc4dd967	-0.01256404
21	0x404668e1	3.1001513
22	0x3f5c6715	0.8609479
23	0x3c122df4	0.008922089

bn0.running_var f4 [24]
0	0x413c297d	11.760129
1	0x3f8abf40	1.0839615
2	0x434c981f	204.59422
3	0x411a323e	9.637266
4	0x42125d66	36.59121
5	0x4083e457	4.1216235
6	0x434c981f	204.59422
7	0x411a323e	9.637266
8	0x411d596a	9.83433
9	0x3f8d7c33	1.1053528
10	0x4353ce7a	211.80655
11	0x41253416	10.325216
12	0x421dd32e	39.45623
13	0x4089e24d	4.3088746
14	0x4353ce7a	211.80655
15	0x41253416	10.325216
16	0x4101591c	8.084255
17	0x3f8fcac8	1.1233759
18	0x435cebee	220.9216
19	0x412c3cb7	10.764823
20	0x422a0dfd	42.51366
21	0x40988fc7	4.767551
22	0x435cebee	220.9216
23	0x412c3cb7	10.764823

fcs1.weight f4 [128, 24]
0	0x3dffd7ff	0.1249237
1	0xbdc73c27	-0.0972827
2	0xbd0dacaa	-0.034588493
3	0xbda643f0	-0.08118427
4	0x3fb4fb57	1.4139203
5	0x3c647f8f	0.013946428
6	0x3da04141	0.07824946
7	0xbcaad325	-0.020852635
8	0xbd355b55	-0.044276554
9	0xbcd69c3c	-0.026197545
10	0x3c443819	0.011976265
11	0x3db50587	0.08838945
12	0x3f9215b6	1.1412876
13	0x3d3635c3	0.044484865
14	0x3d73d6c5	0.059530992
15	0xbbebecfd	-0.007199882
16	0xbc213eaa	-0.0098416
17	0x3dfbfad3	0.123037
18	0x3d56dd2b	0.052457016
19	0xbd992dff	-0.07479476
20	0x3f39d911	0.7259684
21	0x3d025b31	0.03182525
22	0xbd01c7d2	-0.031684704
23	0x3d162d0a	0.036664046
24	0xbe172d84	-0.14763457
25	0xbe50f884	-0.20407301
26	0x3e6b1f82	0.22961238
27	0x3c4590fe	0.012058495
28	0xbce091f9	-0.027413355
29	0x3d189a3d	0.037256468
30	0x3e58f95d	0.21188875
31	0xbcf2aa4a	-0.029622216
32	0xbd902f1f	-0.07040238
33	0xbda148ce	-0.078752145
34	0xbebd60cd	-0.36987916
35	0x3cff3182	0.031151537
36	0xbe6ee12f	-0.23328088
37	0x3d277b4f	0.04088908
38	0xbe83f021	-0.2576914
39	0x3d3d3cf9	0.046200726
40	0xbe4259c9	-0.18979563
41	0x3d816cf9	0.06319613
42	0xbe5e4f81	-0.21710016
43	0xbcb0317b	-0.02150797
44	0xbf17a8f2	-0.59242165
45	0x3e10ad24	0.14128548
46	0xbe57f2cf	-0.21088718
47	0x3d150dba	0.036390044
48	0x3df9cfe5	0.12197856
49	0x3d172e35	0.0369093
50	0x3e0989dc	0.13431495
51	0x3cc72180	0.024307966
52	0x3e66bb06	0.22532281
53	0xbe059ba0	-0.13047647
54	0x3e008ac2	0.12552932
55	0xbe631d1f	-0.22179078
56	0x3e1bba86	0.15207872
57	0xbe902ae5	-0.28157726
58	0xbc058a3b	-0.0081506325
59	0xbe056430	-0.130265
60	0x3d1fb1bb	0.038987856
61	0xbdbe667f	-0.09296893
62	0xbb9dda25	-0.0048172646
63	0x3ce01aa1	0.027356448
64	0x3e495796	0.19662318
65	0xbe3e56a5	-0.1858774
66	0x3ec812cf	0.3907685
67	0xbd24ecf2	-0.04026503
68	0xbe971657	-0.2950923
69	0x3d73e8a7	0.059548046
70	0x3eb41fb3	0.35180435
71	0xbbed1440	-0.00723508
72	0xbe1d7b1f	-0.15378998
73	0xbdce5702	-0.10075189
74	0x3df0d223	0.117588304
75	0x3e64df25	0.22350748
76	0x3d25c6cf	0.0404728
77	0x3e6f08ed	0.23343249
78	0x3d284df1	0.041089956
79	0xbe9dfc7b	-0.3085669
80	0xbe0724c4	-0.13197619
81	0xbedc0cde	-0.42978567
82	0x3ded5c88	0.115899146
83	0xbe0bf7df	-0.13668774
84	0x3d468640	0.048467875
85	0xbe11c636	-0.14235768
86	0x3da23a7a	0.0792131
87	0x3d12c95b	0.03583656
88	0xbe99efab	-0.30065665
89	0xbe2b33ee	-0.16719028
90	0xbe96163f	-0.29313847
91	0xbdc96455	-0.0983359
92	0xbe03bd0c	-0.12865084
93	0xbe4b7651	-0.19869353
94	0xbec6932d	-0.3878416
95	0xbdd6d5a3	-0.10489967
96	0x3eca0763	0.3945876
97	0x3e8c6a2d	0.27424756
98	0x3bb0f80d	0.0054006637
99	0x3e27abf0	0.16374183
100	0x3e5eec8d	0.21769924
101	0xbe962d5e	-0.29331487
102	0xbd905574	-0.07047549
103	0xbd381d95	-0.044950087
104	0x3e524074	0.205324
105	0x3e31a1a3	0.17346816
106	0x3d60e0f1	0.05490202
107	0x3dc8fceb	0.09813865
108	0x3def9824	0.116989404
109	0x3dc47d29	0.09594185
110	0x3dad5763	0.08463933
111	0x3ce2738c	0.027642988
112	0x3e2025d9	0.15639438
113	0x3dc01de5	0.09380702
114	0xbdadfca7	-0.08495455
115	0xbd13fc4f	-0.036129292
116	0xbeea4735	-0.45757452
117	0x3e914bb7	0.28378078
118	0xbd965896	-0.07341115
119	0xbe0b135b	-0.13581602
120	0xbac37fa2	-0.0014915357
121	0x3e5597d5	0.208587
122	0xbe00b0fa	-0.12567511
123	0xbe17a300	-0.14808273
124	0x3dcda3b8	0.100409925
125	0xbdf4a50c	-0.11945543
126	0xbba3e308	-0.0050014295
127	0xbe78bea4	-0.24291474
128	0x3e292dde	0.16521403
129	0xbdace8ed	-0.084428646
130	0xbd424b12	-0.047434874
131	0x3c3d5825	0.01155666
132	0x3d81c4c4	0.06336358
133	0x3cb381ec	0.021912538
134	0x3cb3ca33	0.021947002
135	0xbcb7ce6e	-0.0224373
136	0xbd917eec	-0.071042866
137	0x3e0a960d	0.13533802
138	0xbd5bd17b	-0.053666573
139	0x3e58df8c	0.21179026
140	0xbe3a9455	-0.18220647
141	0xbefb860b	-0.49125704
142	0xbd3c1ca4	-0.04592575
143	0x3e673ce4	0.22581822
144	0x3d825530	0.063639045
145	0x3e9bf480	0.30459976
146	0x3e772e3a	0.24138728
147	0xbed4d91f	-0.415719
148	0x3d14e61f	0.036352273
149	0xbd482de4	-0.04887189
150	0x3e6937e4	0.22775227
151	0xbdf01040	-0.117218494
152	0x3e73a6bf	0.23794077
153	0xbdbd18c9	-0.09233243
154	0x3eb5eabd	0.35530654
155	0xbd662945	-0.0561917
156	0x3e312f37	0.17303167
157	0xbd3f500e	-0.046707205
158	0x3ea40526	0.32035178
159	0x3d0c4118	0.034241766
160	0x3d9a3d0c	0.07531175
161	0x3d2899c4	0.041162267
162	0x3c1ad3d6	0.00944992
163	0xbdd829cf	-0.10554849
164	0x3d2da761	0.042395953
165	0xbe8367cc	-0.25665128
166	0xbc92a05f	-0.017898737
167	0xbd94d9d2	-0.072681084
168	0x3d8b6528	0.068064034
169	0xbe6ddaeb	-0.23228042
170	0x3e1b846d	0.15187235
171	0x3e3e48e6	0.18582496
172	0xbe137ae2	-0.14402345
173	0xbda12f5b	-0.078703605
174	0x3e245675	0.16048606
175	0xbd2769c7	-0.04087236
176	0x3cf624d1	0.030046852
177	0xbe322792	-0.17397907
178	0x3e725d43	0.23668389
179	0x3ded5cd2	0.1158997
180	0xbe8b0e3f	-0.27159306
181	0x3d57acfa	0.052655198
182	0x3e345133	0.176091
183	0x3e286372	0.16444185
184	0xbd30edd7	-0.04319557
185	0xbe1540ce	-0.14575502
186	0xbe0517fe	-0.12997434
187	0xbd0fd451	-0.03511459
188	0xbe7ce5b3	-0.24696998
189	0x3eb41e39	0.35179308
190	0xbd1ab117	-0.037766542
191	0x3d46e206	0.048555396
192	0xbc550e0c	-0.013003837
193	0x3de10765	0.109877385
194	0xbd1aaa87	-0.037760284
195	0xbe1b19b8	-0.1514653
196	0x3e2e321c	0.17011303
197	0xbc41d877	-0.011831394
198	0xbdaa94d3	-0.08329167
199	0xbe3b9a0c	-0.18320483
200	0x3e0ad701	0.1355858
201	0xbd4a0a41	-0.049326185
202	0x3d89628d	0.0670825
203	0xbd37c689	-0.044867072
204	0x3e4705c4	0.19435793
205	0xbe896b89	-0.26839855
206	0x3e123476	0.14277825
207	0xbe0dd137	-0.1384934
208	0xbd621764	-0.05519809
209	0x3da10742	0.078627124
210	0xbc45d5d2	-0.0120749045
211	0xbda03443	-0.07822468
212	0x3dea08ab	0.114274345
213	0x3e88a1da	0.26685983
214	0xbd725348	-0.059161454
215	0xbdcb36a5	-0.09922532
216	0xbd59473e	-0.053046457
217	0xbe5046ec	-0.20339555
218	0xbea1235d	-0.31472293
219	0x3d1c2ef7	0.038130727
220	0x3db9085c	0.090347975
221	0x3c8387f9	0.016056048
222	0xbe94605c	-0.28979766
223	0xbe3a592f	-0.18198083
224	0xbcd56c1e	-0.02605253
225	0xbe0744f5	-0.13209899
226	0xbe8682b5	-0.26271597
227	0x3d92997d	0.07158182
228	0xbdb57226	-0.08859663
229	0x3d02a9ac	0.031900093
230	0xbe820780	-0.25396347
231	0x3d238d32	0.039929576
232	0x3cd8a421	0.02644545
233	0x3d9cc724	0.076551706
234	0x3ea17f33	0.31542358
235	0x3dc92b26	0.09822683
236	0xbe6d7894	-0.23190528
237	0xbc68dea7	-0.014213241
238	0x3e5f9ee3	0.21837954
239	0x3e044a76	0.1291903
240	0xbba78454	-0.0051122103
241	0xbda5c958	-0.08095044
242	0xbe782143	-0.24231438
243	0x3cb998b8	0.02265583
244	0xbd8368f8	-0.064165056
245	0xbdedae80	-0.11605549
246	0xbe91e1e9	-0.28492668
247	0xbe2d4e15	-0.16924317
248	0xbdeed29d	-0.11661265
249	0xbe0230a5	-0.12713869
250	0x3e627a94	0.22117072
251	0x3e379196	0.1792663
252	0xba81c756	-0.0009901326
253	0xbdd764f0	-0.10517299
254	0x3e9a8f64	0.30187523
255	0x3e923fe1	0.2856436

fcs1.bias f4 [128]
0	0xbe5735d8	-0.21016634
1	0xbe93c32c	-0.28859842
2	0xbdf14204	-0.117801696
3	0xbe56f055	-0.20990117
4	0xbe5494f0	-0.2075994
5	0xbede7ae3	-0.4345313
6	0xbe9d4471	-0.3071628
7	0xbe294cc0	-0.16533184
8	0xbd9f4c8c	-0.07778272
9	0xbe714359	-0.23560847
10	0xbe11e842	-0.14248756
11	0xbe18a71b	-0.14907496
12	0xbd8b37bb	-0.06797739
13	0xbcaead47	-0.02132286
14	0xbd4270e0	-0.047470927
15	0xbdf7d39b	-0.121009074
16	0xbe628979	-0.22122754
17	0xbe9516ab	-0.29118857
18	0xbe1d2095	-0.1534446
19	0xbe1f26bb	-0.15542118
20	0xbd35b27d	-0.044359673
21	0xbe090a8f	-0.13382934
22	0xbce8cd84	-0.02841831
23	0xbdf3b9e8	-0.11900693
24	0xbe988b37	-0.29793712
25	0xbe42c960	-0.19022131
26	0xbcf45eaf	-0.029830305
27	0xbd8a97ee	-0.067672595
28	0xbe88ef5c	-0.26745117
29	0xbe42aebe	-0.19011971
30	0x3dab6d56	0.083704636
31	0xbe3029b1	-0.17203404
32	0xbe020d07	-0.12700282
33	0xbdd5f7e1	-0.1044767
34	0x3e73fef0	0.2382772
35	0xbdec40f5	-0.11535827
36	0xbe3c9169	-0.18414845
37	0x3e29144f	0.16511653
38	0x3c9b553e	0.018961545
39	0xbe903c61	-0.28171065
40	0xbe703dbb	-0.23461048
41	0xbe196a9b	-0.14982073
42	0xbe1f869d	-0.15578695
43	0xbe11b8ef	-0.14230703
44	0xbe07600b	-0.13220231
45	0xbe16972b	-0.14706104
46	0xbde2fc26	-0.1108325
47	0xbe0c1fc9	-0.13684
48	0x3e498a02	0.19681552
49	0xbe6e2a18	-0.23258245
50	0xbd2e6671	-0.042578164
51	0x3dd2a730	0.10285795
52	0x3deaa560	0.11457324
53	0xbe38a677	-0.18032251
54	0xbe23cd79	-0.1599635
55	0x3cae3bd4	0.021268763
56	0x3e857bfa	0.2607115
57	0x3d75d695	0.060019094
58	0xbe5c51a6	-0.21515521
59	0xbe31235d	-0.17298646
60	0xbd9e42b5	-0.07727567
61	0x3dc44c88	0.0958491
62	0xbe5bc1b9	-0.21460618
63	0xbe90f475	-0.28311506
64	0x3ce73fcd	0.028228665
65	0xbe29c805	-0.16580208
66	0xbe435b5c	-0.1907782
67	0xbde02ac7	-0.10945659
68	0xbda2f51b	-0.079569064
69	0xbee7e1b5	-0.45289388
70	0xbe818e86	-0.2530405
71	0xbd03df20	-0.03219521
72	0xbd359b42	-0.04433752
73	0x3d60fe0d	0.05492978
74	0xbe02a3a3	-0.12757735
75	0xbdc35e19	-0.09539432
76	0xbe9d6f9b	-0.3074921
77	0xbecb3db7	-0.39695522
78	0xbcfc9f33	-0.03083763
79	0xbe1aa42a	-0.15101686
80	0xbe1d8cef	-0.15385793
81	0x3dbb72c5	0.0915275
82	0xbe4b2756	-0.19839224
83	0xbe3c8d89	-0.18413366
84	0xbe067f90	-0.13134599
85	0x3d4ebf99	0.05047569
86	0xbcae45bd	-0.021273488
87	0xbe1a132a	-0.15046373
88	0xbd799ef2	-0.060942598
89	0x3e293e15	0.16527589
90	0x3e085191	0.13312365
91	0xbe2c3768	-0.16818011
92	0xbd1caaf1	-0.03824896
93	0xbe59a92e	-0.21255943
94	0xbe2a0225	-0.1660238
95	0xbd72adbc	-0.059247717
96	0x3d956555	0.07294718
97	0xbe09aa00	-0.13443756
98	0x3e16ddbc	0.14733022
99	0xbe4ae867	-0.19815217
100	0xbe49c107	-0.1970254
101	0xbe24ddba	-0.16100207
102	0xbe19cf10	-0.15020394
103	0xbd9bdbae	-0.0761026
104	0x3b743505	0.0037263047
105	0xbe3457cb	-0.17611615
106	0x3d260455	0.040531475
107	0xbc655953	-0.013998347
108	0xbd6473e3	-0.05577458
109	0x3dc9a327	0.09845572
110	0xbd473f3c	-0.04864429
111	0x3d6bff03	0.057616245
112	0xbda9f0d9	-0.08297891
113	0xbd9c6697	-0.07636755
114	0x3d81b9bf	0.063342564
115	0xbe9a281e	-0.30108732
116	0xbe138d7c	-0.14409441
117	0x3ccf3fd1	0.025298985
118	0xbe63adac	-0.2223422
119	0xbd801312	-0.062536374
120	0x3e7082d4	0.23487407
121	0xbd87b753	-0.06626763
122	0xbe66fbaa	-0.2255694
123	0x3dc20562	0.09473683
124	0x3e32c161	0.1745658
125	0xbdb93860	-0.09043956
126	0xbe8f4287	-0.27980444
127	0xbdf2849d	-0.118417

bn1.weight f4 [128]
0	0x3f3c7bac	0.7362621
1	0x3da01268	0.07816011
2	0x3f703520	0.9383106
3	0x3f0a8326	0.54106367
4	0x3e95f7bc	0.2929057
5	0x3c405d00	0.011740923
6	0x3f1e49c6	0.6183132
7	0x3ebde960	0.37092113
8	0x3f1aea58	0.6051383
9	0x3dddd3e8	0.108314335
10	0x3f31a64b	0.6939437
11	0x3df1cd70	0.11806762
12	0x3f6588cb	0.89661855
13	0x3f07eada	0.5309273
14	0x3f3e5c95	0.7436002
15	0x3f4bff03	0.7968599
16	0x3f736d58	0.9508872
17	0x3f13b10f	0.57692045
18	0x3f66c749	0.90147835
19	0x3daccce8	0.0843752
20	0x3f5be89a	0.85901797
21	0x3f5de597	0.8667845
22	0x3e78629c	0.24256366
23	0x3e7694b8	0.24080169
24	0x3f699db8	0.91256285
25	0x3f66ddae	0.90182006
26	0x3dabb648	0.08384377
27	0x3f015f5c	0.5053613
28	0x3dfde110	0.12396443
29	0x3f4511e5	0.7698043
30	0x3da54ae8	0.08070928
31	0x3e838b9c	0.2569245
32	0x3f6144b4	0.8799546
33	0x3f6bf2fb	0.92167634
34	0x3f716c59	0.9430595
35	0x3f0d386a	0.55164206
36	0x3d6c0c80	0.05762911
37	0x3f5088f6	0.81458986
38	0x3f69cdd9	0.91329724
39	0x3f62a315	0.88530093
40	0x3f507e9d	0.81443197
41	0x3eeb95c8	0.46012712
42	0x3f404c18	0.7511611
43	0x3f1c041a	0.6094376
44	0x3e879b4a	0.26485664
45	0x3f532b81	0.82488257
46	0x3ea14a40	0.3150196
47	0x3f4ae927	0.7926201
48	0x3ee8ab20	0.45443058
49	0x3ee902c8	0.45509934
50	0x3f364b4c	0.71208644
51	0x3ede6b60	0.43441296
52	0x3f34df35	0.70653087
53	0x3d8771a0	0.06613469
54	0x3c7d2dc0	0.015452802
55	0x3f1106a1	0.5665074
56	0x3ec95702	0.39324194
57	0x3e90ebe0	0.28304958
58	0x3d54d8f0	0.0519647
59	0x3f0c6403	0.54840106
60	0x3e82d354	0.25551856
61	0x3f73ba8d	0.9520653
62	0x3dea9d70	0.1145581
63	0x3ea525e2	0.32255465
64	0x3ecf219a	0.40455323
65	0x3f172190	0.5903559
66	0x3d27d0d0	0.040970623
67	0x3f463943	0.77431124
68	0x3d019410	0.031635344
69	0x3e6f2158	0.23352563
70	0x3f196cfe	0.59931934
71	0x3eda46e2	0.42632204
72	0x3f0f9bbc	0.56097007
73	0x3b5de900	0.0033860803
74	0x3e17d354	0.14826709
75	0x3f556185	0.8335193
76	0x3f31d356	0.694631
77	0x3f37cd44	0.71797585
78	0x3f47e0ad	0.78077203
79	0x3f598279	0.8496471
80	0x3f3f0ab2	0.74625695
81	0x3eb15fd8	0.34643435
82	0x3e80a304	0.2512437
83	0x3e22fff4	0.15917951
84	0x3f25d95d	0.64784795
85	0x3ef8e59e	0.48612684
86	0x3e8501b0	0.2597785
87	0x3f4e1ee1	0.8051587
88	0x3f05387b	0.5203931
89	0x3ee4a502	0.4465714
90	0x3ebe29bc	0.37141216
91	0x3e0c4874	0.13699514
92	0x3f69b4e2	0.9129163
93	0x3c5b4940	0.013384163
94	0x3d2de7a0	0.042457223
95	0x3f19a0ad	0.60010797
96	0x3e8ccd82	0.2750054
97	0x3f5f0bc5	0.87127334
98	0x3ef727ae	0.4827246
99	0x3e87a246	0.26490992
100	0x3f0014eb	0.5003192
101	0x3ed7bac0	0.42134666
102	0x3ed78fcc	0.42101896
103	0x3ee3a662	0.44462878
104	0x3e2ee8d8	0.1708101
105	0x3eaea7a2	0.3411227
106	0x3c926fa0	0.017875493
107	0x3e36635c	0.1781134
108	0x3f096301	0.5366669
109	0x3f53dd87	0.827599
110	0x3ef453be	0.4772014
111	0x3f63e675	0.89023525
112	0x3dd76a30	0.105183005
113	0x3f2dc2da	0.67875445
114	0x3f1e5be8	0.6185899
115	0x3e98ad82	0.29819876
116	0x3f34978e	0.70543754
117	0x3e3d04d0	0.18458867
118	0x3f08f8fa	0.5350491
119	0x3f2b995d	0.6703089
120	0x3e891b68	0.26778722
121	0x3e173a28	0.14768279
122	0x3f521ae2	0.8207227
123	0x3dc58538	0.0964455
124	0x3f7e4c43	0.99335116
125	0x3ea34b70	0.31893492
126	0x3ed7f236	0.4217698
127	0x3e6fea40	0.23429203

bn1.bias f4 [128]
0	0x00000000	0.0
1	0x00000000	0.0
2	0x00000000	0.0
3	0x00000000	0.0
4	0x00000000	0.0
5	0x00000000	0.0
6	0x00000000	0.0
7	0x00000000	0.0
8	0x00000000	0.0
9	0x00000000	0.0
10	0x00000000	0.0
11	0x00000000	0.0
12	0x00000000	0.0
13	0x00000000	0.0
14	0x00000000	0.0
15	0x00000000	0.0
16	0x00000000	0.0
17	0x00000000	0.0
18	0x00000000	0.0
19	0x00000000	0.0
20	0x00000000	0.0
21	0x00000000	0.0
22	0x00000000	0.0
23	0x00000000	0.0
24	0x00000000	0.0
25	0x00000000	0.0
26	0x00000000	0.0
27	0x00000000	0.0
28	0x00000000	0.0
29	0x00000000	0.0
30	0x00000000	0.0
31	0x00000000	0.0
32	0x00000000	0.0
33	0x00000000	0.0
34	0x00000000	0.0
35	0x00000000	0.0
36	0x00000000	0.0
37	0x00000000	0.0
38	0x00000000	0.0
39	0x00000000	0.0
40	0x00000000	0.0
41	0x00000000	0.0
42	0x00000000	0.0
43	0x00000000	0.0
44	0x00000000	0.0
45	0x00000000	0.0
46	0x00000000	0.0
47	0x00000000	0.0
48	0x00000000	0.0
49	0x00000000	0.0
50	0x00000000	0.0
51	0x00000000	0.0
52	0x00000000	0.0
53	0x00000000	0.0
54	0x00000000	0.0
55	0x00000000	0.0
56	0x00000000	0.0
57	0x00000000	0.0
58	0x00000000	0.0
59	0x00000000	0.0
60	0x00000000	0.0
61	0x00000000	0.0
62	0x00000000	0.0
63	0x00000000	0.0
64	0x00000000	0.0
65	0x00000000	0.0
66	0x00000000	0.0
67	0x00000000	0.0
68	0x00000000	0.0
69	0x00000000	0.0
70	0x00000000	0.0
71	0x00000000	0.0
72	0x00000000	0.0
73	0x00000000	0.0
74	0x00000000	0.0
75	0x00000000	0.0
76	0x00000000	0.0
77	0x00000000	0.0
78	0x00000000	0.0
79	0x00000000	0.0
80	0x00000000	0.0
81	0x00000000	0.0
82	0x00000000	0.0
83	0x00000000	0.0
84	0x00000000	0.0
85	0x00000000	0.0
86	0x00000000	0.0
87	0x00000000	0.0
88	0x00000000	0.0
89	0x00000000	0.0
90	0x00000000	0.0
91	0x00000000	0.0
92	0x00000000	0.0
93	0x00000000	0.0
94	0x00000000	0.0
95	0x00000000	0.0
96	0x00000000	0.0
97	0x00000000	0.0
98	0x00000000	0.0
99	0x00000000	0.0
100	0x00000000	0.0
101	0x00000000	0.0
102	0x00000000	0.0
103	0x00000000	0.0
104	0x00000000	0.0
105	0x00000000	0.0
106	0x00000000	0.0
107	0x00000000	0.0
108	0x00000000	0.0
109	0x00000000	0.0
110	0x00000000	0.0
111	0x00000000	0.0
112	0x00000000	0.0
113	0x00000000	0.0
114	0x00000000	0.0
115	0x00000000	0.0
116	0x00000000	0.0
117	0x00000000	0.0
118	0x00000000	0.0
119	0x00000000	0.0
120	0x00000000	0.0
121	0x00000000	0.0
122	0x00000000	0.0
123	0x00000000	0.0
124	0x00000000	0.0
125	0x00000000	0.0
126	0x00000000	0.0
127	0x00000000	0.0

bn1.running_mean f4 [128]
0	0x00000000	0.0
1	0x00000000	0.0
2	0x00000000	0.0
3	0x00000000	0.0
4	0x00000000	0.0
5	0x00000000	0.0
6	0x00000000	0.0
7	0x00000000	0.0
8	0x00000000	0.0
9	0x00000000	0.0
10	0x00000000	0.0
11	0x00000000	0.0
12	0x00000000	0.0
13	0x00000000	0.0
14	0x00000000	0.0
15	0x00000000	0.0
16	0x00000000	0.0
17	0x00000000	0.0
18	0x00000000	0.0
19	0x00000000	0.0
20	0x00000000	0.0
21	0x00000000	0.0
22	0x00000000	0.0
23	0x00000000	0.0
24	0x00000000	0.0
25	0x00000000	0.0
26	0x00000000	0.0
27	0x00000000	0.0
28	0x00000000	0.0
29	0x00000000	0.0
30	0x00000000	0.0
31	0x00000000	0.0
32	0x00000000	0.0
33	0x00000000	0.0
34	0x00000000	0.0
35	0x00000000	0.0
36	0x00000000	0.0
37	0x00000000	0.0
38	0x00000000	0.0
39	0x00000000	0.0
40	0x00000000	0.0
41	0x00000000	0.0
42	0x00000000	0.0
43	0x00000000	0.0
44	0x00000000	0.0
45	0x00000000	0.0
46	0x00000000	0.0
47	0x00000000	0.0
48	0x00000000	0.0
49	0x00000000	0.0
50	0x00000000	0.0
51	0x00000000	0.0
52	0x00000000	0.0
53	0x00000000	0.0
54	0x00000000	0.0
55	0x00000000	0.0
56	0x00000000	0.0
57	0x00000000	0.0
58	0x00000000	0.0
59	0x00000000	0.0
60	0x00000000	0.0
61	0x00000000	0.0
62	0x00000000	0.0
63	0x00000000	0.0
64	0x00000000	0.0
65	0x00000000	0.0
66	0x00000000	0.0
67	0x00000000	0.0
68	0x00000000	0.0
69	0x00000000	0.0
70	0x00000000	0.0
71	0x00000000	0.0
72	0x00000000	0.0
73	0x00000000	0.0
74	0x00000000	0.0
75	0x00000000	0.0
76	0x00000000	0.0
77	0x00000000	0.0
78	0x00000000	0.0
79	0x00000000	0.0
80	0x00000000	0.0
81	0x00000000	0.0
82	0x00000000	0.0
83	0x00000000	0.0
84	0x00000000	0.0
85	0x00000000	0.0
86	0x00000000	0.0
87	0x00000000	0.0
88	0x00000000	0.0
89	0x00000000	0.0
90	0x00000000	0.0
91	0x00000000	0.0
92	0x00000000	0.0
93	0x00000000	0.0
94	0x00000000	0.0
95	0x00000000	0.0
96	0x00000000	0.0
97	0x00000000	0.0
98	0x00000000	0.0
99	0x00000000	0.0
100	0x00000000	0.0
101	0x00000000	0.0
102	0x00000000	0.0
103	0x00000000	0.0
104	0x00000000	0.0
105	0x00000000	0.0
106	0x00000000	0.0
107	0x00000000	0.0
108	0x00000000	0.0
109	0x00000000	0.0
110	0x00000000	0.0
111	0x00000000	0.0
112	0x00000000	0.0
113	0x00000000	0.0
114	0x00000000	0.0
115	0x00000000	0.0
116	0x00000000	0.0
117	0x00000000	0.0
118	0x00000000	0.0
119	0x00000000	0.0
120	0x00000000	0.0
121	0x00000000	0.0
122	0x00000000	0.0
123	0x00000000	0.0
124	0x00000000	0.0
125	0x00000000	0.0
126	0x00000000	0.0
127	0x00000000	0.0

bn1.running_var f4 [128]
0	0x3f800000	1.0
1	0x3f800000	1.0
2	0x3f800000	1.0
3	0x3f800000	1.0
4	0x3f800000	1.0
5	0x3f800000	1.0
6	0x3f800000	1.0
7	0x3f800000	1.0
8	0x3f800000	1.0
9	0x3f800000	1.0
10	0x3f800000	1.0
11	0x3f800000	1.0
12	0x3f800000	1.0
13	0x3f800000	1.0
14	0x3f800000	1.0
15	0x3f800000	1.0
16	0x3f800000	1.0
17	0x3f800000	1.0
18	0x3f800000	1.0
19	0x3f800000	1.0
20	0x3f800000	1.0
21	0x3f800000	1.0
22	0x3f800000	1.0
23	0x3f800000	1.0
24	0x3f800000	1.0
25	0x3f800000	1.0
26	0x3f800000	1.0
27	0x3f800000	1.0
28	0x3f800000	1.0
29	0x3f800000	1.0
30	0x3f800000	1.0
31	0x3f800000	1.0
32	0x3f800000	1.0
33	0x3f800000	1.0
34	0x3f800000	1.0
35	0x3f800000	1.0
36	0x3f800000	1.0
37	0x3f800000	1.0
38	0x3f800000	1.0
39	0x3f800000	1.0
40	0x3f800000	1.0
41	0x3f800000	1.0
42	0x3f800000	1.0
43	0x3f800000	1.0
44	0x3f800000	1.0
45	0x3f800000	1.0
46	0x3f800000	1.0
47	0x3f800000	1.0
48	0x3f800000	1.0
49	0x3f800000	1.0
50	0x3f800000	1.0
51	0x3f800000	1.0
52	0x3f800000	1.0
53	0x3f800000	1.0
54	0x3f800000	1.0
55	0x3f800000	1.0
56	0x3f800000	1.0
57	0x3f800000	1.0
58	0x3f800000	1.0
59	0x3f800000	1.0
60	0x3f800000	1.0
61	0x3f800000	1.0
62	0x3f800000	1.0
63	0x3f800000	1.0
64	0x3f800000	1.0
65	0x3f800000	1.0
66	0x3f800000	1.0
67	0x3f800000	1.0
68	0x3f800000	1.0
69	0x3f800000	1.0
70	0x3f800000	1.0
71	0x3f800000	1.0
72	0x3f800000	1.0
73	0x3f800000	1.0
74	0x3f800000	1.0
75	0x3f800000	1.0
76	0x3f800000	1.0
77	0x3f800000	1.0
78	0x3f800000	1.0
79	0x3f800000	1.0
80	0x3f800000	1.0
81	0x3f800000	1.0
82	0x3f800000	1.0
83	0x3f800000	1.0
84	0x3f800000	1.0
85	0x3f800000	1.0
86	0x3f800000	1.0
87	0x3f800000	1.0
88	0x3f800000	1.0
89	0x3f800000	1.0
90	0x3f800000	1.0
91	0x3f800000	1.0
92	0x3f800000	1.0
93	0x3f800000	1.0
94	0x3f800000	1.0
95	0x3f800000	1.0
96	0x3f800000	1.0
97	0x3f800000	1.0
98	0x3f800000	1.0
99	0x3f800000	1.0
100	0x3f800000	1.0
101	0x3f800000	1.0
102	0x3f800000	1.0
103	0x3f800000	1.0
104	0x3f800000	1.0
105	0x3f800000	1.0
106	0x3f800000	1.0
107	0x3f800000	1.0
108	0x3f800000	1.0
109	0x3f800000	1.0
110	0x3f800000	1.0
111	0x3f800000	1.0
112	0x3f800000	1.0
113	0x3f800000	1.0
114	0x3f800000	1.0
115	0x3f800000	1.0
116	0x3f800000	1.0
117	0x3f800000	1.0
118	0x3f800000	1.0
119	0x3f800000	1.0
120	0x3f800000	1.0
121	0x3f800000	1.0
122	0x3f800000	1.0
123	0x3f800000	1.0
124	0x3f800000	1.0
125	0x3f800000	1.0
126	0x3f800000	1.0
127	0x3f800000	1.0

fc2.weight f4 [64, 130]
0	0xbf641e00	-0.89108276
1	0x3d79c64b	0.060980123
2	0xbe27bc26	-0.16380367
3	0x3ead1c88	0.3381083
4	0xbda85a7f	-0.08220386
5	0xbf37cfbf	-0.7180137
6	0xbe91a915	-0.28449312
7	0x3ec058b7	0.37567684
8	0xbdd4d47f	-0.10392093
9	0xbea2a782	-0.31768423
10	0xbd005ddf	-0.031339522
11	0xbe3283d7	-0.17433105
12	0xbec13bc2	-0.37740904
13	0xbdfa2cfc	-0.12215611
14	0x3e6d5cd3	0.23179941
15	0x3d3dbfe9	0.046325598
16	0xbee02b62	-0.43783098
17	0xbe571d9c	-0.21007389
18	0x3da76f36	0.08175509
19	0xbe3270ab	-0.17425792
20	0x3e5db67c	0.21651644
21	0xbd5c0055	-0.053711254
22	0x3e0869ba	0.13321581
23	0x3e691c50	0.22764707
24	0xbe209b08	-0.1568414
25	0xbe6dd86d	-0.23227091
26	0xbe34b5c3	-0.17647462
27	0xbd5ef45a	-0.05443225
28	0x3e378fca	0.17925945
29	0xbe8b11d2	-0.27162033
30	0xbd83c641	-0.06434298
31	0xbf008741	-0.5020638
32	0x3d1dfe06	0.038572334
33	0x3e3ce0b6	0.18445095
34	0xbc45f566	-0.012082433
35	0xbecc3523	-0.3988429
36	0xbf503561	-0.8133145
37	0xbcb5441a	-0.0221272
38	0xbe108a48	-0.1411525
39	0xbf050dde	-0.51974285
40	0x3d9e08f5	0.07716552
41	0x3e4d50cf	0.20050357
42	0xbde3f17a	-0.111300424
43	0x3d698b97	0.05701789
44	0x3e0356d9	0.12826099
45	0xbcdbbd40	-0.02682364
46	0xbf13d79d	-0.57750875
47	0x3e16e042	0.14733985
48	0xbd837731	-0.06419218
49	0x3e83b079	0.25720575
50	0x3cebede8	0.028799966
51	0xbea80a09	-0.32820156
52	0x3d14f2bd	0.036364306
53	0x3ee6b3a1	0.4505892
54	0xbe3a98e2	-0.18222383
55	0x3daec505	0.08533672
56	0xbc278def	-0.010226711
57	0x3db76779	0.08955283
58	0xbec24cec	-0.37949312
59	0xbe65b6e9	-0.22433056
60	0x3d1eb1bf	0.03874373
61	0x3c54ea0c	0.012995254
62	0x3e01f4f9	0.12691106
63	0xbebde58a	-0.37089187
64	0xbe0f09b7	-0.1396855
65	0x3c41b135	0.011822035
66	0x3e883e7f	0.2661018
67	0x3dfbd9ad	0.12297378
68	0x3e825f7c	0.25463474
69	0x3eb13af5	0.34615293
70	0xbe1081b7	-0.14111982
71	0xbdd027ef	-0.10163867
72	0x3de0f5f1	0.109844096
73	0x3d656eff	0.056014057
74	0x3e90e179	0.28297022
75	0xbd918010	-0.07104504
76	0xbdeefdf6	-0.11669533
77	0xbc5340e3	-0.012893888
78	0x3c80b754	0.015712418
79	0x3e35dd55	0.17760213
80	0x38c6ceaa	9.47987e-05
81	0xbe34c69a	-0.17653885
82	0x3d5081c0	0.05090499
83	0xbd77f81a	-0.060539342
84	0x3e4a5a27	0.19760953
85	0x3de7ca69	0.113179035
86	0xbf761ef2	-0.9614097
87	0x3e22bcc6	0.15892324
88	0x3e78766b	0.24263923
89	0xbe82b7ea	-0.2553094
90	0x3be18d0c	0.006883269
91	0xbe3e8ee4	-0.18609196
92	0x3c97f186	0.018547785
93	0xbe8a9633	-0.27067718
94	0xbd3dc22f	-0.046327766
95	0xbe1db99c	-0.15402836
96	0x3d87c752	0.06629814
97	0x3dc60065	0.09668044
98	0x3da7af2f	0.081877105
99	0x3e58416b	0.21118705
100	0xbd0a70d0	-0.033798993
101	0xbe6cbcd3	-0.23118906
102	0x3d5aca0d	0.053415347
103	0xbe41e585	-0.18935211
104	0xbe35c483	-0.17750745
105	0x3e49fd06	0.19725427
106	0xbdc2d54a	-0.09513338
107	0x3e237ad6	0.15964827
108	0xbe2e6ac5	-0.17032917
109	0xbe9556e7	-0.29167864
110	0xbd904535	-0.0704445
111	0xbd3e0c99	-0.046398733
112	0x3e00de73	0.12584858
113	0xbdc1439d	-0.09436724
114	0x3e17a9f3	0.14810924
115	0x3e8b803b	0.2724627
116	0x3e74b438	0.23896873
117	0x3eb30b27	0.34969446
118	0xbde486d2	-0.111585274
119	0xbeb9d624	-0.3629619
120	0x3dc5a91e	0.09651397
121	0xbdc6caf4	-0.09706679
122	0x3d04783b	0.032341223
123	0xbeb24e6a	-0.3482545
124	0x3cc152a0	0.023598969
125	0x3db99246	0.090611026
126	0xbf9d3eea	-1.2284825
127	0x3e51804a	0.20459095
128	0xbc731873	-0.014837372
129	0xbaa03544	-0.0012222906
130	0xbcd399b2	-0.025830124
131	0xbe4319e5	-0.19052847
132	0xbe05dc79	-0.13072385
133	0xbd8a8533	-0.06763687
134	0xbe8edaef	-0.27901408
135	0xbe3627a7	-0.17788564
136	0xbe63719a	-0.22211304
137	0x3db93edb	0.09045192
138	0xbdccb7e9	-0.099960156
139	0xbdb9c3c9	-0.09070546
140	0xbd419baa	-0.047267593
141	0xbf102ebd	-0.56321317
142	0x3da428b2	0.080155745
143	0x3eadc8d1	0.33942273
144	0xbe829200	-0.25502014
145	0x3d9d4af4	0.07680312
146	0xbe68c2bd	-0.22730537
147	0x3c93d484	0.018045671
148	0xbde0ca92	-0.10976137
149	0xbe62d7f0	-0.22152686
150	0x3dfbea41	0.1230054
151	0xbe2b6cd2	-0.1674073
152	0xbda0985f	-0.078415625
153	0x3db69468	0.08915025
154	0x3ebb5903	0.36591348
155	0x3d135509	0.035969768
156	0xbd6713f1	-0.056415502
157	0x3cc3b8c9	0.023891823
158	0xbd2b4076	-0.04180952
159	0x3dbda3be	0.09259747
160	0xbcb923c2	-0.022600058
161	0xbc96c926	-0.018406462
162	0xbf3bc222	-0.733431
163	0x3d6d24af	0.057896312
164	0xbe12d2c5	-0.14338215
165	0xbf3a4a37	-0.7276949
166	0xbe008cbd	-0.12553687
167	0x3e364976	0.1780146
168	0x3e877f3f	0.2646427
169	0xbeb1c2f8	-0.34719062
170	0xbe3ed945	-0.18637569
171	0xbc36a0d4	-0.011146743
172	0xbe9bd4a8	-0.3043568
173	0x3dbd3368	0.092383206
174	0xbe733b23	-0.23753028
175	0xbda4cf57	-0.080473594
176	0xbe89de8d	-0.26927605
177	0xbe1a8c7f	-0.15092658
178	0x3e40e00d	0.18835469
179	0xbe008be7	-0.12553369
180	0xbda152d5	-0.07877127
181	0xbe1041b7	-0.14087568
182	0xbdb3a59b	-0.08771821
183	0x3c13530e	0.00899197
184	0xbd6e8e0c	-0.058240935
185	0x3cea107c	0.028572313
186	0x3d5be62e	0.053686313
187	0xbcc5ca2d	-0.024144256
188	0xbd0f2200	-0.034944534
189	0xbf3561e3	-0.7085249
190	0x3eaf12e5	0.34194103
191	0x3dc84746	0.09779219
192	0x3d9e6ce0	0.0773561
193	0xbe810fb0	-0.2520728
194	0x3c9d1cfe	0.019178864
195	0xbf0f441f	-0.5596332
196	0xbee8aae0	-0.45442867
197	0xbda2bd02	-0.07946207
198	0xbd88e282	-0.06683828
199	0xbe3d1c17	-0.18467747
200	0x3c9755b9	0.018473493
201	0xbec6a21d	-0.38795558
202	0xbccf2b62	-0.025289241
203	0x3e38f4b8	0.18062103
204	0xbd7418a8	-0.059593827
205	0xbd101489	-0.035175834
206	0x3db053f1	0.086097606
207	0xbdbce27f	-0.09222888
208	0xbcb41666	-0.021983337
209	0xbd80e007	-0.0629273
210	0xbeb66761	-0.35625747
211	0xbdc4719d	-0.095919825
212	0x3e25140c	0.16120929
213	0xbdb5f85e	-0.08885263
214	0xbdcd15f0	-0.1001395
215	0x3defab98	0.11702651
216	0x3dc625bf	0.09675168
217	0xbd42672d	-0.047461677
218	0xbc17ea00	-0.009272099
219	0xbd5b0b58	-0.053477615
220	0x3dcad562	0.09903981
221	0x3e999895	0.29999223
222	0xbda6ad5e	-0.08138536
223	0xbe039a0a	-0.1285173
224	0x3e4a6cf1	0.1976812
225	0xbd715931	-0.05892295
226	0x3dba5e0e	0.09099971
227	0x3ee11b2f	0.43966052
228	0xbeed76aa	-0.46379596
229	0xbe4bf19c	-0.19916385
230	0x3ecab3c3	0.39590272
231	0xbd31b0ab	-0.043381374
232	0x3d5bf3b1	0.0536992
233	0x3c9c7f13	0.019103562
234	0x3df64b67	0.120261006
235	0x3d492c26	0.04911437
236	0x3d6a1f81	0.05715895
237	0xbf0f300b	-0.5593268
238	0x3cffc487	0.031221641
239	0x3e702fa2	0.2345567
240	0x3d13dce0	0.036099315
241	0xbc83a45a	-0.01606958
242	0xbf43432c	-0.7627437
243	0xbdb385c7	-0.087657504
244	0xbd8a0a03	-0.06740191
245	0xbda14b36	-0.078756735
246	0xbefedb01	-0.49776462
247	0x3ccd5217	0.025063558
248	0xbe1f4b4d	-0.15556069
249	0xbd71599f	-0.05892336
250	0x3cba382c	0.022731863
251	0xbc85602a	-0.016281206
252	0x3f155a3d	0.5834082
253	0x3dc2792f	0.0949577
254	0x3c8e1e00	0.01734829
255	0x3e7a7581	0.24458887

fc2.bias f4 [64]
0	0x3c57e68e	0.013177527
1	0x3e527087	0.20550738
2	0xbd74948b	-0.059711974
3	0x3d881020	0.066437006
4	0x39986b94	0.0002907185
5	0xbca7b7db	-0.020473411
6	0xbcc8f40e	-0.024530437
7	0xbd4fb260	-0.05070722
8	0x3b61f339	0.0034477247
9	0x3e294388	0.16529667
10	0xbd4794b8	-0.048725814
11	0x3c902d02	0.017599586
12	0x3e92f837	0.28704998
13	0x3dc0dd06	0.09417157
14	0x3e2d9f26	0.16955242
15	0xbcca1ff4	-0.02467344
16	0x3db8aa7d	0.09016893
17	0x3dbe2f45	0.0928636
18	0xbd446c06	-0.04795458
19	0x3e260e85	0.16216476
20	0x3d4094e8	0.047017008
21	0x3e2276d8	0.15865648
22	0xbd455b97	-0.04818305
23	0x3e2c015e	0.16797397
24	0xbd802961	-0.062578924
25	0x3e24faa4	0.16111237
26	0xbd3ee6df	-0.046606895
27	0xbc914d62	-0.017737094
28	0x3d398e7d	0.045301903
29	0x3dabe272	0.083928004
30	0x3d8d030b	0.06885346
31	0xbe285c2a	-0.16441408
32	0x3d15a65c	0.036535606
33	0xbda15f57	-0.07879513
34	0x3dd7c315	0.10535256
35	0xbdada048	-0.08477837
36	0xbd6eaa38	-0.058267802
37	0x3cb9efa2	0.022697274
38	0x3dd9f82e	0.1064304
39	0x3ccc594b	0.024944922
40	0xbd570c54	-0.05250199
41	0xbdbe3d8e	-0.092890844
42	0xbe0f4884	-0.13992506
43	0x3d9a50a5	0.07534913
44	0x3c992261	0.018693151
45	0x3e349efb	0.17638771
46	0x3d4ae789	0.049537215
47	0x3c14e5da	0.009088004
48	0xbddc450b	-0.107553564
49	0x3c7a12b0	0.0152632445
50	0xbe062921	-0.13101627
51	0x3c57c185	0.013168697
52	0x3d52464c	0.05133657
53	0x3d484ed5	0.048903305
54	0x3d80aab8	0.06282562
55	0x3d782470	0.060581625
56	0xbc5be7f8	-0.013422005
57	0x3c96ea25	0.018422196
58	0x3cd24292	0.025666509
59	0xbd831b0b	-0.064016424
60	0x3cd12dd1	0.025534542
61	0x3e44dc20	0.19224596
62	0x3e23dacc	0.16001433
63	0xbdce3631	-0.1006893

bn2.weight f4 [64]
0	0x3d9cadb8	0.07650322
1	0x3da38c00	0.07985687
2	0x3f1d6f2d	0.61497766
3	0x3e98f570	0.29874754
4	0x3ef048ce	0.46930546
5	0x3e358d30	0.1772964
6	0x3f23649a	0.6382538
7	0x3f6c88f3	0.9239647
8	0x3e702948	0.23453248
9	0x3f0abb6f	0.5419225
10	0x3ee7afc0	0.45251274
11	0x3ee22716	0.44170445
12	0x3c9ac620	0.018893301
13	0x3dd82d28	0.10555488
14	0x3eb9f28e	0.36317867
15	0x3f3ef016	0.7458509
16	0x3f05fa6e	0.5233525
17	0x3d477ab0	0.04870099
18	0x3f76c8a2	0.9639989
19	0x3e9676a8	0.29387403
20	0x3daa7278	0.083226144
21	0x3f07b552	0.5301105
22	0x3e6502a4	0.22364289
23	0x3f71ba83	0.9442522
24	0x3e9c712a	0.30555087
25	0x3f0eb8f3	0.5575096
26	0x3dfd3b18	0.12364787
27	0x3cc25ca0	0.023725808
28	0x3ed38432	0.41311795
29	0x3f72b6a0	0.94809914
30	0x3f5de11b	0.8667161
31	0x3f0da6da	0.5533272
32	0x3f20547c	0.6262891
33	0x3f21e6a9	0.63242584
34	0x3f042f4e	0.5163468
35	0x3ebac418	0.36477733
36	0x3e99ee40	0.30064583
37	0x3e0a3988	0.13498509
38	0x3e2259a4	0.15854508
39	0x3f1d4e09	0.614472
40	0x3e6dc410	0.23219323
41	0x3f009e6d	0.5024174
42	0x3f0a062d	0.53915673
43	0x3f1d9778	0.6155925
44	0x3e2f68a0	0.17129755
45	0x3f68fe7a	0.910133
46	0x3f5d72ef	0.865035
47	0x3f7ae673	0.9800789
48	0x3e4e5ee0	0.2015338
49	0x3e79d448	0.24397385
50	0x3f647ed5	0.8925603
51	0x3f1c0835	0.6095002
52	0x3c0f6540	0.008752167
53	0x3f0c537d	0.54814893
54	0x3f19efb6	0.60131395
55	0x3ee71014	0.45129454
56	0x3eb60f2c	0.3555845
57	0x3d1543a0	0.036441445
58	0x3a869a00	0.0010269284
59	0x3f4a1001	0.7893067
60	0x3e8c5202	0.27406317
61	0x3f5af5b8	0.8553119
62	0x3f59ce50	0.8508043
63	0x3e73b58c	0.23799723

bn2.bias f4 [64]
0	0x00000000	0.0
1	0x00000000	0.0
2	0x00000000	0.0
3	0x00000000	0.0
4	0x00000000	0.0
5	0x00000000	0.0
6	0x00000000	0.0
7	0x00000000	0.0
8	0x00000000	0.0
9	0x00000000	0.0
10	0x00000000	0.0
11	0x00000000	0.0
12	0x00000000	0.0
13	0x00000000	0.0
14	0x00000000	0.0
15	0x00000000	0.0
16	0x00000000	0.0
17	0x00000000	0.0
18	0x00000000	0.0
19	0x00000000	0.0
20	0x00000000	0.0
21	0x00000000	0.0
22	0x00000000	0.0
23	0x00000000	0.0
24	0x00000000	0.0
25	0x00000000	0.0
26	0x00000000	0.0
27	0x00000000	0.0
28	0x00000000	0.0
29	0x00000000	0.0
30	0x00000000	0.0
31	0x00000000	0.0
32	0x00000000	0.0
33	0x00000000	0.0
34	0x00000000	0.0
35	0x00000000	0.0
36	0x00000000	0.0
37	0x00000000	0.0
38	0x00000000	0.0
39	0x00000000	0.0
40	0x00000000	0.0
41	0x00000000	0.0
42	0x00000000	0.0
43	0x00000000	0.0
44	0x00000000	0.0
45	0x00000000	0.0
46	0x00000000	0.0
47	0x00000000	0.0
48	0x00000000	0.0
49	0x00000000	0.0
50	0x00000000	0.0
51	0x00000000	0.0
52	0x00000000	0.0
53	0x00000000	0.0
54	0x00000000	0.0
55	0x00000000	0.0
56	0x00000000	0.0
57	0x00000000	0.0
58	0x00000000	0.0
59	0x00000000	0.0
60	0x00000000	0.0
61	0x00000000	0.0
62	0x00000000	0.0
63	0x00000000	0.0

bn2.running_mean f4 [64]
0	0x00000000	0.0
1	0x00000000	0.0
2	0x00000000	0.0
3	0x00000000	0.0
4	0x00000000	0.0
5	0x00000000	0.0
6	0x00000000	0.0
7	0x00000000	0.0
8	0x00000000	0.0
9	0x00000000	0.0
10	0x00000000	0.0
11	0x00000000	0.0
12	0x00000000	0.0
13	0x00000000	0.0
14	0x00000000	0.0
15	0x00000000	0.0
16	0x00000000	0.0
17	0x00000000	0.0
18	0x00000000	0.0
19	0x00000000	0.0
20	0x00000000	0.0
21	0x00000000	0.0
22	0x00000000	0.0
23	0x00000000	0.0
24	0x00000000	0.0
25	0x00000000	0.0
26	0x00000000	0.0
27	0x00000000	0.0
28	0x00000000	0.0
29	0x00000000	0.0
30	0x00000000	0.0
31	0x00000000	0.0
32	0x00000000	0.0
33	0x00000000	0.0
34	0x00000000	0.0
35	0x00000000	0.0
36	0x00000000	0.0
37	0x00000000	0.0
38	0x00000000	0.0
39	0x00000000	0.0
40	0x00000000	0.0
41	0x00000000	0.0
42	0x00000000	0.0
43	0x00000000	0.0
44	0x00000000	0.0
45	0x00000000	0.0
46	0x00000000	0.0
47	0x00000000	0.0
48	0x00000000	0.0
49	0x00000000	0.0
50	0x00000000	0.0
51	0x00000000	0.0
52	0x00000000	0.0
53	0x00000000	0.0
54	0x00000000	0.0
55	0x00000000	0.0
56	0x00000000	0.0
57	0x00000000	0.0
58	0x00000000	0.0
59	0x00000000	0.0
60	0x00000000	0.0
61	0x00000000	0.0
62	0x00000000	0.0
63	0x00000000	0.0

bn2.running_var f4 [64]
0	0x3f800000	1.0
1	0x3f800000	1.0
2	0x3f800000	1.0
3	0x3f800000	1.0
4	0x3f800000	1.0
5	0x3f800000	1.0
6	0x3f800000	1.0
7	0x3f800000	1.0
8	0x3f800000	1.0
9	0x3f800000	1.0
10	0x3f800000	1.0
11	0x3f800000	1.0
12	0x3f800000	1.0
13	0x3f800000	1.0
14	0x3f800000	1.0
15	0x3f800000	1.0
16	0x3f800000	1.0
17	0x3f800000	1.0
18	0x3f800000	1.0
19	0x3f800000	1.0
20	0x3f800000	1.0
21	0x3f800000	1.0
22	0x3f800000	1.0
23	0x3f800000	1.0
24	0x3f800000	1.0
25	0x3f800000	1.0
26	0x3f800000	1.0
27	0x3f800000	1.0
28	0x3f800000	1.0
29	0x3f800000	1.0
30	0x3f800000	1.0
31	0x3f800000	1.0
32	0x3f800000	1.0
33	0x3f800000	1.0
34	0x3f800000	1.0
35	0x3f800000	1.0
36	0x3f800000	1.0
37	0x3f800000	1.0
38	0x3f800000	1.0
39	0x3f800000	1.0
40	0x3f800000	1.0
41	0x3f800000	1.0
42	0x3f800000	1.0
43	0x3f800000	1.0
44	0x3f800000	1.0
45	0x3f800000	1.0
46	0x3f800000	1.0
47	0x3f800000	1.0
48	0x3f800000	1.0
49	0x3f800000	1.0
50	0x3f800000	1.0
51	0x3f800000	1.0
52	0x3f800000	1.0
53	0x3f800000	1.0
54	0x3f800000	1.0
55	0x3f800000	1.0
56	0x3f800000	1.0
57	0x3f800000	1.0
58	0x3f800000	1.0
59	0x3f800000	1.0
60	0x3f800000	1.0
61	0x3f800000	1.0
62	0x3f800000	1.0
63	0x3f800000	1.0

fc3.weight f4 [1, 64]
0	0x3e27145b	0.16316359
1	0xbd6de06b	-0.05807535
2	0xbeb3088f	-0.34967467
3	0x3e588e1e	0.21147963
4	0x3dee8cf5	0.11647979
5	0xbe071a40	-0.13193607
6	0x3e203050	0.1564343
7	0xbba0de4f	-0.0049093137
8	0xbe85c40e	-0.2612614
9	0xbd2bf9a5	-0.041986126
10	0xbe2ed0e6	-0.17071876
11	0x3da00cdc	0.07814953
12	0xbd86b8ba	-0.065782025
13	0x3de78586	0.113047644
14	0xbd7856ec	-0.06062977
15	0xbdf975df	-0.12180685
16	0xbd7071a7	-0.058702137
17	0x3e6795dd	0.22615762
18	0xbd6a4308	-0.057192832
19	0xbd91860b	-0.07105645
20	0x3e4c9630	0.19979167
21	0xbe044eef	-0.12920736
22	0xbe8ac886	-0.27106112
23	0xbd455e77	-0.04818579
24	0xbd66bcde	-0.05633246
25	0xbd5b48b9	-0.05353615
26	0x3efaec79	0.4900854
27	0xbdfd4dcc	-0.12368354
28	0xbd9a6f3b	-0.07540747
29	0x3e5f6c22	0.21818593
30	0x3e789c6e	0.24278423
31	0xbdccd6a9	-0.10001881
32	0xbd77659d	-0.06039964
33	0xbe2a5a33	-0.16635971
34	0xbde3b78e	-0.11118995
35	0xbda1a558	-0.07892865
36	0xbe28d1aa	-0.1648623
37	0xbe3086f5	-0.17238982
38	0xbe000a36	-0.12503895
39	0x3ec08f79	0.3760946
40	0xbe2fce7e	-0.17168614
41	0xbdc00ff2	-0.09378041
42	0x3cf59edc	0.029982977
43	0x3e1a834d	0.1508915
44	0x3f02d696	0.5110868
45	0x3e26af65	0.16277845
46	0x3da333c3	0.07968857
47	0x3e19b9a4	0.15012223
48	0xbcd993a6	-0.026559662
49	0xbe917131	-0.2840667
50	0xbe59af54	-0.21258289
51	0x3e816e09	0.25279263
52	0xbdfc9361	-0.12332798
53	0x3e1310c0	0.14361858
54	0xbdb08b9a	-0.08620377
55	0x3e39a04c	0.18127555
56	0xbde198ee	-0.11015497
57	0x3dfe70bc	0.12423846
58	0xbdaa55bd	-0.083171345
59	0xbdab0929	-0.083513565
60	0x3e098d88	0.13432896
61	0xbd8a9136	-0.06765978
62	0xbe5d16cc	-0.21590728
63	0x3e27a15b	0.16370146
