p3_collaboration_and_competition/weights/critic_1_400.pth (torch_old, 52380 bytes, 17 tensors)

bn0.weight f4 [24]
0	0x3f1d0d42	0.61348355
1	0x3ef1963f	0.4718494
2	0x3f26d84e	0.65173805
3	0x3ea8c643	0.32963762
4	0x3f84ab02	1.0364687
5	0x3f325c6b	0.6967227
6	0x3ec2e06e	0.3806185
7	0x3c46328c	0.012097012
8	0x3f1dadef	0.61593527
9	0x3e0a772b	0.13522021
10	0x3f162120	0.58644295
11	0x3e8d6895	0.27618852
12	0x3f6efd6a	0.9335543
13	0x3f6f3db2	0.93453515
14	0x3f22ff53	0.63670844
15	0x3edc4ead	0.43028775
16	0x3f36f24f	0.71463484
17	0x3e95ed9a	0.29282838
18	0x3eca96ce	0.3956818
19	0x3f142adc	0.578779
20	0x3f36c482	0.713936
21	0x3f19af66	0.6003326
22	0x3f0f9a29	0.56094605
23	0x3f1df254	0.6169789

bn0.bias f4 [24]
0	0x3d2756e0	0.040854335
1	0x3b234598	0.0024913307
2	0x3ce96a28	0.028493002
3	0x3c6f9e41	0.014625133
4	0x3d8858a6	0.06657533
5	0xbcdec2e5	-0.027192542
6	0x3b81f613	0.003966102
7	0x3d0fe173	0.035127115
8	0x3d2ac772	0.041694112
9	0x3d81e981	0.063433655
10	0x3dab483c	0.08363387
11	0x3d8aad18	0.06771296
12	0x3dfe800a	0.12426765
13	0xbd6c81cd	-0.057740975
14	0x3cfa4abe	0.030553218
15	0x3c51eea8	0.012813248
16	0x3d4a6366	0.0494112
17	0x3c90c450	0.017671734
18	0x3ce8d96b	0.028423985
19	0x3ca415c0	0.020029902
20	0x3dcaee95	0.09908787
21	0x3bc38ac4	0.00596747
22	0x3d2fa3ad	0.042880703
23	0x3ce68988	0.028141752

bn0.running_mean f4 [24]
0	0xc0d3b2fa	-6.6155977
1	0xbf9b6993	-1.2141594
2	0x3fceec35	1.6165835
3	0x3e011d36	0.126088
4	0xbc46546e	-0.012105091
5	0x4038e434	2.8889284
6	0x3fceec35	1.6165835
7	0x3e011d36	0.126088
8	0xc0dfec08	-6.9975624
9	0xbfa50807	-1.2893075
10	0x3fe454c9	1.7838374
11	0x3e091572	0.13387087
12	0x3c25ea4c	0.0101266615
13	0x40347d47	2.8201463
14	0x3fe454c9	1.7838374
15	0x3e091572	0.13387087
16	0xc0ebb5f7	-7.3659625
17	0xbfaeb292	-1.3648245
18	0x40063fbf	2.0976408
19	0x3dc59b95	0.096488155
20	0x3c22d52b	0.0099385185
21	0x402ccf48	2.7001514
22	0x40063fbf	2.0976408
23	0x3dc59b95	0.096488155

bn0.running_var f4 [24]
0	0x417729cc	15.447704
1	0x3f517f43	0.8183481
2	0x42f8eec3	124.46633
3	0x4056e314	3.3576097
4	0x42211b14	40.276443
5	0x40aa6f3a	5.3260775
6	0x42f8eec3	124.46633
7	0x4056e314	3.3576097
8	0x415bc3ab	13.7352705
9	0x3f468cac	0.775584
10	0x4307af14	135.6839
11	0x406b788e	3.679233
12	0x422e50c5	43.578876
13	0x40bec1d9	5.961163
14	0x4307af14	135.6839
15	0x406b788e	3.679233
16	0x413d4fad	11.831952
17	0x3f3871d4	0.7204869
18	0x43104fda	144.31192
19	0x40803759	4.0067563
20	0x423c134b	47.01884
21	0x40e0e55c	7.027998
22	0x43104fda	144.31192
23	0x40803759	4.0067563

fcs1.weight f4 [128, 24]
0	0x3d8acb37	0.067770414
1	0xbe3e7f5d	-0.18603273
2	0xbe242cdd	-0.16032739
3	0xbd67977c	-0.05654095
4	0x3f68c045	0.9091838
5	0x3e3ca989	0.18424048
6	0xbd28d811	-0.041221682
7	0xbab111fb	-0.0013509387
8	0xbcc03185	-0.023461113
9	0xbdba5b76	-0.09099476
10	0xbdd773c8	-0.105201304
11	0x3d74b5e4	0.059743777
12	0x3f4fb842	0.8114053
13	0x3ddcc548	0.10779816
14	0xbd995812	-0.07487501
15	0xbd8bc8a9	-0.06825382
16	0xbd4400ac	-0.047852203
17	0x3d30caa5	0.043162007
18	0xbd7d2da5	-0.06181111
19	0xbbf29e62	-0.0074041346
20	0x3ea8c520	0.32962894
21	0x3c8e9bb1	0.017408224
22	0xbe0c9bb3	-0.1373127
23	0x3ddb5c02	0.107109085
24	0x3d5258ed	0.051354337
25	0xbe0b9f24	-0.13634926
26	0x3c7f8e79	0.015597933
27	0x3c901047	0.017585887
28	0xbe49509a	-0.19659653
29	0x3d3f970a	0.0467749
30	0x3aaa4d86	0.0012993074
31	0xbcb0f2a0	-0.021600068
32	0xbd0f66f6	-0.0350103
33	0xbde7ebb2	-0.11324252
34	0xbe81113d	-0.25208464
35	0x3d0df030	0.03465289
36	0xbed2af72	-0.4114948
37	0x3d5ae55a	0.053441383
38	0xbe120ae3	-0.14261965
39	0x3d2b2a9d	0.041788686
40	0xbde36e57	-0.1110503
41	0xbd06458b	-0.032781165
42	0xbe35b28d	-0.17743893
43	0x3cbf61de	0.023362096
44	0xbf0d8fa6	-0.55297315
45	0x3ba1b5d7	0.004935007
46	0xbe2b0956	-0.1670278
47	0x3dab70da	0.08371134
48	0x3dd00fd5	0.1015927
49	0x3d39ec07	0.04539111
50	0x3d315be9	0.043300543
51	0x3d13d456	0.03609117
52	0x3dfbf5e9	0.12302763
53	0xbda85709	-0.08219726
54	0x3d0a60fa	0.03378389
55	0xbd145c04	-0.036220565
56	0x3d6eb420	0.05827725
57	0xbdc3bff2	-0.09558095
58	0xbd5fee37	-0.05467054
59	0xbd0860d4	-0.033295467
60	0x3e07f10e	0.13275549
61	0xbc49d0aa	-0.012317816
62	0xbd9a6ca8	-0.07540256
63	0x3d7d105a	0.061783172
64	0x3d147467	0.036243822
65	0xbe487a38	-0.19577873
66	0x3e209b1f	0.15684174
67	0xbd62df41	-0.055388693
68	0xbdbfe2ee	-0.09369455
69	0x3d061c82	0.03274203
70	0x3e02ac54	0.1276105
71	0xbce52ffa	-0.027976979
72	0xbe05d19b	-0.1306824
73	0xbd19676e	-0.037452154
74	0x3d84c8fa	0.06483646
75	0x3cdbfce4	0.026853986
76	0xbc7cef38	-0.015437894
77	0x3df2603b	0.11834761
78	0xbc22a125	-0.009926115
79	0xbd0cc2c0	-0.034365416
80	0xbdbdc890	-0.0926677
81	0xbdceaf95	-0.10092083
82	0x3e141295	0.14460213
83	0xbcdb3d64	-0.026762672
84	0x3d4962ad	0.04916637
85	0xbd045bf0	-0.03231424
86	0x3d636e16	0.055524908
87	0x3d1df89a	0.038567163
88	0xbcbb2596	-0.02284507
89	0xbd39d8df	-0.04537284
90	0xbdbb82bc	-0.09155795
91	0xbcd87514	-0.026423015
92	0xbd4a97a2	-0.049461015
93	0x3cdf9e46	0.02729715
94	0xbe226739	-0.15859689
95	0xbd4d299a	-0.050088502
96	0x3e9e57d0	0.3092637
97	0x3e26723e	0.16254517
98	0x3d5408f2	0.051766343
99	0x3cf02cc1	0.029318215
100	0x3e6a396f	0.22873472
101	0x3e529078	0.20562923
102	0xbcf364ef	-0.029711215
103	0xbcdded57	-0.027090712
104	0x3e21414a	0.15747562
105	0x3e26f882	0.16305736
106	0x3d6e33a5	0.05815472
107	0xbcaa7bf0	-0.020811051
108	0x3e12e3cf	0.14344715
109	0x3db1512e	0.08658062
110	0x3da96458	0.08271092
111	0xbd9177f5	-0.07102958
112	0x3e0a1bd7	0.13487183
113	0x3db7a502	0.089670196
114	0xbdc9d8d1	-0.098558076
115	0xbc8bd07d	-0.017067188
116	0xbe190c03	-0.14945988
117	0x3db2159d	0.08695529
118	0xbdb19fe1	-0.086730726
119	0xbdedca3d	-0.116108395
120	0x3d56d12f	0.052445587
121	0x3d9b2b98	0.07576674
122	0xbe2f6e69	-0.17131962
123	0xbd851a77	-0.064991884
124	0x3be42e54	0.0069635306
125	0xbd120c58	-0.035656303
126	0xbd79c342	-0.060977228
127	0xbd75181c	-0.059837446
128	0x3ce5d1d4	0.028054155
129	0x3d4d03d6	0.050052486
130	0xbd9748fc	-0.073869675
131	0x3dd48322	0.10376574
132	0xbd0714c1	-0.032978777
133	0xbc074fd2	-0.008258777
134	0xbd2170fe	-0.0394144
135	0x3b04debc	0.0020274362
136	0xbdc8c58f	-0.09803306
137	0x3cfad84b	0.030620715
138	0xbd44c226	-0.048036717
139	0x3e18d910	0.14926553
140	0xbdcb4650	-0.099255204
141	0xbe652191	-0.22376086
142	0xbcd266b6	-0.025683742
143	0x3e1d2e27	0.15349637
144	0x3dd188ed	0.10231195
145	0x3df7e36c	0.12103924
146	0xbbd0311b	-0.00635351
147	0xbe1cac39	-0.15300073
148	0xbc8a579c	-0.016887479
149	0x3d7457b5	0.059653956
150	0xbc5ecb28	-0.013598241
151	0xbd3a6be7	-0.04551306
152	0x3d670661	0.056402568
153	0xbdb58b58	-0.08864468
154	0x3daacab2	0.08339442
155	0xbd982b94	-0.07430187
156	0x3dbc1e56	0.091854736
157	0xbdc61f89	-0.096739836
158	0x3c9d9ccf	0.019239811
159	0x3ce8fd07	0.028440965
160	0xbd76e1ee	-0.060274057
161	0x3d5a08ed	0.05323117
162	0x3d33fb4d	0.04394083
163	0xbdfdfeee	-0.124021396
164	0xbd9fdea3	-0.078061365
165	0xbe6dc979	-0.23221387
166	0x3c3714cb	0.011174391
167	0xbdb7204f	-0.08941709
168	0x3c744777	0.014909617
169	0xbeaca006	-0.33715838
170	0x3d4149dd	0.047189582
171	0x3c0e7784	0.008695487
172	0xbe752090	-0.23938203
173	0xbe3735e8	-0.17891657
174	0x3d637438	0.055530757
175	0x3d6adead	0.057341266
176	0x3d40effe	0.047103874
177	0xbe4e1462	-0.20124963
178	0x3de27f10	0.110593915
179	0x3dcdcc90	0.10048783
180	0xbeb5b8a7	-0.3549244
181	0x3cf80a69	0.030278401
182	0x3d010983	0.03150321
183	0x3e15a0cd	0.14612122
184	0xbd916fbe	-0.07101391
185	0xbe8f88d7	-0.28034088
186	0xbe5bdde7	-0.21471368
187	0x3a87d984	0.0010364507
188	0xbe8e4894	-0.27789748
189	0x3e2cec64	0.16887051
190	0xbde99edb	-0.114072524
191	0x3db094a4	0.08622101
192	0xbd126139	-0.03573725
193	0x3dfacf0e	0.12246524
194	0xbd6289a8	-0.05530706
195	0x3ae99ad6	0.0017822634
196	0x3e4dd269	0.20099796
197	0x3d0f4d78	0.03498599
198	0xbdee9a3c	-0.116505116
199	0xbd7c351c	-0.061574087
200	0x3e03eb8b	0.12882821
201	0x3d8ada90	0.06779969
202	0x3d5fa584	0.054601207
203	0x3cc4aa05	0.024006853
204	0x3e1fe16f	0.1561334
205	0xbdc0c41c	-0.09412405
206	0x3dd0bea5	0.101926126
207	0xbdcbaf0b	-0.09945496
208	0xbd181492	-0.037128992
209	0x3e06ad76	0.13152108
210	0xbc95cc47	-0.018285884
211	0xbc0864c7	-0.008324808
212	0x3dd42fc3	0.10360672
213	0x3e5502ad	0.20801802
214	0xbd87033f	-0.06592416
215	0xbd1a67c3	-0.03769661
216	0xbd22040d	-0.039554644
217	0xbd90dc2a	-0.07073243
218	0xbe758e62	-0.23980096
219	0xbb2aca74	-0.0026060613
220	0x3e277217	0.16352116
221	0xbd538a69	-0.05164567
222	0xbe5ad0c3	-0.21368699
223	0xbdbe3412	-0.092872754
224	0x3db25780	0.087080956
225	0xbe167e53	-0.14696626
226	0xbde07eac	-0.10961661
227	0x3d8820b5	0.06646863
228	0x3c047db8	0.008086614
229	0x3c5b75d7	0.013394794
230	0xbdda7cf9	-0.10668368
231	0x3b098c4c	0.0020988164
232	0x3dd41db4	0.10357228
233	0xb96cf3e0	-0.00022597564
234	0x3e882f9a	0.26598817
235	0x3db13cce	0.08654176
236	0xbdd4200c	-0.10357675
237	0xbdb958aa	-0.090501145
238	0x3e213c0b	0.15745561
239	0x3df67af4	0.1203517
240	0xba8a99fc	-0.0010574455
241	0xbdec5c33	-0.11541023
242	0x3c00d648	0.007863589
243	0xbd963610	-0.0733453
244	0x3d89f50d	0.06736193
245	0xbd13086d	-0.035896707
246	0xbd5e5fc9	-0.054290567
247	0xbd12650a	-0.03574089
248	0xbd8cec73	-0.068810366
249	0xbd239837	-0.039940085
250	0x3e13b864	0.14425808
251	0xbd24fd8a	-0.040280856
252	0x3d85f395	0.065406
253	0xbd364696	-0.04450091
254	0x3e51c357	0.20484672
255	0x3ccfcbd2	0.025365744

fcs1.bias f4 [128]
0	0xbe2865a6	-0.16445026
1	0xbe800954	-0.25007117
2	0x3da498d2	0.08036961
3	0x3d2fb232	0.04289455
4	0xbe1d746d	-0.15376444
5	0xbe5b5999	-0.21420898
6	0xbe8031b1	-0.25037912
7	0xbdee3caa	-0.116326645
8	0x3d118e4c	0.035536095
9	0xbe1bf65e	-0.152307
10	0xbc949cd1	-0.018141182
11	0xbd0adcae	-0.033901863
12	0x3db2d5f4	0.087322146
13	0xbc85049d	-0.016237551
14	0xbc629e8b	-0.013831745
15	0xbd3789c5	-0.04480912
16	0xbca1543e	-0.01969349
17	0xbda91857	-0.082565956
18	0x3c3aea40	0.011408389
19	0xbe147782	-0.14498714
20	0xbcc71bd6	-0.024305265
21	0xbd2e3473	-0.04253049
22	0x3d5373e8	0.05162421
23	0xbe035f11	-0.12829234
24	0xbe847410	-0.258698
25	0xbdafbba1	-0.08580709
26	0x3de4fb57	0.11180752
27	0x3d53b4e8	0.051686198
28	0xbd7387b1	-0.059455577
29	0xbd1645ab	-0.036687534
30	0x3dfc1d95	0.1231033
31	0xbe740393	-0.23829488
32	0xbdc81148	-0.09768921
33	0xbb937a08	-0.0045006312
34	0x3e0cd2ec	0.13752335
35	0x3c9dcff6	0.019264203
36	0xbe09929e	-0.13434836
37	0x3dc0e24d	0.094181634
38	0x3d70090a	0.05860237
39	0xbe40791f	-0.18796204
40	0xbe577be1	-0.2104335
41	0xbcab9e04	-0.020949371
42	0xbe0defea	-0.13861051
43	0xbd92233b	-0.07135626
44	0xbe1ffcf0	-0.15623832
45	0x3d2644b3	0.04059286
46	0xbe0820cb	-0.1329376
47	0xbc9f96d9	-0.01948111
48	0x3df674a4	0.12033966
49	0xbe8681e8	-0.26270986
50	0x3c8896b3	0.016673421
51	0x3e1ad756	0.15121207
52	0x3e4bad03	0.19890217
53	0xbdcb387b	-0.09922882
54	0x3d66ec8d	0.056377936
55	0x3dc3bd66	0.09557609
56	0x3e65d3c5	0.22444065
57	0x3d42e66e	0.047583036
58	0xbdd0fb15	-0.1020414
59	0xbe0baf2c	-0.13641042
60	0xbd5772a3	-0.05259956
61	0x3d4400e3	0.04785241
62	0xbe4e4c0c	-0.20146197
63	0xbe7a8a95	-0.24466927
64	0x3e05f42e	0.13081428
65	0xbe36e1e4	-0.17859608
66	0xbe1fe4ad	-0.15614577
67	0xbd50d4e8	-0.050984293
68	0xbd72ed2b	-0.059308212
69	0xbe45900d	-0.19293232
70	0xbdafbb34	-0.08580628
71	0x3ca4e5fc	0.020129196
72	0x3dc6fb7d	0.09715936
73	0x3e522f1d	0.20525785
74	0xbd579ba7	-0.052638676
75	0xbdf56514	-0.1198217
76	0xbe61ca03	-0.22049718
77	0xbe3b5368	-0.18293536
78	0xbe0a2a31	-0.13492657
79	0xbe05ab88	-0.13053715
80	0xbe09499e	-0.13406989
81	0x3dfff5c2	0.124980465
82	0xbe1120dd	-0.14172693
83	0xbe092a42	-0.13395026
84	0xbe2464e6	-0.16054115
85	0x3dda8345	0.10669569
86	0xbdc9228c	-0.098210424
87	0xbcb3b7fe	-0.02193832
88	0x3d3d0355	0.046145756
89	0x3d47403a	0.048645236
90	0x3dec6a80	0.11543751
91	0xbdad36b4	-0.084576994
92	0x3d99af74	0.07504168
93	0xbe4abfb7	-0.19799696
94	0xbe1efbc4	-0.15525728
95	0xbb972578	-0.004612621
96	0x3d5a838e	0.053348117
97	0xbcde3b95	-0.02712802
98	0x3e0364d6	0.12831435
99	0xbd1985a6	-0.037480973
100	0xbd81efba	-0.06344552
101	0xbd8ea5a2	-0.06965186
102	0xbd84a853	-0.06477418
103	0x3b0a9264	0.0021144385
104	0x3e06c82e	0.131623
105	0xbe558586	-0.20851716
106	0x3d15696c	0.03647749
107	0x3e1b9e57	0.1519712
108	0xbd4595b0	-0.048238456
109	0x3db60801	0.088882454
110	0xbd2cca66	-0.04218521
111	0x3df67253	0.12033524
112	0xbd3931ee	-0.045213632
113	0x3dc97b01	0.09837914
114	0xbd1dfaf1	-0.038569394
115	0xbe9d95b8	-0.3077829
116	0xbe009b03	-0.12559132
117	0x3cf4899f	0.02985078
118	0xbcd6d1fd	-0.026223177
119	0xbd43cb7a	-0.047801472
120	0x3e3984fc	0.18117136
121	0xbd43b630	-0.04778117
122	0xbe108bc4	-0.14115816
123	0x3d68c547	0.056828763
124	0x3e470c36	0.19438252
125	0x393608aa	0.000173601
126	0xbe42417d	-0.18970294
127	0x3d999c03	0.0750046

bn1.weight f4 [128]
0	0x3f3c7bac	0.7362621
1	0x3da01268	0.07816011
2	0x3f703520	0.9383106
3	0x3f0a8326	0.54106367
4	0x3e95f7bc	0.2929057
5	0x3c405d00	0.011740923
6	0x3f1e49c6	0.6183132
7	0x3ebde960	0.37092113
8	0x3f1aea58	0.6051383
9	0x3dddd3e8	0.108314335
10	0x3f31a64b	0.6939437
11	0x3df1cd70	0.11806762
12	0x3f6588cb	0.89661855
13	0x3f07eada	0.5309273
14	0x3f3e5c95	0.7436002
15	0x3f4bff03	0.7968599
16	0x3f736d58	0.9508872
17	0x3f13b10f	0.57692045
18	0x3f66c749	0.90147835
19	0x3daccce8	0.0843752
20	0x3f5be89a	0.85901797
21	0x3f5de597	0.8667845
22	0x3e78629c	0.24256366
23	0x3e7694b8	0.24080169
24	0x3f699db8	0.91256285
25	0x3f66ddae	0.90182006
26	0x3dabb648	0.08384377
27	0x3f015f5c	0.5053613
28	0x3dfde110	0.12396443
29	0x3f4511e5	0.7698043
30	0x3da54ae8	0.08070928
31	0x3e838b9c	0.2569245
32	0x3f6144b4	0.8799546
33	0x3f6bf2fb	0.92167634
34	0x3f716c59	0.9430595
35	0x3f0d386a	0.55164206
36	0x3d6c0c80	0.05762911
37	0x3f5088f6	0.81458986
38	0x3f69cdd9	0.91329724
39	0x3f62a315	0.88530093
40	0x3f507e9d	0.81443197
41	0x3eeb95c8	0.46012712
42	0x3f404c18	0.7511611
43	0x3f1c041a	0.6094376
44	0x3e879b4a	0.26485664
45	0x3f532b81	0.82488257
46	0x3ea14a40	0.3150196
47	0x3f4ae927	0.7926201
48	0x3ee8ab20	0.45443058
49	0x3ee902c8	0.45509934
50	0x3f364b4c	0.71208644
51	0x3ede6b60	0.43441296
52	0x3f34df35	0.70653087
53	0x3d8771a0	0.06613469
54	0x3c7d2dc0	0.015452802
55	0x3f1106a1	0.5665074
56	0x3ec95702	0.39324194
57	0x3e90ebe0	0.28304958
58	0x3d54d8f0	0.0519647
59	0x3f0c6403	0.54840106
60	0x3e82d354	0.25551856
61	0x3f73ba8d	0.9520653
62	0x3dea9d70	0.1145581
63	0x3ea525e2	0.32255465
64	0x3ecf219a	0.40455323
65	0x3f172190	0.5903559
66	0x3d27d0d0	0.040970623
67	0x3f463943	0.77431124
68	0x3d019410	0.031635344
69	0x3e6f2158	0.23352563
70	0x3f196cfe	0.59931934
71	0x3eda46e2	0.42632204
72	0x3f0f9bbc	0.56097007
73	0x3b5de900	0.0033860803
74	0x3e17d354	0.14826709
75	0x3f556185	0.8335193
76	0x3f31d356	0.694631
77	0x3f37cd44	0.71797585
78	0x3f47e0ad	0.78077203
79	0x3f598279	0.8496471
80	0x3f3f0ab2	0.74625695
81	0x3eb15fd8	0.34643435
82	0x3e80a304	0.2512437
83	0x3e22fff4	0.15917951
84	0x3f25d95d	0.64784795
85	0x3ef8e59e	0.48612684
86	0x3e8501b0	0.2597785
87	0x3f4e1ee1	0.8051587
88	0x3f05387b	0.5203931
89	0x3ee4a502	0.4465714
90	0x3ebe29bc	0.37141216
91	0x3e0c4874	0.13699514
92	0x3f69b4e2	0.9129163
93	0x3c5b4940	0.013384163
94	0x3d2de7a0	0.042457223
95	0x3f19a0ad	0.60010797
96	0x3e8ccd82	0.2750054
97	0x3f5f0bc5	0.87127334
98	0x3ef727ae	0.4827246
99	0x3e87a246	0.26490992
100	0x3f0014eb	0.5003192
101	0x3ed7bac0	0.42134666
102	0x3ed78fcc	0.42101896
103	0x3ee3a662	0.44462878
104	0x3e2ee8d8	0.1708101
105	0x3eaea7a2	0.3411227
106	0x3c926fa0	0.017875493
107	0x3e36635c	0.1781134
108	0x3f096301	0.5366669
109	0x3f53dd87	0.827599
110	0x3ef453be	0.4772014
111	0x3f63e675	0.89023525
112	0x3dd76a30	0.105183005
113	0x3f2dc2da	0.67875445
114	0x3f1e5be8	0.6185899
115	0x3e98ad82	0.29819876
116	0x3f34978e	0.70543754
117	0x3e3d04d0	0.18458867
118	0x3f08f8fa	0.5350491
119	0x3f2b995d	0.6703089
120	0x3e891b68	0.26778722
121	0x3e173a28	0.14768279
122	0x3f521ae2	0.8207227
123	0x3dc58538	0.0964455
124	0x3f7e4c43	0.99335116
125	0x3ea34b70	0.31893492
126	0x3ed7f236	0.4217698
127	0x3e6fea40	0.23429203

bn1.bias f4 [128]
0	0x00000000	0.0
1	0x00000000	0.0
2	0x00000000	0.0
3	0x00000000	0.0
4	0x00000000	0.0
5	0x00000000	0.0
6	0x00000000	0.0
7	0x00000000	0.0
8	0x00000000	0.0
9	0x00000000	0.0
10	0x00000000	0.0
11	0x00000000	0.0
12	0x00000000	0.0
13	0x00000000	0.0
14	0x00000000	0.0
15	0x00000000	0.0
16	0x00000000	0.0
17	0x00000000	0.0
18	0x00000000	0.0
19	0x00000000	0.0
20	0x00000000	0.0
21	0x00000000	0.0
22	0x00000000	0.0
23	0x00000000	0.0
24	0x00000000	0.0
25	0x00000000	0.0
26	0x00000000	0.0
27	0x00000000	0.0
28	0x00000000	0.0
29	0x00000000	0.0
30	0x00000000	0.0
31	0x00000000	0.0
32	0x00000000	0.0
33	0x00000000	0.0
34	0x00000000	0.0
35	0x00000000	0.0
36	0x00000000	0.0
37	0x00000000	0.0
38	0x00000000	0.0
39	0x00000000	0.0
40	0x00000000	0.0
41	0x00000000	0.0
42	0x00000000	0.0
43	0x00000000	0.0
44	0x00000000	0.0
45	0x00000000	0.0
46	0x00000000	0.0
47	0x00000000	0.0
48	0x00000000	0.0
49	0x00000000	0.0
50	0x00000000	0.0
51	0x00000000	0.0
52	0x00000000	0.0
53	0x00000000	0.0
54	0x00000000	0.0
55	0x00000000	0.0
56	0x00000000	0.0
57	0x00000000	0.0
58	0x00000000	0.0
59	0x00000000	0.0
60	0x00000000	0.0
61	0x00000000	0.0
62	0x00000000	0.0
63	0x00000000	0.0
64	0x00000000	0.0
65	0x00000000	0.0
66	0x00000000	0.0
67	0x00000000	0.0
68	0x00000000	0.0
69	0x00000000	0.0
70	0x00000000	0.0
71	0x00000000	0.0
72	0x00000000	0.0
73	0x00000000	0.0
74	0x00000000	0.0
75	0x00000000	0.0
76	0x00000000	0.0
77	0x00000000	0.0
78	0x00000000	0.0
79	0x00000000	0.0
80	0x00000000	0.0
81	0x00000000	0.0
82	0x00000000	0.0
83	0x00000000	0.0
84	0x00000000	0.0
85	0x00000000	0.0
86	0x00000000	0.0
87	0x00000000	0.0
88	0x00000000	0.0
89	0x00000000	0.0
90	0x00000000	0.0
91	0x00000000	0.0
92	0x00000000	0.0
93	0x00000000	0.0
94	0x00000000	0.0
95	0x00000000	0.0
96	0x00000000	0.0
97	0x00000000	0.0
98	0x00000000	0.0
99	0x00000000	0.0
100	0x00000000	0.0
101	0x00000000	0.0
102	0x00000000	0.0
103	0x00000000	0.0
104	0x00000000	0.0
105	0x00000000	0.0
106	0x00000000	0.0
107	0x00000000	0.0
108	0x00000000	0.0
109	0x00000000	0.0
110	0x00000000	0.0
111	0x00000000	0.0
112	0x00000000	0.0
113	0x00000000	0.0
114	0x00000000	0.0
115	0x00000000	0.0
116	0x00000000	0.0
117	0x00000000	0.0
118	0x00000000	0.0
119	0x00000000	0.0
120	0x00000000	0.0
121	0x00000000	0.0
122	0x00000000	0.0
123	0x00000000	0.0
124	0x00000000	0.0
125	0x00000000	0.0
126	0x00000000	0.0
127	0x00000000	0.0

bn1.running_mean f4 [128]
0	0x00000000	0.0
1	0x00000000	0.0
2	0x00000000	0.0
3	0x00000000	0.0
4	0x00000000	0.0
5	0x00000000	0.0
6	0x00000000	0.0
7	0x00000000	0.0
8	0x00000000	0.0
9	0x00000000	0.0
10	0x00000000	0.0
11	0x00000000	0.0
12	0x00000000	0.0
13	0x00000000	0.0
14	0x00000000	0.0
15	0x00000000	0.0
16	0x00000000	0.0
17	0x00000000	0.0
18	0x00000000	0.0
19	0x00000000	0.0
20	0x00000000	0.0
21	0x00000000	0.0
22	0x00000000	0.0
23	0x00000000	0.0
24	0x00000000	0.0
25	0x00000000	0.0
26	0x00000000	0.0
27	0x00000000	0.0
28	0x00000000	0.0
29	0x00000000	0.0
30	0x00000000	0.0
31	0x00000000	0.0
32	0x00000000	0.0
33	0x00000000	0.0
34	0x00000000	0.0
35	0x00000000	0.0
36	0x00000000	0.0
37	0x00000000	0.0
38	0x00000000	0.0
39	0x00000000	0.0
40	0x00000000	0.0
41	0x00000000	0.0
42	0x00000000	0.0
43	0x00000000	0.0
44	0x00000000	0.0
45	0x00000000	0.0
46	0x00000000	0.0
47	0x00000000	0.0
48	0x00000000	0.0
49	0x00000000	0.0
50	0x00000000	0.0
51	0x00000000	0.0
52	0x00000000	0.0
53	0x00000000	0.0
54	0x00000000	0.0
55	0x00000000	0.0
56	0x00000000	0.0
57	0x00000000	0.0
58	0x00000000	0.0
59	0x00000000	0.0
60	0x00000000	0.0
61	0x00000000	0.0
62	0x00000000	0.0
63	0x00000000	0.0
64	0x00000000	0.0
65	0x00000000	0.0
66	0x00000000	0.0
67	0x00000000	0.0
68	0x00000000	0.0
69	0x00000000	0.0
70	0x00000000	0.0
71	0x00000000	0.0
72	0x00000000	0.0
73	0x00000000	0.0
74	0x00000000	0.0
75	0x00000000	0.0
76	0x00000000	0.0
77	0x00000000	0.0
78	0x00000000	0.0
79	0x00000000	0.0
80	0x00000000	0.0
81	0x00000000	0.0
82	0x00000000	0.0
83	0x00000000	0.0
84	0x00000000	0.0
85	0x00000000	0.0
86	0x00000000	0.0
87	0x00000000	0.0
88	0x00000000	0.0
89	0x00000000	0.0
90	0x00000000	0.0
91	0x00000000	0.0
92	0x00000000	0.0
93	0x00000000	0.0
94	0x00000000	0.0
95	0x00000000	0.0
96	0x00000000	0.0
97	0x00000000	0.0
98	0x00000000	0.0
99	0x00000000	0.0
100	0x00000000	0.0
101	0x00000000	0.0
102	0x00000000	0.0
103	0x00000000	0.0
104	0x00000000	0.0
105	0x00000000	0.0
106	0x00000000	0.0
107	0x00000000	0.0
108	0x00000000	0.0
109	0x00000000	0.0
110	0x00000000	0.0
111	0x00000000	0.0
112	0x00000000	0.0
113	0x00000000	0.0
114	0x00000000	0.0
115	0x00000000	0.0
116	0x00000000	0.0
117	0x00000000	0.0
118	0x00000000	0.0
119	0x00000000	0.0
120	0x00000000	0.0
121	0x00000000	0.0
122	0x00000000	0.0
123	0x00000000	0.0
124	0x00000000	0.0
125	0x00000000	0.0
126	0x00000000	0.0
127	0x00000000	0.0

bn1.running_var f4 [128]
0	0x3f800000	1.0
1	0x3f800000	1.0
2	0x3f800000	1.0
3	0x3f800000	1.0
4	0x3f800000	1.0
5	0x3f800000	1.0
6	0x3f800000	1.0
7	0x3f800000	1.0
8	0x3f800000	1.0
9	0x3f800000	1.0
10	0x3f800000	1.0
11	0x3f800000	1.0
12	0x3f800000	1.0
13	0x3f800000	1.0
14	0x3f800000	1.0
15	0x3f800000	1.0
16	0x3f800000	1.0
17	0x3f800000	1.0
18	0x3f800000	1.0
19	0x3f800000	1.0
20	0x3f800000	1.0
21	0x3f800000	1.0
22	0x3f800000	1.0
23	0x3f800000	1.0
24	0x3f800000	1.0
25	0x3f800000	1.0
26	0x3f800000	1.0
27	0x3f800000	1.0
28	0x3f800000	1.0
29	0x3f800000	1.0
30	0x3f800000	1.0
31	0x3f800000	1.0
32	0x3f800000	1.0
33	0x3f800000	1.0
34	0x3f800000	1.0
35	0x3f800000	1.0
36	0x3f800000	1.0
37	0x3f800000	1.0
38	0x3f800000	1.0
39	0x3f800000	1.0
40	0x3f800000	1.0
41	0x3f800000	1.0
42	0x3f800000	1.0
43	0x3f800000	1.0
44	0x3f800000	1.0
45	0x3f800000	1.0
46	0x3f800000	1.0
47	0x3f800000	1.0
48	0x3f800000	1.0
49	0x3f800000	1.0
50	0x3f800000	1.0
51	0x3f800000	1.0
52	0x3f800000	1.0
53	0x3f800000	1.0
54	0x3f800000	1.0
55	0x3f800000	1.0
56	0x3f800000	1.0
57	0x3f800000	1.0
58	0x3f800000	1.0
59	0x3f800000	1.0
60	0x3f800000	1.0
61	0x3f800000	1.0
62	0x3f800000	1.0
63	0x3f800000	1.0
64	0x3f800000	1.0
65	0x3f800000	1.0
66	0x3f800000	1.0
67	0x3f800000	1.0
68	0x3f800000	1.0
69	0x3f800000	1.0
70	0x3f800000	1.0
71	0x3f800000	1.0
72	0x3f800000	1.0
73	0x3f800000	1.0
74	0x3f800000	1.0
75	0x3f800000	1.0
76	0x3f800000	1.0
77	0x3f800000	1.0
78	0x3f800000	1.0
79	0x3f800000	1.0
80	0x3f800000	1.0
81	0x3f800000	1.0
82	0x3f800000	1.0
83	0x3f800000	1.0
84	0x3f800000	1.0
85	0x3f800000	1.0
86	0x3f800000	1.0
87	0x3f800000	1.0
88	0x3f800000	1.0
89	0x3f800000	1.0
90	0x3f800000	1.0
91	0x3f800000	1.0
92	0x3f800000	1.0
93	0x3f800000	1.0
94	0x3f800000	1.0
95	0x3f800000	1.0
96	0x3f800000	1.0
97	0x3f800000	1.0
98	0x3f800000	1.0
99	0x3f800000	1.0
100	0x3f800000	1.0
101	0x3f800000	1.0
102	0x3f800000	1.0
103	0x3f800000	1.0
104	0x3f800000	1.0
105	0x3f800000	1.0
106	0x3f800000	1.0
107	0x3f800000	1.0
108	0x3f800000	1.0
109	0x3f800000	1.0
110	0x3f800000	1.0
111	0x3f800000	1.0
112	0x3f800000	1.0
113	0x3f800000	1.0
114	0x3f800000	1.0
115	0x3f800000	1.0
116	0x3f800000	1.0
117	0x3f800000	1.0
118	0x3f800000	1.0
119	0x3f800000	1.0
120	0x3f800000	1.0
121	0x3f800000	1.0
122	0x3f800000	1.0
123	0x3f800000	1.0
124	0x3f800000	1.0
125	0x3f800000	1.0
126	0x3f800000	1.0
127	0x3f800000	1.0

fc2.weight f4 [64, 130]
0	0x3ce04362	0.02737588
1	0x3d2a9612	0.041647024
2	0x3b4d7d91	0.003135536
3	0x3e098d58	0.13432825
4	0xbe2a580d	-0.16635151
5	0x3d1d41b1	0.038392726
6	0xbdb15a7d	-0.086598374
7	0x3e952e7a	0.2913702
8	0x3d42f051	0.047592465
9	0x3dd0e955	0.102007546
10	0xbdfeb31b	-0.124365054
11	0xbde73b9d	-0.11290667
12	0xbcd82024	-0.026382513
13	0xbe06bb3c	-0.13157362
14	0x3e592ede	0.21209285
15	0x3d12d423	0.03584684
16	0xbce92aba	-0.028462756
17	0x3d8f8395	0.07007519
18	0x3dd6101c	0.10452291
19	0xbe6ff42a	-0.23432985
20	0xbdb5fa2c	-0.08885607
21	0x3dca8f6a	0.09890635
22	0x3dffcae6	0.12489872
23	0x3c577e24	0.013152633
24	0xbece9853	-0.4035059
25	0xbde9b233	-0.11410942
26	0xbe11d893	-0.14242773
27	0xbdb821f1	-0.08990849
28	0x3dc127ff	0.09431457
29	0xbebc7fd1	-0.36816266
30	0xbdf7f497	-0.12107199
31	0xbf06d7a2	-0.5267278
32	0x3c15b00a	0.009136209
33	0x3e3c9a60	0.18418264
34	0xbcf7e738	-0.03026162
35	0xbea40444	-0.32034504
36	0xbf0d5c59	-0.55219036
37	0x3d912eb0	0.07088983
38	0xbd9ad74f	-0.07560598
39	0xbee8e9b2	-0.45490795
40	0x3b9ac36a	0.004723002
41	0xbca90ddd	-0.020636493
42	0xbdf8aba8	-0.12142116
43	0x3ddbd335	0.10733644
44	0xbd528110	-0.051392615
45	0xbc806026	-0.015670847
46	0xbf17f0e9	-0.59351975
47	0x3e0604ab	0.13087718
48	0xbe0b45ef	-0.13600896
49	0x3dfd83a0	0.12378621
50	0x3d4afc26	0.049556874
51	0xbecfae2b	-0.40562567
52	0xbd521d24	-0.051297322
53	0x3ed56fff	0.4168701
54	0xbe71c7f6	-0.23611435
55	0x3d9141ba	0.070926145
56	0x3d9fcfa8	0.07803279
57	0x3d1b9b50	0.037989914
58	0xbecd3093	-0.40076122
59	0xbe0677f6	-0.13131699
60	0x3d6fde40	0.058561563
61	0xbd9c79bd	-0.07640407
62	0x3e2df71f	0.169888
63	0xbe604bd7	-0.2190393
64	0x3c02c0da	0.00798055
65	0xbdb67e9e	-0.08910869
66	0x3ddb5156	0.10708873
67	0x3dc647fe	0.096817
68	0x3ea1a737	0.31572887
69	0x3dc927b8	0.09822029
70	0xbe0454b2	-0.12922934
71	0x3d3226fe	0.043494217
72	0x3d9f32ad	0.077733375
73	0x3d85cef9	0.065336175
74	0x3ed2d5e9	0.41178825
75	0xbddc7a7b	-0.10765549
76	0xbcc8bccd	-0.02450409
77	0xbe6365fc	-0.22206873
78	0x3daa2fe0	0.08309913
79	0x3d32e80d	0.043678332
80	0x3d7cc972	0.06171555
81	0xbd3c14a3	-0.04591812
82	0x3e1fe278	0.15613735
83	0x3d21c90c	0.039498374
84	0xbd150c93	-0.036388945
85	0x3e707ba6	0.23484668
86	0xbed4516a	-0.41468364
87	0x3ce0c0fb	0.02743577
88	0x3cb1da61	0.021710576
89	0xbd4bcd83	-0.049756538
90	0xbca4256e	-0.02003738
91	0xbe0d0955	-0.13773091
92	0xbc8574f0	-0.016291112
93	0xbab890f2	-0.0014081283
94	0xbc7170f7	-0.014736406
95	0xbd7f66cc	-0.062353894
96	0xbd387c28	-0.04504028
97	0x3e0e7069	0.13910069
98	0x3d89b683	0.067242645
99	0x3dd86a22	0.10567118
100	0x3d2de051	0.042450253
101	0xbdb27023	-0.08712795
102	0xbe032342	-0.12806419
103	0xbe1cf079	-0.15326108
104	0xbd3fc29c	-0.046816453
105	0x3d5154b4	0.05110617
106	0xbd67490c	-0.056466147
107	0xbbd39140	-0.006456524
108	0x3d0055f3	0.031331968
109	0x3ccfd8ee	0.025371995
110	0x3cdc296f	0.026875226
111	0x3d7e76b0	0.062124908
112	0x3e461e60	0.19347525
113	0xbe29c661	-0.16579582
114	0xbe3074b0	-0.17232013
115	0x3d6fdc1c	0.058559522
116	0x3e92742f	0.28604266
117	0x3d320b20	0.04346764
118	0xbc9d9a84	-0.019238718
119	0xbe687887	-0.22702228
120	0xbd34d179	-0.04414508
121	0x3d254b57	0.040355053
122	0x3dc7a7b4	0.09748784
123	0xbe836c65	-0.25668636
124	0x3d2d5b98	0.04232368
125	0x3e1623ee	0.14662144
126	0xbf0fca2f	-0.5616788
127	0x3db2f41a	0.08737965
128	0xbcc9c2ad	-0.024628961
129	0xbc39cf05	-0.011340861
130	0x3bef66ba	0.007305947
131	0xbdecc3f5	-0.11560813
132	0xbd50dddc	-0.05099283
133	0x3d70b306	0.05876448
134	0xbc863980	-0.01638484
135	0xbb064c18	-0.0020492133
136	0xbe1dee88	-0.15423024
137	0x3d8a37d4	0.067489296
138	0xbdffffc5	-0.12499956
139	0x3d459945	0.048241872
140	0x3ccf813f	0.025330184
141	0xbe95668a	-0.29179794
142	0x3db5045e	0.088387236
143	0xbe855e4f	-0.26048514
144	0xbe116408	-0.14198315
145	0x3d6a3314	0.05717762
146	0xbe0f90b6	-0.14020047
147	0xbc7c65b9	-0.015405112
148	0xbe0f78c2	-0.14010909
149	0xbe72be4e	-0.23705408
150	0x3e132e6e	0.1437318
151	0xbded5e13	-0.11590209
152	0xbd9ad8a8	-0.07560855
153	0x3d2db85c	0.042412147
154	0x3dadf77c	0.084944695
155	0x3dba96bc	0.091107816
156	0x3e0bb478	0.13643062
157	0x3c786e67	0.015163041
158	0xbd56eaa3	-0.05246986
159	0xbddf10ff	-0.108919136
160	0xbd8ab824	-0.06773403
161	0xbc254cfc	-0.010089155
162	0xbe745299	-0.23859634
163	0xbd8245ec	-0.06360993
164	0xbdd37153	-0.10324349
165	0xbd83faa4	-0.0644429
166	0xbdb5d091	-0.088776715
167	0x3dfadeb1	0.12249506
168	0xbc71f658	-0.014768206
169	0xbebff916	-0.37494725
170	0xbdfa0e5f	-0.12209772
171	0x3cb6be00	0.022307396
172	0xbebcf10e	-0.3690266
173	0xbd3015e7	-0.042989638
174	0x3de40b7f	0.11135005
175	0xbd0506a4	-0.032477036
176	0xbec716fa	-0.38884717
177	0xbe1524eb	-0.14564864
178	0x3e1dc61f	0.15407608
179	0x3c43b7f7	0.011945716
180	0x3e0251a8	0.12726462
181	0xbd70ea68	-0.058817297
182	0xbd901894	-0.07035938
183	0x3d588659	0.0528625
184	0x3e01e98f	0.12686752
185	0xbd252131	-0.040314857
186	0xbce1fc3d	-0.027586097
187	0x3d00fafc	0.031489357
188	0xbe0ce1e7	-0.1375805
189	0xbe98ae28	-0.2982037
190	0xbda27724	-0.079328805
191	0x3db4b704	0.0882397
192	0x3e437166	0.19086227
193	0xbd49c507	-0.049260166
194	0xbd7ae491	-0.061253134
195	0xbe0b9508	-0.1363107
196	0xbd9940a7	-0.074830346
197	0xbdbf4530	-0.09339368
198	0xbda08975	-0.07838718
199	0xbdf63919	-0.12022609
200	0xbcabb1e8	-0.020958856
201	0xbea6631c	-0.3249749
202	0xbde3d3ed	-0.11124406
203	0x3df29c30	0.11846197
204	0x3d0b9bf5	0.03408428
205	0x3d65b461	0.056080226
206	0x3da2c9b5	0.07948629
207	0xbd1eefc9	-0.038802896
208	0x3b810bd1	0.003938176
209	0xbe5ed18b	-0.21759622
210	0xbe05c72a	-0.13064256
211	0x3d0cd00c	0.034378096
212	0x3cf669dd	0.030079776
213	0xbdfd8e86	-0.123807
214	0x3dcf9d89	0.10137469
215	0x3b7116b0	0.0036787204
216	0xbca3106d	-0.019905293
217	0xbea588cf	-0.3233094
218	0x3d05c710	0.032660544
219	0x3c8283f7	0.015932066
220	0x3d8eee12	0.06979002
221	0xbe30ba48	-0.1725856
222	0xbce85f3e	-0.028365728
223	0xbe2f155e	-0.17097995
224	0x3c880cd4	0.01660768
225	0x3c13c907	0.009020097
226	0x3d9c31de	0.07626699
227	0xbda16b81	-0.07881833
228	0xbe1162cd	-0.14197846
229	0x3d82fa8c	0.06395444
230	0x3dd5f840	0.104477406
231	0xbd4bd26a	-0.049761213
232	0x3da60bbf	0.08107709
233	0x3de32dc7	0.11092716
234	0x3db4ea60	0.08833766
235	0x3cde432c	0.02713164
236	0x3dc90d58	0.09816998
237	0xbd78c3b6	-0.06073352
238	0x3c422615	0.0118499
239	0x3df987b2	0.12184085
240	0xbd7ebf86	-0.06219437
241	0xbbb29ca0	-0.0054508
242	0xbc5f0e49	-0.013614246
243	0x3ca81a2a	0.020520288
244	0xbcdd17e1	-0.026988925
245	0x3e3417f7	0.17587267
246	0xbe4fd9f5	-0.20297988
247	0x3d8c141d	0.06839774
248	0x3d74ae4f	0.059736546
249	0xbe8c43f1	-0.27395585
250	0x3cb3815e	0.021912273
251	0xbbdc7225	-0.0067274743
252	0x3e2ff195	0.17182
253	0x3db19a8c	0.086720556
254	0xbcb6d3ab	-0.022317728
255	0x3d288b95	0.04114874

fc2.bias f4 [64]
0	0x3d344e91	0.04402024
1	0x3da0aaba	0.078450635
2	0xbdd075a1	-0.10178686
3	0xbcc71d14	-0.024305858
4	0xbd72e365	-0.05929889
5	0x3c57160c	0.013127815
6	0xbd420158	-0.047364563
7	0xbced71bb	-0.028984895
8	0xbd891f9f	-0.06695484
9	0x3dbd9e31	0.09258688
10	0xbd10e7dd	-0.035377372
11	0xbd0dc0ee	-0.03460782
12	0x3d91772b	0.071028076
13	0x3d2dbc0a	0.042415656
14	0x3d9e1a9f	0.07719921
15	0xbc5f0aae	-0.013613386
16	0xbb8e6efa	-0.0043467255
17	0x3d2ef964	0.042718306
18	0xbd446c06	-0.04795458
19	0x3d509787	0.050925758
20	0x3db1b961	0.08677936
21	0x3d3c6b8f	0.046001013
22	0xbd77fd22	-0.06054414
23	0x3d666c4e	0.05625563
24	0xbdcfd0f3	-0.10147276
25	0x3ca0ad00	0.019613743
26	0x3d278348	0.040896684
27	0x3cc73c62	0.024320785
28	0x3d3eaddd	0.046552528
29	0x3c9c6ce4	0.019094892
30	0x3e02f0a7	0.12787114
31	0xbe6dc7bb	-0.23220722
32	0xbda47a21	-0.08031107
33	0xbddfd6c0	-0.10929632
34	0x3d9f683d	0.07783554
35	0xbd64ab8d	-0.055827666
36	0xbd4ec910	-0.050484717
37	0x3d0643d7	0.03277954
38	0x3bc0cfe9	0.00588416
39	0x3b3d55fc	0.0028890362
40	0xbdcb3476	-0.099221155
41	0xbe256626	-0.16152248
42	0xbddae18e	-0.106875524
43	0x3d66ee8e	0.056379847
44	0xbc6f0062	-0.014587494
45	0x3d869e20	0.06573129
46	0x3d8e4cdd	0.06948254
47	0x3d52f5e8	0.051504046
48	0xbd9e11af	-0.07718217
49	0xbb90dcf7	-0.0044208723
50	0xbd13b879	-0.0360646
51	0xbd38efba	-0.045150496
52	0x3d9db8f9	0.07701296
53	0xbc62e498	-0.013848446
54	0x3d92b8d5	0.0716416
55	0x3db6378a	0.08897312
56	0xbd8d428c	-0.068974584
57	0xbe1516dc	-0.14559501
58	0x3d8e28fc	0.06941411
59	0xbd89c094	-0.067261845
60	0xbcd60fad	-0.026130522
61	0xbce09ac9	-0.027417557
62	0x3da4874f	0.080336206
63	0xbd8b9e7a	-0.068173364

bn2.weight f4 [64]
0	0x3d9cadb8	0.07650322
1	0x3da38c00	0.07985687
2	0x3f1d6f2d	0.61497766
3	0x3e98f570	0.29874754
4	0x3ef048ce	0.46930546
5	0x3e358d30	0.1772964
6	0x3f23649a	0.6382538
7	0x3f6c88f3	0.9239647
8	0x3e702948	0.23453248
9	0x3f0abb6f	0.5419225
10	0x3ee7afc0	0.45251274
11	0x3ee22716	0.44170445
12	0x3c9ac620	0.018893301
13	0x3dd82d28	0.10555488
14	0x3eb9f28e	0.36317867
15	0x3f3ef016	0.7458509
16	0x3f05fa6e	0.5233525
17	0x3d477ab0	0.04870099
18	0x3f76c8a2	0.9639989
19	0x3e9676a8	0.29387403
20	0x3daa7278	0.083226144
21	0x3f07b552	0.5301105
22	0x3e6502a4	0.22364289
23	0x3f71ba83	0.9442522
24	0x3e9c712a	0.30555087
25	0x3f0eb8f3	0.5575096
26	0x3dfd3b18	0.12364787
27	0x3cc25ca0	0.023725808
28	0x3ed38432	0.41311795
29	0x3f72b6a0	0.94809914
30	0x3f5de11b	0.8667161
31	0x3f0da6da	0.5533272
32	0x3f20547c	0.6262891
33	0x3f21e6a9	0.63242584
34	0x3f042f4e	0.5163468
35	0x3ebac418	0.36477733
36	0x3e99ee40	0.30064583
37	0x3e0a3988	0.13498509
38	0x3e2259a4	0.15854508
39	0x3f1d4e09	0.614472
40	0x3e6dc410	0.23219323
41	0x3f009e6d	0.5024174
42	0x3f0a062d	0.53915673
43	0x3f1d9778	0.6155925
44	0x3e2f68a0	0.17129755
45	0x3f68fe7a	0.910133
46	0x3f5d72ef	0.865035
47	0x3f7ae673	0.9800789
48	0x3e4e5ee0	0.2015338
49	0x3e79d448	0.24397385
50	0x3f647ed5	0.8925603
51	0x3f1c0835	0.6095002
52	0x3c0f6540	0.008752167
53	0x3f0c537d	0.54814893
54	0x3f19efb6	0.60131395
55	0x3ee71014	0.45129454
56	0x3eb60f2c	0.3555845
57	0x3d1543a0	0.036441445
58	0x3a869a00	0.0010269284
59	0x3f4a1001	0.7893067
60	0x3e8c5202	0.27406317
61	0x3f5af5b8	0.8553119
62	0x3f59ce50	0.8508043
63	0x3e73b58c	0.23799723

bn2.bias f4 [64]
0	0x00000000	0.0
1	0x00000000	0.0
2	0x00000000	0.0
3	0x00000000	0.0
4	0x00000000	0.0
5	0x00000000	0.0
6	0x00000000	0.0
7	0x00000000	0.0
8	0x00000000	0.0
9	0x00000000	0.0
10	0x00000000	0.0
11	0x00000000	0.0
12	0x00000000	0.0
13	0x00000000	0.0
14	0x00000000	0.0
15	0x00000000	0.0
16	0x00000000	0.0
17	0x00000000	0.0
18	0x00000000	0.0
19	0x00000000	0.0
20	0x00000000	0.0
21	0x00000000	0.0
22	0x00000000	0.0
23	0x00000000	0.0
24	0x00000000	0.0
25	0x00000000	0.0
26	0x00000000	0.0
27	0x00000000	0.0
28	0x00000000	0.0
29	0x00000000	0.0
30	0x00000000	0.0
31	0x00000000	0.0
32	0x00000000	0.0
33	0x00000000	0.0
34	0x00000000	0.0
35	0x00000000	0.0
36	0x00000000	0.0
37	0x00000000	0.0
38	0x00000000	0.0
39	0x00000000	0.0
40	0x00000000	0.0
41	0x00000000	0.0
42	0x00000000	0.0
43	0x00000000	0.0
44	0x00000000	0.0
45	0x00000000	0.0
46	0x00000000	0.0
47	0x00000000	0.0
48	0x00000000	0.0
49	0x00000000	0.0
50	0x00000000	0.0
51	0x00000000	0.0
52	0x00000000	0.0
53	0x00000000	0.0
54	0x00000000	0.0
55	0x00000000	0.0
56	0x00000000	0.0
57	0x00000000	0.0
58	0x00000000	0.0
59	0x00000000	0.0
60	0x00000000	0.0
61	0x00000000	0.0
62	0x00000000	0.0
63	0x00000000	0.0

bn2.running_mean f4 [64]
0	0x00000000	0.0
1	0x00000000	0.0
2	0x00000000	0.0
3	0x00000000	0.0
4	0x00000000	0.0
5	0x00000000	0.0
6	0x00000000	0.0
7	0x00000000	0.0
8	0x00000000	0.0
9	0x00000000	0.0
10	0x00000000	0.0
11	0x00000000	0.0
12	0x00000000	0.0
13	0x00000000	0.0
14	0x00000000	0.0
15	0x00000000	0.0
16	0x00000000	0.0
17	0x00000000	0.0
18	0x00000000	0.0
19	0x00000000	0.0
20	0x00000000	0.0
21	0x00000000	0.0
22	0x00000000	0.0
23	0x00000000	0.0
24	0x00000000	0.0
25	0x00000000	0.0
26	0x00000000	0.0
27	0x00000000	0.0
28	0x00000000	0.0
29	0x00000000	0.0
30	0x00000000	0.0
31	0x00000000	0.0
32	0x00000000	0.0
33	0x00000000	0.0
34	0x00000000	0.0
35	0x00000000	0.0
36	0x00000000	0.0
37	0x00000000	0.0
38	0x00000000	0.0
39	0x00000000	0.0
40	0x00000000	0.0
41	0x00000000	0.0
42	0x00000000	0.0
43	0x00000000	0.0
44	0x00000000	0.0
45	0x00000000	0.0
46	0x00000000	0.0
47	0x00000000	0.0
48	0x00000000	0.0
49	0x00000000	0.0
50	0x00000000	0.0
51	0x00000000	0.0
52	0x00000000	0.0
53	0x00000000	0.0
54	0x00000000	0.0
55	0x00000000	0.0
56	0x00000000	0.0
57	0x00000000	0.0
58	0x00000000	0.0
59	0x00000000	0.0
60	0x00000000	0.0
61	0x00000000	0.0
62	0x00000000	0.0
63	0x00000000	0.0

bn2.running_var f4 [64]
0	0x3f800000	1.0
1	0x3f800000	1.0
2	0x3f800000	1.0
3	0x3f800000	1.0
4	0x3f800000	1.0
5	0x3f800000	1.0
6	0x3f800000	1.0
7	0x3f800000	1.0
8	0x3f800000	1.0
9	0x3f800000	1.0
10	0x3f800000	1.0
11	0x3f800000	1.0
12	0x3f800000	1.0
13	0x3f800000	1.0
14	0x3f800000	1.0
15	0x3f800000	1.0
16	0x3f800000	1.0
17	0x3f800000	1.0
18	0x3f800000	1.0
19	0x3f800000	1.0
20	0x3f800000	1.0
21	0x3f800000	1.0
22	0x3f800000	1.0
23	0x3f800000	1.0
24	0x3f800000	1.0
25	0x3f800000	1.0
26	0x3f800000	1.0
27	0x3f800000	1.0
28	0x3f800000	1.0
29	0x3f800000	1.0
30	0x3f800000	1.0
31	0x3f800000	1.0
32	0x3f800000	1.0
33	0x3f800000	1.0
34	0x3f800000	1.0
35	0x3f800000	1.0
36	0x3f800000	1.0
37	0x3f800000	1.0
38	0x3f800000	1.0
39	0x3f800000	1.0
40	0x3f800000	1.0
41	0x3f800000	1.0
42	0x3f800000	1.0
43	0x3f800000	1.0
44	0x3f800000	1.0
45	0x3f800000	1.0
46	0x3f800000	1.0
47	0x3f800000	1.0
48	0x3f800000	1.0
49	0x3f800000	1.0
50	0x3f800000	1.0
51	0x3f800000	1.0
52	0x3f800000	1.0
53	0x3f800000	1.0
54	0x3f800000	1.0
55	0x3f800000	1.0
56	0x3f800000	1.0
57	0x3f800000	1.0
58	0x3f800000	1.0
59	0x3f800000	1.0
60	0x3f800000	1.0
61	0x3f800000	1.0
62	0x3f800000	1.0
63	0x3f800000	1.0

fc3.weight f4 [1, 64]
0	0x3e088204	0.13330847
1	0xbd04fda3	-0.03246845
2	0xbd855a64	-0.06511381
3	0x3d9008ff	0.07032966
4	0x3e15b842	0.1462107
5	0xbc44c9b1	-0.012010978
6	0x3dda6950	0.10664618
7	0x3c9e3014	0.019310035
8	0xbd2a6352	-0.041598625
9	0xbc8bb753	-0.01705519
10	0xbd9cd667	-0.076580815
11	0x3d883161	0.06650043
12	0xbc3b3ccd	-0.01142807
13	0x3e3e0883	0.18557934
14	0xbc4601a5	-0.012085353
15	0xbd9bd20e	-0.07608424
16	0xbca59560	-0.02021283
17	0x3e03945e	0.12849566
18	0xbd6a4308	-0.057192832
19	0xbcaeb29c	-0.021325402
20	0x3e0691ef	0.13141607
21	0xbcc6ebc3	-0.024282342
22	0xbcd9be7a	-0.026580084
23	0xbc948db6	-0.01813398
24	0xbda19c9b	-0.07891198
25	0xbc40004a	-0.011718819
26	0x3ddb5818	0.10710162
27	0xbc684294	-0.01417603
28	0xbcd1ae27	-0.025595738
29	0x3e1187c7	0.14211951
30	0x3dd85f4d	0.10565052
31	0xbd6e1a31	-0.058130447
32	0xbcf2db42	-0.029645566
33	0xbd77e0e1	-0.060517196
34	0xbc9cbacd	-0.019132042
35	0xbdbf1847	-0.093308024
36	0xbd28440a	-0.041080512
37	0xbd687ffe	-0.056762688
38	0xbd06d7fb	-0.03292082
39	0x3defb735	0.11704866
40	0xbd0471e1	-0.032335166
41	0xbd5da70c	-0.054114386
42	0x3c8315af	0.01600155
43	0x3da66d15	0.081262745
44	0x3dc7b839	0.097519346
45	0x3dc10092	0.09423937
46	0x3deeb89f	0.116563074
47	0x3df9cdbe	0.12197445
48	0xbcec9316	-0.02887873
49	0xbd7e7cb1	-0.062130634
50	0xbd137828	-0.03600326
51	0x3d31b36c	0.043384
52	0xbc5f1879	-0.013616675
53	0x3dd1eb28	0.102499306
54	0xbd0d71b4	-0.034532264
55	0x3e41da1f	0.18930863
56	0xbcc6b241	-0.02425492
57	0x3d36ae01	0.044599537
58	0xbc9246a2	-0.017855946
59	0xbc8d234a	-0.017228741
60	0x3e0557dc	0.13021797
61	0xbcb78e62	-0.02240676
62	0xbdcc8e54	-0.099880844
63	0x3e044927	0.1291853
