p3_collaboration_and_competition/weights/critic_1_700.pth (torch_old, 52380 bytes, 17 tensors)

bn0.weight f4 [24]
000000 ba 69 10 3f 58 fd da 3e 93 06 f6 3e 90 1b b4 3e
       0.56411326 0.4277141 0.4805189 0.3517728
000010 b0 41 8d 3f f2 ab 2d 3f e7 dc 68 3e 59 c9 00 bd
       1.1035671 0.6784049 0.22740518 -0.03144202
000020 e4 da ff 3e 5f dd d9 3d 21 31 c2 3e d6 e5 30 3e
       0.49971688 0.10637926 0.37928107 0.17275175
000030 5c 64 4c 3f 8d bd 57 3f 8b 89 e9 3e 0e 0d a8 3e
       0.79840636 0.84273607 0.4561275 0.3282246
000040 0d e6 2f 3f ab 57 b2 3e 21 6c a8 3e f2 01 ee 3e
       0.68710405 0.3483251 0.32894996 0.4648586
000050 fe 32 68 3f 75 23 36 3f 45 45 d8 3e 06 e9 f8 3e
       0.9070281 0.71147853 0.42240348 0.48615283

bn0.bias f4 [24]
000000 9c f7 b8 bc 58 06 5d 3d aa 7b 08 bd cd ae e6 bd
       -0.022579007 0.053961128 -0.03332106 -0.11263809
000010 cd 70 f0 3d 0d 1b 2e ba bc 4d 0a bd 78 aa 18 3e
       0.11740265 -0.0006641604 -0.03376554 0.14908779
000020 31 18 ff bd 0e 35 16 3e d5 bc 81 3c d0 d0 f5 3b
       -0.12455786 0.14668676 0.015837112 0.007501699
000030 3e c3 79 3e 3d 92 d4 bc 0c 25 9c bd 9b 48 97 bd
       0.24390885 -0.025948638 -0.07624254 -0.07386895
000040 2a 39 42 bd 46 26 a2 3d 03 03 23 bd 25 85 84 ba
       -0.047417797 0.07917456 -0.039797794 -0.0010110481
000050 21 e8 3a 3e 0a ae ac 3a 70 40 2f ba 89 38 1f bd
       0.18252613 0.0013174426 -0.0006685322 -0.038872276

bn0.running_mean f4 [24]
000000 28 1b f5 c0 78 2a 29 bf 8e 78 d9 3e fa fd 18 3e
       -7.659565 -0.6608043 0.42474788 0.14940634
000010 d8 0d 0d be 01 71 52 40 8e 78 d9 3e fa fd 18 3e
       -0.13774812 3.2881472 0.42474788 0.14940634
000020 9b 70 fe c0 f7 40 33 bf a2 5d 5b 3f bd d5 c9 3d
       -7.951246 -0.70021003 0.8568975 0.098552205
000030 df f0 03 be 9f 9b 51 40 a2 5d 5b 3f bd d5 c9 3d
       -0.12884854 3.2751234 0.8568975 0.098552205
000040 9c aa 04 c1 58 99 3e bf 99 18 26 3f 19 bd ce 3d
       -8.291653 -0.74452734 0.64881283 0.10094661
000050 dc 73 0f be ec 24 50 40 99 18 26 3f 19 bd ce 3d
       -0.1400904 3.2522535 0.64881283 0.10094661

bn0.running_var f4 [24]
000000 bc 1b 3c 41 4b fe 89 3f 5a 5f 44 43 b1 bd 1a 41
       11.756771 1.0780729 196.37247 9.671311
000010 2e df 0e 42 96 72 86 40 5a 5f 44 43 b1 bd 1a 41
       35.71795 4.2014875 196.37247 9.671311
000020 20 ee 1c 41 05 72 8d 3f ed e1 48 43 93 e4 21 41
       9.808136 1.1050421 200.88252 10.118304
000030 82 88 1a 42 37 dc 8d 40 ed e1 48 43 93 e4 21 41
       38.63331 4.4331317 200.88252 10.118304
000040 33 71 ee 40 83 36 90 3f bb cb 5b 43 2b 43 2d 41
       7.4513183 1.1266636 219.79582 10.828898
000050 6c 50 28 42 25 1e 9e 40 bb cb 5b 43 2b 43 2d 41
       42.078537 4.9411798 219.79582 10.828898

fcs1.weight f4 [128, 24]
000000 c3 ac d3 3d 5e cb 15 be 53 7b 48 bd bc f7 cc 3b
       0.10335686 -0.1462836 -0.048945736 0.006255118
000010 f8 3d b4 3f 5a ae a3 3d 50 5a 7e 3d 5b 73 d2 ba
       1.4081411 0.07992239 0.062097847 -0.0016056107
000020 c5 79 50 bd 60 03 45 bc 85 17 11 3b d5 84 bd 3d
       -0.05089738 -0.01202473 0.0022139263 0.09253851
000030 a5 fa 93 3f c7 78 f8 3c c4 9a 19 3d 28 f5 72 bc
       1.1560866 0.030331029 0.03750111 -0.014828958
000040 72 aa e5 bb a8 0f e2 3d bf 75 65 3d 82 2a a6 bd
       -0.007008844 0.110381424 0.056020495 -0.081135765
000050 16 3d 35 3f a9 4e 3d bd b0 d3 cc bc 9d 59 e5 3c
       0.70796335 -0.046217594 -0.025003284 0.027996833
000060 88 d5 1f be a8 0d 3a be 5c e0 40 3e 22 53 dc 3d
       -0.156088 -0.18169272 0.18835586 0.10758044
000070 54 b3 88 bd e7 ce 89 3d 96 49 34 3e d3 28 72 bd
       -0.06674829 0.067289166 0.17606196 -0.059120964
000080 00 12 73 bd e1 83 c9 bd 1e bf 9d be 25 3b 19 bd
       -0.059343338 -0.09839607 -0.30809873 -0.03740992
000090 d4 fc 94 be 43 8d c7 3d 47 02 48 be 52 22 81 bc
       -0.29099143 0.097437404 -0.19532119 -0.015763436
0000a0 85 42 3a be de bc f5 3b 77 4c 39 be 11 67 04 bc
       -0.18189438 0.0074993214 -0.18095575 -0.008081214
0000b0 af eb 17 bf c2 7d 15 3e 14 1e 34 be f5 16 61 3d
       -0.59344 0.14598754 -0.17589599 0.054953534
0000c0 1d 13 08 3e 71 48 a2 ba 02 3b 55 3d 4d b2 31 3d
       0.13288541 -0.0012381208 0.052058227 0.04338293
0000d0 66 da 7a 3e ca 54 1d be 23 af 36 3d 84 fa 60 be
       0.24497375 -0.15364376 0.044600617 -0.21970564
0000e0 3f 7b 9a 3d 93 30 94 be 38 f4 15 bd 54 0a 0d be
       0.075430386 -0.2894331 -0.03660986 -0.13773471
0000f0 6d fb 7f 3d af 9a 46 bd 24 2f 13 bd 19 1c 90 3c
       0.062495638 -0.04848736 -0.03593363 0.017591523
000100 96 bf 26 3e 35 67 5a be 16 46 b9 3e 4a b3 8c bd
       0.16284022 -0.21328433 0.36186284 -0.06870134
000110 89 35 81 be e1 c7 3d 3d 0b c1 a6 3e c5 3f 13 bd
       -0.25236157 0.046333198 0.32569155 -0.035949487
000120 2e c4 02 be dc cc c6 bd 64 2f a8 3d e2 50 50 3e
       -0.12770149 -0.097070426 0.08212164 0.20343354
000130 8f d7 43 3c 40 34 7e 3e 1e 85 d2 3b 0e 51 8c be
       0.011953249 0.2482462 0.00642456 -0.2740559
000140 df 52 a5 bd 52 b3 bb be 73 fc e4 3d 93 ca eb bd
       -0.08072447 -0.36660248 0.11180963 -0.11513247
000150 25 ad 5e 3c df 54 dd bd 2d fe 84 3d 9a e0 43 3d
       0.013591086 -0.108072035 0.06493793 0.04782162
000160 1d 47 a3 be 73 ca 22 be d2 d3 9e be a8 fc c1 bd
       -0.31890193 -0.15897541 -0.3102098 -0.094720185
000170 52 b2 18 be 83 67 22 be d5 d1 cc be 6b 9d d9 bd
       -0.14911774 -0.15859799 -0.4000384 -0.10625728
000180 4d 42 da 3e d6 22 a2 3e f9 14 2b bd 7a 90 cd 3d
       0.42628708 0.31667203 -0.041768048 0.10037322
000190 18 72 43 3e f0 70 3d be 5a 15 ed bd 77 c3 69 bd
       0.19086492 -0.18500113 -0.11576338 -0.057071175
0001a0 db 99 54 3e 69 2a 38 3e 3b ae ad 3c 1b d4 0f 3b
       0.20761816 0.17984928 0.021201244 0.0021946493
0001b0 20 bf ea 3d a8 5f 14 3e d9 f1 51 3d e5 f5 41 bd
       0.114622355 0.14489615 0.051256035 -0.047353644
0001c0 97 c2 f1 3d e4 cc 0a 3e 7e 39 c4 bd 31 1b 62 bd
       0.11804693 0.13554722 -0.09581278 -0.055201713
0001d0 9c 32 cf be 25 1b 90 3e 54 32 b5 bd 99 32 1b be
       -0.404683 0.2814571 -0.0884749 -0.1515602
0001e0 0a 3a 40 3d 4e 3a 60 3e 75 7c 0b be 75 a7 c3 bd
       0.04693035 0.21897241 -0.13621695 -0.09553424
0001f0 6f 90 d1 3d 02 d4 f8 bd 5f d9 a6 bc 33 b8 66 be
       0.10232627 -0.12149812 -0.020367322 -0.22531204
000200 dc 81 40 3e e9 a0 12 bd 31 f3 2e bd 6c 10 09 bc
       0.18799537 -0.035797987 -0.042712394 -0.008365732
000210 d4 5f 8b 3d e8 4a 84 3c e8 e2 8e 3c 80 c1 58 bd
       0.06805387 0.016149 0.017442182 -0.05291891
000220 46 03 3a bd 02 12 33 3e 66 d8 b3 bd 1a 44 87 3e
       -0.045413278 0.17487338 -0.08781509 0.26419145
000230 9c ad 1d be 8f ba e5 be cd ab 9c bd 83 25 8e 3e
       -0.15398258 -0.44868895 -0.07649956 0.27762994
000240 f0 49 af 3d d0 bd 6c 3e 28 3c 6d 3e 08 cc db be
       0.08559024 0.23119283 0.23167479 -0.429291
000250 87 96 8b 3d b1 9f b0 bd 26 45 63 3e 5a f9 fd bd
       0.0681582 -0.08624209 0.22194347 -0.12401076
000260 d0 07 68 3e 67 be ea bd 7c c4 a9 3e c2 e6 36 bd
       0.2265923 -0.114620976 0.33157718 -0.04465366
000270 cc 94 6c 3e 4d d4 92 bd 3e 2e 97 3e 13 b6 3b 3d
       0.23103637 -0.071693994 0.29527467 0.045827936
000280 68 0d 63 3d 3a 41 03 3c 68 eb 63 3d 44 18 e6 bd
       0.055432707 0.008011157 0.055644423 -0.11235097
000290 45 4b 37 3d 6a 76 75 be ee a8 df 3c 8a a9 9e bd
       0.044749517 -0.23970953 0.027302232 -0.07747181
0002a0 35 a3 c0 3d 44 f6 a2 be f6 a7 e1 3d 3c 10 52 3e
       0.09406129 -0.3182851 0.11018364 0.20514005
0002b0 58 77 09 be 97 21 b6 bd 62 d3 ee 3d f4 53 85 bc
       -0.13424432 -0.088931255 0.11661412 -0.016275384
0002c0 a2 4b 17 3d c4 a2 38 be 44 63 48 3e ee 16 0c 3e
       0.036937363 -0.1803084 0.19569117 0.13680622
0002d0 ab 09 8d be d7 37 16 3d 1c 1a f8 3d 38 df 3e 3e
       -0.2754644 0.036674347 0.12114355 0.18639839
0002e0 9b e0 a6 bc 8c e3 51 be 64 4c 16 be 26 9b c0 bc
       -0.020370772 -0.20496958 -0.14677578 -0.02351148
0002f0 07 16 90 be e6 59 af 3e 58 e5 48 bd bf 2f 6e 3d
       -0.28141806 0.34248275 -0.049046844 0.058151003
000300 d3 aa 32 bd 98 d0 93 3d 3c 1c 82 b9 19 da 47 be
       -0.043619942 0.072175205 -0.00024816568 -0.19516791
000310 50 c9 41 3e d3 f7 0a 3d 4c 56 6e bd fc e2 1e be
       0.18924451 0.03392775 -0.058187768 -0.15516275
000320 f7 89 fd 3d a1 df 50 bd 9b 4d a7 3d 34 b5 8e bd
       0.1237983 -0.05099452 0.08169099 -0.069681555
000330 c6 aa 3c 3e 2b bd 53 be 47 df 15 3e 12 c0 29 be
       0.1842452 -0.2067763 0.14635955 -0.16577175
000340 d7 7e 3e bd 12 3e bb 3d 55 35 1f bd c6 33 62 bd
       -0.046507683 0.09142698 -0.03886922 -0.055225156
000350 78 d0 f6 3d da 7a 81 3e ad 87 ab bd fa f3 a3 bd
       0.12051481 0.2528904 -0.083754875 -0.08005519
000360 5b 52 79 bd e1 85 48 be ec e9 a3 be dd f4 2e 3c
       -0.060869556 -0.19582321 -0.32014406 0.010678497
000370 9c c4 07 3e 7b 6b 09 bd d8 20 94 be 75 0f 67 be
       0.13258594 -0.033549767 -0.28931308 -0.2256449
000380 51 84 9a bc 14 75 59 be 8f 98 62 be 01 f7 1b 3e
       -0.018861922 -0.21236068 -0.22128509 0.15230943
000390 fd b3 aa bd 6e ef 67 bc 58 c5 4b be c7 24 0c 3e
       -0.08335111 -0.014156206 -0.198995 0.13685904
0003a0 08 f3 97 3d bf 1f a9 3c 6d 0e c9 3e 73 1d 5e 3d
       0.074194014 0.02064502 0.39268818 0.054227304
0003b0 c5 98 56 be 4f 30 5a bd 21 b8 90 3e 28 e8 b8 3d
       -0.20956714 -0.053268727 0.2826548 0.09028655
0003c0 9b 8b e7 bc b2 71 85 bd 8e 6d 45 be 64 25 9a bc
       -0.028264811 -0.06515826 -0.19280073 -0.018816657
0003d0 40 7f b6 bc e1 ee da bd 18 91 78 be 46 2f 2a be
       -0.022277474 -0.10690094 -0.24274099 -0.16619596
0003e0 6a 70 03 be 38 7a 1a be 62 8f 63 3e e7 8c a1 3d
       -0.12835851 -0.15085685 0.22222665 0.07888203
0003f0 5d 95 46 3d 80 03 e7 bd 90 f8 9b 3e 4b f1 3c 3e
       0.048482288 -0.112799644 0.30463076 0.18451421

fcs1.bias f4 [128]
000000 70 1a 3a be 4b c4 9c be 5e dd e1 bd a5 6c 2f be
       -0.18174148 -0.3061851 -0.110285506 -0.17131288
000010 80 ad 68 be a1 0b cf be 7e ce a1 be db f7 0d be
       -0.22722435 -0.4043856 -0.31602854 -0.1386408
000020 72 c1 42 bd a6 7c 92 be 4f c6 15 be 45 97 12 be
       -0.047547765 -0.28610724 -0.1462643 -0.14315517
000030 66 1c 3f bd 9b 17 3f bc fe 47 9e bd ba 4c ed bd
       -0.046657942 -0.011663343 -0.07728575 -0.115869
000040 b3 37 52 be 83 ff 8e be 99 c5 10 be bb 5c 23 be
       -0.2052906 -0.27929315 -0.14137878 -0.15953343
000050 ff 83 b8 bd f6 0c cb bd 9f c2 24 bd f2 ad 06 be
       -0.09009551 -0.099145815 -0.040224668 -0.13152292
000060 fa e0 9f be 63 2f 44 be a1 72 33 3c a8 0d 90 bd
       -0.3122633 -0.19158702 0.010952623 -0.07033855
000070 eb e7 49 be 61 f1 10 be 47 44 6d 3d 80 0e 29 be
       -0.19717376 -0.14154579 0.057926442 -0.16509438
000080 ff d3 de bd 61 a6 b4 bd 13 6d 4c 3e 2d 3e ba bd
       -0.10880279 -0.08820797 0.19963484 -0.0909389
000090 53 26 48 be 9a fd 00 3e 3f cb 31 3d 2a 39 84 be
       -0.1954587 0.12596741 0.04340672 -0.25824863
0000a0 15 59 64 be 65 77 e1 bd b0 fe 00 be 48 0a 05 be
       -0.22299607 -0.11009101 -0.12597156 -0.12992203
0000b0 7e 92 05 be 79 44 1e be 46 38 e8 bd 54 45 ff bd
       -0.13044164 -0.15455808 -0.11338858 -0.12464395
0000c0 ab aa 35 3e 74 a8 49 be 49 18 23 bd 57 06 eb 3d
       0.17740886 -0.19693166 -0.039818082 0.114758186
0000d0 2b 44 02 3e 81 e8 2f be 54 6b d6 bd e7 76 f2 3b
       0.12721317 -0.17178537 -0.1046969 0.007399428
0000e0 1a 1a 89 3e 7c 62 0c 3d 98 f7 49 be 0a 14 23 be
       0.26777726 0.03427361 -0.19723356 -0.15925613
0000f0 fc 58 98 bd d1 d1 81 3d 9b 62 5c be dd e2 94 be
       -0.074388474 0.063388474 -0.2152199 -0.29079333
000100 f5 4e 76 3d 78 51 45 be cd 4b 2c be 63 27 6b bd
       0.060133893 -0.19269359 -0.1682579 -0.05741061
000110 20 42 ad bd 39 91 d8 be 28 c8 52 be d5 ff 2d bd
       -0.08459878 -0.42298296 -0.20584166 -0.04248031
000120 d4 4e b8 3a 8b 42 94 3d 59 b9 ee bd 8d b5 a1 bd
       0.0014061579 0.072392546 -0.11656446 -0.07895956
000130 19 b3 8e be 2e b4 bd be cb 6c 8a bd bb 30 1c be
       -0.27871016 -0.3705153 -0.06759032 -0.15252964
000140 c4 ba 03 be 9a 51 aa 3d bd ed 47 be ba b1 44 be
       -0.12864214 0.083163455 -0.19524284 -0.19208422
000150 e6 74 18 be 58 16 6a 3d 57 90 53 bd c5 dc 23 be
       -0.14888343 0.057150215 -0.051651325 -0.16002186
000160 16 45 69 bd 96 6d ec 3d 0d e8 02 3e 04 e5 38 be
       -0.05695065 0.11544339 0.12783833 -0.18056113
000170 ed 88 78 bc 9d 9a 6d be 74 71 42 be d8 1a 8e bd
       -0.015169364 -0.23203512 -0.18988591 -0.06938714
000180 0a b9 30 3d 8e 34 09 be aa c1 fb 3d 8b 5f 20 be
       0.043145217 -0.13398954 0.12292798 -0.15661447
000190 76 d2 2c be cb d6 23 be 2e ae a5 bd 63 35 46 bd
       -0.1687716 -0.15999906 -0.08089863 -0.048390757
0001a0 b0 68 f5 3c d6 d3 3d be 5a 22 43 3d d1 1c f3 bc
       0.029957145 -0.1853784 0.047640182 -0.029676827
0001b0 11 42 10 bd 56 85 10 3e 76 a9 40 bd 5c e6 bf 3d
       -0.035219256 0.14113364 -0.04703661 0.093701094
0001c0 89 0a ba bd 8d 3c 88 bd c4 0c 48 3d 55 a7 b4 be
       -0.09084041 -0.06652174 0.0488403 -0.35283914
0001d0 ea 8a 04 be 81 ca 14 3c 8b a9 36 be 69 4b 7d bd
       -0.12943617 0.009081484 -0.17838113 -0.061839495
0001e0 1b 50 48 3e c7 bb cc bd ad 69 5f be ff d3 9f 3d
       0.19561808 -0.09996753 -0.21817656 0.07804107
0001f0 29 d6 51 3e fe 4f f4 bd 5e b0 7c be b1 96 c6 bd
       0.20491852 -0.1192932 -0.24676654 -0.09696711

bn1.weight f4 [128]
000000 ac 7b 3c 3f 68 12 a0 3d 20 35 70 3f 26 83 0a 3f
       0.7362621 0.07816011 0.9383106 0.54106367
000010 bc f7 95 3e 00 5d 40 3c c6 49 1e 3f 60 e9 bd 3e
       0.2929057 0.011740923 0.6183132 0.37092113
000020 58 ea 1a 3f e8 d3 dd 3d 4b a6 31 3f 70 cd f1 3d
       0.6051383 0.108314335 0.6939437 0.11806762
000030 cb 88 65 3f da ea 07 3f 95 5c 3e 3f 03 ff 4b 3f
       0.89661855 0.5309273 0.7436002 0.7968599
000040 58 6d 73 3f 0f b1 13 3f 49 c7 66 3f e8 cc ac 3d
       0.9508872 0.57692045 0.90147835 0.0843752
000050 9a e8 5b 3f 97 e5 5d 3f 9c 62 78 3e b8 94 76 3e
       0.85901797 0.8667845 0.24256366 0.24080169
000060 b8 9d 69 3f ae dd 66 3f 48 b6 ab 3d 5c 5f 01 3f
       0.91256285 0.90182006 0.08384377 0.5053613
000070 10 e1 fd 3d e5 11 45 3f e8 4a a5 3d 9c 8b 83 3e
       0.12396443 0.7698043 0.08070928 0.2569245
000080 b4 44 61 3f fb f2 6b 3f 59 6c 71 3f 6a 38 0d 3f
       0.8799546 0.92167634 0.9430595 0.55164206
000090 80 0c 6c 3d f6 88 50 3f d9 cd 69 3f 15 a3 62 3f
       0.05762911 0.81458986 0.91329724 0.88530093
0000a0 9d 7e 50 3f c8 95 eb 3e 18 4c 40 3f 1a 04 1c 3f
       0.81443197 0.46012712 0.7511611 0.6094376
0000b0 4a 9b 87 3e 81 2b 53 3f 40 4a a1 3e 27 e9 4a 3f
       0.26485664 0.82488257 0.3150196 0.7926201
0000c0 20 ab e8 3e c8 02 e9 3e 4c 4b 36 3f 60 6b de 3e
       0.45443058 0.45509934 0.71208644 0.43441296
0000d0 35 df 34 3f a0 71 87 3d c0 2d 7d 3c a1 06 11 3f
       0.70653087 0.06613469 0.015452802 0.5665074
0000e0 02 57 c9 3e e0 eb 90 3e f0 d8 54 3d 03 64 0c 3f
       0.39324194 0.28304958 0.0519647 0.54840106
0000f0 54 d3 82 3e 8d ba 73 3f 70 9d ea 3d e2 25 a5 3e
       0.25551856 0.9520653 0.1145581 0.32255465
000100 9a 21 cf 3e 90 21 17 3f d0 d0 27 3d 43 39 46 3f
       0.40455323 0.5903559 0.040970623 0.77431124
000110 10 94 01 3d 58 21 6f 3e fe 6c 19 3f e2 46 da 3e
       0.031635344 0.23352563 0.59931934 0.42632204
000120 bc 9b 0f 3f 00 e9 5d 3b 54 d3 17 3e 85 61 55 3f
       0.56097007 0.0033860803 0.14826709 0.8335193
000130 56 d3 31 3f 44 cd 37 3f ad e0 47 3f 79 82 59 3f
       0.694631 0.71797585 0.78077203 0.8496471
000140 b2 0a 3f 3f d8 5f b1 3e 04 a3 80 3e f4 ff 22 3e
       0.74625695 0.34643435 0.2512437 0.15917951
000150 5d d9 25 3f 9e e5 f8 3e b0 01 85 3e e1 1e 4e 3f
       0.64784795 0.48612684 0.2597785 0.8051587
000160 7b 38 05 3f 02 a5 e4 3e bc 29 be 3e 74 48 0c 3e
       0.5203931 0.4465714 0.37141216 0.13699514
000170 e2 b4 69 3f 40 49 5b 3c a0 e7 2d 3d ad a0 19 3f
       0.9129163 0.013384163 0.042457223 0.60010797
000180 82 cd 8c 3e c5 0b 5f 3f ae 27 f7 3e 46 a2 87 3e
       0.2750054 0.87127334 0.4827246 0.26490992
000190 eb 14 00 3f c0 ba d7 3e cc 8f d7 3e 62 a6 e3 3e
       0.5003192 0.42134666 0.42101896 0.44462878
0001a0 d8 e8 2e 3e a2 a7 ae 3e a0 6f 92 3c 5c 63 36 3e
       0.1708101 0.3411227 0.017875493 0.1781134
0001b0 01 63 09 3f 87 dd 53 3f be 53 f4 3e 75 e6 63 3f
       0.5366669 0.827599 0.4772014 0.89023525
0001c0 30 6a d7 3d da c2 2d 3f e8 5b 1e 3f 82 ad 98 3e
       0.105183005 0.67875445 0.6185899 0.29819876
0001d0 8e 97 34 3f d0 04 3d 3e fa f8 08 3f 5d 99 2b 3f
       0.70543754 0.18458867 0.5350491 0.6703089
0001e0 68 1b 89 3e 28 3a 17 3e e2 1a 52 3f 38 85 c5 3d
       0.26778722 0.14768279 0.8207227 0.0964455
0001f0 43 4c 7e 3f 70 4b a3 3e 36 f2 d7 3e 40 ea 6f 3e
       0.99335116 0.31893492 0.4217698 0.23429203

bn1.bias f4 [128]
000000 00 00 00 00 00 00 00 00 00 00 00 00 00 00 00 00
       0.0 0.0 0.0 0.0
000010 00 00 00 00 00 00 00 00 00 00 00 00 00 00 00 00
       0.0 0.0 0.0 0.0
000020 00 00 00 00 00 00 00 00 00 00 00 00 00 00 00 00
       0.0 0.0 0.0 0.0
000030 00 00 00 00 00 00 00 00 00 00 00 00 00 00 00 00
       0.0 0.0 0.0 0.0
000040 00 00 00 00 00 00 00 00 00 00 00 00 00 00 00 00
       0.0 0.0 0.0 0.0
000050 00 00 00 00 00 00 00 00 00 00 00 00 00 00 00 00
       0.0 0.0 0.0 0.0
000060 00 00 00 00 00 00 00 00 00 00 00 00 00 00 00 00
       0.0 0.0 0.0 0.0
000070 00 00 00 00 00 00 00 00 00 00 00 00 00 00 00 00
       0.0 0.0 0.0 0.0
000080 00 00 00 00 00 00 00 00 00 00 00 00 00 00 00 00
       0.0 0.0 0.0 0.0
000090 00 00 00 00 00 00 00 00 00 00 00 00 00 00 00 00
       0.0 0.0 0.0 0.0
0000a0 00 00 00 00 00 00 00 00 00 00 00 00 00 00 00 00
       0.0 0.0 0.0 0.0
0000b0 00 00 00 00 00 00 00 00 00 00 00 00 00 00 00 00
       0.0 0.0 0.0 0.0
0000c0 00 00 00 00 00 00 00 00 00 00 00 00 00 00 00 00
       0.0 0.0 0.0 0.0
0000d0 00 00 00 00 00 00 00 00 00 00 00 00 00 00 00 00
       0.0 0.0 0.0 0.0
0000e0 00 00 00 00 00 00 00 00 00 00 00 00 00 00 00 00
       0.0 0.0 0.0 0.0
0000f0 00 00 00 00 00 00 00 00 00 00 00 00 00 00 00 00
       0.0 0.0 0.0 0.0
000100 00 00 00 00 00 00 00 00 00 00 00 00 00 00 00 00
       0.0 0.0 0.0 0.0
000110 00 00 00 00 00 00 00 00 00 00 00 00 00 00 00 00
       0.0 0.0 0.0 0.0
000120 00 00 00 00 00 00 00 00 00 00 00 00 00 00 00 00
       0.0 0.0 0.0 0.0
000130 00 00 00 00 00 00 00 00 00 00 00 00 00 00 00 00
       0.0 0.0 0.0 0.0
000140 00 00 00 00 00 00 00 00 00 00 00 00 00 00 00 00
       0.0 0.0 0.0 0.0
000150 00 00 00 00 00 00 00 00 00 00 00 00 00 00 00 00
       0.0 0.0 0.0 0.0
000160 00 00 00 00 00 00 00 00 00 00 00 00 00 00 00 00
       0.0 0.0 0.0 0.0
000170 00 00 00 00 00 00 00 00 00 00 00 00 00 00 00 00
       0.0 0.0 0.0 0.0
000180 00 00 00 00 00 00 00 00 00 00 00 00 00 00 00 00
       0.0 0.0 0.0 0.0
000190 00 00 00 00 00 00 00 00 00 00 00 00 00 00 00 00
       0.0 0.0 0.0 0.0
0001a0 00 00 00 00 00 00 00 00 00 00 00 00 00 00 00 00
       0.0 0.0 0.0 0.0
0001b0 00 00 00 00 00 00 00 00 00 00 00 00 00 00 00 00
       0.0 0.0 0.0 0.0
0001c0 00 00 00 00 00 00 00 00 00 00 00 00 00 00 00 00
       0.0 0.0 0.0 0.0
0001d0 00 00 00 00 00 00 00 00 00 00 00 00 00 00 00 00
       0.0 0.0 0.0 0.0
0001e0 00 00 00 00 00 00 00 00 00 00 00 00 00 00 00 00
       0.0 0.0 0.0 0.0
0001f0 00 00 00 00 00 00 00 00 00 00 00 00 00 00 00 00
       0.0 0.0 0.0 0.0

bn1.running_mean f4 [128]
000000 00 00 00 00 00 00 00 00 00 00 00 00 00 00 00 00
       0.0 0.0 0.0 0.0
000010 00 00 00 00 00 00 00 00 00 00 00 00 00 00 00 00
       0.0 0.0 0.0 0.0
000020 00 00 00 00 00 00 00 00 00 00 00 00 00 00 00 00
       0.0 0.0 0.0 0.0
000030 00 00 00 00 00 00 00 00 00 00 00 00 00 00 00 00
       0.0 0.0 0.0 0.0
000040 00 00 00 00 00 00 00 00 00 00 00 00 00 00 00 00
       0.0 0.0 0.0 0.0
000050 00 00 00 00 00 00 00 00 00 00 00 00 00 00 00 00
       0.0 0.0 0.0 0.0
000060 00 00 00 00 00 00 00 00 00 00 00 00 00 00 00 00
       0.0 0.0 0.0 0.0
000070 00 00 00 00 00 00 00 00 00 00 00 00 00 00 00 00
       0.0 0.0 0.0 0.0
000080 00 00 00 00 00 00 00 00 00 00 00 00 00 00 00 00
       0.0 0.0 0.0 0.0
000090 00 00 00 00 00 00 00 00 00 00 00 00 00 00 00 00
       0.0 0.0 0.0 0.0
0000a0 00 00 00 00 00 00 00 00 00 00 00 00 00 00 00 00
       0.0 0.0 0.0 0.0
0000b0 00 00 00 00 00 00 00 00 00 00 00 00 00 00 00 00
       0.0 0.0 0.0 0.0
0000c0 00 00 00 00 00 00 00 00 00 00 00 00 00 00 00 00
       0.0 0.0 0.0 0.0
0000d0 00 00 00 00 00 00 00 00 00 00 00 00 00 00 00 00
       0.0 0.0 0.0 0.0
0000e0 00 00 00 00 00 00 00 00 00 00 00 00 00 00 00 00
       0.0 0.0 0.0 0.0
0000f0 00 00 00 00 00 00 00 00 00 00 00 00 00 00 00 00
       0.0 0.0 0.0 0.0
000100 00 00 00 00 00 00 00 00 00 00 00 00 00 00 00 00
       0.0 0.0 0.0 0.0
000110 00 00 00 00 00 00 00 00 00 00 00 00 00 00 00 00
       0.0 0.0 0.0 0.0
000120 00 00 00 00 00 00 00 00 00 00 00 00 00 00 00 00
       0.0 0.0 0.0 0.0
000130 00 00 00 00 00 00 00 00 00 00 00 00 00 00 00 00
       0.0 0.0 0.0 0.0
000140 00 00 00 00 00 00 00 00 00 00 00 00 00 00 00 00
       0.0 0.0 0.0 0.0
000150 00 00 00 00 00 00 00 00 00 00 00 00 00 00 00 00
       0.0 0.0 0.0 0.0
000160 00 00 00 00 00 00 00 00 00 00 00 00 00 00 00 00
       0.0 0.0 0.0 0.0
000170 00 00 00 00 00 00 00 00 00 00 00 00 00 00 00 00
       0.0 0.0 0.0 0.0
000180 00 00 00 00 00 00 00 00 00 00 00 00 00 00 00 00
       0.0 0.0 0.0 0.0
000190 00 00 00 00 00 00 00 00 00 00 00 00 00 00 00 00
       0.0 0.0 0.0 0.0
0001a0 00 00 00 00 00 00 00 00 00 00 00 00 00 00 00 00
       0.0 0.0 0.0 0.0
0001b0 00 00 00 00 00 00 00 00 00 00 00 00 00 00 00 00
       0.0 0.0 0.0 0.0
0001c0 00 00 00 00 00 00 00 00 00 00 00 00 00 00 00 00
       0.0 0.0 0.0 0.0
0001d0 00 00 00 00 00 00 00 00 00 00 00 00 00 00 00 00
       0.0 0.0 0.0 0.0
0001e0 00 00 00 00 00 00 00 00 00 00 00 00 00 00 00 00
       0.0 0.0 0.0 0.0
0001f0 00 00 00 00 00 00 00 00 00 00 00 00 00 00 00 00
       0.0 0.0 0.0 0.0

bn1.running_var f4 [128]
000000 00 00 80 3f 00 00 80 3f 00 00 80 3f 00 00 80 3f
       1.0 1.0 1.0 1.0
000010 00 00 80 3f 00 00 80 3f 00 00 80 3f 00 00 80 3f
       1.0 1.0 1.0 1.0
000020 00 00 80 3f 00 00 80 3f 00 00 80 3f 00 00 80 3f
       1.0 1.0 1.0 1.0
000030 00 00 80 3f 00 00 80 3f 00 00 80 3f 00 00 80 3f
       1.0 1.0 1.0 1.0
000040 00 00 80 3f 00 00 80 3f 00 00 80 3f 00 00 80 3f
       1.0 1.0 1.0 1.0
000050 00 00 80 3f 00 00 80 3f 00 00 80 3f 00 00 80 3f
       1.0 1.0 1.0 1.0
000060 00 00 80 3f 00 00 80 3f 00 00 80 3f 00 00 80 3f
       1.0 1.0 1.0 1.0
000070 00 00 80 3f 00 00 80 3f 00 00 80 3f 00 00 80 3f
       1.0 1.0 1.0 1.0
000080 00 00 80 3f 00 00 80 3f 00 00 80 3f 00 00 80 3f
       1.0 1.0 1.0 1.0
000090 00 00 80 3f 00 00 80 3f 00 00 80 3f 00 00 80 3f
       1.0 1.0 1.0 1.0
0000a0 00 00 80 3f 00 00 80 3f 00 00 80 3f 00 00 80 3f
       1.0 1.0 1.0 1.0
0000b0 00 00 80 3f 00 00 80 3f 00 00 80 3f 00 00 80 3f
       1.0 1.0 1.0 1.0
0000c0 00 00 80 3f 00 00 80 3f 00 00 80 3f 00 00 80 3f
       1.0 1.0 1.0 1.0
0000d0 00 00 80 3f 00 00 80 3f 00 00 80 3f 00 00 80 3f
       1.0 1.0 1.0 1.0
0000e0 00 00 80 3f 00 00 80 3f 00 00 80 3f 00 00 80 3f
       1.0 1.0 1.0 1.0
0000f0 00 00 80 3f 00 00 80 3f 00 00 80 3f 00 00 80 3f
       1.0 1.0 1.0 1.0
000100 00 00 80 3f 00 00 80 3f 00 00 80 3f 00 00 80 3f
       1.0 1.0 1.0 1.0
000110 00 00 80 3f 00 00 80 3f 00 00 80 3f 00 00 80 3f
       1.0 1.0 1.0 1.0
000120 00 00 80 3f 00 00 80 3f 00 00 80 3f 00 00 80 3f
       1.0 1.0 1.0 1.0
000130 00 00 80 3f 00 00 80 3f 00 00 80 3f 00 00 80 3f
       1.0 1.0 1.0 1.0
000140 00 00 80 3f 00 00 80 3f 00 00 80 3f 00 00 80 3f
       1.0 1.0 1.0 1.0
000150 00 00 80 3f 00 00 80 3f 00 00 80 3f 00 00 80 3f
       1.0 1.0 1.0 1.0
000160 00 00 80 3f 00 00 80 3f 00 00 80 3f 00 00 80 3f
       1.0 1.0 1.0 1.0
000170 00 00 80 3f 00 00 80 3f 00 00 80 3f 00 00 80 3f
       1.0 1.0 1.0 1.0
000180 00 00 80 3f 00 00 80 3f 00 00 80 3f 00 00 80 3f
       1.0 1.0 1.0 1.0
000190 00 00 80 3f 00 00 80 3f 00 00 80 3f 00 00 80 3f
       1.0 1.0 1.0 1.0
0001a0 00 00 80 3f 00 00 80 3f 00 00 80 3f 00 00 80 3f
       1.0 1.0 1.0 1.0
0001b0 00 00 80 3f 00 00 80 3f 00 00 80 3f 00 00 80 3f
       1.0 1.0 1.0 1.0
0001c0 00 00 80 3f 00 00 80 3f 00 00 80 3f 00 00 80 3f
       1.0 1.0 1.0 1.0
0001d0 00 00 80 3f 00 00 80 3f 00 00 80 3f 00 00 80 3f
       1.0 1.0 1.0 1.0
0001e0 00 00 80 3f 00 00 80 3f 00 00 80 3f 00 00 80 3f
       1.0 1.0 1.0 1.0
0001f0 00 00 80 3f 00 00 80 3f 00 00 80 3f 00 00 80 3f
       1.0 1.0 1.0 1.0

fc2.weight f4 [64, 130]
000000 e0 87 31 bf 0d 88 87 3d 02 cd 20 be 87 fe aa 3e
       -0.69347954 0.066177465 -0.15703204 0.33397314
000010 07 85 b3 bd 12 4e e3 be 3b 4e 92 be df 81 a5 3e
       -0.08765607 -0.443955 -0.2857531 0.32325646
000020 d5 5f 97 bc fe c4 2d be 96 50 0d 3d 7c ca b3 bd
       -0.018478313 -0.16969678 0.03450068 -0.08778855
000030 68 6f 87 be 3d 34 1d be 42 38 51 3e e8 6d 59 bd
       -0.26452184 -0.15351959 0.20431617 -0.05308333
000040 c8 ec 2b bf ac 9b 22 be 8b 17 93 3d 79 3f 5d be
       -0.67158175 -0.15879697 0.07182225 -0.21606244
000050 d3 92 a4 3d d6 e3 9d bd 5d ed f2 3d 25 18 3d 3e
       0.08035817 -0.07709472 0.1186168 0.18466242
000060 89 e3 3c be d4 b2 83 be b5 08 50 be fb 34 02 3d
       -0.18446173 -0.25722373 -0.20315821 0.031788807
000070 e0 62 1c 3e de d6 ab be 7d b8 16 be 2c 4b ed be
       0.15272093 -0.33562368 -0.14718814 -0.46346414
000080 40 0c 96 3c f8 a6 4a 3e 46 a2 53 bd a3 75 bc be
       0.018316388 0.19790256 -0.051668428 -0.368085
000090 9b 4c 45 bf df 6c 08 bd aa cd 0c be e8 51 09 bf
       -0.77070016 -0.033306953 -0.1375033 -0.53640604
0000a0 ee e6 ac 3d 67 0e 4e 3e 3c c2 61 be 11 2a 35 3e
       0.08442484 0.20122682 -0.22046751 0.17691828
0000b0 62 59 ed 3d a9 b8 05 bd b5 ec 12 bf 3e b5 ce 3d
       0.11589314 -0.03264681 -0.57392436 0.10093163
0000c0 89 f7 e0 bd 20 b5 2f 3e c0 5b cc 3c 93 f4 b4 be
       -0.109847136 0.17158937 0.024946094 -0.35342845
0000d0 ce cb aa 3d 94 5c 0c 3f e8 eb 62 be f4 33 c4 3d
       0.08339654 0.54828763 -0.22160304 0.09580222
0000e0 a5 64 b9 bc c7 e6 01 bc 2b 15 ca be 88 d2 a7 be
       -0.022630999 -0.007928557 -0.39469275 -0.3277781
0000f0 c2 f4 a0 3d 52 c1 6c bc 85 33 f4 3d 8c ed ac be
       0.07859184 -0.014450388 0.11923889 -0.33774984
000100 7c 3a 96 bb 69 79 86 bc 7e 47 80 3e d9 60 ab 3d
       -0.0045846086 -0.016415315 0.25054544 0.083680816
000110 09 a2 93 3e a2 91 7e 3e 93 f4 2c be 5d 47 e1 b9
       0.2883456 0.24860242 -0.16890173 -0.00042968514
000120 0d 58 a6 3d a0 c0 97 bb 54 6b af 3e 78 56 d9 bd
       0.08122263 -0.004631117 0.34261572 -0.10612196
000130 c8 70 e5 bd 61 c5 0b bd e0 70 c3 3d 6d 4e 17 3e
       -0.11203152 -0.034123782 0.095430136 0.14776011
000140 06 0a 55 3d 9e e2 c0 bd 54 dc 8a 3d 21 b8 37 bd
       0.052011512 -0.09418224 0.067803055 -0.044853333
000150 51 f0 ad 3d 2a 06 56 3e ff b4 61 bf 32 9b 0d 3e
       0.08493102 0.20900789 -0.88166803 0.13828734
000160 04 a8 17 3e 88 4b 28 be 7f 24 7b 3b 67 6f 12 be
       0.14810187 -0.16435063 0.0038321314 -0.14300309
000170 b4 51 86 bc 19 91 98 be 85 eb 83 bd d6 9b 6e bd
       -0.016396381 -0.297982 -0.06441406 -0.058254085
000180 4b 17 5c 3d 04 81 89 3d 39 df ad 3d 7d 9a 6c 3e
       0.05373315 0.06714061 0.08489842 0.23105808
000190 e0 98 a7 bc e9 fa 3f be c1 a3 86 3d 5c db c7 bd
       -0.020458639 -0.18748058 0.06574202 -0.09758636
0001a0 da ed 2d be c1 2f 36 3e cc b3 f3 bd 95 a5 12 3e
       -0.16985264 0.17791654 -0.11899528 0.14320977
0001b0 37 82 3c be a8 3d 65 be d9 a6 9a bd 9a 30 86 bd
       -0.18409048 -0.22386801 -0.07551355 -0.06552239
0001c0 30 c1 0c 3e 9d 55 d5 bd aa 03 94 3d 8a 69 91 3e
       0.1374557 -0.1041672 0.07227261 0.28400832
0001d0 5b f1 8c 3e b6 1a 92 3e 8d e6 b7 bd 59 21 9a be
       0.2752789 0.28536004 -0.08979521 -0.30103567
0001e0 f2 86 a7 3d 14 9f 87 bd 71 68 d4 3c aa 76 a1 be
       0.08180036 -0.066221386 0.025928708 -0.31535846
0001f0 2a a8 e5 3c c2 ff e2 3d 04 6b 88 bf 8c cf 80 3e
       0.028034288 0.11083938 -1.0657659 0.25158346
000200 96 00 8b bd 8b 17 fd bc 60 4b 9b bb 13 44 00 be
       -0.06787221 -0.030895015 -0.00473921 -0.12525968
000210 7d 30 ce bd 82 9b 9a bd 8a df 1c be 94 c9 ad be
       -0.10067842 -0.07549192 -0.15319648 -0.33942854
000220 61 7d 7a be 04 29 0c 3e e2 d6 d7 bd 73 84 48 bc
       -0.24461891 0.13687521 -0.105390325 -0.01223861
000230 13 31 7b bb ad 17 b6 be b5 10 c0 3d 11 04 a3 3e
       -0.003832881 -0.35564938 0.093781866 0.3183904
000240 2d 64 ae be 34 62 c1 3d b2 47 61 be 79 a2 03 3d
       -0.34060803 0.09442559 -0.22000006 0.032137368
000250 60 52 b1 be ef d6 77 be c4 35 1d 3e 20 bc 4f be
       -0.3463316 -0.24203084 0.15352541 -0.20286608
000260 b4 cc 63 bd 23 0b 55 3d 06 a0 b7 3e d9 a2 23 3d
       -0.055615142 0.052012574 0.35864276 0.039950226
000270 b8 d4 29 bd b1 5b 1f 3d 8b 9b 84 bd 67 cb 42 be
       -0.04146263 0.038905803 -0.0647498 -0.19022904
000280 3b 74 08 bc 41 f6 b9 bb 4d 34 32 bf bf 89 2f 3d
       -0.008328493 -0.0056751077 -0.69611055 0.042855974
000290 d0 8e 02 be d0 3b 3e bf fe fe 1b bd 9a c5 0b 3e
       -0.12749791 -0.74310017 -0.038084976 0.13649598
0002a0 f3 9b f1 3d 0e ef e0 be 97 68 fc bd 04 0d 08 3d
       0.11797323 -0.43932384 -0.123246364 0.033215538
0002b0 a1 51 85 be 56 45 5a bc 7f 42 93 bd 21 01 ac bd
       -0.2603884 -0.013322195 -0.071904175 -0.08398653
0002c0 89 f2 2a be 0e f5 4e bd ae 82 30 3e b4 21 dc bd
       -0.16694082 -0.05052667 0.1723735 -0.10748616
0002d0 c0 6a 66 bd 79 7c c1 bd 0c 40 81 bd 9e 8e 87 bd
       -0.05625415 -0.094475694 -0.06311044 -0.06618999
0002e0 b5 52 a1 3c 34 37 b2 bb e7 f1 12 3d b9 0f 46 3c
       0.019692758 -0.0054387096 0.035875227 0.0120887095
0002f0 e4 43 6c 3d cc c6 66 bf 80 a4 78 3e e1 65 ac 3d
       0.057681933 -0.9014709 0.24281502 0.08417869
000300 73 5d 0c 3e a6 ae 24 be 8c b4 63 bd 78 48 8f be
       0.13707523 -0.16082248 -0.055592105 -0.27984977
000310 7f bc c9 be a1 9d 10 be a7 73 47 be 1e b7 39 be
       -0.39401624 -0.1412263 -0.19477712 -0.1813626
000320 97 5b 16 bd 5d b5 e3 be 16 b5 88 3d 9d 57 c8 3d
       -0.03670844 -0.44474307 0.066751644 0.09782336
000330 84 9f 6c 3d d2 47 a4 3b db 98 f7 3b 98 79 e9 bd
       0.057769313 0.0050134445 0.0075560636 -0.11400145
000340 a8 4a 6b bc 7c ca 02 be 9b da cb be 42 bc 64 bd
       -0.014361061 -0.12772554 -0.3981522 -0.0558436
000350 dd 5c 02 3e 74 33 38 be a0 3c 0e 3d 07 01 47 3d
       0.12730737 -0.17988378 0.034725785 0.048584964
000360 24 94 97 3d a9 c2 92 3c 10 9a af 3c 01 f3 19 bd
       0.074013025 0.017915087 0.021435767 -0.037585262
000370 e1 bb ef 3d b5 b9 91 3e dd ab 6e bd b0 77 02 be
       0.11705757 0.28461996 -0.05826937 -0.1274097
000380 67 00 4d 3e ba f4 d8 bc a8 7c 95 3d 3a d8 cd 3e
       0.20019685 -0.026483882 0.07299167 0.4020403
000390 56 01 db be 17 87 13 bd 6d cf bd 3e 6c 1e 31 bd
       -0.42774457 -0.036017504 0.37072316 -0.043241903
0003a0 9a 0e a5 3d 52 52 74 3d b1 4f 01 3e 24 c5 f5 3d
       0.08059426 0.05964882 0.12628056 0.12000492
0003b0 2b 59 91 3d 2d c0 de be fe ae c5 3c ab 41 47 3e
       0.070970856 -0.43505993 0.024131294 0.19458644
0003c0 27 b7 41 3d 56 08 22 bc e7 5c 0a bf 65 ae 81 bd
       0.04729381 -0.009889683 -0.5404801 -0.06332091
0003d0 f4 86 58 bd 3a a7 5b bd eb a2 18 bf c7 6a 5d 3d
       -0.052863076 -0.053626277 -0.59623593 0.05405691
0003e0 99 36 a2 bd 13 1b 9f 3c a0 06 cc 3c 15 df 0b bd
       -0.0792057 0.01942209 0.024905503 -0.034148294
0003f0 b6 5c 0f 3f f6 1c a2 3d e5 7a 5a 3c 50 8e fe 3d
       0.5600084 0.0791568 0.013334964 0.12429488

fc2.bias f4 [64]
000000 37 13 8e ba bb 9d 1f 3e 76 fd 62 bd 86 fd 9c 3d
       -0.0010839467 0.15587513 -0.0554175 0.07665543
000010 7e 14 e7 bc 4d 9b ce bc 40 2d c5 bc 60 b2 4f bd
       -0.028208014 -0.025220538 -0.024069428 -0.05070722
000020 f5 46 3a bc 91 9a 0e 3e ff 01 8e bd 63 c9 80 3c
       -0.011369457 0.1392615 -0.069339745 0.015721029
000030 c8 2b 4c 3e b5 58 8e 3d ea 38 13 3e 8a f2 11 bd
       0.19938576 0.06950513 0.1437718 -0.035631694
000040 54 27 9f 3d e3 a9 a0 3d 06 6c 44 bd c5 3b 01 3e
       0.07771173 0.07844903 -0.04795458 0.12620457
000050 db 31 8d 3c d7 f7 fd 3d ac 84 ea bc 60 50 df 3d
       0.017235687 0.12400787 -0.028627716 0.10904002
000060 7e c1 a5 bd 89 52 0c 3e ff 4f 1e 3b bc 3c 85 bc
       -0.08093546 0.1370336 0.0024156568 -0.016264312
000070 8d f4 fa 3c f0 5a 85 3d d8 d5 f7 3c c1 82 13 be
       0.030634189 0.065114856 0.030253336 -0.14405347
000080 51 a7 7c 3b 01 cd 7a bd 31 75 d7 3d 48 a0 ad bd
       0.0038551877 -0.061230663 0.10520399 -0.08477837
000090 04 3b 1d bd 5c 1e 02 3d 77 16 c0 3d f7 35 aa 3c
       -0.03838636 0.031767234 0.09379285 0.020777686
0000a0 b4 9f ef bc b2 14 2c be 84 48 0f be 8b a6 6d 3d
       -0.029250957 -0.1680477 -0.13992506 0.058020156
0000b0 68 41 7c 3c 3a 89 37 3e b9 31 8d 3d 3c e0 21 3d
       0.015396453 0.17923442 0.068942495 0.039520487
0000c0 0b 45 dc bd 8a 8a c2 bb b2 d8 c3 bd 79 aa 60 3d
       -0.107553564 -0.0059369253 -0.09562816 0.054850075
0000d0 30 6c 24 3d e0 60 0e 3d 66 f6 46 3d 7c ff 88 3d
       0.04014224 0.034760356 0.048574828 0.06689355
0000e0 1b f9 a5 bc c3 93 20 bd 73 1a 9a 3c 0b 1b 83 bd
       -0.020260384 -0.039203417 0.01881144 -0.064016424
0000f0 c0 e7 09 bc b3 7a 09 3e 42 4a 2c 3e d1 dc e6 bd
       -0.00841707 0.13425712 0.16825202 -0.11272586

bn2.weight f4 [64]
000000 b8 ad 9c 3d 00 8c a3 3d 2d 6f 1d 3f 70 f5 98 3e
       0.07650322 0.07985687 0.61497766 0.29874754
000010 ce 48 f0 3e 30 8d 35 3e 9a 64 23 3f f3 88 6c 3f
       0.46930546 0.1772964 0.6382538 0.9239647
000020 48 29 70 3e 6f bb 0a 3f c0 af e7 3e 16 27 e2 3e
       0.23453248 0.5419225 0.45251274 0.44170445
000030 20 c6 9a 3c 28 2d d8 3d 8e f2 b9 3e 16 f0 3e 3f
       0.018893301 0.10555488 0.36317867 0.7458509
000040 6e fa 05 3f b0 7a 47 3d a2 c8 76 3f a8 76 96 3e
       0.5233525 0.04870099 0.9639989 0.29387403
000050 78 72 aa 3d 52 b5 07 3f a4 02 65 3e 83 ba 71 3f
       0.083226144 0.5301105 0.22364289 0.9442522
000060 2a 71 9c 3e f3 b8 0e 3f 18 3b fd 3d a0 5c c2 3c
       0.30555087 0.5575096 0.12364787 0.023725808
000070 32 84 d3 3e a0 b6 72 3f 1b e1 5d 3f da a6 0d 3f
       0.41311795 0.94809914 0.8667161 0.5533272
000080 7c 54 20 3f a9 e6 21 3f 4e 2f 04 3f 18 c4 ba 3e
       0.6262891 0.63242584 0.5163468 0.36477733
000090 40 ee 99 3e 88 39 0a 3e a4 59 22 3e 09 4e 1d 3f
       0.30064583 0.13498509 0.15854508 0.614472
0000a0 10 c4 6d 3e 6d 9e 00 3f 2d 06 0a 3f 78 97 1d 3f
       0.23219323 0.5024174 0.53915673 0.6155925
0000b0 a0 68 2f 3e 7a fe 68 3f ef 72 5d 3f 73 e6 7a 3f
       0.17129755 0.910133 0.865035 0.9800789
0000c0 e0 5e 4e 3e 48 d4 79 3e d5 7e 64 3f 35 08 1c 3f
       0.2015338 0.24397385 0.8925603 0.6095002
0000d0 40 65 0f 3c 7d 53 0c 3f b6 ef 19 3f 14 10 e7 3e
       0.008752167 0.54814893 0.60131395 0.45129454
0000e0 2c 0f b6 3e a0 43 15 3d 00 9a 86 3a 01 10 4a 3f
       0.3555845 0.036441445 0.0010269284 0.7893067
0000f0 02 52 8c 3e b8 f5 5a 3f 50 ce 59 3f 8c b5 73 3e
       0.27406317 0.8553119 0.8508043 0.23799723

bn2.bias f4 [64]
000000 00 00 00 00 00 00 00 00 00 00 00 00 00 00 00 00
       0.0 0.0 0.0 0.0
000010 00 00 00 00 00 00 00 00 00 00 00 00 00 00 00 00
       0.0 0.0 0.0 0.0
000020 00 00 00 00 00 00 00 00 00 00 00 00 00 00 00 00
       0.0 0.0 0.0 0.0
000030 00 00 00 00 00 00 00 00 00 00 00 00 00 00 00 00
       0.0 0.0 0.0 0.0
000040 00 00 00 00 00 00 00 00 00 00 00 00 00 00 00 00
       0.0 0.0 0.0 0.0
000050 00 00 00 00 00 00 00 00 00 00 00 00 00 00 00 00
       0.0 0.0 0.0 0.0
000060 00 00 00 00 00 00 00 00 00 00 00 00 00 00 00 00
       0.0 0.0 0.0 0.0
000070 00 00 00 00 00 00 00 00 00 00 00 00 00 00 00 00
       0.0 0.0 0.0 0.0
000080 00 00 00 00 00 00 00 00 00 00 00 00 00 00 00 00
       0.0 0.0 0.0 0.0
000090 00 00 00 00 00 00 00 00 00 00 00 00 00 00 00 00
       0.0 0.0 0.0 0.0
0000a0 00 00 00 00 00 00 00 00 00 00 00 00 00 00 00 00
       0.0 0.0 0.0 0.0
0000b0 00 00 00 00 00 00 00 00 00 00 00 00 00 00 00 00
       0.0 0.0 0.0 0.0
0000c0 00 00 00 00 00 00 00 00 00 00 00 00 00 00 00 00
       0.0 0.0 0.0 0.0
0000d0 00 00 00 00 00 00 00 00 00 00 00 00 00 00 00 00
       0.0 0.0 0.0 0.0
0000e0 00 00 00 00 00 00 00 00 00 00 00 00 00 00 00 00
       0.0 0.0 0.0 0.0
0000f0 00 00 00 00 00 00 00 00 00 00 00 00 00 00 00 00
       0.0 0.0 0.0 0.0

bn2.running_mean f4 [64]
000000 00 00 00 00 00 00 00 00 00 00 00 00 00 00 00 00
       0.0 0.0 0.0 0.0
000010 00 00 00 00 00 00 00 00 00 00 00 00 00 00 00 00
       0.0 0.0 0.0 0.0
000020 00 00 00 00 00 00 00 00 00 00 00 00 00 00 00 00
       0.0 0.0 0.0 0.0
000030 00 00 00 00 00 00 00 00 00 00 00 00 00 00 00 00
       0.0 0.0 0.0 0.0
000040 00 00 00 00 00 00 00 00 00 00 00 00 00 00 00 00
       0.0 0.0 0.0 0.0
000050 00 00 00 00 00 00 00 00 00 00 00 00 00 00 00 00
       0.0 0.0 0.0 0.0
000060 00 00 00 00 00 00 00 00 00 00 00 00 00 00 00 00
       0.0 0.0 0.0 0.0
000070 00 00 00 00 00 00 00 00 00 00 00 00 00 00 00 00
       0.0 0.0 0.0 0.0
000080 00 00 00 00 00 00 00 00 00 00 00 00 00 00 00 00
       0.0 0.0 0.0 0.0
000090 00 00 00 00 00 00 00 00 00 00 00 00 00 00 00 00
       0.0 0.0 0.0 0.0
0000a0 00 00 00 00 00 00 00 00 00 00 00 00 00 00 00 00
       0.0 0.0 0.0 0.0
0000b0 00 00 00 00 00 00 00 00 00 00 00 00 00 00 00 00
       0.0 0.0 0.0 0.0
0000c0 00 00 00 00 00 00 00 00 00 00 00 00 00 00 00 00
       0.0 0.0 0.0 0.0
0000d0 00 00 00 00 00 00 00 00 00 00 00 00 00 00 00 00
       0.0 0.0 0.0 0.0
0000e0 00 00 00 00 00 00 00 00 00 00 00 00 00 00 00 00
       0.0 0.0 0.0 0.0
0000f0 00 00 00 00 00 00 00 00 00 00 00 00 00 00 00 00
       0.0 0.0 0.0 0.0

bn2.running_var f4 [64]
000000 00 00 80 3f 00 00 80 3f 00 00 80 3f 00 00 80 3f
       1.0 1.0 1.0 1.0
000010 00 00 80 3f 00 00 80 3f 00 00 80 3f 00 00 80 3f
       1.0 1.0 1.0 1.0
000020 00 00 80 3f 00 00 80 3f 00 00 80 3f 00 00 80 3f
       1.0 1.0 1.0 1.0
000030 00 00 80 3f 00 00 80 3f 00 00 80 3f 00 00 80 3f
       1.0 1.0 1.0 1.0
000040 00 00 80 3f 00 00 80 3f 00 00 80 3f 00 00 80 3f
       1.0 1.0 1.0 1.0
000050 00 00 80 3f 00 00 80 3f 00 00 80 3f 00 00 80 3f
       1.0 1.0 1.0 1.0
000060 00 00 80 3f 00 00 80 3f 00 00 80 3f 00 00 80 3f
       1.0 1.0 1.0 1.0
000070 00 00 80 3f 00 00 80 3f 00 00 80 3f 00 00 80 3f
       1.0 1.0 1.0 1.0
000080 00 00 80 3f 00 00 80 3f 00 00 80 3f 00 00 80 3f
       1.0 1.0 1.0 1.0
000090 00 00 80 3f 00 00 80 3f 00 00 80 3f 00 00 80 3f
       1.0 1.0 1.0 1.0
0000a0 00 00 80 3f 00 00 80 3f 00 00 80 3f 00 00 80 3f
       1.0 1.0 1.0 1.0
0000b0 00 00 80 3f 00 00 80 3f 00 00 80 3f 00 00 80 3f
       1.0 1.0 1.0 1.0
0000c0 00 00 80 3f 00 00 80 3f 00 00 80 3f 00 00 80 3f
       1.0 1.0 1.0 1.0
0000d0 00 00 80 3f 00 00 80 3f 00 00 80 3f 00 00 80 3f
       1.0 1.0 1.0 1.0
0000e0 00 00 80 3f 00 00 80 3f 00 00 80 3f 00 00 80 3f
       1.0 1.0 1.0 1.0
0000f0 00 00 80 3f 00 00 80 3f 00 00 80 3f 00 00 80 3f
       1.0 1.0 1.0 1.0

fc3.weight f4 [1, 64]
000000 b3 bd 56 3e 2a df 78 bd 52 58 91 be fe 17 a3 3e
       0.20970802 -0.0607597 -0.28387696 0.31854242
000010 cc 84 20 3e dc 60 e3 bd aa c8 13 3e 4f de a0 bb
       0.15675658 -0.11102459 0.14432016 -0.0049093137
000020 f2 a4 64 be 69 33 4b bd 14 61 6d be 29 b3 90 3d
       -0.22328547 -0.049609575 -0.23181564 0.07065422
000030 23 89 1e bd 4b 04 f2 3d 23 52 6b bd 48 73 2d be
       -0.038705003 0.11817225 -0.05745138 -0.16938508
000040 33 71 4a bd fd 46 b8 3e 08 43 6a bd d8 23 70 bd
       -0.04942436 0.3599166 -0.057192832 -0.058627933
000050 c7 8f 5a 3e 21 ad bb bd 0e 7b b9 be e8 30 fa bc
       0.21343909 -0.09163881 -0.36226696 -0.030540898
000060 66 e3 8e bd c7 30 34 bd 58 c1 dc 3e 1e 83 e9 bd
       -0.069769666 -0.04399183 0.4311626 -0.11401962
000070 1f 08 89 bd 09 a9 50 3e b2 d7 94 3e eb 55 e0 bd
       -0.06691002 0.20376982 0.29070812 -0.109538876
000080 b6 95 20 bd f1 7d 0f be 2b 87 af bd 58 a5 a1 bd
       -0.039205275 -0.14012887 -0.08570703 -0.07892865
000090 38 ad 41 be 4e fb 07 be 05 1b e3 bd b7 2d c2 3e
       -0.18913734 -0.13279459 -0.11089138 0.37925503
0000a0 68 96 37 be b8 3d ad bd dc 9e f5 3c eb 7b c1 3d
       -0.17928469 -0.084590375 0.029982977 0.094474636
0000b0 06 38 06 3f ee 2d 2e 3e 35 15 f1 3d 53 46 08 3e
       0.52429235 0.17009708 0.11771623 0.13308077
0000c0 a6 93 d9 bc 90 6b 59 be ed 96 46 be ed d4 1c 3e
       -0.026559662 -0.21232438 -0.19393511 0.153156
0000d0 c2 09 9a bd c9 c3 f6 3d e0 36 b5 bd f7 50 04 3e
       -0.075213924 0.12049062 -0.08848357 0.1292151
0000e0 7c 55 de bd b1 eb 32 3e dc 9a 79 bd 29 09 ab bd
       -0.108561486 0.17472722 -0.0609387 -0.083513565
0000f0 91 d5 0f 3e 1d 00 5f bd e8 82 2a be d7 e8 3d 3e
       0.14046313 -0.054443467 -0.166515 0.18545853
