p3_collaboration_and_competition/weights/critic_1_300.pth (torch_old, 52380 bytes, 17 tensors)

bn0.weight f4 [24]
0.577691 0.47482586 0.7326235 0.41358116 1.0131705 0.6741549 0.47936004 0.032212794
0.6099479 0.1565995 0.64136124 0.35411215 0.9288973 0.91834694 0.69716585 0.53599644
0.70655185 0.27727526 0.42506486 0.72835 0.6284053 0.5622659 0.594887 0.74992245
00000000: 8fe3 133f 601c f33e 378d 3b3f e9c0 d33e
00000010: 92af 813f 6a95 2c3f ae6e f53e 90f1 033d
00000020: 8c25 1c3f 9f5b 203e 4030 243f 304e b53e
00000030: 37cc 6d3f c918 6b3f 7679 323f 1037 093f
00000040: 95e0 343f 06f7 8d3e 1aa2 d93e 2575 3a3f
00000050: 2bdf 203f a8f0 0f3f 844a 183f ebfa 3f3f

bn0.bias f4 [24]
0.053120375 0.026428262 0.06501191 0.037698384 0.05286804 -0.014664189 0.02325519 0.028268218
0.05332986 0.06884112 0.09670187 0.069215566 0.0981909 -0.03262774 0.047017302 0.018566463
0.049110994 0.030152516 0.028454706 0.053153202 0.065543585 0.0094317505 0.025701119 0.049339764
00000000: c094 593d 1580 d83c f724 853d 9f69 1a3d
00000010: 288c 583d 1142 70bc ab81 be3c c092 e73c
00000020: 6970 5a3d 93fc 8c3d a10b c63d e4c0 8d3d
00000030: 5018 c93d aaa4 05bd 3795 403d b218 983c
00000040: 9c28 493d 6902 f73c d819 e93c 2cb7 593d
00000050: b73b 863d a187 1a3c 278b d23c 7e18 4a3d

bn0.running_mean f4 [24]
-6.1941113 -1.0933784 1.4948812 0.25476813 0.023221157 2.9162679 1.4948812 0.25476813
-6.555254 -1.1529231 1.7359862 0.22641243 0.029713295 2.8374686 1.7359862 0.22641243
-6.8821135 -1.2093384 2.0999525 0.19905011 0.03453727 2.6873772 2.0999525 0.19905011
00000000: 2936 c6c0 d3f3 8bbf 4458 bf3f f870 823e
00000010: 4c3a be3c 22a4 3a40 4458 bf3f f870 823e
00000020: a4c4 d1c0 fc92 93bf cc34 de3f a9d8 673e
00000030: 4c69 f33c 1699 3540 cc34 de3f a9d8 673e
00000040: 463a dcc0 9acb 9abf 9f65 0640 cbd3 4b3e
00000050: f476 0d3d fdfd 2b40 9f65 0640 cbd3 4b3e

bn0.running_var f4 [24]
13.9780245 0.9297302 108.20325 3.9699702 40.05136 5.333506 108.20325 3.9699702
12.582838 0.9251571 116.75421 4.351744 43.248833 5.962558 116.75421 4.351744
11.086075 0.9070867 123.15972 4.867298 46.4194 7.0497885 123.15972 4.867298
00000000: fda5 5f41 cc02 6e3f 1068 d842 fe13 7e40
00000010: 9834 2042 15ac aa40 1068 d842 fe13 7e40
00000020: 4e53 4941 19d7 6c3f 2882 e942 7d41 8b40
00000030: cefe 2c42 46cd be40 2882 e942 7d41 8b40
00000040: 9060 3141 d536 683f c751 f642 e8c0 9b40
00000050: 77ad 3942 de97 e140 c751 f642 e8c0 9b40

fcs1.weight f4 [128, 24]
0.042902987 -0.17055371 -0.08701019 -0.018293243 0.8624009 0.20004018 0.029199794 0.014455239
-0.03800112 -0.10410098 -0.123266615 0.06035505 0.77441317 0.11892474 -0.088774435 -0.06926315
-0.067092456 0.034578912 -0.09686879 0.009427712 0.2934895 0.032570325 -0.17046688 0.12766796
0.056355443 -0.1668669 0.027514208 0.00271463 -0.20991327 0.0788258 0.010714237 -0.000663733
-0.03342663 -0.10121878 -0.2610676 0.05658857 -0.40789 0.045665495 -0.15415196 0.052554213
-0.10034965 -0.03285498 -0.11822986 0.007818381 -0.5127846 -0.014566358 -0.10910595 0.06900431
0.066057004 0.09507059 0.06656396 0.07107695 0.10075154 -0.07855567 0.05413167 0.0017920563
0.0553596 -0.008034116 0.037853565 -0.06679793 0.12453768 0.0031419618 0.009010813 0.021586822
0.062270857 -0.0841435 0.15488851 -0.04225689 -0.059069395 -0.016826978 0.12301027 -0.014153062
-0.066383876 -0.027508704 0.07582791 0.05026877 -0.03422807 0.064776815 -0.0012133361 0.022200035
-0.0486092 -0.06652861 0.11558498 -0.07547811 0.047286116 -0.06898219 0.01949977 -0.021210097
0.032834567 -0.03797158 -0.08324704 -0.037345633 -0.0463542 0.013202531 -0.15329191 -0.061108697
0.27984884 0.108011134 0.09912415 -0.060405064 0.185006 0.1406775 0.015104916 -0.053117163
0.1219917 0.12680365 0.047039956 -0.02015539 0.19944198 0.096979804 0.069102846 -0.076059975
0.18318732 0.05183061 -0.07609133 0.026914183 -0.049654696 0.121501595 -0.0644068 -0.07183685
0.048635636 -0.0116334725 -0.15953343 -0.08270345 0.0118330885 -0.037619285 -0.0498 -0.056691315
0.026621202 -0.018525103 -0.042392913 0.10778475 -0.023200067 4.518678e-05 -0.0118984105 -0.0007901073
-0.081448086 0.0016523728 -0.0020011475 0.12885515 -0.04901895 -0.14646187 0.020096269 0.13338378
0.0072422344 0.14072587 0.013226449 -0.048439723 -0.03269058 0.06573955 0.0048083034 0.04342662
-0.012412491 -0.041098315 0.086348906 -0.06814745 0.07866952 -0.06802181 0.0174513 0.025954628
-0.07552112 0.10553604 0.028808136 -0.11250681 -0.086522356 -0.16237046 -0.0058951527 -0.07719059
0.019271227 -0.27463794 0.060476404 0.011178126 -0.16623835 -0.1264383 0.068988174 0.071674205
0.043236375 -0.1409554 0.1654488 0.08215228 -0.33643183 0.036786154 0.082922146 0.12072853
-0.09031944 -0.21883638 -0.25440255 0.004584851 -0.320671 0.12820622 -0.15346548 0.09064753
-0.044753153 0.14000292 -0.018304273 0.040211923 0.19896941 0.032231167 -0.08319965 -0.04459973
0.12225076 0.071692005 0.09035558 0.049300347 0.15566814 -0.079694375 0.13372603 -0.07547885
-0.060495224 0.11544428 -0.047169443 -0.02210113 0.10536513 0.1663993 -0.0964353 -0.05221248
-0.08632721 -0.09225014 -0.19510008 -0.034362458 0.15400557 -0.09900232 -0.17297544 -0.08086837
0.06547264 -0.16989426 -0.010886384 0.05088712 0.013149908 -0.007131598 -0.011629375 -0.020170374
0.078820996 -0.03655743 0.29347092 0.08423016 -0.069849126 -0.09877851 0.18403034 0.11812268
-0.019797664 -0.12506026 0.0017179883 -0.12605844 0.07247811 -0.031862985 -0.061446402 -0.029752629
-0.08146276 -0.0012445413 0.14857274 -0.046227954 0.08582429 -0.04056191 0.20382935 0.015760424
00000000: 0bbb 2f3d a2a5 2ebe 6632 b2bd b6db 95bc
00000010: 4ec6 5c3f 55d7 4c3e 6834 ef3c abd5 6c3c
00000020: 10a7 1bbd e532 d5bd 3573 fcbd db36 773d
00000030: f13f 463f d08e f33d 5fcf b5bd d7d9 8dbd
00000040: c567 89bd 9ea2 0d3d 2563 c6bd b176 1a3c
00000050: 4144 963e 7668 053d df8e 2ebe 64bb 023e
00000060: f7d4 663d 28df 2abe 7a65 e13c efe7 313b
00000070: 81f3 56be 6c6f a13d c48a 2f3c 5efe 2dba
00000080: 5dea 08bd cb4b cfbd a7aa 85be 6bc9 673d
00000090: f5d6 d0be be0b 3b3d 03da 1dbe 1643 573d
000000a0: 1e84 cdbd f292 06bd 7f22 f2bd ab18 003c
000000b0: da45 03bf bca7 6ebc f172 dfbd 2252 8d3d
000000c0: e548 873d 5fb4 c23d af52 883d cb90 913d
000000d0: d356 ce3d cce1 a0bd 2cb9 5d3d 6ee3 ea3a
000000e0: bfc0 623d 86a1 03bc 570c 1b3d 5acd 88bd
000000f0: 9c0d ff3d 5fe9 4d3b 17a2 133c d9d6 b03c
00000100: ba0f 7f3d 6d53 acbd 189b 1e3e 9015 2dbd
00000110: c0f2 71bd bbd8 89bc cfec fb3d 3fe2 67bc
00000120: 45f4 87bd ef59 e1bc aa4b 9b3d a0e6 4d3d
00000130: bc32 0cbd b5a9 843d ce08 9fba d9dc b53c
00000140: 711a 47bd 2740 88bd d1b7 ec3d 4494 9abd
00000150: 16af 413d 8946 8dbd fbbd 9f3c ccc0 adbc
00000160: 8a7d 063d 1688 1bbd 6d7d aabd bcf7 18bd
00000170: e7dd 3dbd 6e4f 583c 8ef8 1cbe 1d4d 7abd
00000180: 5948 8f3e f134 dd3d 9a01 cb3d 4d6b 77bd
00000190: 3672 3d3e c30d 103e 9c7a 773c 6291 59bd
000001a0: c9d6 f93d d1d8 013e f8ac 403d eb1c a5bc
000001b0: 853a 4c3e 599d c63d cb85 8d3d 55c5 9bbd
000001c0: 7595 3b3e 554c 543d c5d5 9bbd 227b dc3c
000001d0: b962 4bbd d4d5 f83d b6e7 83bd 331f 93bd
000001e0: 2936 473d 529a 3ebc bb5c 23be 6d60 a9bd
000001f0: 92df 413c ae16 1abd 16fb 4bbd 2735 68bd
00000200: b514 da3c f5c1 97bc 31a4 2dbd 40be dc3d
00000210: 110e bebc f086 3d38 8df1 42bc 341f 4fba
00000220: 41ce a6bd 6e94 d83a af25 03bb 9bf2 033e
00000230: 18c8 48bd 1afa 15be eea0 a43c c295 083e
00000240: 4450 ed3b 711a 103e bfb3 583c bb68 46bd
00000250: 8fe6 05bd 75a2 863d f98e 9d3b 1de0 313d
00000260: c35d 4bbc b556 28bd b2d7 b03d e490 8bbd
00000270: 7c1d a13d 054f 8bbd 07f6 8e3c cd9e d43c
00000280: d1aa 9abd 4823 d83d 0aff eb3c f869 e6bd
00000290: a232 b1bd 7144 26be 202c c1bb 1a16 9ebd
000002a0: b1de 9d3c 589d 8cbe 1bb6 773d 7524 373c
000002b0: 633a 2abe 0b79 01be ac49 8d3d edc9 923d
000002c0: a018 313d 9d56 10be 696b 293e 743f a83d
000002d0: cb40 acbe 14ad 163d 16d3 a93d 8540 f73d
000002e0: 66f9 b8bd a516 60be 0d41 82be 853c 963b
000002f0: fd2e a4be 7e48 033e 0e26 1dbe 6aa5 b93d
00000300: 154f 37bd ed5c 0f3e d8f2 95bc 42b5 243d
00000310: a3be 4b3e d404 043d 9464 aabd 35ae 36bd
00000320: 9b5e fa3d 42d3 923d 590c b93d 29ef 493d
00000330: 7867 1f3e ce36 a3bd 7aef 083e a894 9abd
00000340: d7c9 77bd 0d6e ec3d bf34 41bd 6e0d b5bc
00000350: acc9 d73d 9464 2a3e df7f c5bd c1dc 55bd
00000360: 52cc b0bd a4ed bcbd 51c8 47be a6bf 0cbd
00000370: a3b3 1d3e bac1 cabd 7920 31be 519e a5bd
00000380: 8516 863d c3f8 2dbe ce5c 32bc 036f 503d
00000390: b672 573c 2eb0 e9bb 2289 3ebc 573c a5bc
000003a0: e76c a13d 3ebd 15bd d241 963e dd80 ac3d
000003b0: 0f0d 8fbd 634c cabd 7372 3c3e 4eea f13d
000003c0: b62e a2bc cc0f 00be 1f2e e13a 7715 01be
000003d0: 676f 943d c382 02bd 39af 7bbd c9bb f3bc
000003e0: f3d5 a6bd e01f a3ba 7423 183e 8659 3dbd
000003f0: a5c4 af3d 3f24 26bd a4b8 503e 011c 813c

fcs1.bias f4 [128]
-0.16369905 -0.21967365 0.10722904 0.0954544 -0.10705952 -0.1698265 -0.18325387 -0.094303444
0.04264311 -0.11335182 0.014832557 -0.03322628 0.10874748 0.0065303217 0.031337485 -0.046166193
0.0077860015 -0.04203168 0.04492669 -0.11762014 0.020230379 -0.03793267 0.06960047 -0.14026263
-0.20050094 -0.06200931 0.08860298 0.041626208 -0.03084711 -0.08210555 0.12553138 -0.20261642
-0.09743978 0.05174324 0.1454313 0.0009091738 -0.09651188 0.09423526 0.08534851 -0.18467355
-0.20042323 -0.008081693 -0.080823526 -0.0680639 -0.15678973 0.04909323 -0.0930191 0.051735073
0.123870976 -0.23042879 0.060478557 0.15431209 0.19601463 -0.108929284 0.09947442 0.07654734
0.20451705 0.017671911 -0.06431541 -0.117353156 -0.0019768507 0.041657053 -0.1501747 -0.19841851
0.16285616 -0.14683901 -0.14189346 -0.037864983 -0.07496252 -0.23441686 -0.11384261 0.04852535
0.105265535 0.19490519 -0.045917865 -0.11139831 -0.1585423 -0.18002239 -0.15740237 -0.1255776
-0.088138506 0.15315385 -0.14627399 -0.10090058 -0.089160666 0.10379493 -0.025343245 0.033996243
0.02654977 0.09061424 0.12313333 -0.04099421 0.10552545 -0.20813693 -0.1443523 -0.016084187
0.04749078 -0.02331148 0.18756719 -0.028876679 -0.065922454 -0.053351033 -0.0433692 0.0089596845
0.14980173 -0.1920512 0.036772285 0.18654168 -0.02289296 0.08641385 -0.0016025901 0.16454373
-0.024797216 0.11003166 -0.050167743 -0.27671805 -0.08847823 0.06431087 -0.015856242 -0.041300513
0.18042493 -0.086025536 -0.14060438 0.060968984 0.20357929 0.036383137 -0.18230909 0.09133748
00000000: b9a0 27be 21f2 60be e69a db3d 997d c33d
00000010: 0642 dbbd ffe6 2dbe e7a6 3bbe 2a22 c1bd
00000020: 8baa 2e3d 0025 e8bd 4104 733c 4818 08bd
00000030: 00b7 de3d 4ffc d53b bc5b 003d c318 3dbd
00000040: b721 ff3b 6929 2cbd 0d05 383d d4e2 f0bd
00000050: 2eba a53c 4a5f 1bbd b18a 8e3d 02a1 0fbe
00000060: 1e50 4dbe 79fd 7dbd 7b75 b53d 3e80 2a3d
00000070: 14b3 fcbc f426 a8bd 4c8b 003e ae7a 4fbe
00000080: 828e c7bd b8f0 533d f1eb 143e 9f55 6e3a
00000090: 05a8 c5bd 6afe c03d 33cb ae3d 101b 3dbe
000000a0: bf3b 4dbe 1469 04bc ce86 a5bd 1665 8bbd
000000b0: 7d8d 20be fc15 493d cc80 bebd 28e8 533d
000000c0: 11b0 fd3d 86f5 6bbe 5db8 773d fd03 1e3e
000000d0: 0fb8 483e 5116 dfbd 3fb9 cb3d dac4 9c3d
000000e0: eb6c 513e afc4 903c ccb7 83bd da56 f0bd
000000f0: 0d8e 01bb 96a0 2a3d 66c7 19be 392e 4bbe
00000100: c4c3 263e f75c 16be 854c 11be 5018 1bbd
00000110: f385 99bd f90a 70be 5026 e9bd 84c2 463d
00000120: 7595 d73d 3a95 473e 5f14 3cbd cc24 e4bd
00000130: ea58 22be ca57 38be 162e 21be 6a97 00be
00000140: f681 b4bd 5dd4 1c3e d9c8 15be f7a4 cebd
00000150: de99 b6bd 7092 d43d a39c cfbc a53f 0b3d
00000160: e77e d93c f593 b93d 542d fc3d 8be9 27bd
00000170: ba1d d83d d921 55be 17d1 13be fcc2 83bc
00000180: b185 423d b8f7 bebc 9d11 403e c98e ecbc
00000190: 5a02 87bd 9d86 5abd e7a3 31bd a4cb 123c
000001a0: a065 193e 12a9 44be 899e 163d c804 3f3e
000001b0: 048a bbbc bff9 b03d 000e d2ba 277e 283e
000001c0: 8823 cbbc 4758 e13d b17c 4dbd fdad 8dbe
000001d0: 1334 b5bd 6bb5 833d f3e4 81bc ba2a 29bd
000001e0: 50c1 383e 282e b0bd 98fa 0fbe 9dba 793d
000001f0: 1777 503e 7c06 153d 3caf 3abe 250f bb3d

bn1.weight f4 [128]
0.7362621 0.07816011 0.9383106 0.54106367 0.2929057 0.011740923 0.6183132 0.37092113
0.6051383 0.108314335 0.6939437 0.11806762 0.89661855 0.5309273 0.7436002 0.7968599
0.9508872 0.57692045 0.90147835 0.0843752 0.85901797 0.8667845 0.24256366 0.24080169
0.91256285 0.90182006 0.08384377 0.5053613 0.12396443 0.7698043 0.08070928 0.2569245
0.8799546 0.92167634 0.9430595 0.55164206 0.05762911 0.81458986 0.91329724 0.88530093
0.81443197 0.46012712 0.7511611 0.6094376 0.26485664 0.82488257 0.3150196 0.7926201
0.45443058 0.45509934 0.71208644 0.43441296 0.70653087 0.06613469 0.015452802 0.5665074
0.39324194 0.28304958 0.0519647 0.54840106 0.25551856 0.9520653 0.1145581 0.32255465
0.40455323 0.5903559 0.040970623 0.77431124 0.031635344 0.23352563 0.59931934 0.42632204
0.56097007 0.0033860803 0.14826709 0.8335193 0.694631 0.71797585 0.78077203 0.8496471
0.74625695 0.34643435 0.2512437 0.15917951 0.64784795 0.48612684 0.2597785 0.8051587
0.5203931 0.4465714 0.37141216 0.13699514 0.9129163 0.013384163 0.042457223 0.60010797
0.2750054 0.87127334 0.4827246 0.26490992 0.5003192 0.42134666 0.42101896 0.44462878
0.1708101 0.3411227 0.017875493 0.1781134 0.5366669 0.827599 0.4772014 0.89023525
0.105183005 0.67875445 0.6185899 0.29819876 0.70543754 0.18458867 0.5350491 0.6703089
0.26778722 0.14768279 0.8207227 0.0964455 0.99335116 0.31893492 0.4217698 0.23429203
00000000: ac7b 3c3f 6812 a03d 2035 703f 2683 0a3f
00000010: bcf7 953e 005d 403c c649 1e3f 60e9 bd3e
00000020: 58ea 1a3f e8d3 dd3d 4ba6 313f 70cd f13d
00000030: cb88 653f daea 073f 955c 3e3f 03ff 4b3f
00000040: 586d 733f 0fb1 133f 49c7 663f e8cc ac3d
00000050: 9ae8 5b3f 97e5 5d3f 9c62 783e b894 763e
00000060: b89d 693f aedd 663f 48b6 ab3d 5c5f 013f
00000070: 10e1 fd3d e511 453f e84a a53d 9c8b 833e
00000080: b444 613f fbf2 6b3f 596c 713f 6a38 0d3f
00000090: 800c 6c3d f688 503f d9cd 693f 15a3 623f
000000a0: 9d7e 503f c895 eb3e 184c 403f 1a04 1c3f
000000b0: 4a9b 873e 812b 533f 404a a13e 27e9 4a3f
000000c0: 20ab e83e c802 e93e 4c4b 363f 606b de3e
000000d0: 35df 343f a071 873d c02d 7d3c a106 113f
000000e0: 0257 c93e e0eb 903e f0d8 543d 0364 0c3f
000000f0: 54d3 823e 8dba 733f 709d ea3d e225 a53e
00000100: 9a21 cf3e 9021 173f d0d0 273d 4339 463f
00000110: 1094 013d 5821 6f3e fe6c 193f e246 da3e
00000120: bc9b 0f3f 00e9 5d3b 54d3 173e 8561 553f
00000130: 56d3 313f 44cd 373f ade0 473f 7982 593f
00000140: b20a 3f3f d85f b13e 04a3 803e f4ff 223e
00000150: 5dd9 253f 9ee5 f83e b001 853e e11e 4e3f
00000160: 7b38 053f 02a5 e43e bc29 be3e 7448 0c3e
00000170: e2b4 693f 4049 5b3c a0e7 2d3d ada0 193f
00000180: 82cd 8c3e c50b 5f3f ae27 f73e 46a2 873e
00000190: eb14 003f c0ba d73e cc8f d73e 62a6 e33e
000001a0: d8e8 2e3e a2a7 ae3e a06f 923c 5c63 363e
000001b0: 0163 093f 87dd 533f be53 f43e 75e6 633f
000001c0: 306a d73d dac2 2d3f e85b 1e3f 82ad 983e
000001d0: 8e97 343f d004 3d3e faf8 083f 5d99 2b3f
000001e0: 681b 893e 283a 173e e21a 523f 3885 c53d
000001f0: 434c 7e3f 704b a33e 36f2 d73e 40ea 6f3e

bn1.bias f4 [128]
0.0 0.0 0.0 0.0 0.0 0.0 0.0 0.0
0.0 0.0 0.0 0.0 0.0 0.0 0.0 0.0
0.0 0.0 0.0 0.0 0.0 0.0 0.0 0.0
0.0 0.0 0.0 0.0 0.0 0.0 0.0 0.0
0.0 0.0 0.0 0.0 0.0 0.0 0.0 0.0
0.0 0.0 0.0 0.0 0.0 0.0 0.0 0.0
0.0 0.0 0.0 0.0 0.0 0.0 0.0 0.0
0.0 0.0 0.0 0.0 0.0 0.0 0.0 0.0
0.0 0.0 0.0 0.0 0.0 0.0 0.0 0.0
0.0 0.0 0.0 0.0 0.0 0.0 0.0 0.0
0.0 0.0 0.0 0.0 0.0 0.0 0.0 0.0
0.0 0.0 0.0 0.0 0.0 0.0 0.0 0.0
0.0 0.0 0.0 0.0 0.0 0.0 0.0 0.0
0.0 0.0 0.0 0.0 0.0 0.0 0.0 0.0
0.0 0.0 0.0 0.0 0.0 0.0 0.0 0.0
0.0 0.0 0.0 0.0 0.0 0.0 0.0 0.0
00000000: 0000 0000 0000 0000 0000 0000 0000 0000
00000010: 0000 0000 0000 0000 0000 0000 0000 0000
00000020: 0000 0000 0000 0000 0000 0000 0000 0000
00000030: 0000 0000 0000 0000 0000 0000 0000 0000
00000040: 0000 0000 0000 0000 0000 0000 0000 0000
00000050: 0000 0000 0000 0000 0000 0000 0000 0000
00000060: 0000 0000 0000 0000 0000 0000 0000 0000
00000070: 0000 0000 0000 0000 0000 0000 0000 0000
00000080: 0000 0000 0000 0000 0000 0000 0000 0000
00000090: 0000 0000 0000 0000 0000 0000 0000 0000
000000a0: 0000 0000 0000 0000 0000 0000 0000 0000
000000b0: 0000 0000 0000 0000 0000 0000 0000 0000
000000c0: 0000 0000 0000 0000 0000 0000 0000 0000
000000d0: 0000 0000 0000 0000 0000 0000 0000 0000
000000e0: 0000 0000 0000 0000 0000 0000 0000 0000
000000f0: 0000 0000 0000 0000 0000 0000 0000 0000
00000100: 0000 0000 0000 0000 0000 0000 0000 0000
00000110: 0000 0000 0000 0000 0000 0000 0000 0000
00000120: 0000 0000 0000 0000 0000 0000 0000 0000
00000130: 0000 0000 0000 0000 0000 0000 0000 0000
00000140: 0000 0000 0000 0000 0000 0000 0000 0000
00000150: 0000 0000 0000 0000 0000 0000 0000 0000
00000160: 0000 0000 0000 0000 0000 0000 0000 0000
00000170: 0000 0000 0000 0000 0000 0000 0000 0000
00000180: 0000 0000 0000 0000 0000 0000 0000 0000
00000190: 0000 0000 0000 0000 0000 0000 0000 0000
000001a0: 0000 0000 0000 0000 0000 0000 0000 0000
000001b0: 0000 0000 0000 0000 0000 0000 0000 0000
000001c0: 0000 0000 0000 0000 0000 0000 0000 0000
000001d0: 0000 0000 0000 0000 0000 0000 0000 0000
000001e0: 0000 0000 0000 0000 0000 0000 0000 0000
000001f0: 0000 0000 0000 0000 0000 0000 0000 0000

bn1.running_mean f4 [128]
0.0 0.0 0.0 0.0 0.0 0.0 0.0 0.0
0.0 0.0 0.0 0.0 0.0 0.0 0.0 0.0
0.0 0.0 0.0 0.0 0.0 0.0 0.0 0.0
0.0 0.0 0.0 0.0 0.0 0.0 0.0 0.0
0.0 0.0 0.0 0.0 0.0 0.0 0.0 0.0
0.0 0.0 0.0 0.0 0.0 0.0 0.0 0.0
0.0 0.0 0.0 0.0 0.0 0.0 0.0 0.0
0.0 0.0 0.0 0.0 0.0 0.0 0.0 0.0
0.0 0.0 0.0 0.0 0.0 0.0 0.0 0.0
0.0 0.0 0.0 0.0 0.0 0.0 0.0 0.0
0.0 0.0 0.0 0.0 0.0 0.0 0.0 0.0
0.0 0.0 0.0 0.0 0.0 0.0 0.0 0.0
0.0 0.0 0.0 0.0 0.0 0.0 0.0 0.0
0.0 0.0 0.0 0.0 0.0 0.0 0.0 0.0
0.0 0.0 0.0 0.0 0.0 0.0 0.0 0.0
0.0 0.0 0.0 0.0 0.0 0.0 0.0 0.0
00000000: 0000 0000 0000 0000 0000 0000 0000 0000
00000010: 0000 0000 0000 0000 0000 0000 0000 0000
00000020: 0000 0000 0000 0000 0000 0000 0000 0000
00000030: 0000 0000 0000 0000 0000 0000 0000 0000
00000040: 0000 0000 0000 0000 0000 0000 0000 0000
00000050: 0000 0000 0000 0000 0000 0000 0000 0000
00000060: 0000 0000 0000 0000 0000 0000 0000 0000
00000070: 0000 0000 0000 0000 0000 0000 0000 0000
00000080: 0000 0000 0000 0000 0000 0000 0000 0000
00000090: 0000 0000 0000 0000 0000 0000 0000 0000
000000a0: 0000 0000 0000 0000 0000 0000 0000 0000
000000b0: 0000 0000 0000 0000 0000 0000 0000 0000
000000c0: 0000 0000 0000 0000 0000 0000 0000 0000
000000d0: 0000 0000 0000 0000 0000 0000 0000 0000
000000e0: 0000 0000 0000 0000 0000 0000 0000 0000
000000f0: 0000 0000 0000 0000 0000 0000 0000 0000
00000100: 0000 0000 0000 0000 0000 0000 0000 0000
00000110: 0000 0000 0000 0000 0000 0000 0000 0000
00000120: 0000 0000 0000 0000 0000 0000 0000 0000
00000130: 0000 0000 0000 0000 0000 0000 0000 0000
00000140: 0000 0000 0000 0000 0000 0000 0000 0000
00000150: 0000 0000 0000 0000 0000 0000 0000 0000
00000160: 0000 0000 0000 0000 0000 0000 0000 0000
00000170: 0000 0000 0000 0000 0000 0000 0000 0000
00000180: 0000 0000 0000 0000 0000 0000 0000 0000
00000190: 0000 0000 0000 0000 0000 0000 0000 0000
000001a0: 0000 0000 0000 0000 0000 0000 0000 0000
000001b0: 0000 0000 0000 0000 0000 0000 0000 0000
000001c0: 0000 0000 0000 0000 0000 0000 0000 0000
000001d0: 0000 0000 0000 0000 0000 0000 0000 0000
000001e0: 0000 0000 0000 0000 0000 0000 0000 0000
000001f0: 0000 0000 0000 0000 0000 0000 0000 0000

bn1.running_var f4 [128]
1.0 1.0 1.0 1.0 1.0 1.0 1.0 1.0
1.0 1.0 1.0 1.0 1.0 1.0 1.0 1.0
1.0 1.0 1.0 1.0 1.0 1.0 1.0 1.0
1.0 1.0 1.0 1.0 1.0 1.0 1.0 1.0
1.0 1.0 1.0 1.0 1.0 1.0 1.0 1.0
1.0 1.0 1.0 1.0 1.0 1.0 1.0 1.0
1.0 1.0 1.0 1.0 1.0 1.0 1.0 1.0
1.0 1.0 1.0 1.0 1.0 1.0 1.0 1.0
1.0 1.0 1.0 1.0 1.0 1.0 1.0 1.0
1.0 1.0 1.0 1.0 1.0 1.0 1.0 1.0
1.0 1.0 1.0 1.0 1.0 1.0 1.0 1.0
1.0 1.0 1.0 1.0 1.0 1.0 1.0 1.0
1.0 1.0 1.0 1.0 1.0 1.0 1.0 1.0
1.0 1.0 1.0 1.0 1.0 1.0 1.0 1.0
1.0 1.0 1.0 1.0 1.0 1.0 1.0 1.0
1.0 1.0 1.0 1.0 1.0 1.0 1.0 1.0
00000000: 0000 803f 0000 803f 0000 803f 0000 803f
00000010: 0000 803f 0000 803f 0000 803f 0000 803f
00000020: 0000 803f 0000 803f 0000 803f 0000 803f
00000030: 0000 803f 0000 803f 0000 803f 0000 803f
00000040: 0000 803f 0000 803f 0000 803f 0000 803f
00000050: 0000 803f 0000 803f 0000 803f 0000 803f
00000060: 0000 803f 0000 803f 0000 803f 0000 803f
00000070: 0000 803f 0000 803f 0000 803f 0000 803f
00000080: 0000 803f 0000 803f 0000 803f 0000 803f
00000090: 0000 803f 0000 803f 0000 803f 0000 803f
000000a0: 0000 803f 0000 803f 0000 803f 0000 803f
000000b0: 0000 803f 0000 803f 0000 803f 0000 803f
000000c0: 0000 803f 0000 803f 0000 803f 0000 803f
000000d0: 0000 803f 0000 803f 0000 803f 0000 803f
000000e0: 0000 803f 0000 803f 0000 803f 0000 803f
000000f0: 0000 803f 0000 803f 0000 803f 0000 803f
00000100: 0000 803f 0000 803f 0000 803f 0000 803f
00000110: 0000 803f 0000 803f 0000 803f 0000 803f
00000120: 0000 803f 0000 803f 0000 803f 0000 803f
00000130: 0000 803f 0000 803f 0000 803f 0000 803f
00000140: 0000 803f 0000 803f 0000 803f 0000 803f
00000150: 0000 803f 0000 803f 0000 803f 0000 803f
00000160: 0000 803f 0000 803f 0000 803f 0000 803f
00000170: 0000 803f 0000 803f 0000 803f 0000 803f
00000180: 0000 803f 0000 803f 0000 803f 0000 803f
00000190: 0000 803f 0000 803f 0000 803f 0000 803f
000001a0: 0000 803f 0000 803f 0000 803f 0000 803f
000001b0: 0000 803f 0000 803f 0000 803f 0000 803f
000001c0: 0000 803f 0000 803f 0000 803f 0000 803f
000001d0: 0000 803f 0000 803f 0000 803f 0000 803f
000001e0: 0000 803f 0000 803f 0000 803f 0000 803f
000001f0: 0000 803f 0000 803f 0000 803f 0000 803f

fc2.weight f4 [64, 130]
0.015644165 0.034191474 0.006646277 0.11900594 -0.16249372 0.018398836 -0.06912228 0.2414126
0.056130294 0.02381517 -0.14564149 -0.15716483 -0.0010848603 -0.11089335 0.19883934 -0.014086266
-0.031331763 0.08368754 0.09836958 -0.27690914 -0.05670344 0.07752405 0.14491668 0.043240003
-0.29745385 -0.10379966 -0.088400014 -0.1494615 0.08078595 -0.35166863 -0.1043064 -0.41997036
0.008720576 0.18803504 -0.01648014 -0.21886466 -0.5201549 0.078345865 -0.082920656 -0.33953914
0.0004904221 -0.011762201 -0.09053506 0.03866813 -0.06279524 -0.0160833 -0.44070217 0.115122214
-0.14759928 0.10279606 0.052330043 -0.3479273 -0.046775933 0.42476472 -0.21962273 0.076081984
0.09727876 0.023929294 -0.28303415 -0.12514676 -0.021667197 -0.08297498 0.17290461 -0.27251628
-0.02692528 -0.08842678 0.078321956 0.15703963 0.29289287 0.12727949 -0.14864717 0.06507401
0.055174656 0.07295341 0.29533675 -0.12756844 -0.011488737 -0.1625892 0.11388476 -0.013047222
0.034188356 -0.044690974 0.14337553 0.03034404 0.012949596 0.19647747 -0.192624 -0.0077124597
0.01945526 -0.011890474 -0.069319524 -0.09932101 -0.016193286 0.0002231006 -0.03941818 -0.04562262
-0.07492733 0.11464913 0.035404235 -0.019751843 0.006154949 -0.06309992 -0.11295091 -0.082861945
-0.034495268 0.058545884 -0.04775706 -0.0010605453 0.05521092 0.03575766 0.047781684 0.07756468
0.24698962 -0.13432357 -0.17204054 0.10771876 0.20711839 0.026330808 -0.013483358 -0.19085166
-0.034909103 -0.008191551 0.024825802 -0.12532975 0.037423793 0.12101095 -0.16044065 0.0831284
-0.08309642 -0.07018752 0.00967522 -0.066670604 -0.05228495 0.070857 -0.0950717 0.020833408
-0.098110914 0.08070904 -0.1142456 0.035295937 0.021155434 -0.17828985 0.08954489 -0.21993227
-0.096450575 0.050445247 -0.12236147 -0.00043681305 -0.051832076 -0.2105026 0.08148283 -0.11775028
-0.062305424 0.051213898 -0.017615499 0.10156262 0.10736991 0.020154582 -0.052500166 -0.19048278
-0.05980803 0.016160907 -0.100701444 -0.08768722 -0.09318012 -0.03788206 -0.056578565 0.1042364
0.03698885 -0.2269242 -0.1307832 0.02452017 -0.41202462 -0.0020059994 0.093682714 -0.03316557
-0.26940447 -0.10519969 0.122961745 -0.008127501 0.07345094 -0.030265996 -0.07342367 0.05087791
0.061484333 -0.050485164 -0.0826124 0.031716175 0.011042457 -0.15862164 -0.015835324 0.09483839
0.14084178 0.003912687 -0.06497182 -0.02444384 -0.06488732 -0.112751834 0.027552482 -0.14758113
-0.03653975 -0.27516678 -0.105266966 0.09618723 0.014433408 0.0651643 0.058898747 -0.03741469
-0.020525469 -0.21708418 -0.113601215 0.012567392 -0.040939946 -0.10313471 0.039853767 0.010821629
0.013829129 -0.2429546 0.048962135 0.0039944556 0.060174778 -0.1560692 0.0055688666 -0.1754504
0.043158814 0.014110369 0.07743115 -0.051135954 -0.092160314 -0.01188985 0.07718676 -0.0457448
0.08800397 0.13272855 0.080271915 -0.010302546 0.014652626 -0.08407439 -0.03616898 0.098415814
-0.121864766 0.007212033 -0.028663158 0.03382113 -0.031517822 0.056447677 -0.08904474 0.050157193
-0.05090742 -0.18777539 0.022297043 -0.00090725796 0.159605 0.0850957 -0.007293852 0.05668291
00000000: 3128 803c 5c0c 0c3d 03c9 d93b 63b9 f33d
00000010: c164 26be 28b9 963c fb8f 8dbd dd34 773e
00000020: e1e8 653d 0818 c33c 0b23 15be d1ef 20be
00000030: df31 8eba 0d1c e3bd 8a9c 4b3e 15ca 66bc
00000040: bc55 00bd 5f64 ab3d fe75 c93d 09c7 8dbe
00000050: de41 68bd eec4 9e3d 0a65 143e 6e1c 313d
00000060: df4b 98be eb94 d4bd 110b b5bd 6f0c 19be
00000070: 1b73 a53d e90d b4be 989e d5bd 5b06 d7be
00000080: bfe0 0e3c 428c 403e 5c01 87bc 0f1e 60be
00000090: df28 05bf cc73 a03d 4ed2 a9bd 13d8 adbe
000000a0: ac8f 003a 3fb6 40bc 726a b9bd 7962 1e3d
000000b0: ca9a 80bd 20c1 83bc b7a3 e1be 32c5 eb3d
000000c0: 4424 17be be86 d23d 0758 563d 8723 b2be
000000d0: 1f98 3fbd c37a d93e c8e4 60be dfd0 9b3d
000000e0: 163a c73d 5e07 c43c dae9 90be 7926 00be
000000f0: 687f b1bc c9ee a9bd e80d 313e 4187 8bbe
00000100: 6892 dcbc 1a19 b5bd 4367 a03d ffce 203e
00000110: 0ef6 953e 8e55 023e f736 18be 8645 853d
00000120: d2fe 613d 9968 953d 6136 973e 4da1 02be
00000130: 413b 3cbc c97d 26be 6a3c e93d 04c4 55bc
00000140: 1709 0c3d e20d 37bd 09d1 123e 1094 f83c
00000150: 8b2a 543c 6431 493e 3a3f 45be cdb8 fcbb
00000160: a360 9f3c 43d0 42bc 65f7 8dbd d068 cbbd
00000170: c8a7 84bc 1cf0 6939 f574 21bd c9de 3abd
00000180: 8073 99bd 2acd ea3d 0804 113d 9ece a1bc
00000190: 74af c93b 883a 81bd cf52 e7bd 86b3 a9bd
000001a0: e94a 0dbd cfcd 6f3d e89c 43bd ff01 8bba
000001b0: d824 623d a076 123d bab6 433d 3bda 9e3d
000001c0: d9ea 7c3e 1e8c 09be 652b 30be a79b dc3d
000001d0: d816 543e b5b3 d73c 4de9 5cbc 9e6e 43be
000001e0: d9fc 0ebd db35 06bc 7b5f cb3c 7156 00be
000001f0: b149 193d 97d4 f73d 8e4a 24be 393f aa3d
00000200: 752e aabd 79be 8fbd d084 1e3c 998a 88bd
00000210: be28 56bd 7a1d 913d f4b4 c2bd d3aa aa3c
00000220: 60ee c8bd c84a a53d 99f9 e9bd 7992 103d
00000230: 294e ad3c 9d91 36be 5063 b73d ed35 61be
00000240: e187 c5bd ad9f 4e3d a698 fabd 0e04 e5b9
00000250: df4d 54bd fe8d 57be 78e0 a63d 0f27 f1bd
00000260: f933 7fbd aac5 513d 614e 90bc 1000 d03d
00000270: c1e4 db3d 391b a53c 6a0a 57bd eb0d 43be
00000280: 44f9 74bd e163 843c 8f3c cebd 5b95 b3bd
00000290: 38d5 bebd 382a 1bbd edbe 67bd e579 d53d
000002a0: 9f81 173d d15e 68be 08ec 05be 86de c83c
000002b0: e4f4 d2be 1677 03bb b9dc bf3d 9fd8 07bd
000002c0: 62ef 89be ef72 d7bd 5ed3 fb3d 3629 05bc
000002d0: 726d 963d 65f0 f7bc 265f 96bd 5b65 503d
000002e0: ffd6 7b3d 88c9 4ebd b130 a9bd d2e8 013d
000002f0: 6ceb 343c b66d 22be 15b9 81bc a13a c23d
00000300: d438 103e ff35 803b f20f 85bd 733e c8bc
00000310: a5e3 84bd 6fea e6bd beb5 e13c 821f 17be
00000320: b4aa 15bd a9e2 8cbe 3596 d7bd cffd c43d
00000330: 1a7a 6c3c dc74 853d d03f 713d 2540 19bd
00000340: 0725 a8bc 514b 5ebe c1a7 e8bd 76e7 4d3c
00000350: a5b0 27bd 4a38 d3bd b43d 233d 344d 313c
00000360: 9293 623c 17c9 78be 858c 483d ece3 823b
00000370: d479 763d 9bd0 1fbe 0a7b b63b 45a9 33be
00000380: 4cc7 303d 2d2f 673c 3994 9e3d ef73 51bd
00000390: 8cbe bcbd a5cd 42bc 1814 9e3d e65e 3bbd
000003a0: 6d3b b43d fee9 073e 9a65 a43d 03cc 28bc
000003b0: 9111 703c 322f acbd ed25 14bd 3b8e c93d
000003c0: 3c94 f9bd eb52 ec3b 00cf eabc 0688 0a3d
000003d0: d518 01bd ae35 673d 175d b6bd a171 4d3d
000003e0: 4d84 50bd 3148 40be 4aa8 b63c 0dd5 6dba
000003f0: 7e6f 233e a846 ae3d 4401 efbb 572c 683d

fc2.bias f4 [64]
0.0407193 0.070788845 -0.08647565 -0.04916818 -0.080298506 0.018989943 -0.08419622 -0.028984895
-0.059877593 0.09136207 -0.016799035 -0.04172041 0.06754279 0.0095117595 0.07299097 -0.009275854
0.01720205 0.018141618 -0.04795458 0.05427482 0.067201816 0.036819868 -0.069061756 0.035631523
-0.0939232 0.017483843 0.026527418 -0.011197667 0.0033014675 0.007418648 0.06839483 -0.19871831
-0.07755103 -0.10299816 0.06884727 -0.048761386 -0.045154348 0.02736822 0.003916843 -0.032191005
-0.07580887 -0.11644061 -0.106875524 0.050729565 -0.014847671 0.048648138 0.025506448 0.0377419
-0.062002417 -0.005212009 -0.04597348 -0.052176908 0.054454934 -0.012402119 0.04939837 0.07813968
-0.08521766 -0.10872254 0.08113304 -0.045206204 -0.03553612 -0.031128902 0.075358294 -0.067261
00000000: 48c9 263d bef9 903d 251a b1bd 9364 49bd
00000010: 8b73 a4bd cc90 9b3c 116f acbd bb71 edbc
00000020: 3542 75bd 091c bb3d 219e 89bc 05e3 2abd
00000030: e053 8a3d 36d7 1b3c 4a7c 953d c0f9 17bc
00000040: 50eb 8c3c bb9d 943c 066c 44bd 464f 5e3d
00000050: 1ba1 893d 6ed0 163d 4070 8dbd 5cf2 113d
00000060: cf5a c0bd 473a 8f3c 0750 d93c 6b76 37bc
00000070: 6f5d 583b 2118 f33b 9712 8c3d d07c 4bbe
00000080: 13d3 9ebd b3f0 d2bd ccff 8c3d 05ba 47bd
00000090: c4f3 38bd 5133 e03c dc58 803b b7da 03bd
000000a0: ae41 9bbd 6a78 eebd 8ee1 dabd cec9 4f3d
000000b0: a543 73bc 4543 473d e6f2 d03c 4097 1a3d
000000c0: 3ff6 7dbd 80c9 aabb b04e 3cbd 74b7 55bd
000000d0: 230c 5f3d 4232 4bbc f255 4a3d b207 a03d
000000e0: 9986 aebd eca9 debd 1429 a63d 242a 39bd
000000f0: 538e 11bd 0a02 ffbc 7355 9a3d 23c0 89bd

bn2.weight f4 [64]
0.07650322 0.07985687 0.61497766 0.29874754 0.46930546 0.1772964 0.6382538 0.9239647
0.23453248 0.5419225 0.45251274 0.44170445 0.018893301 0.10555488 0.36317867 0.7458509
0.5233525 0.04870099 0.9639989 0.29387403 0.083226144 0.5301105 0.22364289 0.9442522
0.30555087 0.5575096 0.12364787 0.023725808 0.41311795 0.94809914 0.8667161 0.5533272
0.6262891 0.63242584 0.5163468 0.36477733 0.30064583 0.13498509 0.15854508 0.614472
0.23219323 0.5024174 0.53915673 0.6155925 0.17129755 0.910133 0.865035 0.9800789
0.2015338 0.24397385 0.8925603 0.6095002 0.008752167 0.54814893 0.60131395 0.45129454
0.3555845 0.036441445 0.0010269284 0.7893067 0.27406317 0.8553119 0.8508043 0.23799723
00000000: b8ad 9c3d 008c a33d 2d6f 1d3f 70f5 983e
00000010: ce48 f03e 308d 353e 9a64 233f f388 6c3f
00000020: 4829 703e 6fbb 0a3f c0af e73e 1627 e23e
00000030: 20c6 9a3c 282d d83d 8ef2 b93e 16f0 3e3f
00000040: 6efa 053f b07a 473d a2c8 763f a876 963e
00000050: 7872 aa3d 52b5 073f a402 653e 83ba 713f
00000060: 2a71 9c3e f3b8 0e3f 183b fd3d a05c c23c
00000070: 3284 d33e a0b6 723f 1be1 5d3f daa6 0d3f
00000080: 7c54 203f a9e6 213f 4e2f 043f 18c4 ba3e
00000090: 40ee 993e 8839 0a3e a459 223e 094e 1d3f
000000a0: 10c4 6d3e 6d9e 003f 2d06 0a3f 7897 1d3f
000000b0: a068 2f3e 7afe 683f ef72 5d3f 73e6 7a3f
000000c0: e05e 4e3e 48d4 793e d57e 643f 3508 1c3f
000000d0: 4065 0f3c 7d53 0c3f b6ef 193f 1410 e73e
000000e0: 2c0f b63e a043 153d 009a 863a 0110 4a3f
000000f0: 0252 8c3e b8f5 5a3f 50ce 593f 8cb5 733e

bn2.bias f4 [64]
0.0 0.0 0.0 0.0 0.0 0.0 0.0 0.0
0.0 0.0 0.0 0.0 0.0 0.0 0.0 0.0
0.0 0.0 0.0 0.0 0.0 0.0 0.0 0.0
0.0 0.0 0.0 0.0 0.0 0.0 0.0 0.0
0.0 0.0 0.0 0.0 0.0 0.0 0.0 0.0
0.0 0.0 0.0 0.0 0.0 0.0 0.0 0.0
0.0 0.0 0.0 0.0 0.0 0.0 0.0 0.0
0.0 0.0 0.0 0.0 0.0 0.0 0.0 0.0
00000000: 0000 0000 0000 0000 0000 0000 0000 0000
00000010: 0000 0000 0000 0000 0000 0000 0000 0000
00000020: 0000 0000 0000 0000 0000 0000 0000 0000
00000030: 0000 0000 0000 0000 0000 0000 0000 0000
00000040: 0000 0000 0000 0000 0000 0000 0000 0000
00000050: 0000 0000 0000 0000 0000 0000 0000 0000
00000060: 0000 0000 0000 0000 0000 0000 0000 0000
00000070: 0000 0000 0000 0000 0000 0000 0000 0000
00000080: 0000 0000 0000 0000 0000 0000 0000 0000
00000090: 0000 0000 0000 0000 0000 0000 0000 0000
000000a0: 0000 0000 0000 0000 0000 0000 0000 0000
000000b0: 0000 0000 0000 0000 0000 0000 0000 0000
000000c0: 0000 0000 0000 0000 0000 0000 0000 0000
000000d0: 0000 0000 0000 0000 0000 0000 0000 0000
000000e0: 0000 0000 0000 0000 0000 0000 0000 0000
000000f0: 0000 0000 0000 0000 0000 0000 0000 0000

bn2.running_mean f4 [64]
0.0 0.0 0.0 0.0 0.0 0.0 0.0 0.0
0.0 0.0 0.0 0.0 0.0 0.0 0.0 0.0
0.0 0.0 0.0 0.0 0.0 0.0 0.0 0.0
0.0 0.0 0.0 0.0 0.0 0.0 0.0 0.0
0.0 0.0 0.0 0.0 0.0 0.0 0.0 0.0
0.0 0.0 0.0 0.0 0.0 0.0 0.0 0.0
0.0 0.0 0.0 0.0 0.0 0.0 0.0 0.0
0.0 0.0 0.0 0.0 0.0 0.0 0.0 0.0
00000000: 0000 0000 0000 0000 0000 0000 0000 0000
00000010: 0000 0000 0000 0000 0000 0000 0000 0000
00000020: 0000 0000 0000 0000 0000 0000 0000 0000
00000030: 0000 0000 0000 0000 0000 0000 0000 0000
00000040: 0000 0000 0000 0000 0000 0000 0000 0000
00000050: 0000 0000 0000 0000 0000 0000 0000 0000
00000060: 0000 0000 0000 0000 0000 0000 0000 0000
00000070: 0000 0000 0000 0000 0000 0000 0000 0000
00000080: 0000 0000 0000 0000 0000 0000 0000 0000
00000090: 0000 0000 0000 0000 0000 0000 0000 0000
000000a0: 0000 0000 0000 0000 0000 0000 0000 0000
000000b0: 0000 0000 0000 0000 0000 0000 0000 0000
000000c0: 0000 0000 0000 0000 0000 0000 0000 0000
000000d0: 0000 0000 0000 0000 0000 0000 0000 0000
000000e0: 0000 0000 0000 0000 0000 0000 0000 0000
000000f0: 0000 0000 0000 0000 0000 0000 0000 0000

bn2.running_var f4 [64]
1.0 1.0 1.0 1.0 1.0 1.0 1.0 1.0
1.0 1.0 1.0 1.0 1.0 1.0 1.0 1.0
1.0 1.0 1.0 1.0 1.0 1.0 1.0 1.0
1.0 1.0 1.0 1.0 1.0 1.0 1.0 1.0
1.0 1.0 1.0 1.0 1.0 1.0 1.0 1.0
1.0 1.0 1.0 1.0 1.0 1.0 1.0 1.0
1.0 1.0 1.0 1.0 1.0 1.0 1.0 1.0
1.0 1.0 1.0 1.0 1.0 1.0 1.0 1.0
00000000: 0000 803f 0000 803f 0000 803f 0000 803f
00000010: 0000 803f 0000 803f 0000 803f 0000 803f
00000020: 0000 803f 0000 803f 0000 803f 0000 803f
00000030: 0000 803f 0000 803f 0000 803f 0000 803f
00000040: 0000 803f 0000 803f 0000 803f 0000 803f
00000050: 0000 803f 0000 803f 0000 803f 0000 803f
00000060: 0000 803f 0000 803f 0000 803f 0000 803f
00000070: 0000 803f 0000 803f 0000 803f 0000 803f
00000080: 0000 803f 0000 803f 0000 803f 0000 803f
00000090: 0000 803f 0000 803f 0000 803f 0000 803f
000000a0: 0000 803f 0000 803f 0000 803f 0000 803f
000000b0: 0000 803f 0000 803f 0000 803f 0000 803f
000000c0: 0000 803f 0000 803f 0000 803f 0000 803f
000000d0: 0000 803f 0000 803f 0000 803f 0000 803f
000000e0: 0000 803f 0000 803f 0000 803f 0000 803f
000000f0: 0000 803f 0000 803f 0000 803f 0000 803f

fc3.weight f4 [1, 64]
0.094626 -0.02667829 -0.03788169 0.0534078 0.086205706 -0.0076896218 0.1065686 0.019310035
-0.034551904 -0.012216007 -0.051556885 0.08475887 -0.007837651 0.09584999 -0.009798783 -0.04517269
-0.022246473 0.11333208 -0.057192832 -0.013680589 0.12975346 -0.018535383 -0.032272723 -0.010737351
-0.05478591 -0.021673065 0.04417479 -0.021669865 -0.027360927 0.18733788 0.08706511 -0.05598529
-0.03965624 -0.04006425 -0.014128348 -0.097232476 -0.05672697 -0.02838901 -0.026221592 0.116613686
-0.050202586 -0.03954013 0.01600155 0.053458095 0.04053772 0.09669768 0.09094096 0.11597678
-0.039395954 -0.047372963 -0.013029892 0.05152016 -0.018756233 0.11767318 -0.025245769 0.16572282
-0.019180529 0.018098975 -0.010395062 0.0071115377 0.14982371 -0.01705525 -0.06526226 0.12917234
00000000: 47cb c13d 6e8c dabc d529 1bbd 23c2 5a3d
00000010: 9e8c b03d 39f9 fbbb a340 da3d 1430 9e3c
00000020: 4c86 0dbd a625 48bc 502d 53bd 0f96 ad3d
00000030: 7e69 00bc 004d c43d 138b 20bc 0007 39bd
00000040: 3c3e b6bc a61a e83d 0843 6abd 8d24 60bc
00000050: 17de 043e 84d7 97bc 6730 04bd b7eb 2fbc
00000060: 3167 60bd b68b b1bc a0f0 343d 0085 b1bc
00000070: 0624 e0bc 80d5 3f3e 314f b23d d550 65bd
00000080: 956e 22bd 691a 24bd 967a 67bc d221 c7bd
00000090: 8a5a 68bd 1290 e8bc aace d6bc 28d3 ee3d
000000a0: 3aa1 4dbd d5f4 21bd af15 833c e0f6 5a3d
000000b0: e10a 263d 6f09 c63d 413f ba3d 3c85 ed3d
000000c0: a75d 21bd 270a 42bd 547b 55bc ce06 533d
000000d0: aca6 99bc a3fe f03d 37d0 cebc 3eb3 293e
000000e0: 7c20 9dbc 4d44 943c 0d50 2abc e707 e93b
000000f0: 636b 193e 74b7 8bbc 38a8 85bd c145 043e
