p3_collaboration_and_competition/weights/critic_1_1200.pth (torch_old, 52380 bytes, 17 tensors)

bn0.weight f4 [24]
00000000: eef7 7a3e 1e36 ab3e 76dd 153e 5e65 613e
00000010: 2201 7c3f ee2c 1b3f 0486 713d 4454 a53b
00000020: 930a 423e 2ed6 db3d bc55 033e fa18 233e
00000030: 5192 ea3e f96a 363f 79ed 113e 5d13 213e
00000040: 812d 0b3f bf68 533e c490 76b9 3333 ea3e
00000050: c330 643f c8d8 433f e6f5 c73e bba3 8d3e
0.2450864 0.33439726 0.14635262 0.22011325 0.9843923 0.6061543 0.058965698 0.0050454456
0.18949346 0.10734211 0.12825674 0.15927497 0.45814756 0.7125698 0.14250745 0.15730043
0.5436631 0.20645426 -0.00023514318 0.45742187 0.89136904 0.76502657 0.39054793 0.2766398

bn0.bias f4 [24]
00000000: 824b 3a3d a80b 9fbd c278 ee3c d133 7ebd
00000010: d9ae 053e 9700 243d 960d fc3c 4365 fbb9
00000020: 8fd8 723c 6386 ffbb 1250 773d 4099 89bd
00000030: d203 843e 215e d33d 1f8f 333d 4107 f0bc
00000040: 087a b83c 159d 413d 37d3 1639 bc18 27be
00000050: 4db1 503e 6a04 073e 6c4c db3c 1c15 dabd
0.045482166 -0.07765895 0.029110316 -0.062061135 0.1305498 0.040039625 0.030768197 -0.00047949897
0.014822139 -0.0077980026 0.060379095 -0.06718683 0.25784165 0.10320688 0.043837663 -0.029300334
0.022519127 0.047268946 0.00014383798 -0.16318029 0.20380135 0.13185278 0.02676984 -0.106485575

bn0.running_mean f4 [24]
00000000: 0cf1 93c0 03e5 14bf a29d e540 aa29 e13d
00000010: 4c51 0fbc 0c27 5840 a29d e540 aa29 e13d
00000020: 15e8 98c0 3b60 19bf 249c e840 5704 e13d
00000030: 5f04 e13c a0c7 5840 249c e840 5704 e13d
00000040: a294 9dc0 690c 1dbf e55a ee40 472a e33d
00000050: ae2b 0a3d dbce 5740 e55a ee40 472a e33d
-4.6231747 -0.58161944 7.1754923 0.10994275 -0.00874741 3.3773832 7.1754923 0.10994275
-4.7783303 -0.5991246 7.26906 0.10987156 0.027467905 3.3871841 7.26906 0.10987156
-4.9243937 -0.6134706 7.4485955 0.11092048 0.033733062 3.3720005 7.4485955 0.11092048

bn0.running_var f4 [24]
00000000: b128 7e41 f9b3 8b3f da51 b443 bb96 3e41
00000010: 4516 0642 0108 5c40 da51 b443 bb96 3e41
00000020: 9af3 7f41 4103 8e3f 4a62 b543 e55b 4141
00000030: c70f 0f42 613a 6140 4a62 b543 e55b 4141
00000040: 31e6 7841 de7f 8f3f 9002 bb43 9a32 4941
00000050: 3508 1942 a6bf 7140 9002 bb43 9a32 4941
15.884934 1.0914298 360.63947 11.911799 33.521748 3.4379885 360.63947 11.911799
15.996973 1.1094743 362.76788 12.084935 35.765408 3.5191882 362.76788 12.084935
15.556199 1.1210897 374.02002 12.574854 38.258015 3.7773223 374.02002 12.574854

fcs1.weight f4 [128, 24]
00000000: 815f 8e3b a19e c2bd b9ed 04bf 6947 cdbd
00000010: caeb 143e b8ba febd 3810 d1be ccf3 303d
00000020: c39f a33d 3e3f ef3d 28ae 8cbe fb85 8dbc
00000030: c4a2 483e bbfb 4ebd 2968 82be ad60 b2bd
00000040: 5d5f 9b3d 07d7 d13e 3c1a 95bc 63e9 c5bd
00000050: 88dc efbe cbaf 3c3e c9cd 9fbd 7c04 f83c
00000060: 821f 4b3e f5e5 b93e e27d 2b3e c4e8 de38
00000070: 6a1d a93d f9a6 9e3b df9f d53c 04cd b5bc
00000080: fbd6 a13e db75 443e 349d 133e 4a56 b33c
00000090: 9d56 87be 628d 953d b001 763e fdf5 b3bd
000000a0: 729f 813e 295c 8bbd a60b d4bc b5bf 043e
000000b0: 8757 29bf 106d bbbe ed86 863e b01a 423e
000000c0: 8533 733e cefd 3cbc cf77 94bd 4405 82bd
000000d0: 6433 7b3e 42b5 823e dc17 16be 6178 0fbe
000000e0: e7b8 0a3e 184e 1c3e fe0c d73d dd86 d23e
000000f0: 08a9 613e 3cfb 183e 9d67 803d 864f d03e
00000100: e56d e43c ca2e a53d a740 15bd cc2c 633e
00000110: fbdf 25be bd1e eebe 5c77 73bd dee3 823e
00000120: c359 0e3e d953 9dbd bfbf 463d ac01 b03d
00000130: 93a8 00bd d018 af3e 326f 9cbc 68fa 94bc
00000140: d771 5cbd c0a9 79be 5c97 bdbe 7f24 953d
00000150: e124 3ebd 1806 2b3e 245a d3be 5db8 483d
00000160: 3e2a 743d e1c4 79be 5c1e 98bd 581f 37bc
00000170: 0bbd 343e 7a45 48be d34b 76be cfde 35bd
00000180: adde f3bd cc6f 633e 638e 2f3e 0a9b 3c3e
00000190: d7cc 30be 17bd ef3e cc0c eb3c 2650 5fbc
000001a0: 8678 8dbd d24a 873e 0788 13bb 4caf fc3d
000001b0: c6ef 78bd 34ba bb3c 2585 e83c e675 f9bc
000001c0: 79c4 693e 1430 683e 27fb 883d 8d1d d83e
000001d0: 842f 8e3e a54b 71be a5a1 833d 62e6 9d3e
000001e0: 2f58 8d3e 8781 d4bd 17a5 aebc c26b 0f3e
000001f0: 1ed3 633e f235 0b3e b3bf 143d 8129 af3c
00000200: 8444 943d 5654 23bd a7d3 62be ff60 173d
00000210: 96d2 8fba c55c 113e 1b48 49be 6428 85bd
00000220: b12f 343d 76fd 1fbd b19b 0f3d 1e63 653e
00000230: 5d1d 98be b175 c7be 9c15 d13d c8a2 603e
00000240: dbf9 abbd 2540 063f d393 45bc f168 cdbd
00000250: 5ec8 77bc 599c 04bf fe40 9abd 4152 3e3d
00000260: b61a 943d 6c1a 913e d0a6 bb3d f5a8 2dbe
00000270: bba5 f23d bc79 a03d f7f9 a13c 54e1 11be
00000280: b1e3 19be e7a6 433d a373 24bd b8f3 aabe
00000290: dc86 933c 113e 2e3f 1bab df3b 5b7b 93be
000002a0: 8498 7bbd e39a 97bd bd15 78bd 7c49 c33d
000002b0: eb47 69be d7a9 b8bd 010e e5bc fff3 403e
000002c0: 557a 77bd f7bf 00be 1e58 8a3e 458f 3dbd
000002d0: eec2 0dbe 999e ef3c d5b2 523e db42 283c
000002e0: 5acb 233e cfdb f3bd 0fc0 763a f825 34be
000002f0: 4456 063e f1bb 043d 5ab4 9e3e c78c b4bd
00000300: e219 33be e91f 373d 569c 25be a615 80be
00000310: dd55 f9bd 5766 36be 2cda 60be f2c4 19be
00000320: 2cb8 83bc 032b 94be a2b1 f73d a2cd 8bbe
00000330: 8f82 8e3c 1d3f 81be 8f2a 2d3e 215f e9be
00000340: fc5f 1a3d 6bfb b2be d342 053e d443 4b3d
00000350: 4d25 c53e df50 d13e f969 953e 4551 9a3c
00000360: 09aa 64be 0bf7 a53e 517b c6be 00d0 5bbc
00000370: c75e 90bc 7949 bfbc d6c6 cabe 876c 803b
00000380: a01c 6ebd 857f f83b 201e d6be ee92 a93e
00000390: e008 eb3d 8a08 d03d 55eb dabe e392 6c3e
000003a0: dc51 0a3e 4f13 ba3d bd0e 923e ed1e 293e
000003b0: 7571 283e 4e6b 4abe 2107 143f 8c32 4d3e
000003c0: b7d7 fdbd cbf1 46be e623 1f3e 98d0 49bd
000003d0: da77 7ebe 82e0 e3bc c721 ae3d bdc0 c1bd
000003e0: 1e01 e23d 78d6 8abe 0ea4 0d3e b1d5 4abe
000003f0: c878 833d 78ff 0c3d 2c9b 453e 3c72 1abe
0.004344881 -0.09502912 -0.51925236 -0.10023386 0.14543071 -0.124379575 -0.40832686 0.043201253
0.079894565 0.11681984 -0.2747662 -0.0172758 0.1959334 -0.050533038 -0.25470093 -0.08709846
0.075865485 0.40984365 -0.018200986 -0.096636556 -0.4684794 0.18426435 -0.07802922 0.030275576
0.19836238 0.36308256 0.16747239 0.00010629141 0.082575634 0.004841682 0.026077209 -0.022192486
0.3160933 0.19185583 0.14415437 0.021891732 -0.26433268 0.07302357 0.24024081 -0.08787153
0.2531696 -0.068046875 -0.02588446 0.12963755 -0.6614918 -0.36606646 0.26274815 0.18955493
0.23750122 -0.011535121 -0.07249414 -0.063486606 0.24531323 0.25528914 -0.14657539 -0.14010765
0.13547097 0.15264165 0.10500525 0.41118518 0.22037137 0.14939588 0.06269763 0.40685672
0.027884433 0.08065565 -0.03643861 0.22185057 -0.16198723 -0.46507826 -0.05944 0.25564474
0.13901429 -0.07682008 0.048522707 0.08594069 -0.031410765 0.34198618 -0.01909599 -0.01818581
-0.053819504 -0.2438116 -0.3702954 0.07282352 -0.04642189 0.16701543 -0.4127971 0.049003948
0.059610598 -0.2439151 -0.074276656 -0.0111769065 0.17650239 -0.19557753 -0.24052362 -0.04440194
-0.119077064 0.22210616 0.1714416 0.18418518 -0.1726564 0.46823952 0.028692625 -0.013629949
-0.06907754 0.2642427 -0.0022511499 0.12338123 -0.06077554 0.022915937 0.0283838 -0.030451726
0.22828855 0.2267459 0.066885285 0.42210045 0.27770627 -0.23564012 0.064273156 0.3083983
0.2760634 -0.10376268 -0.021318955 0.1400595 0.22248504 0.13594797 0.03631563 0.021382095
0.07239631 -0.03987535 -0.22151051 0.036957737 -0.0010972794 0.14195545 -0.19656412 -0.065018445
0.043990795 -0.03906008 0.03506059 0.22401091 -0.29709902 -0.3895698 0.102092 0.21937096
-0.083972655 0.52441627 -0.01205917 -0.100297816 -0.015123455 -0.5180107 -0.075319275 0.046465162
0.07231657 0.2834047 0.09162676 -0.16958983 0.11848017 0.07835719 0.019772513 -0.14246112
-0.15028264 0.047766592 -0.040149342 -0.33389068 0.018008642 0.68063456 0.0068258173 -0.2880505
-0.061424747 -0.07402589 -0.060567606 0.095355004 -0.22781341 -0.090167694 -0.02796078 0.18843077
-0.0604194 -0.12573229 0.27020353 -0.04627921 -0.13843891 0.02925043 0.20576032 0.010269846
0.15995541 -0.119071595 0.0009412774 -0.17592609 0.13118845 0.032405797 0.30996972 -0.08815914
-0.17490342 0.044708166 -0.16172919 -0.25016516 -0.1217458 -0.17812477 -0.21958226 -0.15016535
-0.01607903 -0.28939065 0.12094428 -0.27305323 0.01739624 -0.25243464 0.16910766 -0.4558039
0.037689194 -0.34957442 0.13013773 0.049625233 0.3850502 0.40882012 0.29182413 0.01883758
-0.22330488 0.3241504 -0.38765958 -0.01341629 -0.017623318 -0.023350464 -0.39604825 0.0039191875
-0.058132768 0.007583561 -0.4181986 0.3311991 0.11476302 0.10157879 -0.4275767 0.23102908
0.1350779 0.09085714 0.2852687 0.16515703 0.1644953 -0.19767496 0.5782338 0.20038813
-0.1239466 -0.19428174 0.15541038 -0.049271196 -0.24850407 -0.027817015 0.08502536 -0.0946059
0.11035369 -0.27116752 0.13832113 -0.1980808 0.064195216 0.03442332 0.19297475 -0.1508264

fcs1.bias f4 [128]
00000000: 75d4 f9bd 23a2 09bf 8101 ecbd c21e 2e3d
00000010: a276 84be 0492 53be 7d1f 6bbe 321b 18be
00000020: c002 023c ed70 59be 976f 6cbd eaad 40be
00000030: 0a55 0ebd 4c62 85be 9c0e 84bd e426 9abe
00000040: b676 29bc 92e9 a6be 196a 3f3e 2c72 153d
00000050: 0e24 6abd 6dbc 85be 465d 06bd 716d b8be
00000060: 245e 7ebd 33d1 06be 288a 91be 144c a8bd
00000070: 4c8a b6be bd9f 06be b92d 183e e16d e7be
00000080: 6cb5 6a3d 10e2 08be 4587 983d f7ab 47be
00000090: bb55 0b3d 0647 73bd 0f9b e43c 99a3 09bf
000000a0: e62f c6be 5603 5fbe 6b3b 45be a7b1 4bbc
000000b0: 5614 9abe 4902 9d3d 16e7 d5be fa39 e1bd
000000c0: 594e 643d 2a5f 4cbe e6fd 34be 8129 903c
000000d0: 1109 983d 7d57 25be 44bc 04be 77a6 20be
000000e0: 8b71 72be 5cb4 4bbe bb7f 8cbd ea96 c03b
000000f0: 57cd d93b 0cf2 053e 7298 92be 55d8 54be
00000100: 265e ff3d 4060 64be 763c dabd 7dbd 73be
00000110: 5321 09be bc96 3dbe b50f b1bd a424 abbd
00000120: 0f1e 4bbd a8a5 21bd 46eb 4dbe c225 b2be
00000130: dcb1 70be 1a8c bbbe e686 e4be 56bc 87be
00000140: b74d 1abe a1f2 d23d 7ed0 d1bd cb06 bebe
00000150: 922a a5be b0a8 6d3d 4338 22be 680b 1abe
00000160: ac86 72bd c17e dfbd 356a 1b3e 596e 5cbe
00000170: 2621 5b3d 0d64 49be 327a a9be 4947 42bd
00000180: e3cc 1bbe 6ffb abbe 799a 88bd 8707 86be
00000190: d036 1abe 5b90 90be b04b a8bd d233 43bc
000001a0: 3bfd 5a3e 69d0 ecbe fa0b 3abe 3f30 413d
000001b0: 0332 6ebe 771c edbd 61a0 53be acb7 5b3d
000001c0: 9620 b03d 5978 7cbe b038 bebe 0906 b2be
000001d0: 1cd1 6fbe 5393 53be d0af 5bbe f318 90bd
000001e0: 4700 17bd fc27 46bd f5db b4be 5207 09be
000001f0: f7fe 8bbd af14 1ebe 5ab6 e9bd 1fec e2bd
-0.12198726 -0.53763026 -0.11523724 0.0425098 -0.2587176 -0.2066117 -0.2296123 -0.14854124
0.007935226 -0.21234484 -0.057723608 -0.18816343 -0.03474907 -0.26051557 -0.06448099 -0.30107796
-0.010343244 -0.32600075 0.18692817 0.036485836 -0.05716329 -0.2612032 -0.032803796 -0.36020997
-0.0621015 -0.1316574 -0.28425717 -0.08217636 -0.35652387 -0.13146873 0.14861192 -0.45201018
0.057301924 -0.13367486 0.074476756 -0.19499193 0.034017306 -0.059393905 0.027905969 -0.53765255
-0.3870842 -0.21778616 -0.19260947 -0.012432492 -0.3009364 0.076664515 -0.41777867 -0.10997386
0.05573878 -0.19958177 -0.1767498 0.017597916 0.07423604 -0.16146655 -0.12962443 -0.15688501
-0.23676126 -0.1989302 -0.068603 0.0058773654 0.006646793 0.13080615 -0.28631932 -0.20785649
0.12469129 -0.22302341 -0.10656063 -0.23802753 -0.13391618 -0.18514532 -0.08645574 -0.08356598
-0.049589213 -0.039464623 -0.20109281 -0.34794432 -0.23505348 -0.36630327 -0.4463417 -0.26510876
-0.15068708 0.10300184 -0.10244845 -0.37114558 -0.3225904 0.0580222 -0.15841775 -0.15043414
-0.059210464 -0.10912848 0.15177234 -0.2152647 0.05349841 -0.19667073 -0.3310104 -0.047431264
-0.15214877 -0.33590266 -0.06670088 -0.26177618 -0.15059972 -0.28235134 -0.08217561 -0.01191421
0.21385662 -0.46252754 -0.18168631 0.04716515 -0.23261265 -0.11577695 -0.20666648 0.05364196
0.08599965 -0.24655284 -0.37152624 -0.3477023 -0.23419613 -0.20661668 -0.21453786 -0.07036009
-0.0368655 -0.048377976 -0.35324064 -0.13381699 -0.0683574 -0.15437578 -0.11411734 -0.11080193

bn1.weight f4 [128]
00000000: ac7b 3c3f 6812 a03d 2035 703f 2683 0a3f
00000010: bcf7 953e 005d 403c c649 1e3f 60e9 bd3e
00000020: 58ea 1a3f e8d3 dd3d 4ba6 313f 70cd f13d
00000030: cb88 653f daea 073f 955c 3e3f 03ff 4b3f
00000040: 586d 733f 0fb1 133f 49c7 663f e8cc ac3d
00000050: 9ae8 5b3f 97e5 5d3f 9c62 783e b894 763e
00000060: b89d 693f aedd 663f 48b6 ab3d 5c5f 013f
00000070: 10e1 fd3d e511 453f e84a a53d 9c8b 833e
00000080: b444 613f fbf2 6b3f 596c 713f 6a38 0d3f
00000090: 800c 6c3d f688 503f d9cd 693f 15a3 623f
000000a0: 9d7e 503f c895 eb3e 184c 403f 1a04 1c3f
000000b0: 4a9b 873e 812b 533f 404a a13e 27e9 4a3f
000000c0: 20ab e83e c802 e93e 4c4b 363f 606b de3e
000000d0: 35df 343f a071 873d c02d 7d3c a106 113f
000000e0: 0257 c93e e0eb 903e f0d8 543d 0364 0c3f
000000f0: 54d3 823e 8dba 733f 709d ea3d e225 a53e
00000100: 9a21 cf3e 9021 173f d0d0 273d 4339 463f
00000110: 1094 013d 5821 6f3e fe6c 193f e246 da3e
00000120: bc9b 0f3f 00e9 5d3b 54d3 173e 8561 553f
00000130: 56d3 313f 44cd 373f ade0 473f 7982 593f
00000140: b20a 3f3f d85f b13e 04a3 803e f4ff 223e
00000150: 5dd9 253f 9ee5 f83e b001 853e e11e 4e3f
00000160: 7b38 053f 02a5 e43e bc29 be3e 7448 0c3e
00000170: e2b4 693f 4049 5b3c a0e7 2d3d ada0 193f
00000180: 82cd 8c3e c50b 5f3f ae27 f73e 46a2 873e
00000190: eb14 003f c0ba d73e cc8f d73e 62a6 e33e
000001a0: d8e8 2e3e a2a7 ae3e a06f 923c 5c63 363e
000001b0: 0163 093f 87dd 533f be53 f43e 75e6 633f
000001c0: 306a d73d dac2 2d3f e85b 1e3f 82ad 983e
000001d0: 8e97 343f d004 3d3e faf8 083f 5d99 2b3f
000001e0: 681b 893e 283a 173e e21a 523f 3885 c53d
000001f0: 434c 7e3f 704b a33e 36f2 d73e 40ea 6f3e
0.7362621 0.07816011 0.9383106 0.54106367 0.2929057 0.011740923 0.6183132 0.37092113
0.6051383 0.108314335 0.6939437 0.11806762 0.89661855 0.5309273 0.7436002 0.7968599
0.9508872 0.57692045 0.90147835 0.0843752 0.85901797 0.8667845 0.24256366 0.24080169
0.91256285 0.90182006 0.08384377 0.5053613 0.12396443 0.7698043 0.08070928 0.2569245
0.8799546 0.92167634 0.9430595 0.55164206 0.05762911 0.81458986 0.91329724 0.88530093
0.81443197 0.46012712 0.7511611 0.6094376 0.26485664 0.82488257 0.3150196 0.7926201
0.45443058 0.45509934 0.71208644 0.43441296 0.70653087 0.06613469 0.015452802 0.5665074
0.39324194 0.28304958 0.0519647 0.54840106 0.25551856 0.9520653 0.1145581 0.32255465
0.40455323 0.5903559 0.040970623 0.77431124 0.031635344 0.23352563 0.59931934 0.42632204
0.56097007 0.0033860803 0.14826709 0.8335193 0.694631 0.71797585 0.78077203 0.8496471
0.74625695 0.34643435 0.2512437 0.15917951 0.64784795 0.48612684 0.2597785 0.8051587
0.5203931 0.4465714 0.37141216 0.13699514 0.9129163 0.013384163 0.042457223 0.60010797
0.2750054 0.87127334 0.4827246 0.26490992 0.5003192 0.42134666 0.42101896 0.44462878
0.1708101 0.3411227 0.017875493 0.1781134 0.5366669 0.827599 0.4772014 0.89023525
0.105183005 0.67875445 0.6185899 0.29819876 0.70543754 0.18458867 0.5350491 0.6703089
0.26778722 0.14768279 0.8207227 0.0964455 0.99335116 0.31893492 0.4217698 0.23429203

bn1.bias f4 [128]
00000000: 0000 0000 0000 0000 0000 0000 0000 0000
00000010: 0000 0000 0000 0000 0000 0000 0000 0000
00000020: 0000 0000 0000 0000 0000 0000 0000 0000
00000030: 0000 0000 0000 0000 0000 0000 0000 0000
00000040: 0000 0000 0000 0000 0000 0000 0000 0000
00000050: 0000 0000 0000 0000 0000 0000 0000 0000
00000060: 0000 0000 0000 0000 0000 0000 0000 0000
00000070: 0000 0000 0000 0000 0000 0000 0000 0000
00000080: 0000 0000 0000 0000 0000 0000 0000 0000
00000090: 0000 0000 0000 0000 0000 0000 0000 0000
000000a0: 0000 0000 0000 0000 0000 0000 0000 0000
000000b0: 0000 0000 0000 0000 0000 0000 0000 0000
000000c0: 0000 0000 0000 0000 0000 0000 0000 0000
000000d0: 0000 0000 0000 0000 0000 0000 0000 0000
000000e0: 0000 0000 0000 0000 0000 0000 0000 0000
000000f0: 0000 0000 0000 0000 0000 0000 0000 0000
00000100: 0000 0000 0000 0000 0000 0000 0000 0000
00000110: 0000 0000 0000 0000 0000 0000 0000 0000
00000120: 0000 0000 0000 0000 0000 0000 0000 0000
00000130: 0000 0000 0000 0000 0000 0000 0000 0000
00000140: 0000 0000 0000 0000 0000 0000 0000 0000
00000150: 0000 0000 0000 0000 0000 0000 0000 0000
00000160: 0000 0000 0000 0000 0000 0000 0000 0000
00000170: 0000 0000 0000 0000 0000 0000 0000 0000
00000180: 0000 0000 0000 0000 0000 0000 0000 0000
00000190: 0000 0000 0000 0000 0000 0000 0000 0000
000001a0: 0000 0000 0000 0000 0000 0000 0000 0000
000001b0: 0000 0000 0000 0000 0000 0000 0000 0000
000001c0: 0000 0000 0000 0000 0000 0000 0000 0000
000001d0: 0000 0000 0000 0000 0000 0000 0000 0000
000001e0: 0000 0000 0000 0000 0000 0000 0000 0000
000001f0: 0000 0000 0000 0000 0000 0000 0000 0000
0.0 0.0 0.0 0.0 0.0 0.0 0.0 0.0
0.0 0.0 0.0 0.0 0.0 0.0 0.0 0.0
0.0 0.0 0.0 0.0 0.0 0.0 0.0 0.0
0.0 0.0 0.0 0.0 0.0 0.0 0.0 0.0
0.0 0.0 0.0 0.0 0.0 0.0 0.0 0.0
0.0 0.0 0.0 0.0 0.0 0.0 0.0 0.0
0.0 0.0 0.0 0.0 0.0 0.0 0.0 0.0
0.0 0.0 0.0 0.0 0.0 0.0 0.0 0.0
0.0 0.0 0.0 0.0 0.0 0.0 0.0 0.0
0.0 0.0 0.0 0.0 0.0 0.0 0.0 0.0
0.0 0.0 0.0 0.0 0.0 0.0 0.0 0.0
0.0 0.0 0.0 0.0 0.0 0.0 0.0 0.0
0.0 0.0 0.0 0.0 0.0 0.0 0.0 0.0
0.0 0.0 0.0 0.0 0.0 0.0 0.0 0.0
0.0 0.0 0.0 0.0 0.0 0.0 0.0 0.0
0.0 0.0 0.0 0.0 0.0 0.0 0.0 0.0

bn1.running_mean f4 [128]
00000000: 0000 0000 0000 0000 0000 0000 0000 0000
00000010: 0000 0000 0000 0000 0000 0000 0000 0000
00000020: 0000 0000 0000 0000 0000 0000 0000 0000
00000030: 0000 0000 0000 0000 0000 0000 0000 0000
00000040: 0000 0000 0000 0000 0000 0000 0000 0000
00000050: 0000 0000 0000 0000 0000 0000 0000 0000
00000060: 0000 0000 0000 0000 0000 0000 0000 0000
00000070: 0000 0000 0000 0000 0000 0000 0000 0000
00000080: 0000 0000 0000 0000 0000 0000 0000 0000
00000090: 0000 0000 0000 0000 0000 0000 0000 0000
000000a0: 0000 0000 0000 0000 0000 0000 0000 0000
000000b0: 0000 0000 0000 0000 0000 0000 0000 0000
000000c0: 0000 0000 0000 0000 0000 0000 0000 0000
000000d0: 0000 0000 0000 0000 0000 0000 0000 0000
000000e0: 0000 0000 0000 0000 0000 0000 0000 0000
000000f0: 0000 0000 0000 0000 0000 0000 0000 0000
00000100: 0000 0000 0000 0000 0000 0000 0000 0000
00000110: 0000 0000 0000 0000 0000 0000 0000 0000
00000120: 0000 0000 0000 0000 0000 0000 0000 0000
00000130: 0000 0000 0000 0000 0000 0000 0000 0000
00000140: 0000 0000 0000 0000 0000 0000 0000 0000
00000150: 0000 0000 0000 0000 0000 0000 0000 0000
00000160: 0000 0000 0000 0000 0000 0000 0000 0000
00000170: 0000 0000 0000 0000 0000 0000 0000 0000
00000180: 0000 0000 0000 0000 0000 0000 0000 0000
00000190: 0000 0000 0000 0000 0000 0000 0000 0000
000001a0: 0000 0000 0000 0000 0000 0000 0000 0000
000001b0: 0000 0000 0000 0000 0000 0000 0000 0000
000001c0: 0000 0000 0000 0000 0000 0000 0000 0000
000001d0: 0000 0000 0000 0000 0000 0000 0000 0000
000001e0: 0000 0000 0000 0000 0000 0000 0000 0000
000001f0: 0000 0000 0000 0000 0000 0000 0000 0000
0.0 0.0 0.0 0.0 0.0 0.0 0.0 0.0
0.0 0.0 0.0 0.0 0.0 0.0 0.0 0.0
0.0 0.0 0.0 0.0 0.0 0.0 0.0 0.0
0.0 0.0 0.0 0.0 0.0 0.0 0.0 0.0
0.0 0.0 0.0 0.0 0.0 0.0 0.0 0.0
0.0 0.0 0.0 0.0 0.0 0.0 0.0 0.0
0.0 0.0 0.0 0.0 0.0 0.0 0.0 0.0
0.0 0.0 0.0 0.0 0.0 0.0 0.0 0.0
0.0 0.0 0.0 0.0 0.0 0.0 0.0 0.0
0.0 0.0 0.0 0.0 0.0 0.0 0.0 0.0
0.0 0.0 0.0 0.0 0.0 0.0 0.0 0.0
0.0 0.0 0.0 0.0 0.0 0.0 0.0 0.0
0.0 0.0 0.0 0.0 0.0 0.0 0.0 0.0
0.0 0.0 0.0 0.0 0.0 0.0 0.0 0.0
0.0 0.0 0.0 0.0 0.0 0.0 0.0 0.0
0.0 0.0 0.0 0.0 0.0 0.0 0.0 0.0

bn1.running_var f4 [128]
00000000: 0000 803f 0000 803f 0000 803f 0000 803f
00000010: 0000 803f 0000 803f 0000 803f 0000 803f
00000020: 0000 803f 0000 803f 0000 803f 0000 803f
00000030: 0000 803f 0000 803f 0000 803f 0000 803f
00000040: 0000 803f 0000 803f 0000 803f 0000 803f
00000050: 0000 803f 0000 803f 0000 803f 0000 803f
00000060: 0000 803f 0000 803f 0000 803f 0000 803f
00000070: 0000 803f 0000 803f 0000 803f 0000 803f
00000080: 0000 803f 0000 803f 0000 803f 0000 803f
00000090: 0000 803f 0000 803f 0000 803f 0000 803f
000000a0: 0000 803f 0000 803f 0000 803f 0000 803f
000000b0: 0000 803f 0000 803f 0000 803f 0000 803f
000000c0: 0000 803f 0000 803f 0000 803f 0000 803f
000000d0: 0000 803f 0000 803f 0000 803f 0000 803f
000000e0: 0000 803f 0000 803f 0000 803f 0000 803f
000000f0: 0000 803f 0000 803f 0000 803f 0000 803f
00000100: 0000 803f 0000 803f 0000 803f 0000 803f
00000110: 0000 803f 0000 803f 0000 803f 0000 803f
00000120: 0000 803f 0000 803f 0000 803f 0000 803f
00000130: 0000 803f 0000 803f 0000 803f 0000 803f
00000140: 0000 803f 0000 803f 0000 803f 0000 803f
00000150: 0000 803f 0000 803f 0000 803f 0000 803f
00000160: 0000 803f 0000 803f 0000 803f 0000 803f
00000170: 0000 803f 0000 803f 0000 803f 0000 803f
00000180: 0000 803f 0000 803f 0000 803f 0000 803f
00000190: 0000 803f 0000 803f 0000 803f 0000 803f
000001a0: 0000 803f 0000 803f 0000 803f 0000 803f
000001b0: 0000 803f 0000 803f 0000 803f 0000 803f
000001c0: 0000 803f 0000 803f 0000 803f 0000 803f
000001d0: 0000 803f 0000 803f 0000 803f 0000 803f
000001e0: 0000 803f 0000 803f 0000 803f 0000 803f
000001f0: 0000 803f 0000 803f 0000 803f 0000 803f
1.0 1.0 1.0 1.0 1.0 1.0 1.0 1.0
1.0 1.0 1.0 1.0 1.0 1.0 1.0 1.0
1.0 1.0 1.0 1.0 1.0 1.0 1.0 1.0
1.0 1.0 1.0 1.0 1.0 1.0 1.0 1.0
1.0 1.0 1.0 1.0 1.0 1.0 1.0 1.0
1.0 1.0 1.0 1.0 1.0 1.0 1.0 1.0
1.0 1.0 1.0 1.0 1.0 1.0 1.0 1.0
1.0 1.0 1.0 1.0 1.0 1.0 1.0 1.0
1.0 1.0 1.0 1.0 1.0 1.0 1.0 1.0
1.0 1.0 1.0 1.0 1.0 1.0 1.0 1.0
1.0 1.0 1.0 1.0 1.0 1.0 1.0 1.0
1.0 1.0 1.0 1.0 1.0 1.0 1.0 1.0
1.0 1.0 1.0 1.0 1.0 1.0 1.0 1.0
1.0 1.0 1.0 1.0 1.0 1.0 1.0 1.0
1.0 1.0 1.0 1.0 1.0 1.0 1.0 1.0
1.0 1.0 1.0 1.0 1.0 1.0 1.0 1.0

fc2.weight f4 [64, 130]
00000000: 5500 9dbe 2911 4abf e185 ffbd b24a 0dbe
00000010: 8cab ccbe ac61 293c 5331 f4be deba b63d
00000020: 5626 203e e329 acbe c2f1 a2bc 47aa cf3e
00000030: f525 b0be f5b2 05bf 5d9c efbd 6277 e83d
00000040: 2dad 8abe 32e1 8c3e 786b 963e 13c6 1fbf
00000050: 6cf3 e5bd c980 81bd b0d1 353d 4f28 123d
00000060: ff50 ebbd 0364 503e e7d6 803d 5f97 0f3e
00000070: 0174 cfbd 60ab a9be a95e 56be 4935 3cbe
00000080: f166 903b e499 42be ff09 4d3e 25c4 f9be
00000090: a7c1 c5bc 9fd0 aa3e 5a98 bbbd 682a 86be
000000a0: c80c b2be 4e61 5d3f e40f f5bc dfe5 53be
000000b0: c337 b93e ca8b 7abe e74c 17bd e46b a0be
000000c0: beeb 25bc c763 cd3e 602d fcbd 4241 0fbe
000000d0: f953 ebbc 218d 9b3d 77b8 0e3e 77d9 823e
000000e0: e0d2 153e fc2e 16bd a3cc 5d3e 06f4 a3be
000000f0: 0837 06be 1730 86be c280 993e af02 cfbf
00000100: 3407 363e 748d 2ebe b3e2 30bf 4514 3bbe
00000110: 7b01 46bf cb88 b2be 917b c5bd 7058 99be
00000120: 9364 db3d 631c a43d ad17 353e 2ee0 713e
00000130: f511 40be 9ee4 563e c02c 2f3e 1100 35bd
00000140: b446 a0be 2023 90be 69e1 b7bf 5d11 573f
00000150: 8502 0a3d 40fd 8e3e 7ad2 0abf 05a0 25bd
00000160: 4fc2 92bc 89e0 dc3c 6d8e 3abd b6b5 323e
00000170: 1fa4 f8bd 5eb7 b23e f876 d6bd 05d5 08bf
00000180: d246 213e 5869 29bd 4876 de3d 8f25 b53d
00000190: 1a35 3fbf 2c43 21bc ca62 0dbd 00d4 5e3e
000001a0: 7223 fcbd f9e9 84bf 0ded 91be e5b4 bc3c
000001b0: 025f 5a3d d6b4 193e 1899 4bbf faf6 7e3e
000001c0: 1151 f33d d2ab 6ebf 79a2 0ebe 2efc f3bd
000001d0: 7152 d23d 15e0 64bf 7b29 17be 84ad b23d
000001e0: 23fd 1c3e 185b 883e 2c2d 2d3e eff2 4c3e
000001f0: 0f8c d3bd 1ad3 a23c 87f9 10be c062 2b3e
00000200: 41d9 56bd 8129 38bd 592a 67bd f4d2 733e
00000210: ac3e 0e3e a266 cebd 590f 8ebe 84a8 6abe
00000220: 280f b8be 09a7 81bd 09a4 c8bc a93c f53c
00000230: 1c6d d03d 3ab2 04bf 391e 203d 6693 0dbf
00000240: 2037 ac3d 0fc0 953c 9813 95be 2e1e d23e
00000250: 44df 59be e019 6c3e 092b 973d 00de 86bd
00000260: 2cb1 79be 937c b6bd 1442 bc3c dc37 343e
00000270: 3948 ddbc 547f 8abe 9dfc 5abe 08d8 10be
00000280: 40fb 063e 3a1c d9bd 497b 21bc 6b58 033e
00000290: afd2 aebd fb16 3fbe a5e0 dd3d c369 febb
000002a0: b41a b9bd c2f3 fe3d e069 a5be 5121 e6bd
000002b0: cd3e 96bd 9ba6 53bc a1d1 a5be 582b 87bd
000002c0: 56ca 0bbe 34b7 00bf 33b8 1bbe 6331 473d
000002d0: 7c76 213e 4093 c2bc bf4d 12bb 429a eb3d
000002e0: d2d0 093f 196d 2bbb db31 9fbd 70c6 adbc
000002f0: b64b febe d5d0 a13d d3f3 a13e 55bb 453c
00000300: 4725 b83d 2059 37bc 3089 99be 5801 8b3c
00000310: 43f8 093c 5ca1 313e cd81 75bc 8374 823e
00000320: 3bd2 1cbc 11f1 a33d 2a9a 5bbf abe8 0b3e
00000330: 2c20 66bd ae08 8e3d 9d68 483d 45eb 663d
00000340: ee8f 6dbe f1f5 92be d4f7 fcbd c9e8 c3bc
00000350: 388b ae3c 538a 873c 2e4b 63bd 146a 633e
00000360: 0540 3bbe 4cbe 3f3d 45db 493e 039a 923e
00000370: 7601 b23d 9a19 bcbe 7d7a 4cb9 fd60 c13e
00000380: 8bf1 e73d bf9a fcbe 039f b13b 450c 5a3e
00000390: b64e eb3d dc4d 3bbe e3b5 1abe a2eb 623d
000003a0: b33e 2a3e b41e 203d e8b3 533d cba0 c8be
000003b0: db43 863e 8015 3bbd 5ecf 72be d2ac edbd
000003c0: 957a b1be 5c51 29bd f5d5 cd3d 600e 1dbc
000003d0: 29dc 47bd d2c5 3cbe be8e cabe dde2 893d
000003e0: da5b 543e 9cba a6bd ff24 e33d 9f51 073e
000003f0: 9d91 8abd d9b4 b03d 1d56 24be f768 5ebe
-0.30664316 -0.78932434 -0.12476707 -0.13798025 -0.3997463 0.010338228 -0.4769388 0.08922361
0.15639624 -0.33625707 -0.01989067 0.405596 -0.3440396 -0.5222619 -0.11699746 0.113508955
-0.27085248 0.2751556 0.29378867 -0.6241161 -0.1122807 -0.06323392 0.044389427 0.035682973
-0.11490058 0.20350651 0.06290989 0.14022587 -0.10129548 -0.3313856 -0.20934547 -0.18379702
0.004406803 -0.19004017 0.20023344 -0.4878246 -0.024140192 0.3336229 -0.09159918 -0.26204228
-0.34775376 0.864766 -0.029914804 -0.20693158 0.36175355 -0.24467388 -0.036938574 -0.31332314
-0.010127006 0.40115187 -0.12313342 -0.13989738 -0.028726565 0.075952776 0.13937555 0.25556538
0.14631224 -0.0366659 0.21660094 -0.32022113 -0.1310693 -0.26208565 0.29981047 -1.6172694
0.17776185 -0.17046148 -0.69095916 -0.18269451 -0.7734601 -0.3486999 -0.09642709 -0.29950285
0.107125424 0.08013227 0.17684813 0.23620674 -0.1875685 0.20985648 0.17106915 -0.044189516
-0.31303942 -0.28151798 -1.4365665 0.8401087 0.03369381 0.2792759 -0.5422741 -0.04043581
-0.01791492 0.026962535 -0.045545984 0.1745213 -0.121406786 0.34905523 -0.1047191 -0.5345004
0.15749672 -0.04136023 0.10862404 0.08845054 -0.746904 -0.009842675 -0.03451804 0.21760559
-0.12311448 -1.0383903 -0.28501168 0.023035476 0.053313263 0.1501039 -0.7953048 0.24898902
0.118806966 -0.93230927 -0.13929166 -0.11913334 0.10269631 -0.8940442 -0.14761917 0.08724502
0.15330939 0.26632 0.16911763 0.20014547 -0.103294484 0.019876052 -0.14157687 0.16736889
-0.052453283 -0.044961456 -0.05643687 0.23810941 0.13891095 -0.100781694 -0.27746084 -0.22915846
-0.35949063 -0.063306876 -0.02449228 0.029936152 0.10177061 -0.5183445 0.039091323 -0.5530304
0.08408952 0.018280057 -0.2911651 0.4103865 -0.21276575 0.23056746 0.07381255 -0.06585312
-0.24383992 -0.089104794 0.022980727 0.17599434 -0.027011978 -0.2705027 -0.21385427 -0.1414491
0.13181782 -0.10601087 -0.009856054 0.12826698 -0.085362785 -0.1866111 0.10833863 -0.0077640726
-0.09038296 0.12448837 -0.3230734 -0.11236823 -0.07336197 -0.01291814 -0.32386497 -0.06600064
-0.13651404 -0.50279546 -0.15206985 0.048631083 0.15767854 -0.023751855 -0.0022324172 0.11504032
0.5383426 -0.0026157557 -0.07773181 -0.021212786 -0.49667138 0.0790116 0.31631336 0.012068589
0.08991485 -0.011190683 -0.29987478 0.016968414 0.008421007 0.1734671 -0.01498456 0.25479516
-0.009571607 0.08004964 -0.8578211 0.13662975 -0.056183025 0.06935249 0.048927892 0.056376714
-0.23199436 -0.28703263 -0.12351957 -0.023914712 0.021306619 0.01654545 -0.05549162 0.22208434
-0.1828614 0.04681234 0.19712551 0.28633127 0.08691685 -0.36738282 -0.00019500586 0.3776931
0.113253675 -0.49336812 0.005420567 0.21293743 0.11489622 -0.1829142 -0.15108447 0.0554005
0.1662548 0.03909178 0.051685244 -0.39185175 0.26223645 -0.0456748 -0.23711917 -0.116052285
-0.34663835 -0.041337356 0.10050575 -0.009585947 -0.048793945 -0.18434837 -0.3956203 0.06732724
0.20738164 -0.08141062 0.11091041 0.1321473 -0.06766055 0.08628244 -0.16048475 -0.21719728

fc2.bias f4 [64]
00000000: c471 8c3d fff5 763e fe5e b73d e4a5 a3bb
00000010: 46d5 17be 56f9 db3d e956 32be b60e 6fbd
00000020: 0c66 dfbd 1b25 893d 0188 a3bd 09a1 223d
00000030: 2d25 b63e 6cd4 debd 0d53 c73d e933 6abd
00000040: 594c 1c3e 5cdc 133e 8cfb 2d3e 9263 1e3c
00000050: 8e71 703d b66d 993b bb69 39bd 5568 af3d
00000060: 4af8 283e 3e02 e23d a4be 0b3d 469b b53d
00000070: cde1 883d 1d0d 9fbc 9ff9 283e a13c 5abb
00000080: c33f 26be cf4d bc3d 4cca c63e 3622 94be
00000090: 7626 1d3e a0c1 8e3d 4cc2 babb 7cf5 853d
000000a0: 9f8b 0abd 7543 e5bd 6ab1 39be 94e9 aa3c
000000b0: 7fee c73d 592f 293e 8a05 193e af29 653d
000000c0: 61dd ccbd 9fe2 08be 2852 22bd fec4 17bb
000000d0: f118 7cbd 9bdf 98bd 5d48 ae3d 1c90 ab3b
000000e0: 7c34 253d 76bb 19bc e1b6 2e3e 232f c4bd
000000f0: 2bc4 483c b403 b33d 9838 8d3d a9b9 a83c
0.068576366 0.24117278 0.08953665 -0.004994141 -0.14827451 0.107409164 -0.17415966 -0.05836364
-0.10908136 0.066965304 -0.07984925 0.039704356 0.35575238 -0.1088036 0.097326376 -0.05717841
0.152635 0.14439529 0.16990489 0.009667294 0.058702044 0.004682268 -0.045266848 0.08564822
0.16500965 0.11035584 0.034117356 0.08867507 0.06683693 -0.019415433 0.16501473 -0.0033300298
-0.1623526 0.09194528 0.38826215 -0.2893235 0.15346703 0.06970525 -0.0056994315 0.06540963
-0.03382456 -0.11194507 -0.18134084 0.020863332 0.097622864 0.16521968 0.14943519 0.055947956
-0.10003162 -0.13367699 -0.03962913 -0.0023158188 -0.061547223 -0.07464524 0.08509896 0.005235685
0.040333256 -0.009383073 0.1706195 -0.09579303 0.012253801 0.08740941 0.0689556 0.020596342

bn2.weight f4 [64]
00000000: b8ad 9c3d 008c a33d 2d6f 1d3f 70f5 983e
00000010: ce48 f03e 308d 353e 9a64 233f f388 6c3f
00000020: 4829 703e 6fbb 0a3f c0af e73e 1627 e23e
00000030: 20c6 9a3c 282d d83d 8ef2 b93e 16f0 3e3f
00000040: 6efa 053f b07a 473d a2c8 763f a876 963e
00000050: 7872 aa3d 52b5 073f a402 653e 83ba 713f
00000060: 2a71 9c3e f3b8 0e3f 183b fd3d a05c c23c
00000070: 3284 d33e a0b6 723f 1be1 5d3f daa6 0d3f
00000080: 7c54 203f a9e6 213f 4e2f 043f 18c4 ba3e
00000090: 40ee 993e 8839 0a3e a459 223e 094e 1d3f
000000a0: 10c4 6d3e 6d9e 003f 2d06 0a3f 7897 1d3f
000000b0: a068 2f3e 7afe 683f ef72 5d3f 73e6 7a3f
000000c0: e05e 4e3e 48d4 793e d57e 643f 3508 1c3f
000000d0: 4065 0f3c 7d53 0c3f b6ef 193f 1410 e73e
000000e0: 2c0f b63e a043 153d 009a 863a 0110 4a3f
000000f0: 0252 8c3e b8f5 5a3f 50ce 593f 8cb5 733e
0.07650322 0.07985687 0.61497766 0.29874754 0.46930546 0.1772964 0.6382538 0.9239647
0.23453248 0.5419225 0.45251274 0.44170445 0.018893301 0.10555488 0.36317867 0.7458509
0.5233525 0.04870099 0.9639989 0.29387403 0.083226144 0.5301105 0.22364289 0.9442522
0.30555087 0.5575096 0.12364787 0.023725808 0.41311795 0.94809914 0.8667161 0.5533272
0.6262891 0.63242584 0.5163468 0.36477733 0.30064583 0.13498509 0.15854508 0.614472
0.23219323 0.5024174 0.53915673 0.6155925 0.17129755 0.910133 0.865035 0.9800789
0.2015338 0.24397385 0.8925603 0.6095002 0.008752167 0.54814893 0.60131395 0.45129454
0.3555845 0.036441445 0.0010269284 0.7893067 0.27406317 0.8553119 0.8508043 0.23799723

bn2.bias f4 [64]
00000000: 0000 0000 0000 0000 0000 0000 0000 0000
00000010: 0000 0000 0000 0000 0000 0000 0000 0000
00000020: 0000 0000 0000 0000 0000 0000 0000 0000
00000030: 0000 0000 0000 0000 0000 0000 0000 0000
00000040: 0000 0000 0000 0000 0000 0000 0000 0000
00000050: 0000 0000 0000 0000 0000 0000 0000 0000
00000060: 0000 0000 0000 0000 0000 0000 0000 0000
00000070: 0000 0000 0000 0000 0000 0000 0000 0000
00000080: 0000 0000 0000 0000 0000 0000 0000 0000
00000090: 0000 0000 0000 0000 0000 0000 0000 0000
000000a0: 0000 0000 0000 0000 0000 0000 0000 0000
000000b0: 0000 0000 0000 0000 0000 0000 0000 0000
000000c0: 0000 0000 0000 0000 0000 0000 0000 0000
000000d0: 0000 0000 0000 0000 0000 0000 0000 0000
000000e0: 0000 0000 0000 0000 0000 0000 0000 0000
000000f0: 0000 0000 0000 0000 0000 0000 0000 0000
0.0 0.0 0.0 0.0 0.0 0.0 0.0 0.0
0.0 0.0 0.0 0.0 0.0 0.0 0.0 0.0
0.0 0.0 0.0 0.0 0.0 0.0 0.0 0.0
0.0 0.0 0.0 0.0 0.0 0.0 0.0 0.0
0.0 0.0 0.0 0.0 0.0 0.0 0.0 0.0
0.0 0.0 0.0 0.0 0.0 0.0 0.0 0.0
0.0 0.0 0.0 0.0 0.0 0.0 0.0 0.0
0.0 0.0 0.0 0.0 0.0 0.0 0.0 0.0

bn2.running_mean f4 [64]
00000000: 0000 0000 0000 0000 0000 0000 0000 0000
00000010: 0000 0000 0000 0000 0000 0000 0000 0000
00000020: 0000 0000 0000 0000 0000 0000 0000 0000
00000030: 0000 0000 0000 0000 0000 0000 0000 0000
00000040: 0000 0000 0000 0000 0000 0000 0000 0000
00000050: 0000 0000 0000 0000 0000 0000 0000 0000
00000060: 0000 0000 0000 0000 0000 0000 0000 0000
00000070: 0000 0000 0000 0000 0000 0000 0000 0000
00000080: 0000 0000 0000 0000 0000 0000 0000 0000
00000090: 0000 0000 0000 0000 0000 0000 0000 0000
000000a0: 0000 0000 0000 0000 0000 0000 0000 0000
000000b0: 0000 0000 0000 0000 0000 0000 0000 0000
000000c0: 0000 0000 0000 0000 0000 0000 0000 0000
000000d0: 0000 0000 0000 0000 0000 0000 0000 0000
000000e0: 0000 0000 0000 0000 0000 0000 0000 0000
000000f0: 0000 0000 0000 0000 0000 0000 0000 0000
0.0 0.0 0.0 0.0 0.0 0.0 0.0 0.0
0.0 0.0 0.0 0.0 0.0 0.0 0.0 0.0
0.0 0.0 0.0 0.0 0.0 0.0 0.0 0.0
0.0 0.0 0.0 0.0 0.0 0.0 0.0 0.0
0.0 0.0 0.0 0.0 0.0 0.0 0.0 0.0
0.0 0.0 0.0 0.0 0.0 0.0 0.0 0.0
0.0 0.0 0.0 0.0 0.0 0.0 0.0 0.0
0.0 0.0 0.0 0.0 0.0 0.0 0.0 0.0

bn2.running_var f4 [64]
00000000: 0000 803f 0000 803f 0000 803f 0000 803f
00000010: 0000 803f 0000 803f 0000 803f 0000 803f
00000020: 0000 803f 0000 803f 0000 803f 0000 803f
00000030: 0000 803f 0000 803f 0000 803f 0000 803f
00000040: 0000 803f 0000 803f 0000 803f 0000 803f
00000050: 0000 803f 0000 803f 0000 803f 0000 803f
00000060: 0000 803f 0000 803f 0000 803f 0000 803f
00000070: 0000 803f 0000 803f 0000 803f 0000 803f
00000080: 0000 803f 0000 803f 0000 803f 0000 803f
00000090: 0000 803f 0000 803f 0000 803f 0000 803f
000000a0: 0000 803f 0000 803f 0000 803f 0000 803f
000000b0: 0000 803f 0000 803f 0000 803f 0000 803f
000000c0: 0000 803f 0000 803f 0000 803f 0000 803f
000000d0: 0000 803f 0000 803f 0000 803f 0000 803f
000000e0: 0000 803f 0000 803f 0000 803f 0000 803f
000000f0: 0000 803f 0000 803f 0000 803f 0000 803f
1.0 1.0 1.0 1.0 1.0 1.0 1.0 1.0
1.0 1.0 1.0 1.0 1.0 1.0 1.0 1.0
1.0 1.0 1.0 1.0 1.0 1.0 1.0 1.0
1.0 1.0 1.0 1.0 1.0 1.0 1.0 1.0
1.0 1.0 1.0 1.0 1.0 1.0 1.0 1.0
1.0 1.0 1.0 1.0 1.0 1.0 1.0 1.0
1.0 1.0 1.0 1.0 1.0 1.0 1.0 1.0
1.0 1.0 1.0 1.0 1.0 1.0 1.0 1.0

fc3.weight f4 [1, 64]
00000000: 9425 f43d 2925 29bd 2852 3d3e 8dd1 ac3e
00000010: f4b9 4bbe 56f4 babd 918e d63d a71b 853c
00000020: 99a6 993c 112f d9bd 65a9 653d c48f 053e
00000030: bd3b cabd bde2 32be 5cb7 cebd 14fe 433d
00000040: e2b0 b8bd de13 d0bd 49ba c9bd b037 ebbd
00000050: a14c 58bd b8a2 1abe db68 3e3e c0ab 473e
00000060: 7932 9abd 0f00 913d 4b4f 343e 974b e4bd
00000070: 7c88 49bd 5bd2 c3bd 16e5 b73e 7ab4 213e
00000080: e15c 8ebe 6965 97bd 2816 9ebd 5be1 43be
00000090: 714f 75bd 8743 3ebe 8974 edbd 8330 553d
000000a0: f353 b7be 478a 9f3d abba a63c 8b86 d1bd
000000b0: eea5 fb3d 22a2 2d3e 2407 e93d 82cf 993e
000000c0: 120f 993d ad4c 25be b23e 9cbd 4e27 9c3d
000000d0: 0681 6abe a951 ff3c 4967 bcbd c37a 023e
000000e0: ef73 6c3d 6d5b 2abe 0bfa 4cbe c702 aebb
000000f0: d9c3 89be 429e 183e 3029 5ebe 0905 933e
0.1192123 -0.041295204 0.18488371 0.33753625 -0.19895154 -0.09128635 0.10476411 0.016248537
0.018756198 -0.1060468 0.05606975 0.13043123 -0.098746754 -0.17469306 -0.10093567 0.04784973
-0.09018113 -0.10160039 -0.09849984 -0.11485231 -0.052807454 -0.15101135 0.18594687 0.19499111
-0.07529158 0.07080089 0.17608373 -0.1114723 -0.049202427 -0.095616065 0.35916966 0.15791503
-0.27805236 -0.07392389 -0.0771907 -0.19128935 -0.059890214 -0.18580447 -0.11594493 0.052048218
-0.35806236 0.07790046 0.020352682 -0.1023074 0.12287508 0.1695638 0.11378315 0.30041128
0.074735776 -0.1614253 -0.07629146 0.07624684 -0.22900781 0.031166868 -0.091993876 0.12742142
0.05772775 -0.16636439 -0.20017259 -0.0053103897 -0.26907232 0.1490412 -0.216954 0.2871478
