p3_collaboration_and_competition/weights/critic_1_1000.pth (torch_old, 52380 bytes, 17 tensors)

bn0.weight f4 [24]
000000 20 02 cb 3e e0 3b cb 3e 67 03 47 3e ec 83 b9 3e
       0.3965006 0.39694118 0.19434892 0.3623346
000010 3f f3 7d 3f 0d b3 2a 3f a7 fd 0a 3e c6 ec 28 3d
       0.9919929 0.6667946 0.13573323 0.04124143
000020 1e 3b 85 3e fe d9 0c 3e 06 2b 73 3e 15 f4 46 3e
       0.26021665 0.13755032 0.23746881 0.19429047
000030 2d b4 cc 3e ac 7e 55 3f b3 c7 81 3e 4f d6 8e 3e
       0.39981213 0.8339641 0.2534767 0.2789788
000040 1c 46 1a 3f 41 35 4e 3e 68 de 3e 3d 31 6f 15 3f
       0.6026323 0.20137502 0.046598822 0.5837279
000050 b9 54 56 3f c0 48 44 3f f1 58 ff 3e f1 9d e0 3e
       0.83723027 0.7667351 0.49872544 0.438705

bn0.bias f4 [24]
000000 f2 b0 35 3c c5 0f 90 bd ed 96 3f 3d 9d f5 c8 bd
       0.01108955 -0.07034258 0.046774793 -0.09812472
000010 44 a0 0f 3e a9 2b 02 bc e5 3f 9a 3d 53 c9 c1 3b
       0.1402598 -0.00794498 0.07531718 0.0059138923
000020 c0 37 34 bd f6 23 0d 3c 9b ad 8e 3d fc 47 9d bd
       -0.04399848 0.008614531 0.06966706 -0.076797456
000030 b7 50 7c 3e 55 60 e7 3c bc 8e 5f 3d 34 a2 36 bc
       0.24640165 0.028244177 0.05457948 -0.011147071
000040 d8 8c 54 bc 6c eb 9a 3d 09 36 a5 3c 93 ef 0c be
       -0.012973033 0.075644344 0.020167368 -0.13763265
000050 32 42 31 3e 10 50 a3 3d ae 06 9e 3c b8 2f d5 bd
       0.17310408 0.07974255 0.019290294 -0.10409492

bn0.running_mean f4 [24]
000000 0b df a0 c0 de 2d b8 be 91 d3 ba 40 38 03 8b 3e
       -5.027227 -0.35972494 5.838326 0.27150893
000010 20 1e 38 bc 60 5e 51 40 91 d3 ba 40 38 03 8b 3e
       -0.011237651 3.2713852 5.838326 0.27150893
000020 65 fd a7 c0 6b dc c5 be b1 e9 be 40 f5 49 41 3e
       -5.249682 -0.38644728 5.966027 0.18875869
000030 89 a3 44 3c b2 8b 51 40 b1 e9 be 40 f5 49 41 3e
       0.01200188 3.2741513 5.966027 0.18875869
000040 0d 38 ad c0 49 3d d4 be 84 5c d3 40 83 cd 0d 3e
       -5.413092 -0.41453007 6.6050434 0.13847928
000050 d6 1a 0d 3d b2 98 4e 40 84 5c d3 40 83 cd 0d 3e
       0.03444942 3.2280698 6.6050434 0.13847928

bn0.running_var f4 [24]
000000 05 36 83 41 6a e6 76 3f c2 67 82 43 05 00 34 41
       16.401377 0.96445334 260.8106 11.250005
000010 d7 44 15 42 fb 2d 86 40 c2 67 82 43 05 00 34 41
       37.317226 4.193113 260.8106 11.250005
000020 01 a6 7d 41 87 fd 7e 3f 53 4f 84 43 40 aa 42 41
       15.853028 0.996056 264.61972 12.166565
000030 c9 c8 22 42 5a 01 8b 40 53 4f 84 43 40 aa 42 41
       40.69608 4.343915 264.61972 12.166565
000040 1a 44 75 41 12 90 83 3f 7a 1e 8c 43 a5 31 52 41
       15.329126 1.0278342 280.2381 13.13712
000050 53 47 31 42 1f 1a 99 40 7a 1e 8c 43 a5 31 52 41
       44.319653 4.7844386 280.2381 13.13712

fcs1.weight f4 [128, 24]
000000 4f 05 d4 3c 15 ec 98 bd 6d 73 d7 be 5e 5f fb bd
       0.025881438 -0.07466904 -0.4208025 -0.12274049
000010 ef 57 fa 3d 32 80 53 be 03 d2 9c be 1c 93 30 3c
       0.12223803 -0.20654371 -0.30628976 0.010777261
000020 76 f8 16 3d 42 12 8c bc 6b e1 49 be e0 14 15 bd
       0.036858045 -0.01709855 -0.19714896 -0.03639686
000030 6c 4b 2e bc 58 f7 88 3c 6e ae 2e be 78 d4 10 be
       -0.010638099 0.016719505 -0.17058727 -0.1414355
000040 99 88 84 3c 08 98 32 3e 4d a6 26 bd 82 4a 62 bd
       0.016178416 0.17440808 -0.04068594 -0.055246837
000050 78 6f bd be b5 f0 5a 3e c6 b6 00 be 9c 45 94 3d
       -0.36999106 0.21380885 -0.12569723 0.072398394
000060 cb 71 15 3e ae 23 8c 3e 39 6c 5a 3d 34 ec 09 3e
       0.1459419 0.2737097 0.053325865 0.1346901
000070 a6 5b 87 3d 02 a0 31 3d a0 24 95 bc c1 67 5f 3d
       0.066092774 0.043365486 -0.01820594 0.054542307
000080 76 d8 48 3e f3 d5 2c 3e 23 8b 05 3e a7 61 59 bd
       0.19613823 0.1687849 0.13041358 -0.053071644
000090 03 b7 45 be 13 ac 8e 3c cd cb 66 3e e2 cb d6 bd
       -0.19308095 0.017416036 0.22538681 -0.10488106
0000a0 c2 e3 47 3e 93 a3 d2 3d 7e de e7 3d 8f 6a 9f 3d
       0.19520476 0.102851056 0.11321734 0.07783996
0000b0 72 e7 1d bf b4 be b7 be 08 69 3b 3e 27 e9 10 3e
       -0.6168128 -0.35887682 0.18301785 0.1415144
0000c0 e3 d8 c4 3d 9b e9 58 3d cf 7a 64 3d f7 19 16 3e
       0.0961168 0.05295716 0.055781182 0.14658342
0000d0 ae 69 56 3e cd 37 48 3d 57 61 15 bc 91 7b 81 bc
       0.20938751 0.04888134 -0.009117446 -0.015805991
0000e0 39 1d 89 3d 0d dd 84 3d c2 bb 88 3e ed ba 11 3e
       0.06695027 0.064874746 0.26705748 0.14231463
0000f0 eb 83 48 3e 2a 03 e5 3d b1 f7 60 3e fa 24 36 3e
       0.19581573 0.11182244 0.21969487 0.17787543
000100 ac 08 19 bb a5 b8 95 bc 3c 29 27 be ea bb e5 3d
       -0.0023351116 -0.018276522 -0.16324323 0.112174824
000110 b4 5e e1 bd fe a9 a9 be 1c d2 44 be 19 31 19 3e
       -0.11004391 -0.33137506 -0.19220775 0.14960136
000120 ff d3 ea 3d 08 5e f5 bb 15 fb 34 3d 9b f0 ba 3d
       0.11466216 -0.007488016 0.044184763 0.09127923
000130 39 a1 da bb 60 51 4d 3e 19 02 00 bd 8b 2f 7f 3d
       -0.0066720513 0.20050573 -0.031252 0.0623012
000140 f8 cb ca bd 30 0d 5e be cf 4d 77 be 15 26 46 3e
       -0.09902185 -0.21684718 -0.24150775 0.19350465
000150 d2 f9 47 bd 3e 9e 20 3e 14 31 99 be 7c a5 3c 3e
       -0.04882223 0.15685365 -0.29920256 0.18422502
000160 00 f8 a9 bc c4 2f 08 be ba a9 b3 bd ed 12 84 bd
       -0.020748138 -0.13299471 -0.08772607 -0.06448922
000170 f9 e5 c5 3d ef 68 0c be 4c cb 13 be b9 f1 c0 bd
       0.096630044 -0.13711904 -0.1443302 -0.09421105
000180 b1 a4 41 3c 9f a6 66 3e 51 81 04 3e c2 8b f0 3d
       0.011819051 0.22524498 0.12939955 0.11745407
000190 be 50 10 be 4c 2e d4 3e ed 9e 2e 3c af 9d 28 bd
       -0.140933 0.41441572 0.010658008 -0.041166004
0001a0 27 d0 30 3d db 67 91 3e 8e 73 41 3c d7 35 5a 3e
       0.04316726 0.28399548 0.011807336 0.21309601
0001b0 d9 cd 92 bc b8 84 21 3d 64 e2 16 3d ca 87 90 3d
       -0.017920421 0.03943321 0.036836997 0.0705715
0001c0 1c 6a 53 3e 99 71 8b 3e 04 59 ce bc 6c 16 8a 3e
       0.20645946 0.27235106 -0.02518893 0.26970232
0001d0 fb 4b 54 3e c7 02 cb bd 6e c8 79 bc d0 70 29 3e
       0.20732109 -0.09912639 -0.01524554 0.16546941
0001e0 20 c9 34 3e 1a 26 25 bd ac 91 1e 3e 33 73 4b 3d
       0.17654848 -0.04031954 0.15485257 0.04967041
0001f0 6f b7 12 3e e4 b9 30 3c 72 29 46 3e e5 54 ba 3a
       0.14327787 0.010786507 0.19351748 0.0014215974
000200 ff 9c 29 3c 39 b0 a1 bd e7 5b 23 be fc ea 23 3e
       0.010352372 -0.0789494 -0.15953027 0.16007608
000210 5a d5 78 bc 34 8e 82 3d c9 44 08 be 19 b6 fe 3c
       -0.015187586 0.06374779 -0.1330749 0.03109269
000220 52 6f 00 bd 9b 8d e7 bd 6d b5 c0 3d 85 ad 22 3e
       -0.031356163 -0.11306306 0.09409604 0.15886505
000230 8d e9 80 be 08 4b 95 be ea 03 0d 3e c3 33 21 3e
       -0.25178185 -0.29158807 0.13771024 0.15742402
000240 3f 00 9f bd 5d 84 ac 3e b9 9a 92 bd 1f 40 9a be
       -0.07763719 0.33694735 -0.07158417 -0.30127046
000250 85 1a cf bd 0f 2b 84 be 55 f2 0d be f2 e0 fb bd
       -0.1011248 -0.258141 -0.13861974 -0.12298764
000260 73 85 f2 3d 3c b2 3a 3e 39 02 69 3d cc bb 97 be
       0.1184186 0.18232054 0.056886885 -0.29635465
000270 50 68 07 3e 7a 7a ab 3d a6 d5 d0 bc 94 6a 90 be
       0.13223386 0.0837297 -0.0254925 -0.28206313
000280 09 12 25 bd 87 b1 99 3d 44 22 5b 3d f9 75 8d be
       -0.040300403 0.07504564 0.053499475 -0.27629068
000290 dc d3 07 3e 1d df 1f 3f 10 77 d8 3c 66 e9 6e be
       0.13264412 0.6244982 0.02642396 -0.23331222
0002a0 85 d1 5a 3d a4 ff 86 bd 1b 99 a1 bd 72 fe 1a 3d
       0.05342247 -0.06591728 -0.07890531 0.037840314
0002b0 97 65 78 be 3e d0 9a bd 0a 80 97 bd 30 fb da 3d
       -0.24257503 -0.0755925 -0.073974684 0.106924415
0002c0 c7 ab bc 3d 37 06 d0 bd 34 61 5f 3e 2b d4 01 bd
       0.092124514 -0.101574354 0.21814424 -0.03169648
0002d0 50 f4 2a be b8 2f e2 3c 8d 82 19 3e 0e d5 3b bb
       -0.1669476 0.027610645 0.14991207 -0.0028660926
0002e0 a9 fd 77 3e 6b 6b b9 bd 7c fc 47 bc 5b 5c 58 be
       0.24217857 -0.090536915 -0.012206193 -0.21128981
0002f0 ce 82 ac 3d d5 94 a7 3d 90 85 eb 3d 3b 01 f8 bd
       0.084233865 0.08182684 0.115000844 -0.1210961
000300 03 4f 96 be e4 04 6b ba a7 e6 c2 bd d1 a9 8d bd
       -0.29357156 -0.00089652673 -0.0951665 -0.069171555
000310 a1 55 c6 bc 4d c8 17 bd 1c 6f 14 be f0 9c 7e bd
       -0.024210753 -0.037056256 -0.1449551 -0.062161386
000320 81 b1 a5 3b a6 b7 82 be 81 81 63 3d 82 13 09 be
       0.0050565605 -0.25530738 0.055543426 -0.13386348
000330 b0 42 6d 3d 4a 01 55 be c1 3e d3 3d ac e5 93 be
       0.057924926 -0.20801273 0.10314704 -0.28886163
000340 ae b2 a9 37 90 89 b9 be 4d 34 38 3e 8b 5e d5 3d
       2.0229574e-05 -0.36237764 0.17988701 0.10418423
000350 8e aa 56 3e d7 c0 d2 3e 3d f4 38 3e 38 25 94 3d
       0.20963499 0.4116275 0.1806192 0.072336614
000360 0a 00 d5 bd 8d 24 14 3e 1c 3d 2c be d6 66 47 bb
       -0.10400398 0.14467068 -0.16820186 -0.0030426285
000370 13 a7 36 3e 8d 33 f6 3d dd db 32 be d1 4b b9 bd
       0.17837171 0.12021551 -0.17466684 -0.09047664
000380 1a f5 b2 bb 0d 81 92 3d 4c 6f 9b be 21 b1 06 3e
       -0.0054613473 0.07153521 -0.3035835 0.13153507
000390 a3 d9 24 3e 0c 5a 11 3d 56 3e a3 be 2d 1c 76 3d
       0.16098647 0.035486266 -0.31883496 0.060085464
0003a0 5a c6 b5 3d 7a 4c e3 3d 57 da 0b 3f 9f 55 6c bc
       0.08875723 0.11098571 0.54630035 -0.014424711
0003b0 19 d9 a1 3d b6 62 1c be 2f 88 f9 3e c7 f4 ac 3c
       0.07902736 -0.1527203 0.48736712 0.021112813
0003c0 88 5f dc bb 79 25 54 be 05 2c 80 3e bf 2e 84 bc
       -0.0067252554 -0.2071742 0.25033584 -0.016135572
0003d0 3f 47 7b be b0 17 f2 bc f9 84 21 3e 91 75 fc 3c
       -0.24538897 -0.02955231 0.15773381 0.030817779
0003e0 c1 a3 ba 3d b4 b4 93 be 4a cd 01 3e da ff fe bd
       0.09113265 -0.28848803 0.12675968 -0.124511436
0003f0 d7 2e 64 bc 5d ec 68 3d 15 07 3c 3e 20 ec 8b bd
       -0.013927183 0.05686604 0.18362077 -0.06832147

fcs1.bias f4 [128]
000000 b2 63 2a be 52 84 b2 be 6c 04 0f bd d0 7a f9 3c
       -0.16639593 -0.34866577 -0.034916326 0.03045407
000010 1f 71 33 be fc d8 49 be 6d dc 4f be 93 94 59 be
       -0.17523621 -0.19711679 -0.2029893 -0.21248083
000020 e5 bd 42 3d 64 90 04 be 0e 68 c4 bd 2e 78 78 be
       0.04754438 -0.12945706 -0.09590159 -0.24264595
000030 4e f3 8d bd df 1c 7d be 43 93 2a bd a5 70 84 be
       -0.06931172 -0.24718045 -0.041644346 -0.2586719
000040 72 aa 65 bc fa 16 4e be 70 69 53 3e 65 45 85 3c
       -0.014017688 -0.20125952 0.2064569 0.016268441
000050 ab e1 11 3d e9 d1 40 be bb 57 b3 3c 30 fa b7 be
       0.035615604 -0.18830074 0.02189242 -0.35933065
000060 c1 01 c2 bd 17 3f ba bd c5 aa 65 be 04 74 35 bd
       -0.09472991 -0.09094065 -0.22428425 -0.044300094
000070 ae 55 2a be 2e a8 95 bd 41 14 aa 3d ff 97 be be
       -0.16634247 -0.07307468 0.083046444 -0.3722534
000080 fa 77 4f 3d b2 c1 a1 bd 4a 9b 53 3d a2 2d 26 be
       0.050651528 -0.078982726 0.051661767 -0.16228345
000090 d5 15 a9 bd 37 56 bd bc 10 e2 39 3d 1c 03 e4 be
       -0.08256117 -0.0231124 0.045381606 -0.44533622
0000a0 56 22 91 be cc 67 57 be f5 08 01 be d6 a8 66 bd
       -0.2834651 -0.21035689 -0.12601073 -0.05631336
0000b0 82 cc 59 be 22 bb 49 3d 10 08 ac be 5f 26 88 bd
       -0.2126942 0.04925073 -0.335999 -0.06647944
0000c0 83 78 1a 3e fd 0f 52 be ff e1 35 be e4 b7 54 bd
       0.15085034 -0.20513912 -0.17761992 -0.051933184
0000d0 ce d5 e0 3d 09 af 67 be 58 f2 08 be 3c 90 09 be
       0.1097828 -0.22625364 -0.13373697 -0.13433927
0000e0 ff 71 a0 bd 20 78 27 be 4a 5c 99 bd 01 30 e0 bc
       -0.07834243 -0.16354418 -0.07488306 -0.02736664
0000f0 90 70 3f 3d 99 33 f4 3d ce d1 77 be 30 d9 3d be
       0.046738207 0.11923904 -0.24201128 -0.18539882
000100 fe 6c e0 3d c0 24 2f be d8 d2 e9 bd 90 39 22 be
       0.109582886 -0.17103863 -0.114171684 -0.15842271
000110 c1 89 ee bd 72 1c 83 be 56 38 ba bc 65 27 e8 bd
       -0.11647368 -0.2560764 -0.022731941 -0.11335639
000120 84 79 02 3c 4c 70 a5 3c d7 ab 13 be 66 f3 79 be
       0.007963542 0.020195149 -0.1442102 -0.24409255
000130 ba 49 76 be 3a 9a 92 be 4b e5 d5 be 23 04 4a be
       -0.24051562 -0.2863329 -0.417765 -0.1972814
000140 29 24 0c be a0 9d 63 3d af c5 14 be f9 76 8e be
       -0.13685669 0.055570245 -0.14528535 -0.27825144
000150 38 a1 51 be 51 1d 98 3d c0 66 e9 bd bc 21 10 be
       -0.20471656 0.07427467 -0.11396551 -0.14075369
000160 32 2a 64 3c f5 04 5b bd 38 af 30 3e 4a 16 7c be
       0.013926076 -0.053471524 0.1725434 -0.24617878
000170 4a 40 bd 3d 18 0f 83 be 35 dd 61 be f1 e0 0a bd
       0.09240778 -0.25597453 -0.2205704 -0.033905927
000180 1d c0 50 bd a6 07 9a be c4 6e 09 3d a5 09 78 be
       -0.050964464 -0.3008396 0.0335529 -0.24222429
000190 1b ed fe bd 2f 84 54 be 68 48 7b bd e3 ea 0c bc
       -0.12447568 -0.20753549 -0.06134835 -0.008600923
0001a0 ee b0 0c 3e 38 74 e3 be 96 2f e2 bd 5f f2 02 bc
       0.13739368 -0.44424605 -0.110442325 -0.007992356
0001b0 a8 52 25 be c3 0e b8 bd 3a 9b 24 be e9 e3 81 3d
       -0.16144812 -0.089871906 -0.16074839 0.063422985
0001c0 3f 7b a0 3d 87 77 3b be 0a 4d 8a be 98 76 c0 be
       0.07836007 -0.18307315 -0.270119 -0.3759048
0001d0 c4 9a 4b be 89 94 db bd d1 6f df bd fd ce a4 bd
       -0.19883257 -0.1072169 -0.10909999 -0.080472924
0001e0 61 da 9a 3d 64 56 b9 bc 2d f6 b7 be d1 13 a2 bd
       0.07561184 -0.022624202 -0.35930005 -0.07913936
0001f0 61 98 19 bd a0 b6 ec bd f4 2a 0a be cf cd 8a 3c
       -0.037498835 -0.115582705 -0.13492948 0.01694384

bn1.weight f4 [128]
000000 ac 7b 3c 3f 68 12 a0 3d 20 35 70 3f 26 83 0a 3f
       0.7362621 0.07816011 0.9383106 0.54106367
000010 bc f7 95 3e 00 5d 40 3c c6 49 1e 3f 60 e9 bd 3e
       0.2929057 0.011740923 0.6183132 0.37092113
000020 58 ea 1a 3f e8 d3 dd 3d 4b a6 31 3f 70 cd f1 3d
       0.6051383 0.108314335 0.6939437 0.11806762
000030 cb 88 65 3f da ea 07 3f 95 5c 3e 3f 03 ff 4b 3f
       0.89661855 0.5309273 0.7436002 0.7968599
000040 58 6d 73 3f 0f b1 13 3f 49 c7 66 3f e8 cc ac 3d
       0.9508872 0.57692045 0.90147835 0.0843752
000050 9a e8 5b 3f 97 e5 5d 3f 9c 62 78 3e b8 94 76 3e
       0.85901797 0.8667845 0.24256366 0.24080169
000060 b8 9d 69 3f ae dd 66 3f 48 b6 ab 3d 5c 5f 01 3f
       0.91256285 0.90182006 0.08384377 0.5053613
000070 10 e1 fd 3d e5 11 45 3f e8 4a a5 3d 9c 8b 83 3e
       0.12396443 0.7698043 0.08070928 0.2569245
000080 b4 44 61 3f fb f2 6b 3f 59 6c 71 3f 6a 38 0d 3f
       0.8799546 0.92167634 0.9430595 0.55164206
000090 80 0c 6c 3d f6 88 50 3f d9 cd 69 3f 15 a3 62 3f
       0.05762911 0.81458986 0.91329724 0.88530093
0000a0 9d 7e 50 3f c8 95 eb 3e 18 4c 40 3f 1a 04 1c 3f
       0.81443197 0.46012712 0.7511611 0.6094376
0000b0 4a 9b 87 3e 81 2b 53 3f 40 4a a1 3e 27 e9 4a 3f
       0.26485664 0.82488257 0.3150196 0.7926201
0000c0 20 ab e8 3e c8 02 e9 3e 4c 4b 36 3f 60 6b de 3e
       0.45443058 0.45509934 0.71208644 0.43441296
0000d0 35 df 34 3f a0 71 87 3d c0 2d 7d 3c a1 06 11 3f
       0.70653087 0.06613469 0.015452802 0.5665074
0000e0 02 57 c9 3e e0 eb 90 3e f0 d8 54 3d 03 64 0c 3f
       0.39324194 0.28304958 0.0519647 0.54840106
0000f0 54 d3 82 3e 8d ba 73 3f 70 9d ea 3d e2 25 a5 3e
       0.25551856 0.9520653 0.1145581 0.32255465
000100 9a 21 cf 3e 90 21 17 3f d0 d0 27 3d 43 39 46 3f
       0.40455323 0.5903559 0.040970623 0.77431124
000110 10 94 01 3d 58 21 6f 3e fe 6c 19 3f e2 46 da 3e
       0.031635344 0.23352563 0.59931934 0.42632204
000120 bc 9b 0f 3f 00 e9 5d 3b 54 d3 17 3e 85 61 55 3f
       0.56097007 0.0033860803 0.14826709 0.8335193
000130 56 d3 31 3f 44 cd 37 3f ad e0 47 3f 79 82 59 3f
       0.694631 0.71797585 0.78077203 0.8496471
000140 b2 0a 3f 3f d8 5f b1 3e 04 a3 80 3e f4 ff 22 3e
       0.74625695 0.34643435 0.2512437 0.15917951
000150 5d d9 25 3f 9e e5 f8 3e b0 01 85 3e e1 1e 4e 3f
       0.64784795 0.48612684 0.2597785 0.8051587
000160 7b 38 05 3f 02 a5 e4 3e bc 29 be 3e 74 48 0c 3e
       0.5203931 0.4465714 0.37141216 0.13699514
000170 e2 b4 69 3f 40 49 5b 3c a0 e7 2d 3d ad a0 19 3f
       0.9129163 0.013384163 0.042457223 0.60010797
000180 82 cd 8c 3e c5 0b 5f 3f ae 27 f7 3e 46 a2 87 3e
       0.2750054 0.87127334 0.4827246 0.26490992
000190 eb 14 00 3f c0 ba d7 3e cc 8f d7 3e 62 a6 e3 3e
       0.5003192 0.42134666 0.42101896 0.44462878
0001a0 d8 e8 2e 3e a2 a7 ae 3e a0 6f 92 3c 5c 63 36 3e
       0.1708101 0.3411227 0.017875493 0.1781134
0001b0 01 63 09 3f 87 dd 53 3f be 53 f4 3e 75 e6 63 3f
       0.5366669 0.827599 0.4772014 0.89023525
0001c0 30 6a d7 3d da c2 2d 3f e8 5b 1e 3f 82 ad 98 3e
       0.105183005 0.67875445 0.6185899 0.29819876
0001d0 8e 97 34 3f d0 04 3d 3e fa f8 08 3f 5d 99 2b 3f
       0.70543754 0.18458867 0.5350491 0.6703089
0001e0 68 1b 89 3e 28 3a 17 3e e2 1a 52 3f 38 85 c5 3d
       0.26778722 0.14768279 0.8207227 0.0964455
0001f0 43 4c 7e 3f 70 4b a3 3e 36 f2 d7 3e 40 ea 6f 3e
       0.99335116 0.31893492 0.4217698 0.23429203

bn1.bias f4 [128]
000000 00 00 00 00 00 00 00 00 00 00 00 00 00 00 00 00
       0.0 0.0 0.0 0.0
000010 00 00 00 00 00 00 00 00 00 00 00 00 00 00 00 00
       0.0 0.0 0.0 0.0
000020 00 00 00 00 00 00 00 00 00 00 00 00 00 00 00 00
       0.0 0.0 0.0 0.0
000030 00 00 00 00 00 00 00 00 00 00 00 00 00 00 00 00
       0.0 0.0 0.0 0.0
000040 00 00 00 00 00 00 00 00 00 00 00 00 00 00 00 00
       0.0 0.0 0.0 0.0
000050 00 00 00 00 00 00 00 00 00 00 00 00 00 00 00 00
       0.0 0.0 0.0 0.0
000060 00 00 00 00 00 00 00 00 00 00 00 00 00 00 00 00
       0.0 0.0 0.0 0.0
000070 00 00 00 00 00 00 00 00 00 00 00 00 00 00 00 00
       0.0 0.0 0.0 0.0
000080 00 00 00 00 00 00 00 00 00 00 00 00 00 00 00 00
       0.0 0.0 0.0 0.0
000090 00 00 00 00 00 00 00 00 00 00 00 00 00 00 00 00
       0.0 0.0 0.0 0.0
0000a0 00 00 00 00 00 00 00 00 00 00 00 00 00 00 00 00
       0.0 0.0 0.0 0.0
0000b0 00 00 00 00 00 00 00 00 00 00 00 00 00 00 00 00
       0.0 0.0 0.0 0.0
0000c0 00 00 00 00 00 00 00 00 00 00 00 00 00 00 00 00
       0.0 0.0 0.0 0.0
0000d0 00 00 00 00 00 00 00 00 00 00 00 00 00 00 00 00
       0.0 0.0 0.0 0.0
0000e0 00 00 00 00 00 00 00 00 00 00 00 00 00 00 00 00
       0.0 0.0 0.0 0.0
0000f0 00 00 00 00 00 00 00 00 00 00 00 00 00 00 00 00
       0.0 0.0 0.0 0.0
000100 00 00 00 00 00 00 00 00 00 00 00 00 00 00 00 00
       0.0 0.0 0.0 0.0
000110 00 00 00 00 00 00 00 00 00 00 00 00 00 00 00 00
       0.0 0.0 0.0 0.0
000120 00 00 00 00 00 00 00 00 00 00 00 00 00 00 00 00
       0.0 0.0 0.0 0.0
000130 00 00 00 00 00 00 00 00 00 00 00 00 00 00 00 00
       0.0 0.0 0.0 0.0
000140 00 00 00 00 00 00 00 00 00 00 00 00 00 00 00 00
       0.0 0.0 0.0 0.0
000150 00 00 00 00 00 00 00 00 00 00 00 00 00 00 00 00
       0.0 0.0 0.0 0.0
000160 00 00 00 00 00 00 00 00 00 00 00 00 00 00 00 00
       0.0 0.0 0.0 0.0
000170 00 00 00 00 00 00 00 00 00 00 00 00 00 00 00 00
       0.0 0.0 0.0 0.0
000180 00 00 00 00 00 00 00 00 00 00 00 00 00 00 00 00
       0.0 0.0 0.0 0.0
000190 00 00 00 00 00 00 00 00 00 00 00 00 00 00 00 00
       0.0 0.0 0.0 0.0
0001a0 00 00 00 00 00 00 00 00 00 00 00 00 00 00 00 00
       0.0 0.0 0.0 0.0
0001b0 00 00 00 00 00 00 00 00 00 00 00 00 00 00 00 00
       0.0 0.0 0.0 0.0
0001c0 00 00 00 00 00 00 00 00 00 00 00 00 00 00 00 00
       0.0 0.0 0.0 0.0
0001d0 00 00 00 00 00 00 00 00 00 00 00 00 00 00 00 00
       0.0 0.0 0.0 0.0
0001e0 00 00 00 00 00 00 00 00 00 00 00 00 00 00 00 00
       0.0 0.0 0.0 0.0
0001f0 00 00 00 00 00 00 00 00 00 00 00 00 00 00 00 00
       0.0 0.0 0.0 0.0

bn1.running_mean f4 [128]
000000 00 00 00 00 00 00 00 00 00 00 00 00 00 00 00 00
       0.0 0.0 0.0 0.0
000010 00 00 00 00 00 00 00 00 00 00 00 00 00 00 00 00
       0.0 0.0 0.0 0.0
000020 00 00 00 00 00 00 00 00 00 00 00 00 00 00 00 00
       0.0 0.0 0.0 0.0
000030 00 00 00 00 00 00 00 00 00 00 00 00 00 00 00 00
       0.0 0.0 0.0 0.0
000040 00 00 00 00 00 00 00 00 00 00 00 00 00 00 00 00
       0.0 0.0 0.0 0.0
000050 00 00 00 00 00 00 00 00 00 00 00 00 00 00 00 00
       0.0 0.0 0.0 0.0
000060 00 00 00 00 00 00 00 00 00 00 00 00 00 00 00 00
       0.0 0.0 0.0 0.0
000070 00 00 00 00 00 00 00 00 00 00 00 00 00 00 00 00
       0.0 0.0 0.0 0.0
000080 00 00 00 00 00 00 00 00 00 00 00 00 00 00 00 00
       0.0 0.0 0.0 0.0
000090 00 00 00 00 00 00 00 00 00 00 00 00 00 00 00 00
       0.0 0.0 0.0 0.0
0000a0 00 00 00 00 00 00 00 00 00 00 00 00 00 00 00 00
       0.0 0.0 0.0 0.0
0000b0 00 00 00 00 00 00 00 00 00 00 00 00 00 00 00 00
       0.0 0.0 0.0 0.0
0000c0 00 00 00 00 00 00 00 00 00 00 00 00 00 00 00 00
       0.0 0.0 0.0 0.0
0000d0 00 00 00 00 00 00 00 00 00 00 00 00 00 00 00 00
       0.0 0.0 0.0 0.0
0000e0 00 00 00 00 00 00 00 00 00 00 00 00 00 00 00 00
       0.0 0.0 0.0 0.0
0000f0 00 00 00 00 00 00 00 00 00 00 00 00 00 00 00 00
       0.0 0.0 0.0 0.0
000100 00 00 00 00 00 00 00 00 00 00 00 00 00 00 00 00
       0.0 0.0 0.0 0.0
000110 00 00 00 00 00 00 00 00 00 00 00 00 00 00 00 00
       0.0 0.0 0.0 0.0
000120 00 00 00 00 00 00 00 00 00 00 00 00 00 00 00 00
       0.0 0.0 0.0 0.0
000130 00 00 00 00 00 00 00 00 00 00 00 00 00 00 00 00
       0.0 0.0 0.0 0.0
000140 00 00 00 00 00 00 00 00 00 00 00 00 00 00 00 00
       0.0 0.0 0.0 0.0
000150 00 00 00 00 00 00 00 00 00 00 00 00 00 00 00 00
       0.0 0.0 0.0 0.0
000160 00 00 00 00 00 00 00 00 00 00 00 00 00 00 00 00
       0.0 0.0 0.0 0.0
000170 00 00 00 00 00 00 00 00 00 00 00 00 00 00 00 00
       0.0 0.0 0.0 0.0
000180 00 00 00 00 00 00 00 00 00 00 00 00 00 00 00 00
       0.0 0.0 0.0 0.0
000190 00 00 00 00 00 00 00 00 00 00 00 00 00 00 00 00
       0.0 0.0 0.0 0.0
0001a0 00 00 00 00 00 00 00 00 00 00 00 00 00 00 00 00
       0.0 0.0 0.0 0.0
0001b0 00 00 00 00 00 00 00 00 00 00 00 00 00 00 00 00
       0.0 0.0 0.0 0.0
0001c0 00 00 00 00 00 00 00 00 00 00 00 00 00 00 00 00
       0.0 0.0 0.0 0.0
0001d0 00 00 00 00 00 00 00 00 00 00 00 00 00 00 00 00
       0.0 0.0 0.0 0.0
0001e0 00 00 00 00 00 00 00 00 00 00 00 00 00 00 00 00
       0.0 0.0 0.0 0.0
0001f0 00 00 00 00 00 00 00 00 00 00 00 00 00 00 00 00
       0.0 0.0 0.0 0.0

bn1.running_var f4 [128]
000000 00 00 80 3f 00 00 80 3f 00 00 80 3f 00 00 80 3f
       1.0 1.0 1.0 1.0
000010 00 00 80 3f 00 00 80 3f 00 00 80 3f 00 00 80 3f
       1.0 1.0 1.0 1.0
000020 00 00 80 3f 00 00 80 3f 00 00 80 3f 00 00 80 3f
       1.0 1.0 1.0 1.0
000030 00 00 80 3f 00 00 80 3f 00 00 80 3f 00 00 80 3f
       1.0 1.0 1.0 1.0
000040 00 00 80 3f 00 00 80 3f 00 00 80 3f 00 00 80 3f
       1.0 1.0 1.0 1.0
000050 00 00 80 3f 00 00 80 3f 00 00 80 3f 00 00 80 3f
       1.0 1.0 1.0 1.0
000060 00 00 80 3f 00 00 80 3f 00 00 80 3f 00 00 80 3f
       1.0 1.0 1.0 1.0
000070 00 00 80 3f 00 00 80 3f 00 00 80 3f 00 00 80 3f
       1.0 1.0 1.0 1.0
000080 00 00 80 3f 00 00 80 3f 00 00 80 3f 00 00 80 3f
       1.0 1.0 1.0 1.0
000090 00 00 80 3f 00 00 80 3f 00 00 80 3f 00 00 80 3f
       1.0 1.0 1.0 1.0
0000a0 00 00 80 3f 00 00 80 3f 00 00 80 3f 00 00 80 3f
       1.0 1.0 1.0 1.0
0000b0 00 00 80 3f 00 00 80 3f 00 00 80 3f 00 00 80 3f
       1.0 1.0 1.0 1.0
0000c0 00 00 80 3f 00 00 80 3f 00 00 80 3f 00 00 80 3f
       1.0 1.0 1.0 1.0
0000d0 00 00 80 3f 00 00 80 3f 00 00 80 3f 00 00 80 3f
       1.0 1.0 1.0 1.0
0000e0 00 00 80 3f 00 00 80 3f 00 00 80 3f 00 00 80 3f
       1.0 1.0 1.0 1.0
0000f0 00 00 80 3f 00 00 80 3f 00 00 80 3f 00 00 80 3f
       1.0 1.0 1.0 1.0
000100 00 00 80 3f 00 00 80 3f 00 00 80 3f 00 00 80 3f
       1.0 1.0 1.0 1.0
000110 00 00 80 3f 00 00 80 3f 00 00 80 3f 00 00 80 3f
       1.0 1.0 1.0 1.0
000120 00 00 80 3f 00 00 80 3f 00 00 80 3f 00 00 80 3f
       1.0 1.0 1.0 1.0
000130 00 00 80 3f 00 00 80 3f 00 00 80 3f 00 00 80 3f
       1.0 1.0 1.0 1.0
000140 00 00 80 3f 00 00 80 3f 00 00 80 3f 00 00 80 3f
       1.0 1.0 1.0 1.0
000150 00 00 80 3f 00 00 80 3f 00 00 80 3f 00 00 80 3f
       1.0 1.0 1.0 1.0
000160 00 00 80 3f 00 00 80 3f 00 00 80 3f 00 00 80 3f
       1.0 1.0 1.0 1.0
000170 00 00 80 3f 00 00 80 3f 00 00 80 3f 00 00 80 3f
       1.0 1.0 1.0 1.0
000180 00 00 80 3f 00 00 80 3f 00 00 80 3f 00 00 80 3f
       1.0 1.0 1.0 1.0
000190 00 00 80 3f 00 00 80 3f 00 00 80 3f 00 00 80 3f
       1.0 1.0 1.0 1.0
0001a0 00 00 80 3f 00 00 80 3f 00 00 80 3f 00 00 80 3f
       1.0 1.0 1.0 1.0
0001b0 00 00 80 3f 00 00 80 3f 00 00 80 3f 00 00 80 3f
       1.0 1.0 1.0 1.0
0001c0 00 00 80 3f 00 00 80 3f 00 00 80 3f 00 00 80 3f
       1.0 1.0 1.0 1.0
0001d0 00 00 80 3f 00 00 80 3f 00 00 80 3f 00 00 80 3f
       1.0 1.0 1.0 1.0
0001e0 00 00 80 3f 00 00 80 3f 00 00 80 3f 00 00 80 3f
       1.0 1.0 1.0 1.0
0001f0 00 00 80 3f 00 00 80 3f 00 00 80 3f 00 00 80 3f
       1.0 1.0 1.0 1.0

fc2.weight f4 [64, 130]
000000 cc ec 98 be 18 87 c8 be a8 32 f9 bd 1a 04 a4 bb
       -0.29868162 -0.39165568 -0.12167865 -0.0050053718
000010 1f cb f9 bd ef 8b a0 bd 0e 05 eb be 18 78 df bd
       -0.121969454 -0.0783919 -0.45902294 -0.10911578
000020 73 8f 50 bd 7c 87 fc 3d ca 2d ab 3c 2c f0 45 3e
       -0.050918054 0.12330529 0.020895857 0.193299
000030 d7 95 a2 be 69 47 5e be 3e a5 7b bd 37 82 fd 3d
       -0.31754944 -0.21706928 -0.061436884 0.12378352
000040 a2 74 66 be 10 1c 8b 3e cc 28 45 3d 8b 64 b5 be
       -0.2250543 0.27169847 0.04813461 -0.3542827
000050 7b 0b 79 3c 1d 9a ee bc aa c5 09 3e 94 58 37 3d
       0.015200491 -0.029126221 0.13454309 0.04476221
000060 28 9d 7d be 99 fc d4 3e c1 19 c3 bd 18 14 98 3d
       -0.24766982 0.41598967 -0.095263965 0.074257076
000070 5f fa 63 bc d4 1f ba bd 48 f5 28 be a1 aa 7f bd
       -0.013914674 -0.09088102 -0.16499817 -0.062418584
000080 7b 96 8d bc 69 bd 80 3e 3c 0a ef 3c 41 cf 2e bf
       -0.017283669 0.25144508 0.029179685 -0.68284994
000090 8a 55 d3 bb 49 8c 91 3d 84 a2 e8 bd 32 71 7a bf
       -0.006449406 0.071068354 -0.113591224 -0.9782897
0000a0 15 ae 9b be 5c 24 b4 3e c7 ea ef 3c 01 24 54 be
       -0.30406252 0.3518399 0.029286755 -0.2071686
0000b0 db 5e 9f 3e 02 7d 83 bd 17 b0 ea bd 96 03 89 3d
       0.31127056 -0.06420328 -0.11459368 0.06690137
0000c0 c4 e8 c4 bd 7e 76 8a 3e 0b f9 57 be 60 83 61 bd
       -0.09614709 0.27043527 -0.21091096 -0.05505693
0000d0 9a f9 a9 3c 98 9a c5 bd 27 54 cb 3d 53 65 0b 3e
       0.020748902 -0.09648627 0.0992816 0.13612871
0000e0 33 8d 4e 3d 5b 41 04 be 0c 83 a5 3e 7b 7d 93 bb
       0.050427627 -0.12915556 0.32326543 -0.0045010424
0000f0 7c 1c a6 bd ef 87 52 be 87 4f aa 3d fa 2b 9d bf
       -0.08110902 -0.20559667 0.0831595 -1.2279046
000100 ef 07 4a 3e 35 7f 2a 3e 3d 3e 6f bf 9f 37 fb bd
       0.19729589 0.16650088 -0.93454343 -0.12266468
000110 46 fb 5d be 25 95 0f be b8 52 9a bd a6 8b 6b 3e
       -0.21677884 -0.14021738 -0.075353086 0.2300249
000120 7f 5c 2b 3e d9 20 e8 3d 64 8c 3a 3e 7b 5f 23 be
       0.16734503 0.1133439 0.18217617 -0.15954392
000130 c2 04 8c bd b7 15 0c 3e 6b 77 6b 3e 4e 20 31 3d
       -0.06836845 0.13680159 0.22994773 0.0432437
000140 6f 8e f9 bd 9f 71 9f be 02 36 97 bf 71 fa 1b 3e
       -0.1218537 -0.31141374 -1.1813357 0.15232255
000150 9c 95 06 3d 64 f0 96 3e 4c 93 17 bf ea 64 fb bd
       0.032857522 0.29480278 -0.5920913 -0.12275107
000160 35 dc e2 3d e7 60 cb 3d 2b df 98 bd 30 dc 90 3c
       0.110771574 0.09930592 -0.07464441 0.017683119
000170 aa 2c 0e be 1a d1 c7 3e d3 cc 55 bd b0 52 33 bf
       -0.13884225 0.3902672 -0.05219729 -0.70048046
000180 e4 5b 82 bc a0 57 f9 bd 0a 1e e6 3c 89 25 2e bf
       -0.015912957 -0.12174916 0.028090496 -0.68026024
000190 0e 15 dd be a6 47 13 3e ea d1 68 3c f2 df 97 bd
       -0.43180126 0.143828 0.014210204 -0.07415761
0001a0 96 3c 91 bd 9e ed 1c bf 8f e7 6c bd 90 93 26 be
       -0.07091634 -0.61300075 -0.05783802 -0.16267228
0001b0 5d 93 01 3d 58 bc 35 3e c1 2e c9 bc 39 0b b0 3e
       0.031634677 0.17747629 -0.024558427 0.34383562
0001c0 ef 65 e8 3d e1 2f 2d bf 6d 80 0f be 19 2a 44 bf
       0.11347567 -0.6765118 -0.14013834 -0.76626736
0001d0 d3 e9 f4 bd 5a 42 52 be ac 38 fd be cb 30 54 3d
       -0.11958661 -0.20533124 -0.494573 0.051804345
0001e0 c0 47 dd 3d cd 0a 44 3e 22 5e c0 3c 99 4b 47 3c
       0.10804701 0.19144745 0.023482386 0.01216402
0001f0 f2 77 4b bd ca c8 77 bd 19 eb 9c 3d b8 98 3f 3e
       -0.049674936 -0.06049422 0.07662029 0.18710601
000200 4a 28 8f 3a 09 61 2c 3c 91 e6 40 be d0 a2 85 3e
       0.0010922041 0.010521182 -0.18837954 0.2610078
000210 5d 8c 85 bb 76 37 dd bd 99 2b 1d bc ce 6f fa be
       -0.0040755705 -0.10801594 -0.009592914 -0.48913425
000220 3e f7 b3 be 10 f0 16 be b3 13 59 bd 62 4a cf bd
       -0.35149568 -0.14740014 -0.052997302 -0.10121609
000230 35 00 f3 3c ce 2a bd be b5 63 23 3d a8 3a 9c be
       0.029663185 -0.3694672 0.03989001 -0.305135
000240 1f 74 e9 3d 4b 98 c8 3d c8 4d 97 bd 75 8f 3b 3e
       0.113991015 0.097946726 -0.073878825 0.18316443
000250 76 fd 8b bd 0e 1c 38 3e f9 cc 16 3e e7 a2 b0 bd
       -0.06835453 0.17979452 0.14726628 -0.08624821
000260 38 b6 4f be b1 89 4c 3e 9f f3 cf 3d be 1e ff 3d
       -0.20284355 0.199744 0.10153889 0.124570355
000270 85 95 32 3e ca fb b4 bc 1f 39 9b bd 51 68 aa bd
       0.1743985 -0.022092719 -0.07579254 -0.08320678
000280 c1 ec 86 3b 52 b5 85 bc a8 9e 58 bd d8 6a 2a 3e
       0.0041175787 -0.016321812 -0.05288568 0.1664232
000290 9c fd 46 be aa fb 49 bd 4b 84 e3 3d 18 ff 52 be
       -0.19432682 -0.04931227 0.11109217 -0.20605123
0002a0 86 06 59 3d 1c 95 d5 be ba 6c 85 be 3c f0 82 be
       0.052984737 -0.41715324 -0.26059514 -0.2557391
0002b0 60 f9 e4 3c a6 6e aa 3d 1a 75 b3 bc 5d 01 20 be
       0.027950943 0.08321886 -0.021906424 -0.1562552
0002c0 22 d6 47 bc 25 7c 01 bf 50 ee ee 3c a1 36 1d be
       -0.012197049 -0.50580055 0.02916637 -0.1535287
0002d0 8f fc bb 3d ec 99 fb 3d b6 ca ae 3d 8d 2f c1 3d
       0.09179031 0.12285218 0.08534758 0.09432898
0002e0 18 f3 d4 3d e9 b1 2d bd b6 fc b7 be ec ff 7f be
       0.10397929 -0.042405996 -0.3593499 -0.2499997
0002f0 82 fa 63 be 68 fa e5 3d 6b 53 a9 3e 0d b3 96 3d
       -0.2226353 0.11229402 0.33071455 0.0735837
000300 ac 33 04 3e 4b e4 12 be 0e 71 98 be 5e bb 2d be
       0.12910336 -0.143449 -0.29773754 -0.16966006
000310 1c be 64 3d 86 6d 4f 3e 45 01 48 3d 04 0f 4d 3d
       0.055845365 0.20256624 0.048829336 0.05006315
000320 37 fb ee 3b 14 31 9a 3d ec 18 c3 be ab 82 c2 3d
       0.0072931307 0.07528892 -0.3810495 0.09497579
000330 ac c0 eb bd d2 11 3a 3e 7f f7 73 be 45 6d d9 3d
       -0.115113586 0.1817086 -0.23824881 0.10616545
000340 d9 74 c5 be 69 2e a5 be 03 80 12 be af 29 78 be
       -0.3856571 -0.3226197 -0.14306645 -0.24234651
000350 a2 12 53 be 33 3e 22 3e ed aa ea 3d 4f 9b 52 3e
       -0.20612577 0.1584404 0.11458383 0.20567058
000360 f0 11 96 bd 63 ac a0 bd c5 30 f3 3d 85 09 19 3e
       -0.0732764 -0.0784538 0.118745364 0.14945038
000370 b2 46 50 3c d5 9d 7a bc 6a 69 13 3e df 69 9e 3d
       0.012712168 -0.015296419 0.14395681 0.07735037
000380 ab 99 c4 3d f5 b1 49 be d2 78 aa bd 3a bf 32 3e
       0.09599622 -0.19696791 -0.08323826 0.1745576
000390 27 c6 3f bd 16 99 a8 be 18 e4 d6 bd 9e a9 2c be
       -0.046819832 -0.32929295 -0.10492724 -0.16861579
0003a0 96 e3 f8 bd b0 58 47 3e 69 b8 e5 3d da 47 2d bf
       -0.121527836 0.19467425 0.11216814 -0.6768776
0003b0 2f 22 d4 3d 6c d5 06 be 87 a2 ec bc 07 26 4c be
       0.103580825 -0.13167351 -0.028886093 -0.19936381
0003c0 b7 2f f4 bd 77 cb aa bc 0d 8d 91 3d 33 d2 53 3c
       -0.119231634 -0.020848973 0.071069814 0.012928533
0003d0 ae 36 c2 bc 4d fe ee bd 53 c8 57 bd 0a 37 d5 bc
       -0.023707714 -0.11669598 -0.05268128 -0.026027221
0003e0 2d f3 c3 3c c1 55 2f be 73 d6 ff 3c fc 49 5b 3a
       0.023919666 -0.17122556 0.031230187 0.00083652115
0003f0 8a 6a ab 3c 06 5c bc 3d 1d 77 a4 bd 31 5f 15 be
       0.020924825 0.091972396 -0.080305316 -0.14587094

fc2.bias f4 [64]
000000 0c ca 8d 3d b1 2a f0 3d d6 94 7c bc 5a 45 39 bb
       0.06923303 0.11726893 -0.015416345 -0.0028270097
000010 f2 1f d2 bd c9 ad 09 3d 69 b4 e5 bd b6 0e 6f bd
       -0.10259999 0.033613 -0.11216051 -0.05836364
000020 0c 66 df bd 62 fc 47 3d 01 88 a3 bd a2 1d bd 3c
       -0.10908136 0.048824675 -0.07984925 0.02308542
000030 6e ea 5a 3e 7f d4 d7 bd 08 49 af 3d e9 33 6a bd
       0.2137849 -0.10538577 0.085588515 -0.05717841
000040 39 4a 27 3e e2 7d 9d 3d f4 46 38 bb b7 ac 22 3d
       0.16336907 0.07690026 -0.0028118463 0.039715495
000050 59 e3 7d 3d f8 e1 9a 3d b0 9f 42 bd e4 af 98 3d
       0.061984394 0.07562631 -0.04751557 0.074554235
000060 de 6c 84 3d e4 46 fd 3c 52 12 cd 3c a4 69 83 3d
       0.06466077 0.030917592 0.02503315 0.06416634
000070 46 e1 6a 3d bd ff 05 3b ca 3e 0b 3e 33 aa a4 ba
       0.057343744 0.0020446621 0.13598171 -0.001256293
000080 72 eb c3 bd 14 1c 66 3d f7 92 3c 3e 0a dd bb bd
       -0.09566392 0.05617912 0.18415438 -0.09173019
000090 0b 0d 57 3d b1 8a a2 3d 53 f5 31 bc 91 c3 2d 3d
       0.052502673 0.079366095 -0.0108617125 0.042422835
0000a0 59 95 cf 3d 75 43 e5 bd 6a b1 39 be 32 5b 59 bc
       0.10135908 -0.11194507 -0.18134084 -0.013266372
0000b0 de 40 8a 3c be 92 24 3e 85 f6 18 3e 3b 81 c8 3d
       0.016876634 0.16071603 0.1493779 0.09790274
0000c0 36 dd 00 be 16 35 98 3d 72 a3 62 bc 89 82 68 bd
       -0.12584385 0.07432 -0.013832914 -0.056765113
0000d0 33 e7 c8 bc 9b df 98 bd 66 3e dd 3d 3d e3 3f 3d
       -0.024524307 -0.07464524 0.10802917 0.04684757
0000e0 24 62 fe bc a7 78 df bb e6 ad 4b 3e 66 1c b1 bd
       -0.031052656 -0.006819803 0.19890556 -0.08647995
0000f0 bc 42 07 bd ef da 74 bc 0d ba b8 3d 98 c6 16 bd
       -0.033022627 -0.014944776 0.09019861 -0.036810488

bn2.weight f4 [64]
000000 b8 ad 9c 3d 00 8c a3 3d 2d 6f 1d 3f 70 f5 98 3e
       0.07650322 0.07985687 0.61497766 0.29874754
000010 ce 48 f0 3e 30 8d 35 3e 9a 64 23 3f f3 88 6c 3f
       0.46930546 0.1772964 0.6382538 0.9239647
000020 48 29 70 3e 6f bb 0a 3f c0 af e7 3e 16 27 e2 3e
       0.23453248 0.5419225 0.45251274 0.44170445
000030 20 c6 9a 3c 28 2d d8 3d 8e f2 b9 3e 16 f0 3e 3f
       0.018893301 0.10555488 0.36317867 0.7458509
000040 6e fa 05 3f b0 7a 47 3d a2 c8 76 3f a8 76 96 3e
       0.5233525 0.04870099 0.9639989 0.29387403
000050 78 72 aa 3d 52 b5 07 3f a4 02 65 3e 83 ba 71 3f
       0.083226144 0.5301105 0.22364289 0.9442522
000060 2a 71 9c 3e f3 b8 0e 3f 18 3b fd 3d a0 5c c2 3c
       0.30555087 0.5575096 0.12364787 0.023725808
000070 32 84 d3 3e a0 b6 72 3f 1b e1 5d 3f da a6 0d 3f
       0.41311795 0.94809914 0.8667161 0.5533272
000080 7c 54 20 3f a9 e6 21 3f 4e 2f 04 3f 18 c4 ba 3e
       0.6262891 0.63242584 0.5163468 0.36477733
000090 40 ee 99 3e 88 39 0a 3e a4 59 22 3e 09 4e 1d 3f
       0.30064583 0.13498509 0.15854508 0.614472
0000a0 10 c4 6d 3e 6d 9e 00 3f 2d 06 0a 3f 78 97 1d 3f
       0.23219323 0.5024174 0.53915673 0.6155925
0000b0 a0 68 2f 3e 7a fe 68 3f ef 72 5d 3f 73 e6 7a 3f
       0.17129755 0.910133 0.865035 0.9800789
0000c0 e0 5e 4e 3e 48 d4 79 3e d5 7e 64 3f 35 08 1c 3f
       0.2015338 0.24397385 0.8925603 0.6095002
0000d0 40 65 0f 3c 7d 53 0c 3f b6 ef 19 3f 14 10 e7 3e
       0.008752167 0.54814893 0.60131395 0.45129454
0000e0 2c 0f b6 3e a0 43 15 3d 00 9a 86 3a 01 10 4a 3f
       0.3555845 0.036441445 0.0010269284 0.7893067
0000f0 02 52 8c 3e b8 f5 5a 3f 50 ce 59 3f 8c b5 73 3e
       0.27406317 0.8553119 0.8508043 0.23799723

bn2.bias f4 [64]
000000 00 00 00 00 00 00 00 00 00 00 00 00 00 00 00 00
       0.0 0.0 0.0 0.0
000010 00 00 00 00 00 00 00 00 00 00 00 00 00 00 00 00
       0.0 0.0 0.0 0.0
000020 00 00 00 00 00 00 00 00 00 00 00 00 00 00 00 00
       0.0 0.0 0.0 0.0
000030 00 00 00 00 00 00 00 00 00 00 00 00 00 00 00 00
       0.0 0.0 0.0 0.0
000040 00 00 00 00 00 00 00 00 00 00 00 00 00 00 00 00
       0.0 0.0 0.0 0.0
000050 00 00 00 00 00 00 00 00 00 00 00 00 00 00 00 00
       0.0 0.0 0.0 0.0
000060 00 00 00 00 00 00 00 00 00 00 00 00 00 00 00 00
       0.0 0.0 0.0 0.0
000070 00 00 00 00 00 00 00 00 00 00 00 00 00 00 00 00
       0.0 0.0 0.0 0.0
000080 00 00 00 00 00 00 00 00 00 00 00 00 00 00 00 00
       0.0 0.0 0.0 0.0
000090 00 00 00 00 00 00 00 00 00 00 00 00 00 00 00 00
       0.0 0.0 0.0 0.0
0000a0 00 00 00 00 00 00 00 00 00 00 00 00 00 00 00 00
       0.0 0.0 0.0 0.0
0000b0 00 00 00 00 00 00 00 00 00 00 00 00 00 00 00 00
       0.0 0.0 0.0 0.0
0000c0 00 00 00 00 00 00 00 00 00 00 00 00 00 00 00 00
       0.0 0.0 0.0 0.0
0000d0 00 00 00 00 00 00 00 00 00 00 00 00 00 00 00 00
       0.0 0.0 0.0 0.0
0000e0 00 00 00 00 00 00 00 00 00 00 00 00 00 00 00 00
       0.0 0.0 0.0 0.0
0000f0 00 00 00 00 00 00 00 00 00 00 00 00 00 00 00 00
       0.0 0.0 0.0 0.0

bn2.running_mean f4 [64]
000000 00 00 00 00 00 00 00 00 00 00 00 00 00 00 00 00
       0.0 0.0 0.0 0.0
000010 00 00 00 00 00 00 00 00 00 00 00 00 00 00 00 00
       0.0 0.0 0.0 0.0
000020 00 00 00 00 00 00 00 00 00 00 00 00 00 00 00 00
       0.0 0.0 0.0 0.0
000030 00 00 00 00 00 00 00 00 00 00 00 00 00 00 00 00
       0.0 0.0 0.0 0.0
000040 00 00 00 00 00 00 00 00 00 00 00 00 00 00 00 00
       0.0 0.0 0.0 0.0
000050 00 00 00 00 00 00 00 00 00 00 00 00 00 00 00 00
       0.0 0.0 0.0 0.0
000060 00 00 00 00 00 00 00 00 00 00 00 00 00 00 00 00
       0.0 0.0 0.0 0.0
000070 00 00 00 00 00 00 00 00 00 00 00 00 00 00 00 00
       0.0 0.0 0.0 0.0
000080 00 00 00 00 00 00 00 00 00 00 00 00 00 00 00 00
       0.0 0.0 0.0 0.0
000090 00 00 00 00 00 00 00 00 00 00 00 00 00 00 00 00
       0.0 0.0 0.0 0.0
0000a0 00 00 00 00 00 00 00 00 00 00 00 00 00 00 00 00
       0.0 0.0 0.0 0.0
0000b0 00 00 00 00 00 00 00 00 00 00 00 00 00 00 00 00
       0.0 0.0 0.0 0.0
0000c0 00 00 00 00 00 00 00 00 00 00 00 00 00 00 00 00
       0.0 0.0 0.0 0.0
0000d0 00 00 00 00 00 00 00 00 00 00 00 00 00 00 00 00
       0.0 0.0 0.0 0.0
0000e0 00 00 00 00 00 00 00 00 00 00 00 00 00 00 00 00
       0.0 0.0 0.0 0.0
0000f0 00 00 00 00 00 00 00 00 00 00 00 00 00 00 00 00
       0.0 0.0 0.0 0.0

bn2.running_var f4 [64]
000000 00 00 80 3f 00 00 80 3f 00 00 80 3f 00 00 80 3f
       1.0 1.0 1.0 1.0
000010 00 00 80 3f 00 00 80 3f 00 00 80 3f 00 00 80 3f
       1.0 1.0 1.0 1.0
000020 00 00 80 3f 00 00 80 3f 00 00 80 3f 00 00 80 3f
       1.0 1.0 1.0 1.0
000030 00 00 80 3f 00 00 80 3f 00 00 80 3f 00 00 80 3f
       1.0 1.0 1.0 1.0
000040 00 00 80 3f 00 00 80 3f 00 00 80 3f 00 00 80 3f
       1.0 1.0 1.0 1.0
000050 00 00 80 3f 00 00 80 3f 00 00 80 3f 00 00 80 3f
       1.0 1.0 1.0 1.0
000060 00 00 80 3f 00 00 80 3f 00 00 80 3f 00 00 80 3f
       1.0 1.0 1.0 1.0
000070 00 00 80 3f 00 00 80 3f 00 00 80 3f 00 00 80 3f
       1.0 1.0 1.0 1.0
000080 00 00 80 3f 00 00 80 3f 00 00 80 3f 00 00 80 3f
       1.0 1.0 1.0 1.0
000090 00 00 80 3f 00 00 80 3f 00 00 80 3f 00 00 80 3f
       1.0 1.0 1.0 1.0
0000a0 00 00 80 3f 00 00 80 3f 00 00 80 3f 00 00 80 3f
       1.0 1.0 1.0 1.0
0000b0 00 00 80 3f 00 00 80 3f 00 00 80 3f 00 00 80 3f
       1.0 1.0 1.0 1.0
0000c0 00 00 80 3f 00 00 80 3f 00 00 80 3f 00 00 80 3f
       1.0 1.0 1.0 1.0
0000d0 00 00 80 3f 00 00 80 3f 00 00 80 3f 00 00 80 3f
       1.0 1.0 1.0 1.0
0000e0 00 00 80 3f 00 00 80 3f 00 00 80 3f 00 00 80 3f
       1.0 1.0 1.0 1.0
0000f0 00 00 80 3f 00 00 80 3f 00 00 80 3f 00 00 80 3f
       1.0 1.0 1.0 1.0

fc3.weight f4 [1, 64]
000000 31 4b 67 3e 31 d2 80 bd 6f bc 00 3e 07 5c 10 3f
       0.22587277 -0.06290091 0.12571882 0.5639042
000010 0d 2a 44 be 1e e1 a3 bd 51 04 98 3e a7 1b 85 3c
       -0.19156666 -0.08001922 0.29690793 0.016248537
000020 99 a6 99 3c fc 02 b4 bd 65 a9 65 3d e2 ed 06 3e
       0.018756198 -0.08789632 0.05606975 0.13176683
000030 f3 23 8a bd 9b 9f 64 be 4b a0 dd bd 14 fe 43 3d
       -0.06745138 -0.2232651 -0.10821589 0.04784973
000040 7e 5b cc bd 85 ad f4 bd f4 7c ab bd 32 23 fe bd
       -0.09978388 -0.11947159 -0.08373442 -0.12409057
000050 36 36 9d bd 4b 36 95 be 84 f1 32 3e 00 85 98 3e
       -0.076763555 -0.29142985 0.17474943 0.2978897
000060 cc a2 8d bd b2 7c 1b 3e 3a 87 48 3e 6b 22 59 bd
       -0.06915817 0.15184286 0.19582835 -0.05301134
000070 d9 33 74 bd 4a 2b ca bd 28 40 d4 3e d0 96 75 3e
       -0.05961976 -0.09871538 0.41455197 0.23983312
000080 b9 0c b1 be 48 86 cd bd 11 12 7b bd bb 0c 0e be
       -0.3458002 -0.10035378 -0.061296526 -0.13872044
000090 95 f2 b2 bd 8a a8 8e be fc 17 da bd 94 c2 c2 3d
       -0.08737675 -0.2786296 -0.10649106 0.09509769
0000a0 fe c3 c6 be 47 8a 9f 3d ab ba a6 3c 21 1f a4 bd
       -0.38821405 0.07790046 0.020352682 -0.0801375
0000b0 10 6b f7 3d 3c 9b 50 3e 8a c2 14 3e 0e d5 e9 3e
       0.120809674 0.20371717 0.14527336 0.4567036
0000c0 49 30 4f 3e 12 c5 a9 bd 54 8d 07 be ac 47 45 3e
       0.20233263 -0.08289541 -0.13237506 0.19265622
0000d0 ef 1d aa be a9 51 ff 3c d6 45 4b be 9b d2 52 3e
       -0.33225963 0.031166868 -0.19850859 0.20588152
0000e0 6f fa 09 3e 4a 33 77 be 0b aa 82 be 8f be 25 3c
       0.13474439 -0.24140659 -0.25520357 0.0101162335
0000f0 6f 23 aa be a3 c9 11 3e ed 45 c7 be 84 14 7c 3e
       -0.3323016 0.14237075 -0.38920537 0.24617201
