p3_collaboration_and_competition/weights/critic_1_600.pth (torch_old, 52380 bytes, 17 tensors)

bn0.weight f4 [24]
000000 7e cf 14 3f 47 c4 e6 3e 0f ae 07 3f a1 28 b8 3e
       0.5812911 0.45071623 0.5299997 0.35968497
000010 84 24 8c 3f 3b 98 31 3f b1 c8 95 3e e7 92 b8 bc
       1.0948644 0.6937291 0.29254678 -0.022530986
000020 e8 a5 0d 3f 60 55 0f 3e 89 0f d5 3e 56 24 2b 3e
       0.5533128 0.13997412 0.41613415 0.1671308
000030 70 31 62 3f 57 c8 68 3f a8 c5 fe 3e 0a 12 a6 3e
       0.88356686 0.90930694 0.49760175 0.32435638
000040 02 d0 31 3f 47 f2 b6 3e d9 87 af 3e 17 ed ea 3e
       0.6945802 0.35731718 0.3428333 0.4588401
000050 de e0 60 3f 2b 69 2d 3f 97 aa da 3e 74 9b fe 3e
       0.8784312 0.677386 0.42708275 0.49727976

bn0.bias f4 [24]
000000 7c 08 18 bb 73 c1 79 3c bb 75 0e bd 64 93 86 bd
       -0.0023198416 0.015243876 -0.034780245 -0.06571081
000010 e3 34 dc 3d 63 6c 37 bb e5 18 96 bc c6 e9 0d 3e
       0.10752275 -0.0027988188 -0.018322418 0.13858709
000020 5d b2 be bd 18 54 12 3e b2 4b cb 3c b5 c2 4c 3d
       -0.09311364 0.14289892 0.024816368 0.049990375
000030 03 0d 63 3e dc d9 2b bd 9d 60 30 bd 72 87 ee bc
       0.22172932 -0.041955814 -0.043060888 -0.02911732
000040 0a 7a bc bc 9d 6f 62 3d 29 c1 2c bc d4 3c 8d 38
       -0.023007412 0.055282224 -0.0105441 6.734734e-05
000050 fb 8f 2d 3e 4f ba a3 bb e5 1f 93 3c ed 9c bb bc
       0.16949455 -0.004996575 0.017959544 -0.022901976

bn0.running_mean f4 [24]
000000 7c ea f2 c0 b5 4c 4b bf e8 3e 88 3f 7c 46 20 3e
       -7.5911236 -0.7941392 1.0644197 0.15651888
000010 75 b4 02 3d 7e d3 51 40 e8 3e 88 3f 7c 46 20 3e
       0.03191038 3.2785335 1.0644197 0.15651888
000020 b8 62 fd c0 7e 17 57 bf 08 f8 69 3f d9 26 fa 3d
       -7.9183006 -0.8402022 0.9139409 0.12214441
000030 68 22 0a 3d 39 a0 4f 40 08 f8 69 3f d9 26 fa 3d
       0.03372422 3.2441542 0.9139409 0.12214441
000040 35 09 04 c1 71 3c 63 bf e7 88 6b 3f f6 43 b4 3d
       -8.252248 -0.887641 0.9200577 0.08802025
000050 34 a6 c0 3c 02 3c 4b 40 e7 88 6b 3f f6 43 b4 3d
       0.023516752 3.1755376 0.9200577 0.08802025

bn0.running_var f4 [24]
000000 be 8b 47 41 62 f7 8a 3f 6f cc 33 43 56 aa 02 41
       12.471617 1.0856745 179.79857 8.166586
000010 7f 56 15 42 3a 9a 8c 40 6f cc 33 43 56 aa 02 41
       37.33447 4.3938265 179.79857 8.166586
000020 66 65 25 41 5c f2 8c 3f fd 58 3c 43 37 9c 09 41
       10.3372555 1.1011462 188.34761 8.600638
000030 34 01 22 42 39 5c 95 40 fd 58 3c 43 37 9c 09 41
       40.501175 4.6675076 188.34761 8.600638
000040 16 a6 02 41 6f 01 8e 3f 4b 48 43 43 8b 55 15 41
       8.165548 1.1094187 195.2824 9.3333845
000050 52 80 2f 42 3b 98 a8 40 4b 48 43 43 8b 55 15 41
       43.875313 5.268583 195.2824 9.3333845

fcs1.weight f4 [128, 24]
000000 72 ae 05 3e a1 45 1f be 7a d1 af bd 3d 95 08 3d
       0.13054827 -0.15553905 -0.08584876 0.03334545
000010 ac 2c 99 3f 8c b1 1d 3e c7 4d e9 3c f7 14 e8 3c
       1.1966758 0.1539976 0.02847947 0.02833031
000020 24 fa 02 3b 49 ce 87 3b 3d be 6e bd 4e 06 bb 3d
       0.0019985521 0.004144464 -0.058286894 0.09132062
000030 83 b1 8c 3f ad 36 68 3d 77 ee fb bc df b8 03 bd
       1.0991672 0.056692768 -0.030753357 -0.03215873
000040 d8 7b 6e 3c 89 39 f2 3d c9 2f 5b 3c 5a 55 88 bd
       0.014555894 0.1182738 0.013378092 -0.066569045
000050 b2 40 27 3f ce 2e 77 bd d3 d5 83 bd 7c f0 35 3d
       0.6533309 -0.06034737 -0.06437268 0.044418797
000060 c9 52 c1 bd 2d 99 16 be f9 08 cb 3d 63 88 bf 3d
       -0.09439618 -0.1470687 0.09913821 0.093521856
000070 90 e5 be bd 91 08 f3 3d bf 92 b2 3d 24 b4 5e bd
       -0.09321129 0.11866868 0.08719396 -0.054371014
000080 c2 04 ae bd f7 04 d4 bd 95 fb 94 be 23 29 15 bd
       -0.08497001 -0.103525095 -0.29098192 -0.036416184
000090 09 c2 ad be d7 7b 26 3e 4b 41 36 be 68 26 72 bc
       -0.339371 0.16258179 -0.17798345 -0.014779665
0000a0 b0 56 3e be 41 e2 bf bc aa 1c c9 bd 7d 54 ef bc
       -0.18587756 -0.023423316 -0.0981992 -0.029215092
0000b0 b0 6f 1b bf 90 60 30 3e fa 33 b9 bd 5f ff 07 3d
       -0.60717297 0.17224336 -0.09043117 0.033202525
0000c0 b0 d5 3e 3e 0a e4 56 3d 1a 29 57 3d 7d 79 20 3d
       0.18636203 0.05246357 0.052529432 0.03917836
0000d0 71 e7 5e 3e de 04 0c be 58 08 2e 3d 21 78 44 be
       0.21767975 -0.13673732 0.042488426 -0.1918645
0000e0 f4 77 98 3d ae 52 3f be 0b 0e 80 bd c8 26 d4 bd
       0.07444754 -0.18683884 -0.062526785 -0.103589594
0000f0 f0 61 9c 3d 13 09 93 bd 57 d3 8a bd 5b db 1e 3d
       0.076358676 -0.07179465 -0.06778591 0.038783412
000100 a3 5b 0f 3e b0 12 33 be af bc 95 3e b5 46 dc bc
       0.139998 -0.17487597 0.29245517 -0.026889184
000110 9a 5b 6d be 40 46 e6 ba ed 52 86 3e 46 ad 47 3b
       -0.23179474 -0.0017568544 0.26235142 0.003046827
000120 f6 46 1f bd e1 39 de bd 89 70 0e 3e a6 cb b6 3d
       -0.038886033 -0.10850883 0.13910116 0.089255616
000130 bf a1 93 bb 41 93 85 3e 32 14 77 3d 68 84 56 be
       -0.0045053656 0.26088908 0.060321994 -0.20948946
000140 ce db 57 3c 7c db 9a be 2a 37 c1 3d 25 ed e5 bd
       0.013174964 -0.30245578 0.0943435 -0.11226872
000150 d8 02 0c 3c 4e 63 ed bd 24 73 dc 3c fe ca 66 3c
       0.0085456 -0.115912065 0.026910372 0.014086483
000160 f8 5f 22 be 69 0a 29 be 37 05 85 be 38 2a b1 bd
       -0.15856922 -0.16507877 -0.2598054 -0.08650631
000170 d1 f4 0d be 7a 3e 1f be 13 b7 aa be 2f e6 d8 bd
       -0.13862921 -0.15551177 -0.333428 -0.10590779
000180 21 5c c5 3e b2 83 89 3e 95 91 13 bd 02 8d c2 3d
       0.3854685 0.26858288 -0.03602751 0.09499551
000190 04 f6 5c 3e d1 56 cc 3c 32 ae e7 bd 77 b0 0e bd
       0.21578223 0.024943741 -0.11312522 -0.03483626
0001a0 25 c8 4c 3e 2b 71 3a 3e 91 7d 06 3d c2 94 3c bc
       0.19998224 0.18207233 0.032834593 -0.011510076
0001b0 19 55 0f 3e 38 e2 0a 3e 04 d3 6c 3d 93 75 88 bd
       0.13997306 0.13562858 0.057818428 -0.066630505
0001c0 83 c0 da 3d 88 29 ef 3d 30 9f c6 bd 98 81 90 bd
       0.1068125 0.11677843 -0.09698331 -0.07055968
0001d0 56 18 a1 be 89 fb 15 3e 03 6c b1 bd 51 3a 2c be
       -0.3146388 0.14646734 -0.0866318 -0.16819121
0001e0 93 1d 2c 3d 64 d9 1c 3e 5f 5a ef bd fc f3 c7 bd
       0.04202039 0.15317303 -0.11687159 -0.09763333
0001f0 1d 9c d5 3d be 14 b1 bd 8c cc a2 bb 99 b7 22 be
       0.10430167 -0.086465344 -0.0049682315 -0.1589035
000200 50 41 23 3e dc 19 9c 3b 64 f8 46 bd 8d de c0 bc
       0.15942883 0.004763825 -0.048576728 -0.02354362
000210 36 10 d1 3c bf 1c 84 3c db 79 41 bb 90 39 c8 bd
       0.025520425 0.016126988 -0.0029522094 -0.09776604
000220 d4 12 dc bc e5 b2 d1 3d b4 35 e1 bd 8d 1d 7a 3e
       -0.026864447 0.102391995 -0.10996571 0.24425335
000230 e9 b7 3d be ef 19 bb be ce e4 bb bd d7 69 81 3e
       -0.18527187 -0.36543223 -0.091745004 0.25276062
000240 69 c3 84 3d ff 69 65 3e 09 33 08 3e 74 3a a1 be
       0.06482584 0.22403716 0.13300718 -0.3148991
000250 c2 8a 7c 3d 10 7a 99 bd f9 e7 ff 3d 6b 70 2a be
       0.061655767 -0.07493985 0.12495417 -0.16644447
000260 ce 1b 4d 3e 00 8b dd bd b8 da 91 3e 6d c1 c0 bd
       0.20030138 -0.10817528 0.28487182 -0.09411893
000270 27 ed 42 3e c1 d2 e4 bd dd 05 79 3e 41 a5 12 3c
       0.19035779 -0.111730106 0.24318643 0.008950532
000280 19 75 b3 bb 78 75 82 3b 03 e4 6c 3d b1 09 25 be
       -0.0054766056 0.0039812885 0.057834636 -0.16116978
000290 f9 97 cb 3a 86 61 66 be 1b 17 e5 3c b9 99 00 be
       0.0015532962 -0.2249814 0.02796512 -0.1255864
0002a0 0e fe bd 3d 1c 2e ab be 4a f3 9f 3d 55 57 c2 3d
       0.09276973 -0.33433616 0.078100756 0.094893135
0002b0 2a c5 34 be 89 dd 5a bd 0e 31 ac 3d 08 53 86 bb
       -0.17653337 -0.05343393 0.08407794 -0.0040992536
0002c0 cc 30 93 3d a8 2c 64 be 48 1e 32 3e 04 98 06 3e
       0.07187042 -0.2228266 0.17394364 0.13143927
0002d0 a4 aa a4 be d1 ca 8d 3d e1 02 cb 3d 0d 10 3e 3e
       -0.32161438 0.0692345 0.099126585 0.1856081
0002e0 b9 89 c1 bc 4b 60 7b be b5 7d 4c be fa a4 4e 3b
       -0.023625242 -0.24548452 -0.19969828 0.003153144
0002f0 af 60 9b be 59 be 84 3e 42 6c ce bd 2d 3f b1 3d
       -0.303472 0.25926474 -0.10079242 0.08654628
000300 2f 94 2d bd 82 94 6f 3d ae 99 d2 bc 06 2e 50 be
       -0.042377647 0.058491237 -0.025708046 -0.20330057
000310 6a 98 56 3e a7 e5 86 3d 85 cd af bd ae 10 09 be
       0.20956579 0.065867715 -0.085841216 -0.13385269
000320 77 27 ed 3d ce 4a 46 bd d4 25 85 3d 49 a4 90 bd
       0.11579793 -0.048411183 0.06501356 -0.07062585
000330 47 06 34 3e 33 cc 14 be db f5 f9 3d 8a f2 31 be
       0.1758052 -0.14531021 0.12205096 -0.17377678
000340 5c 17 0d bd 1e 8f 10 3d ce 51 89 bd 4b e9 7e bc
       -0.034446105 0.035292737 -0.06705056 -0.015558551
000350 06 68 e2 3d 9a fc 84 3e 8f 66 e5 bd ad fd 2f bd
       0.11054997 0.2597397 -0.11201202 -0.042966533
000360 58 32 0d be d3 b2 9a be b1 5a b4 be bf f9 c6 3c
       -0.13788736 -0.30214557 -0.35225442 0.02428901
000370 cf ee 4e 3e 1f bd 4b 3d 3c 9e a6 be 24 cd 5c be
       0.20208286 0.049740907 -0.32542598 -0.2156263
000380 1c 46 39 bd e3 bb a9 be ae 88 34 be d3 29 00 3e
       -0.045232877 -0.3315116 -0.17630264 0.12515955
000390 ee 8a 0b bd 75 9a be 3c 26 c5 22 be 32 a5 c0 3d
       -0.03406804 0.02326701 -0.15895519 0.094065085
0003a0 e0 1a 28 3d 1d 9d fa bd f1 32 b9 3e 73 b8 49 3d
       0.041041255 -0.12236998 0.36171678 0.04924817
0003b0 96 21 39 be 11 af 02 bd b6 37 82 3e 9b b9 ab 3d
       -0.18079218 -0.031905238 0.2543313 0.08385011
0003c0 e8 a3 fa bc b2 2c ff bd c6 83 14 be 20 20 19 bc
       -0.030595735 -0.12459697 -0.14503393 -0.009346038
0003d0 8e 56 3c 3c 83 d3 9c bc 8a 6b 4c be 3e 20 09 be
       0.011495246 -0.019143825 -0.19962898 -0.13391206
0003e0 65 f0 10 be 95 ef f8 bd 0c a9 4d 3e 7f 48 a5 3c
       -0.14154203 -0.12155072 0.20084018 0.02017617
0003f0 d4 7c 97 3d f4 b2 96 bd 9f be 8c 3e 5b f2 d4 3d
       0.07396856 -0.07358351 0.27489182 0.10397788

fcs1.bias f4 [128]
000000 4c b7 1e be 70 d8 99 be 5c c0 99 bd fc 54 ea bd
       -0.1549961 -0.3004794 -0.07507393 -0.11441991
000010 74 d6 50 be fe 65 a8 be 74 8e a4 be 68 96 22 be
       -0.20394307 -0.32890314 -0.32139933 -0.15877688
000020 2a 92 b1 bc b4 2a 87 be ac 2b df bd 0a c9 ee bd
       -0.021676142 -0.26399767 -0.108970016 -0.11659439
000030 d9 14 c7 bb 62 e4 5e bb 2a 5d 5d bd 10 20 03 be
       -0.0060754833 -0.0034010638 -0.054043926 -0.128052
000040 76 01 28 be a4 a4 70 be 2e eb c0 bd 30 56 3a be
       -0.16406807 -0.23500305 -0.09419857 -0.1819694
000050 1a 06 91 bd 61 e7 e5 bd fa 3a 61 bd e3 79 19 be
       -0.07081242 -0.11225773 -0.054987885 -0.14987902
000060 f4 13 a5 be aa cf ee bd 81 de 04 3d c9 7e 5a bd
       -0.32241786 -0.116607025 0.03243876 -0.053343568
000070 95 2d e6 bd ec e6 88 bd e7 d1 b4 3d 85 ad 46 be
       -0.11239163 -0.0668467 0.08829098 -0.1940213
000080 d9 a7 cf bd a6 53 bb bd cb ca 22 3e 8a de 8c bd
       -0.10139436 -0.09146814 0.15897672 -0.068783835
000090 83 c1 4f be c3 5f d8 3d d9 38 ba 3c 46 ec 75 be
       -0.20288663 0.1056514 0.022732185 -0.24015912
0000a0 bf c8 53 be 49 2e 51 bd 69 34 b7 bd 4e b2 82 bd
       -0.20682047 -0.05106953 -0.08945543 -0.06381665
0000b0 54 63 08 be dd eb 18 be b7 b8 b2 bd fa d1 a9 bd
       -0.1331914 -0.14933725 -0.08726638 -0.08292003
0000c0 fe f9 34 3e 82 3a 40 be 10 ac 92 bc aa 4f 04 3e
       0.1767349 -0.18772319 -0.017904311 0.12921014
0000d0 37 c2 0c 3e 87 ff 01 be 49 79 59 bd 14 68 13 bb
       0.13745962 -0.12695132 -0.053094182 -0.0022492455
0000e0 62 0e 67 3e cb b7 26 3d a0 3a 29 be 46 1b 1a be
       0.2256408 0.040702622 -0.1652627 -0.15049466
0000f0 f9 22 77 bd 84 87 eb 3c ce 4e 6f be 21 06 8a be
       -0.060336087 0.028751142 -0.23369905 -0.269578
000100 7d 26 db 3d 59 a0 60 be 2b f8 16 be 51 35 38 bd
       0.107007004 -0.21936168 -0.14743106 -0.04497272
000110 14 1f fd bd 85 fa a0 be 0e 39 05 be 96 a2 68 bd
       -0.12359443 -0.3144113 -0.13010046 -0.05679568
000120 6b 4f fa 3c 52 03 d5 3d 3d 7a c7 bd 4e 75 81 bd
       0.030555448 0.10401024 -0.09740112 -0.06321202
000130 0f 65 80 be fd 8b a6 be 92 65 fd bd e4 71 ef bd
       -0.25077102 -0.32528678 -0.123728886 -0.11691645
000140 fd 4b 20 be 80 ff c9 3d b7 7d 2d be 26 eb 4a be
       -0.15653987 0.09863186 -0.16942488 -0.19816265
000150 50 95 14 be 7c ce 8a 3d 1b a6 d3 bd 9f ad 13 be
       -0.14510083 0.06777665 -0.103344165 -0.144217
000160 0e 7c 27 bd 78 33 a5 3d 7c ab f0 3d 4b fe 19 be
       -0.040889792 0.080664575 0.11751458 -0.15038411
000170 54 cb d3 3c 88 a3 89 be 85 87 4a be 05 56 61 bd
       0.02585379 -0.26882577 -0.19778259 -0.055013675
000180 9b 6c 97 3d 52 86 f0 bd ba 44 e7 3d 05 68 12 be
       0.07393762 -0.117443696 0.112924054 -0.14297493
000190 c0 0f 29 be 67 4c f9 bd e3 92 75 bd 24 5d c4 3c
       -0.16509914 -0.12172776 -0.059954535 0.023970194
0001a0 b1 30 23 3d b6 ff 4d be c9 67 2c 3d 1a 87 40 bc
       0.039841358 -0.20117077 0.042091165 -0.011750961
0001b0 3c 81 20 bd a5 82 f9 3d 2e 52 3b bd b2 b5 29 3e
       -0.039185748 0.121831216 -0.04573267 0.16573218
0001c0 c5 bb b3 bd 21 e4 db bc 47 fb 69 3c d4 31 b7 be
       -0.087760486 -0.026842179 0.014281101 -0.35780203
0001d0 8e c1 08 be 0a 95 e9 3c d6 3d cc bd ce 09 80 bd
       -0.13355085 0.02851345 -0.09972732 -0.0625187
0001e0 82 b4 55 3e ac 8f 68 bd c2 38 4e be eb 0e 7d 3d
       0.2086964 -0.05677764 -0.20138839 0.061781805
0001f0 42 6d 5b 3e c2 d7 d3 bd 2d e2 8c be 6e 49 99 bd
       0.21428397 -0.10343887 -0.27516308 -0.07484709

bn1.weight f4 [128]
000000 ac 7b 3c 3f 68 12 a0 3d 20 35 70 3f 26 83 0a 3f
       0.7362621 0.07816011 0.9383106 0.54106367
000010 bc f7 95 3e 00 5d 40 3c c6 49 1e 3f 60 e9 bd 3e
       0.2929057 0.011740923 0.6183132 0.37092113
000020 58 ea 1a 3f e8 d3 dd 3d 4b a6 31 3f 70 cd f1 3d
       0.6051383 0.108314335 0.6939437 0.11806762
000030 cb 88 65 3f da ea 07 3f 95 5c 3e 3f 03 ff 4b 3f
       0.89661855 0.5309273 0.7436002 0.7968599
000040 58 6d 73 3f 0f b1 13 3f 49 c7 66 3f e8 cc ac 3d
       0.9508872 0.57692045 0.90147835 0.0843752
000050 9a e8 5b 3f 97 e5 5d 3f 9c 62 78 3e b8 94 76 3e
       0.85901797 0.8667845 0.24256366 0.24080169
000060 b8 9d 69 3f ae dd 66 3f 48 b6 ab 3d 5c 5f 01 3f
       0.91256285 0.90182006 0.08384377 0.5053613
000070 10 e1 fd 3d e5 11 45 3f e8 4a a5 3d 9c 8b 83 3e
       0.12396443 0.7698043 0.08070928 0.2569245
000080 b4 44 61 3f fb f2 6b 3f 59 6c 71 3f 6a 38 0d 3f
       0.8799546 0.92167634 0.9430595 0.55164206
000090 80 0c 6c 3d f6 88 50 3f d9 cd 69 3f 15 a3 62 3f
       0.05762911 0.81458986 0.91329724 0.88530093
0000a0 9d 7e 50 3f c8 95 eb 3e 18 4c 40 3f 1a 04 1c 3f
       0.81443197 0.46012712 0.7511611 0.6094376
0000b0 4a 9b 87 3e 81 2b 53 3f 40 4a a1 3e 27 e9 4a 3f
       0.26485664 0.82488257 0.3150196 0.7926201
0000c0 20 ab e8 3e c8 02 e9 3e 4c 4b 36 3f 60 6b de 3e
       0.45443058 0.45509934 0.71208644 0.43441296
0000d0 35 df 34 3f a0 71 87 3d c0 2d 7d 3c a1 06 11 3f
       0.70653087 0.06613469 0.015452802 0.5665074
0000e0 02 57 c9 3e e0 eb 90 3e f0 d8 54 3d 03 64 0c 3f
       0.39324194 0.28304958 0.0519647 0.54840106
0000f0 54 d3 82 3e 8d ba 73 3f 70 9d ea 3d e2 25 a5 3e
       0.25551856 0.9520653 0.1145581 0.32255465
000100 9a 21 cf 3e 90 21 17 3f d0 d0 27 3d 43 39 46 3f
       0.40455323 0.5903559 0.040970623 0.77431124
000110 10 94 01 3d 58 21 6f 3e fe 6c 19 3f e2 46 da 3e
       0.031635344 0.23352563 0.59931934 0.42632204
000120 bc 9b 0f 3f 00 e9 5d 3b 54 d3 17 3e 85 61 55 3f
       0.56097007 0.0033860803 0.14826709 0.8335193
000130 56 d3 31 3f 44 cd 37 3f ad e0 47 3f 79 82 59 3f
       0.694631 0.71797585 0.78077203 0.8496471
000140 b2 0a 3f 3f d8 5f b1 3e 04 a3 80 3e f4 ff 22 3e
       0.74625695 0.34643435 0.2512437 0.15917951
000150 5d d9 25 3f 9e e5 f8 3e b0 01 85 3e e1 1e 4e 3f
       0.64784795 0.48612684 0.2597785 0.8051587
000160 7b 38 05 3f 02 a5 e4 3e bc 29 be 3e 74 48 0c 3e
       0.5203931 0.4465714 0.37141216 0.13699514
000170 e2 b4 69 3f 40 49 5b 3c a0 e7 2d 3d ad a0 19 3f
       0.9129163 0.013384163 0.042457223 0.60010797
000180 82 cd 8c 3e c5 0b 5f 3f ae 27 f7 3e 46 a2 87 3e
       0.2750054 0.87127334 0.4827246 0.26490992
000190 eb 14 00 3f c0 ba d7 3e cc 8f d7 3e 62 a6 e3 3e
       0.5003192 0.42134666 0.42101896 0.44462878
0001a0 d8 e8 2e 3e a2 a7 ae 3e a0 6f 92 3c 5c 63 36 3e
       0.1708101 0.3411227 0.017875493 0.1781134
0001b0 01 63 09 3f 87 dd 53 3f be 53 f4 3e 75 e6 63 3f
       0.5366669 0.827599 0.4772014 0.89023525
0001c0 30 6a d7 3d da c2 2d 3f e8 5b 1e 3f 82 ad 98 3e
       0.105183005 0.67875445 0.6185899 0.29819876
0001d0 8e 97 34 3f d0 04 3d 3e fa f8 08 3f 5d 99 2b 3f
       0.70543754 0.18458867 0.5350491 0.6703089
0001e0 68 1b 89 3e 28 3a 17 3e e2 1a 52 3f 38 85 c5 3d
       0.26778722 0.14768279 0.8207227 0.0964455
0001f0 43 4c 7e 3f 70 4b a3 3e 36 f2 d7 3e 40 ea 6f 3e
       0.99335116 0.31893492 0.4217698 0.23429203

bn1.bias f4 [128]
000000 00 00 00 00 00 00 00 00 00 00 00 00 00 00 00 00
       0.0 0.0 0.0 0.0
000010 00 00 00 00 00 00 00 00 00 00 00 00 00 00 00 00
       0.0 0.0 0.0 0.0
000020 00 00 00 00 00 00 00 00 00 00 00 00 00 00 00 00
       0.0 0.0 0.0 0.0
000030 00 00 00 00 00 00 00 00 00 00 00 00 00 00 00 00
       0.0 0.0 0.0 0.0
000040 00 00 00 00 00 00 00 00 00 00 00 00 00 00 00 00
       0.0 0.0 0.0 0.0
000050 00 00 00 00 00 00 00 00 00 00 00 00 00 00 00 00
       0.0 0.0 0.0 0.0
000060 00 00 00 00 00 00 00 00 00 00 00 00 00 00 00 00
       0.0 0.0 0.0 0.0
000070 00 00 00 00 00 00 00 00 00 00 00 00 00 00 00 00
       0.0 0.0 0.0 0.0
000080 00 00 00 00 00 00 00 00 00 00 00 00 00 00 00 00
       0.0 0.0 0.0 0.0
000090 00 00 00 00 00 00 00 00 00 00 00 00 00 00 00 00
       0.0 0.0 0.0 0.0
0000a0 00 00 00 00 00 00 00 00 00 00 00 00 00 00 00 00
       0.0 0.0 0.0 0.0
0000b0 00 00 00 00 00 00 00 00 00 00 00 00 00 00 00 00
       0.0 0.0 0.0 0.0
0000c0 00 00 00 00 00 00 00 00 00 00 00 00 00 00 00 00
       0.0 0.0 0.0 0.0
0000d0 00 00 00 00 00 00 00 00 00 00 00 00 00 00 00 00
       0.0 0.0 0.0 0.0
0000e0 00 00 00 00 00 00 00 00 00 00 00 00 00 00 00 00
       0.0 0.0 0.0 0.0
0000f0 00 00 00 00 00 00 00 00 00 00 00 00 00 00 00 00
       0.0 0.0 0.0 0.0
000100 00 00 00 00 00 00 00 00 00 00 00 00 00 00 00 00
       0.0 0.0 0.0 0.0
000110 00 00 00 00 00 00 00 00 00 00 00 00 00 00 00 00
       0.0 0.0 0.0 0.0
000120 00 00 00 00 00 00 00 00 00 00 00 00 00 00 00 00
       0.0 0.0 0.0 0.0
000130 00 00 00 00 00 00 00 00 00 00 00 00 00 00 00 00
       0.0 0.0 0.0 0.0
000140 00 00 00 00 00 00 00 00 00 00 00 00 00 00 00 00
       0.0 0.0 0.0 0.0
000150 00 00 00 00 00 00 00 00 00 00 00 00 00 00 00 00
       0.0 0.0 0.0 0.0
000160 00 00 00 00 00 00 00 00 00 00 00 00 00 00 00 00
       0.0 0.0 0.0 0.0
000170 00 00 00 00 00 00 00 00 00 00 00 00 00 00 00 00
       0.0 0.0 0.0 0.0
000180 00 00 00 00 00 00 00 00 00 00 00 00 00 00 00 00
       0.0 0.0 0.0 0.0
000190 00 00 00 00 00 00 00 00 00 00 00 00 00 00 00 00
       0.0 0.0 0.0 0.0
0001a0 00 00 00 00 00 00 00 00 00 00 00 00 00 00 00 00
       0.0 0.0 0.0 0.0
0001b0 00 00 00 00 00 00 00 00 00 00 00 00 00 00 00 00
       0.0 0.0 0.0 0.0
0001c0 00 00 00 00 00 00 00 00 00 00 00 00 00 00 00 00
       0.0 0.0 0.0 0.0
0001d0 00 00 00 00 00 00 00 00 00 00 00 00 00 00 00 00
       0.0 0.0 0.0 0.0
0001e0 00 00 00 00 00 00 00 00 00 00 00 00 00 00 00 00
       0.0 0.0 0.0 0.0
0001f0 00 00 00 00 00 00 00 00 00 00 00 00 00 00 00 00
       0.0 0.0 0.0 0.0

bn1.running_mean f4 [128]
000000 00 00 00 00 00 00 00 00 00 00 00 00 00 00 00 00
       0.0 0.0 0.0 0.0
000010 00 00 00 00 00 00 00 00 00 00 00 00 00 00 00 00
       0.0 0.0 0.0 0.0
000020 00 00 00 00 00 00 00 00 00 00 00 00 00 00 00 00
       0.0 0.0 0.0 0.0
000030 00 00 00 00 00 00 00 00 00 00 00 00 00 00 00 00
       0.0 0.0 0.0 0.0
000040 00 00 00 00 00 00 00 00 00 00 00 00 00 00 00 00
       0.0 0.0 0.0 0.0
000050 00 00 00 00 00 00 00 00 00 00 00 00 00 00 00 00
       0.0 0.0 0.0 0.0
000060 00 00 00 00 00 00 00 00 00 00 00 00 00 00 00 00
       0.0 0.0 0.0 0.0
000070 00 00 00 00 00 00 00 00 00 00 00 00 00 00 00 00
       0.0 0.0 0.0 0.0
000080 00 00 00 00 00 00 00 00 00 00 00 00 00 00 00 00
       0.0 0.0 0.0 0.0
000090 00 00 00 00 00 00 00 00 00 00 00 00 00 00 00 00
       0.0 0.0 0.0 0.0
0000a0 00 00 00 00 00 00 00 00 00 00 00 00 00 00 00 00
       0.0 0.0 0.0 0.0
0000b0 00 00 00 00 00 00 00 00 00 00 00 00 00 00 00 00
       0.0 0.0 0.0 0.0
0000c0 00 00 00 00 00 00 00 00 00 00 00 00 00 00 00 00
       0.0 0.0 0.0 0.0
0000d0 00 00 00 00 00 00 00 00 00 00 00 00 00 00 00 00
       0.0 0.0 0.0 0.0
0000e0 00 00 00 00 00 00 00 00 00 00 00 00 00 00 00 00
       0.0 0.0 0.0 0.0
0000f0 00 00 00 00 00 00 00 00 00 00 00 00 00 00 00 00
       0.0 0.0 0.0 0.0
000100 00 00 00 00 00 00 00 00 00 00 00 00 00 00 00 00
       0.0 0.0 0.0 0.0
000110 00 00 00 00 00 00 00 00 00 00 00 00 00 00 00 00
       0.0 0.0 0.0 0.0
000120 00 00 00 00 00 00 00 00 00 00 00 00 00 00 00 00
       0.0 0.0 0.0 0.0
000130 00 00 00 00 00 00 00 00 00 00 00 00 00 00 00 00
       0.0 0.0 0.0 0.0
000140 00 00 00 00 00 00 00 00 00 00 00 00 00 00 00 00
       0.0 0.0 0.0 0.0
000150 00 00 00 00 00 00 00 00 00 00 00 00 00 00 00 00
       0.0 0.0 0.0 0.0
000160 00 00 00 00 00 00 00 00 00 00 00 00 00 00 00 00
       0.0 0.0 0.0 0.0
000170 00 00 00 00 00 00 00 00 00 00 00 00 00 00 00 00
       0.0 0.0 0.0 0.0
000180 00 00 00 00 00 00 00 00 00 00 00 00 00 00 00 00
       0.0 0.0 0.0 0.0
000190 00 00 00 00 00 00 00 00 00 00 00 00 00 00 00 00
       0.0 0.0 0.0 0.0
0001a0 00 00 00 00 00 00 00 00 00 00 00 00 00 00 00 00
       0.0 0.0 0.0 0.0
0001b0 00 00 00 00 00 00 00 00 00 00 00 00 00 00 00 00
       0.0 0.0 0.0 0.0
0001c0 00 00 00 00 00 00 00 00 00 00 00 00 00 00 00 00
       0.0 0.0 0.0 0.0
0001d0 00 00 00 00 00 00 00 00 00 00 00 00 00 00 00 00
       0.0 0.0 0.0 0.0
0001e0 00 00 00 00 00 00 00 00 00 00 00 00 00 00 00 00
       0.0 0.0 0.0 0.0
0001f0 00 00 00 00 00 00 00 00 00 00 00 00 00 00 00 00
       0.0 0.0 0.0 0.0

bn1.running_var f4 [128]
000000 00 00 80 3f 00 00 80 3f 00 00 80 3f 00 00 80 3f
       1.0 1.0 1.0 1.0
000010 00 00 80 3f 00 00 80 3f 00 00 80 3f 00 00 80 3f
       1.0 1.0 1.0 1.0
000020 00 00 80 3f 00 00 80 3f 00 00 80 3f 00 00 80 3f
       1.0 1.0 1.0 1.0
000030 00 00 80 3f 00 00 80 3f 00 00 80 3f 00 00 80 3f
       1.0 1.0 1.0 1.0
000040 00 00 80 3f 00 00 80 3f 00 00 80 3f 00 00 80 3f
       1.0 1.0 1.0 1.0
000050 00 00 80 3f 00 00 80 3f 00 00 80 3f 00 00 80 3f
       1.0 1.0 1.0 1.0
000060 00 00 80 3f 00 00 80 3f 00 00 80 3f 00 00 80 3f
       1.0 1.0 1.0 1.0
000070 00 00 80 3f 00 00 80 3f 00 00 80 3f 00 00 80 3f
       1.0 1.0 1.0 1.0
000080 00 00 80 3f 00 00 80 3f 00 00 80 3f 00 00 80 3f
       1.0 1.0 1.0 1.0
000090 00 00 80 3f 00 00 80 3f 00 00 80 3f 00 00 80 3f
       1.0 1.0 1.0 1.0
0000a0 00 00 80 3f 00 00 80 3f 00 00 80 3f 00 00 80 3f
       1.0 1.0 1.0 1.0
0000b0 00 00 80 3f 00 00 80 3f 00 00 80 3f 00 00 80 3f
       1.0 1.0 1.0 1.0
0000c0 00 00 80 3f 00 00 80 3f 00 00 80 3f 00 00 80 3f
       1.0 1.0 1.0 1.0
0000d0 00 00 80 3f 00 00 80 3f 00 00 80 3f 00 00 80 3f
       1.0 1.0 1.0 1.0
0000e0 00 00 80 3f 00 00 80 3f 00 00 80 3f 00 00 80 3f
       1.0 1.0 1.0 1.0
0000f0 00 00 80 3f 00 00 80 3f 00 00 80 3f 00 00 80 3f
       1.0 1.0 1.0 1.0
000100 00 00 80 3f 00 00 80 3f 00 00 80 3f 00 00 80 3f
       1.0 1.0 1.0 1.0
000110 00 00 80 3f 00 00 80 3f 00 00 80 3f 00 00 80 3f
       1.0 1.0 1.0 1.0
000120 00 00 80 3f 00 00 80 3f 00 00 80 3f 00 00 80 3f
       1.0 1.0 1.0 1.0
000130 00 00 80 3f 00 00 80 3f 00 00 80 3f 00 00 80 3f
       1.0 1.0 1.0 1.0
000140 00 00 80 3f 00 00 80 3f 00 00 80 3f 00 00 80 3f
       1.0 1.0 1.0 1.0
000150 00 00 80 3f 00 00 80 3f 00 00 80 3f 00 00 80 3f
       1.0 1.0 1.0 1.0
000160 00 00 80 3f 00 00 80 3f 00 00 80 3f 00 00 80 3f
       1.0 1.0 1.0 1.0
000170 00 00 80 3f 00 00 80 3f 00 00 80 3f 00 00 80 3f
       1.0 1.0 1.0 1.0
000180 00 00 80 3f 00 00 80 3f 00 00 80 3f 00 00 80 3f
       1.0 1.0 1.0 1.0
000190 00 00 80 3f 00 00 80 3f 00 00 80 3f 00 00 80 3f
       1.0 1.0 1.0 1.0
0001a0 00 00 80 3f 00 00 80 3f 00 00 80 3f 00 00 80 3f
       1.0 1.0 1.0 1.0
0001b0 00 00 80 3f 00 00 80 3f 00 00 80 3f 00 00 80 3f
       1.0 1.0 1.0 1.0
0001c0 00 00 80 3f 00 00 80 3f 00 00 80 3f 00 00 80 3f
       1.0 1.0 1.0 1.0
0001d0 00 00 80 3f 00 00 80 3f 00 00 80 3f 00 00 80 3f
       1.0 1.0 1.0 1.0
0001e0 00 00 80 3f 00 00 80 3f 00 00 80 3f 00 00 80 3f
       1.0 1.0 1.0 1.0
0001f0 00 00 80 3f 00 00 80 3f 00 00 80 3f 00 00 80 3f
       1.0 1.0 1.0 1.0

fc2.weight f4 [64, 130]
000000 6b 9b 89 bd 3d 24 35 3d e3 45 e8 bd db 6e 8a 3e
       -0.06719097 0.044224013 -0.11341455 0.270377
000010 b2 39 4b be 7d 40 c8 bc f2 e7 a6 be 60 57 a1 3e
       -0.19846228 -0.024444813 -0.32598835 0.31511974
000020 aa 6e b2 bc 00 2b 91 bc 6e 9e cd bd 9d 17 99 bd
       -0.021781284 -0.0177207 -0.10039984 -0.07475207
000030 10 7b dd bd 8b 48 e6 bd a5 bd 58 3e 19 eb f9 bd
       -0.10814488 -0.11244305 0.21166094 -0.122030444
000040 56 48 b5 be f9 20 d9 3b 36 0d e7 3d 29 29 6a be
       -0.3540675 0.006626245 0.11281817 -0.22867264
000050 28 85 09 3b bb ec 04 3d 49 c3 01 3e 0d 32 76 3d
       0.0020983908 0.032452326 0.12672152 0.060106326
000060 45 23 8f be 48 9b 5d be be a1 69 be 1d 98 21 3d
       -0.27956596 -0.21641266 -0.22815606 0.039451707
000070 ff e3 1c 3e 0d 36 d4 be 2b 69 10 be b1 d3 00 bf
       0.15321349 -0.41447487 -0.14102618 -0.50323015
000080 ef 88 0b 3d e9 b6 6b 3e 6e 46 df bd 0f db b4 be
       0.034066137 0.23018993 -0.10902105 -0.35323378
000090 0b 66 45 bf c5 11 13 bc ac b4 da bd d4 30 15 bf
       -0.7710883 -0.008976405 -0.10678992 -0.5827763
0000a0 f8 ec 8a 3d 85 73 e0 3d 72 88 67 be 32 b5 0f 3e
       0.067834795 0.109595336 -0.22610644 0.14033964
0000b0 69 91 8e 3d dc b8 9a bc 57 0d 18 bf 6b 32 9f 3d
       0.069613285 -0.018886976 -0.59395355 0.07773288
0000c0 9c 40 5d be e3 bb 1d 3e 16 cb 5e 3d 7d 50 b8 be
       -0.21606678 0.15403704 0.054392897 -0.35998908
0000d0 67 93 ba 3c d3 58 db 3e 8b 26 ab be 06 44 b1 3d
       0.022775365 0.42841205 -0.33427843 0.086555526
0000e0 c2 af 02 bb bd 46 de bc 7b b8 dc be 1e a4 56 be
       -0.0019941186 -0.02713334 -0.43109497 -0.20961043
0000f0 b5 a3 c5 3d 30 6a ad bd 2e 16 0c 3e b0 45 bb be
       0.09650365 -0.08467519 0.13680336 -0.36576605
000100 30 7b 03 bc 94 e0 46 bd 79 69 6f 3e 22 83 f8 3d
       -0.008024976 -0.04855402 0.23380078 0.121343866
000110 d7 63 ab 3e 5a 64 63 3d 4c f2 20 be 50 ac f8 3a
       0.3347461 0.055515625 -0.15717429 0.0018972252
000120 9b e7 9f 3d 8b f6 4a 3d b2 81 c8 3e 58 2e be bd
       0.07807847 0.049551528 0.3916145 -0.09286183
000130 02 9d 68 bb b3 cf af bd 63 c2 9c 3d b5 b5 2f 3e
       -0.0035493975 -0.08584537 0.07654264 0.1715916
000140 81 34 8d 3d 67 03 5d bd e0 71 75 3d 1a 56 24 3d
       0.0689478 -0.053958323 0.059923053 0.040121175
000150 6f ed 4e bc 54 bc 49 3e f2 90 34 bf c5 49 4b 3d
       -0.012629851 0.19700748 -0.7053367 0.0496309
000160 22 e5 50 3d ad 46 1c be 47 b7 54 bd ef 81 e3 bd
       0.050999768 -0.15261336 -0.0519326 -0.11108767
000170 96 81 02 bd 61 d6 13 3d fb 26 dd bb 85 50 d6 bd
       -0.031861864 0.03609312 -0.0067490316 -0.10464577
000180 d0 ab 88 bd d2 a4 91 3d 52 9c 31 3d 57 7c 51 3e
       -0.06673396 0.07111515 0.04336197 0.20457588
000190 93 4c 32 bc ec 83 01 be 3e 92 af bc 0e 4e d1 bd
       -0.0108825145 -0.1264798 -0.021432038 -0.10219966
0001a0 0e 2e 0e be 64 04 d2 3d 55 7f 86 bd 6b ea 0a 3d
       -0.13884756 0.10254744 -0.065672554 0.033914965
0001b0 22 8a 48 3d 73 ff 13 be 3b d1 ed bc dd c9 45 3c
       0.04895986 -0.14452915 -0.029030433 0.012072054
0001c0 c0 9c 0d 3e c8 bc f9 bd da fd bb bb 5b 26 9f 3e
       0.13829327 -0.1219421 -0.0057370486 0.3108395
0001d0 e0 68 9a 3e dd c1 28 3e 03 d8 82 bd 44 03 32 be
       0.30158138 0.16480203 -0.06388857 -0.17384058
0001e0 19 f8 95 bd 7b 12 32 bd 91 76 b7 3d 79 09 aa be
       -0.073227115 -0.043474656 0.089581616 -0.33210352
0001f0 4e a9 35 3d d0 6d 0f 3e bf c1 78 bf 96 ab a4 3d
       0.044350915 0.14006734 -0.97170633 0.0804054
000200 4d ab 0b bd e8 1d 97 3c 3f 1e f2 3a a8 61 80 be
       -0.034098912 0.018446878 0.0018472149 -0.25074506
000210 3f db 14 bc 51 d4 16 bd 36 df 04 be b3 76 9f be
       -0.0090854755 -0.036823574 -0.12975773 -0.31145248
000220 ea 98 9c be 15 ef 2b 3d 2e 4b d4 bd 2c 1a 61 3c
       -0.30585414 0.041976053 -0.10365902 0.01373915
000230 1b b6 9c bc 7f 00 65 be e5 9f d8 3d 6c 29 a5 3d
       -0.019129803 -0.2236347 0.105773725 0.08064541
000240 d4 a2 d6 be 57 82 30 3d a4 25 56 be bc 7a 6c bc
       -0.41921103 0.04309305 -0.20912796 -0.014433559
000250 2b b2 ba be 84 c1 7f be cb 68 19 3e 4c 80 0b be
       -0.36464056 -0.24976164 0.14981382 -0.1362316
000260 9b b5 8f bd 94 ea 4e 3d 36 e5 44 3e 16 9f 50 3d
       -0.0701706 0.05051668 0.19228062 0.050932966
000270 a9 11 f5 3b 07 30 16 3d 6a a5 6b bd d0 89 59 be
       0.007478912 0.036666896 -0.057530798 -0.21243978
000280 dc 44 88 bd dc 0e 96 3c 36 c7 c9 be 1d c8 ce bc
       -0.06653759 0.018317632 -0.39409798 -0.025241906
000290 db 4b e9 bd 67 ec 62 be 89 9f f3 3c 52 d8 b8 3d
       -0.113914214 -0.22160493 0.029739158 0.09025635
0002a0 3c 53 0a 3e ab b9 2a bf d6 aa 51 be 49 a6 a9 3c
       0.13508314 -0.66689557 -0.20475325 0.020709174
0002b0 3b 44 a9 be 60 98 72 bd e7 be 47 3d a7 39 7e 3d
       -0.33059868 -0.059227347 0.048766043 0.0620667
0002c0 18 d5 40 be 71 fa d8 3d dc 1a 3d 3e 47 e8 b6 bd
       -0.18831289 0.10594643 0.18467277 -0.08931022
0002d0 4c 29 83 3c 6c b3 7f bd 0f 75 d0 bc 2d d4 b5 bc
       0.016010903 -0.06242697 -0.025446443 -0.0221959
0002e0 3b 68 00 3e 5c 42 a6 3d 77 ac 18 bc 1a 35 25 3c
       0.12539761 0.08118126 -0.009318463 0.010083461
0002f0 1a fc 55 bc ee 46 68 bf 8c 35 7c 3d cd 2f ae 3d
       -0.013060594 -0.9073323 0.061574504 0.08505211
000300 88 2d fe 3d e9 42 55 bd 0d 07 b4 bd 73 41 92 be
       0.12411028 -0.052065764 -0.08790407 -0.2856556
000310 b8 40 5e be cc 50 8b be 0d 3f f5 be 07 8a 1e be
       -0.21704376 -0.2721008 -0.47899666 -0.15482341
000320 62 de f9 bc c0 82 db be cb 9d 59 3d 4e f5 21 3e
       -0.030501548 -0.42873192 0.053129 0.15816233
000330 2e 08 cc 3d 05 09 4f 3d cc 96 a1 3c 59 fe c3 bd
       0.09962498 0.05054571 0.019725226 -0.09569997
000340 e2 b1 8f bc be 5b 35 be b8 c7 d1 be f9 3d 63 bc
       -0.017540876 -0.17710778 -0.40972686 -0.013869756
000350 a0 e4 35 3e 36 56 4b be c3 94 5e 3d 19 7a 88 3d
       0.17762995 -0.19857106 0.05434109 0.06663913
000360 15 1a 05 3d 68 b4 69 bd 70 0e 74 3d 49 da 9e bc
       0.032495577 -0.057056814 0.05958408 -0.019391196
000370 57 3d a7 3d 16 d6 07 3e c6 d3 1d be 32 07 20 be
       0.081659965 0.13265261 -0.15412816 -0.15627745
000380 a9 f6 fc 3d 01 6e b6 3c eb f7 96 3d c2 8d 82 3e
       0.12351734 0.02226925 0.07371505 0.25498778
000390 44 f3 92 be 00 5a 10 3e f5 6e 9b 3e e8 c8 6f bd
       -0.28701222 0.14096832 0.3035809 -0.05854121
0003a0 5a 50 89 3d 68 98 9e 3d 95 76 1d 3e ac ee 01 3e
       0.06704779 0.07743913 0.15377267 0.12688702
0003b0 11 83 f9 3d df e8 89 be 88 eb 02 3d 0e 50 a4 3d
       0.12183202 -0.2693548 0.0319629 0.08023082
0003c0 c7 d0 0f bd 5b 3d d2 bc 8d 37 40 be 65 36 bc 3c
       -0.035111215 -0.025664022 -0.18771191 0.022975156
0003d0 d6 4e 34 bd 67 3f e1 3d 83 f5 ed be c0 29 57 3d
       -0.044020496 0.10998421 -0.46476373 0.05253005
0003e0 fe 7f 39 bd 8d a2 47 3c 6b 4c c9 3c 79 db 16 bd
       -0.04528808 0.012184751 0.024572572 -0.0368304
0003f0 47 dc 84 3e 0c d8 ab 3d 01 f9 aa bc d3 d8 95 3d
       0.25949308 0.08390817 -0.020870687 0.073167466

fc2.bias f4 [64]
000000 d7 97 2b 3c ad a8 0d 3e 62 10 96 bd 19 96 77 3d
       0.010473213 0.13833876 -0.073273435 0.06044588
000010 e9 e8 1f bd 0c c1 10 bc 5c 92 07 bc 60 b2 4f bd
       -0.03904048 -0.008835088 -0.008274641 -0.05070722
000020 92 9a d9 bc 07 89 fa 3d c4 f3 29 bd 8b ba 4d 3c
       -0.026562963 0.12233167 -0.04149224 0.012556682
000030 bf ee 09 3e bb 6e 53 3d d2 67 c9 3d 5a bb fe bc
       0.1346998 0.051619273 0.09834255 -0.031095196
000040 56 b7 59 3d 6f 2d b1 3d 06 6c 44 bd 7a f5 d5 3d
       0.05315336 0.08651244 -0.04795458 0.104472116
000050 81 72 ba 3c 88 7d e2 3d 1f 75 52 bd c2 a1 c3 3d
       0.022759678 0.110590994 -0.051381227 0.09552337
000060 5a 72 c9 bd 6d 29 bb 3d c8 40 0f 3d ee 0a d6 bc
       -0.09836264 0.09138761 0.03497389 -0.026128259
000070 a6 f6 7c 3c 78 8d af 3c c2 5b ba 3d 3c 1e 1c be
       0.015439665 0.021429762 0.09099533 -0.15245908
000080 7e 53 40 bd 3c 2e 95 bd f5 dc 9b 3d 48 a0 ad bd
       -0.046954624 -0.07284209 0.076105036 -0.08477837
000090 05 db 90 bd 70 45 05 3d 23 fa 9a 3d 60 5b 0b 3c
       -0.07073025 0.032536924 0.07567241 0.008505672
0000a0 de f7 b9 bd 88 2e 63 be ae 12 e7 bd 3a c5 70 3d
       -0.0908048 -0.22185719 -0.1128286 0.05878184
0000b0 f8 4f d7 3c 54 66 f9 3d fd 37 ae 3d bc a2 82 3d
       0.02628325 0.12177721 0.08506773 0.06378695
0000c0 9f b6 ab bd f7 f4 9d bb 17 2e dd bc 0b a2 97 3a
       -0.083844416 -0.004820462 -0.026999516 0.0011568678
0000d0 56 e0 90 3d d9 a3 83 3c c4 a2 14 3d 2a e2 b2 3d
       0.07074039 0.01606934 0.036288038 0.087345436
0000e0 48 e1 02 bd 4e eb 74 bd 41 21 31 3d 58 e7 55 bd
       -0.031953126 -0.059794717 0.043244604 -0.05222258
0000f0 81 d7 bb bc bf d7 93 3d 23 33 fa 3d c3 8d c0 bd
       -0.022929909 0.07218885 0.12216785 -0.09402039

bn2.weight f4 [64]
000000 b8 ad 9c 3d 00 8c a3 3d 2d 6f 1d 3f 70 f5 98 3e
       0.07650322 0.07985687 0.61497766 0.29874754
000010 ce 48 f0 3e 30 8d 35 3e 9a 64 23 3f f3 88 6c 3f
       0.46930546 0.1772964 0.6382538 0.9239647
000020 48 29 70 3e 6f bb 0a 3f c0 af e7 3e 16 27 e2 3e
       0.23453248 0.5419225 0.45251274 0.44170445
000030 20 c6 9a 3c 28 2d d8 3d 8e f2 b9 3e 16 f0 3e 3f
       0.018893301 0.10555488 0.36317867 0.7458509
000040 6e fa 05 3f b0 7a 47 3d a2 c8 76 3f a8 76 96 3e
       0.5233525 0.04870099 0.9639989 0.29387403
000050 78 72 aa 3d 52 b5 07 3f a4 02 65 3e 83 ba 71 3f
       0.083226144 0.5301105 0.22364289 0.9442522
000060 2a 71 9c 3e f3 b8 0e 3f 18 3b fd 3d a0 5c c2 3c
       0.30555087 0.5575096 0.12364787 0.023725808
000070 32 84 d3 3e a0 b6 72 3f 1b e1 5d 3f da a6 0d 3f
       0.41311795 0.94809914 0.8667161 0.5533272
000080 7c 54 20 3f a9 e6 21 3f 4e 2f 04 3f 18 c4 ba 3e
       0.6262891 0.63242584 0.5163468 0.36477733
000090 40 ee 99 3e 88 39 0a 3e a4 59 22 3e 09 4e 1d 3f
       0.30064583 0.13498509 0.15854508 0.614472
0000a0 10 c4 6d 3e 6d 9e 00 3f 2d 06 0a 3f 78 97 1d 3f
       0.23219323 0.5024174 0.53915673 0.6155925
0000b0 a0 68 2f 3e 7a fe 68 3f ef 72 5d 3f 73 e6 7a 3f
       0.17129755 0.910133 0.865035 0.9800789
0000c0 e0 5e 4e 3e 48 d4 79 3e d5 7e 64 3f 35 08 1c 3f
       0.2015338 0.24397385 0.8925603 0.6095002
0000d0 40 65 0f 3c 7d 53 0c 3f b6 ef 19 3f 14 10 e7 3e
       0.008752167 0.54814893 0.60131395 0.45129454
0000e0 2c 0f b6 3e a0 43 15 3d 00 9a 86 3a 01 10 4a 3f
       0.3555845 0.036441445 0.0010269284 0.7893067
0000f0 02 52 8c 3e b8 f5 5a 3f 50 ce 59 3f 8c b5 73 3e
       0.27406317 0.8553119 0.8508043 0.23799723

bn2.bias f4 [64]
000000 00 00 00 00 00 00 00 00 00 00 00 00 00 00 00 00
       0.0 0.0 0.0 0.0
000010 00 00 00 00 00 00 00 00 00 00 00 00 00 00 00 00
       0.0 0.0 0.0 0.0
000020 00 00 00 00 00 00 00 00 00 00 00 00 00 00 00 00
       0.0 0.0 0.0 0.0
000030 00 00 00 00 00 00 00 00 00 00 00 00 00 00 00 00
       0.0 0.0 0.0 0.0
000040 00 00 00 00 00 00 00 00 00 00 00 00 00 00 00 00
       0.0 0.0 0.0 0.0
000050 00 00 00 00 00 00 00 00 00 00 00 00 00 00 00 00
       0.0 0.0 0.0 0.0
000060 00 00 00 00 00 00 00 00 00 00 00 00 00 00 00 00
       0.0 0.0 0.0 0.0
000070 00 00 00 00 00 00 00 00 00 00 00 00 00 00 00 00
       0.0 0.0 0.0 0.0
000080 00 00 00 00 00 00 00 00 00 00 00 00 00 00 00 00
       0.0 0.0 0.0 0.0
000090 00 00 00 00 00 00 00 00 00 00 00 00 00 00 00 00
       0.0 0.0 0.0 0.0
0000a0 00 00 00 00 00 00 00 00 00 00 00 00 00 00 00 00
       0.0 0.0 0.0 0.0
0000b0 00 00 00 00 00 00 00 00 00 00 00 00 00 00 00 00
       0.0 0.0 0.0 0.0
0000c0 00 00 00 00 00 00 00 00 00 00 00 00 00 00 00 00
       0.0 0.0 0.0 0.0
0000d0 00 00 00 00 00 00 00 00 00 00 00 00 00 00 00 00
       0.0 0.0 0.0 0.0
0000e0 00 00 00 00 00 00 00 00 00 00 00 00 00 00 00 00
       0.0 0.0 0.0 0.0
0000f0 00 00 00 00 00 00 00 00 00 00 00 00 00 00 00 00
       0.0 0.0 0.0 0.0

bn2.running_mean f4 [64]
000000 00 00 00 00 00 00 00 00 00 00 00 00 00 00 00 00
       0.0 0.0 0.0 0.0
000010 00 00 00 00 00 00 00 00 00 00 00 00 00 00 00 00
       0.0 0.0 0.0 0.0
000020 00 00 00 00 00 00 00 00 00 00 00 00 00 00 00 00
       0.0 0.0 0.0 0.0
000030 00 00 00 00 00 00 00 00 00 00 00 00 00 00 00 00
       0.0 0.0 0.0 0.0
000040 00 00 00 00 00 00 00 00 00 00 00 00 00 00 00 00
       0.0 0.0 0.0 0.0
000050 00 00 00 00 00 00 00 00 00 00 00 00 00 00 00 00
       0.0 0.0 0.0 0.0
000060 00 00 00 00 00 00 00 00 00 00 00 00 00 00 00 00
       0.0 0.0 0.0 0.0
000070 00 00 00 00 00 00 00 00 00 00 00 00 00 00 00 00
       0.0 0.0 0.0 0.0
000080 00 00 00 00 00 00 00 00 00 00 00 00 00 00 00 00
       0.0 0.0 0.0 0.0
000090 00 00 00 00 00 00 00 00 00 00 00 00 00 00 00 00
       0.0 0.0 0.0 0.0
0000a0 00 00 00 00 00 00 00 00 00 00 00 00 00 00 00 00
       0.0 0.0 0.0 0.0
0000b0 00 00 00 00 00 00 00 00 00 00 00 00 00 00 00 00
       0.0 0.0 0.0 0.0
0000c0 00 00 00 00 00 00 00 00 00 00 00 00 00 00 00 00
       0.0 0.0 0.0 0.0
0000d0 00 00 00 00 00 00 00 00 00 00 00 00 00 00 00 00
       0.0 0.0 0.0 0.0
0000e0 00 00 00 00 00 00 00 00 00 00 00 00 00 00 00 00
       0.0 0.0 0.0 0.0
0000f0 00 00 00 00 00 00 00 00 00 00 00 00 00 00 00 00
       0.0 0.0 0.0 0.0

bn2.running_var f4 [64]
000000 00 00 80 3f 00 00 80 3f 00 00 80 3f 00 00 80 3f
       1.0 1.0 1.0 1.0
000010 00 00 80 3f 00 00 80 3f 00 00 80 3f 00 00 80 3f
       1.0 1.0 1.0 1.0
000020 00 00 80 3f 00 00 80 3f 00 00 80 3f 00 00 80 3f
       1.0 1.0 1.0 1.0
000030 00 00 80 3f 00 00 80 3f 00 00 80 3f 00 00 80 3f
       1.0 1.0 1.0 1.0
000040 00 00 80 3f 00 00 80 3f 00 00 80 3f 00 00 80 3f
       1.0 1.0 1.0 1.0
000050 00 00 80 3f 00 00 80 3f 00 00 80 3f 00 00 80 3f
       1.0 1.0 1.0 1.0
000060 00 00 80 3f 00 00 80 3f 00 00 80 3f 00 00 80 3f
       1.0 1.0 1.0 1.0
000070 00 00 80 3f 00 00 80 3f 00 00 80 3f 00 00 80 3f
       1.0 1.0 1.0 1.0
000080 00 00 80 3f 00 00 80 3f 00 00 80 3f 00 00 80 3f
       1.0 1.0 1.0 1.0
000090 00 00 80 3f 00 00 80 3f 00 00 80 3f 00 00 80 3f
       1.0 1.0 1.0 1.0
0000a0 00 00 80 3f 00 00 80 3f 00 00 80 3f 00 00 80 3f
       1.0 1.0 1.0 1.0
0000b0 00 00 80 3f 00 00 80 3f 00 00 80 3f 00 00 80 3f
       1.0 1.0 1.0 1.0
0000c0 00 00 80 3f 00 00 80 3f 00 00 80 3f 00 00 80 3f
       1.0 1.0 1.0 1.0
0000d0 00 00 80 3f 00 00 80 3f 00 00 80 3f 00 00 80 3f
       1.0 1.0 1.0 1.0
0000e0 00 00 80 3f 00 00 80 3f 00 00 80 3f 00 00 80 3f
       1.0 1.0 1.0 1.0
0000f0 00 00 80 3f 00 00 80 3f 00 00 80 3f 00 00 80 3f
       1.0 1.0 1.0 1.0

fc3.weight f4 [1, 64]
000000 a7 f2 5d 3e ea 46 57 bd 4d 7b 7f be 7e 3a a6 3e
       0.21674596 -0.052557863 -0.2494938 0.324665
000010 71 ac 14 3e e4 05 95 bd 9d 3b 19 3e 4f de a0 bb
       0.14518906 -0.07276514 0.14964147 -0.0049093137
000020 82 c2 18 be c8 1c 2e bd 80 e4 9b bd 28 0d 32 3e
       -0.14917949 -0.042507917 -0.07611942 0.17387831
000030 43 f1 c8 bc 2b 13 2e 3e fd 39 16 bd 63 dd 45 be
       -0.024529105 0.169995 -0.036676396 -0.19322734
000040 ff c4 5a bd fa d5 95 3e 08 43 6a bd 89 a3 34 bd
       -0.053410526 0.29264814 -0.057192832 -0.04410127
000050 78 d9 20 3e 41 2d 5e bd e7 9b 20 be 6b 0c cd bc
       0.15707958 -0.054242376 -0.15684472 -0.025030335
000060 0f af a9 bd 1a 46 33 bd cf 09 8c 3e a3 d1 8a bd
       -0.08285343 -0.043768026 0.27351233 -0.06778266
000070 8c a1 87 bd 26 cf 43 3e 85 84 64 3e cc f1 a1 bd
       -0.066226095 0.1912199 0.22316177 -0.07907447
000080 5b 40 c5 bc 96 de f2 bd 58 ff 69 bd 58 a5 a1 bd
       -0.024078539 -0.11858861 -0.05712828 -0.07892865
000090 9b f5 4a be 16 ff 05 be db 54 99 bd 2a 15 6e 3e
       -0.19820254 -0.13085589 -0.07486888 0.23250261
0000a0 12 79 50 be 03 90 90 bd 4c 27 28 3d 05 70 fa 3d
       -0.20358685 -0.07058718 0.0410531 0.12228397
0000b0 39 60 b9 3e ea 2d 04 3e 79 07 30 3e 70 a5 2d 3e
       0.36206225 0.1290814 0.1719035 0.1695764
0000c0 f1 fc eb bc 24 0d 45 be 7e 1b f5 bd 33 e8 0b 3e
       -0.028807135 -0.19243294 -0.11968134 0.13662796
0000d0 4f 39 58 bd 05 6f d3 3d 8c 93 b2 bd f0 17 12 3e
       -0.05278903 0.1032391 -0.087195486 0.14266944
0000e0 88 33 a9 bd ae e2 23 3e 26 82 1f bd 79 06 e1 bd
       -0.08261782 0.1600444 -0.03894248 -0.10987563
0000f0 47 64 2e 3e ad cc 1a bd 86 4d 21 be 61 d1 4b 3e
       0.1703044 -0.03779285 -0.15752229 0.1990409
