p3_collaboration_and_competition/weights/critic_1_200.pth (torch_old, 52380 bytes, 17 tensors)

bn0.weight f4 [24]
000000 92 46 15 3f bf e7 c6 3e 20 ae 3c 3f 7d d1 d3 3e
       0.58310807 0.38848683 0.73703194 0.41370764
000010 dc ae 44 3f d6 80 27 3f 1d 4b 00 3f 4b 61 3b 3d
       0.76829314 0.65430963 0.50114614 0.045747083
000020 81 db 13 3f 53 66 86 3d 6f 20 1e 3f 68 56 f2 3e
       0.5775681 0.065624855 0.6176824 0.47331548
000030 29 df de 3e 64 ac 6a 3f 0c c1 26 3f cb b9 1d 3f
       0.43529633 0.916693 0.65138316 0.6161162
000040 53 91 32 3f e9 8e 58 3e 60 4c bc 3e 1c fb 6b 3f
       0.69753 0.21148266 0.3677702 0.9218004
000050 25 6b 33 3d 2a 09 07 3f 81 84 f6 3e 0b e7 5b 3f
       0.043803353 0.5274836 0.48147967 0.8589942

bn0.bias f4 [24]
000000 db 40 16 3d 35 f0 5e 3c 48 16 a2 3d bd f4 f3 3c
       0.036682945 0.0136070745 0.07914406 0.029779786
000010 e0 6a 97 3c 1e ca 20 3c 6e 5b d5 3c ed 96 0b 3d
       0.01848358 0.0098138135 0.026044574 0.03407948
000020 b1 bb 23 3d ed 94 9b 3c a9 9c 9e 3d 66 7f 28 3d
       0.03997392 0.018991912 0.07744724 0.04113712
000030 c0 c2 2a 3d e9 47 f6 3c 4a ce 23 3d 36 c8 c5 3c
       0.041689634 0.030063586 0.039991654 0.02414332
000040 e8 d5 33 3d 9f 54 9f bb be e5 c0 3c 48 52 fb 3c
       0.04390517 -0.0048623825 0.02354705 0.030678883
000050 24 ef f9 3c 60 bc aa 3c 81 94 01 3d 6c 5e 68 3a
       0.030509539 0.020841777 0.031635765 0.00088641676

bn0.running_mean f4 [24]
000000 54 fb a5 c0 48 2b 7b bf fc cd 08 40 f9 70 bb 3e
       -5.1869297 -0.98112917 2.1375723 0.3660963
000010 fd e1 37 3d d6 33 34 40 fc cd 08 40 f9 70 bb 3e
       0.044893254 2.8156638 2.1375723 0.3660963
000020 f7 64 b0 c0 4b 56 84 bf 89 8a 1b 40 2e 28 a4 3e
       -5.512325 -1.0338835 2.4303305 0.32061905
000030 cb 06 55 3d a3 3c 2e 40 89 8a 1b 40 2e 28 a4 3e
       0.05200843 2.722451 2.4303305 0.32061905
000040 65 42 ba c0 c3 d3 8b bf 1a 6d 30 40 92 44 67 3e
       -5.820605 -1.0924 2.756659 0.22584751
000050 ce 0e 88 3d bb 7e 24 40 1a 6d 30 40 92 44 67 3e
       0.06643449 2.570235 2.756659 0.22584751

bn0.running_var f4 [24]
000000 8d c9 31 41 d2 f9 82 3f 19 ba 90 42 9d 5b 80 40
       11.111707 1.0232489 72.36347 4.0111833
000010 d9 d2 23 42 12 ed b8 40 19 ba 90 42 9d 5b 80 40
       40.955906 5.7789392 72.36347 4.0111833
000020 f0 31 23 41 21 5b 84 3f fe 86 9e 42 7e 4d 8c 40
       10.199692 1.034031 79.26366 4.3844595
000030 72 4e 2f 42 35 b4 ce 40 fe 86 9e 42 7e 4d 8c 40
       43.826607 6.459498 79.26366 4.3844595
000040 2f f2 10 41 08 0a 83 3f bf 50 a8 42 27 87 9f 40
       9.059127 1.0237436 84.15771 4.985248
000050 52 a8 3a 42 b9 ff f2 40 bf 50 a8 42 27 87 9f 40
       46.664375 7.593716 84.15771 4.985248

fcs1.weight f4 [128, 24]
000000 05 8c 54 3d ca 78 34 be 0f be 8d bd b3 62 c3 bd
       0.051891346 -0.17624202 -0.069210164 -0.0954031
000010 07 5d a0 3e be 61 18 3e ea cc 54 3d 27 1b 83 bb
       0.31320974 0.14881036 0.051953234 -0.0040010395
000020 70 0f 76 bc fd 01 0b be 30 ae f4 bd 53 7b bf 3d
       -0.015018329 -0.13574977 -0.11947286 0.09349694
000030 4e 20 52 3e 15 09 e3 3d 61 56 a6 bd a4 f1 f1 bc
       0.20520136 0.11085717 -0.08121944 -0.029534169
000040 41 b2 32 bd 0a f0 ce 3c 32 c1 16 be e8 71 98 3b
       -0.043627027 0.025260944 -0.14722136 0.0046522506
000050 4a e3 25 3c 14 c4 a1 3d 34 88 5c be d5 a5 07 3e
       0.010124991 0.07898727 -0.21536332 0.13246854
000060 bb 1c 8c 3d 40 5e ad bd 2e 2b cf bc 31 2b 90 3c
       0.068414174 -0.084652424 -0.025289144 0.01759872
000070 e6 29 0c be 69 d8 71 3d b4 05 27 bd a8 20 c8 bc
       -0.13687858 0.059044275 -0.040776923 -0.024429634
000080 fb be 9e bc 75 09 2f ba 58 b5 7e be a0 66 34 3d
       -0.019378176 -0.00066771294 -0.24873865 0.044043183
000090 3d 71 16 be bc f6 6d 3c 09 a2 11 be 30 4c 29 3d
       -0.14691634 0.014524158 -0.14221968 0.041332424
0000a0 89 c8 c9 bd 1f cb 12 3d 6f a0 02 be 0d 8e 58 3b
       -0.09852702 0.035838243 -0.12756513 0.0033043653
0000b0 7a 76 fc bd e7 37 7e bd 8a ff e9 bd 14 b4 84 3d
       -0.12327285 -0.06206503 -0.11425693 0.0647966
0000c0 7d 18 31 3d e9 2c bf 3d a2 20 ac bc c0 a8 cd 3d
       0.043236244 0.09334738 -0.021011654 0.10041952
0000d0 67 b9 4e 3d d7 e9 91 bd 32 bc 0a bd dd 0b 57 3d
       0.050469782 -0.071246795 -0.033870883 0.052501548
0000e0 81 80 5e 3d 4e a2 b2 3d 6e 1e b9 3d f9 ba 92 bd
       0.05432177 0.087223634 0.09039007 -0.071645685
0000f0 e4 8e b5 3d f1 17 c5 3b 05 66 3e 3d 21 95 03 3c
       0.08865145 0.006014817 0.046484012 0.008031161
000100 22 4e 64 3d b3 5c 2f bd 45 28 d6 3d 15 78 43 bd
       0.055738576 -0.042813014 0.104568996 -0.04772194
000110 c1 bd 16 bd 8f c5 02 bd c4 3b 96 3d b7 a7 ae bc
       -0.036802057 -0.031926688 0.07335618 -0.021320207
000120 dc fe 40 bd 95 c9 25 bd 80 43 ef 3c 55 39 81 3c
       -0.047118053 -0.040475447 0.029206991 0.015774408
000130 19 99 69 bb e3 af 82 3d a8 42 3b bd 7b 1a 13 3d
       -0.0035644232 0.06381204 -0.045717865 0.035913926
000140 61 80 66 bd 8b 11 a6 bd c6 dc cd 3c 64 59 8e 3c
       -0.056274775 -0.08108815 0.025129687 0.01737661
000150 6c db 58 3d f5 01 ad bd f2 ed 8c bd bd 99 8c 3d
       0.052943632 -0.08447639 -0.06881322 0.06865261
000160 f8 0e af 3c 9a 78 70 bd 82 23 dd 3b e6 82 a3 bb
       0.021369442 -0.058708765 0.0067486176 -0.0049899695
000170 2c 94 a4 bd 21 53 3e 3c 8a c3 86 bd 87 d8 f9 bc
       -0.08036074 0.011616499 -0.06580265 -0.030498756
000180 ad 5e 02 3e 0a 49 a0 bb e4 f1 e9 3d 5e 1c 85 3b
       0.12731428 -0.0048915194 0.1142309 0.0040622195
000190 0d 51 88 3d 68 b7 cc 3d b5 c3 00 3d d3 bf 35 bd
       0.06656084 0.099959195 0.03143664 -0.04437239
0001a0 f0 54 47 3d cf 07 86 3d 93 60 92 3d a7 fa 05 bd
       0.048664987 0.06544458 0.07147326 -0.032709744
0001b0 9d 8a cb 3d ec f7 b3 3c 4f 5f cc 3d d1 a0 b6 bd
       0.09938548 0.021968804 0.09979116 -0.08917392
0001c0 23 05 08 3e c0 eb e8 3a 4a 87 49 bd ce 35 0e 3d
       0.1328321 0.0017770454 -0.049201287 0.03471928
0001d0 99 30 14 bd 03 e4 88 3d 64 97 1e bd f3 1b 82 bd
       -0.03617916 0.06684115 -0.038718596 -0.06352987
0001e0 61 ed 70 3d d4 e3 67 bd aa 4c ae bd c9 83 41 bd
       0.058820132 -0.05661376 -0.08510716 -0.04724482
0001f0 25 b0 b2 3c de 0b 46 bd 36 83 95 3c e7 9b 6d bd
       0.021812508 -0.04835116 0.018251043 -0.05801001
000200 45 cf 10 3d c7 b2 98 bd bb 95 25 bd 68 51 be 3d
       0.035353918 -0.07455974 -0.040425997 0.09292871
000210 d1 3a a3 bc f8 0f 66 bc 01 29 26 bc c2 aa 90 bc
       -0.019925507 -0.014041893 -0.010141612 -0.017659549
000220 61 0b 89 bd da a2 df bc 2f 74 27 3c ba aa 0f 3e
       -0.066916235 -0.027299333 0.010220571 0.14029971
000230 57 07 74 bd 27 1d 0d be 64 62 06 3d 0b 11 15 3e
       -0.059577312 -0.13780652 0.032808676 0.14557283
000240 1c 26 af 3c 6c 27 84 3d b1 53 8b 3c f9 f9 91 bd
       0.021380477 0.064528316 0.01700768 -0.071277566
000250 8f ae 69 bd 62 f0 00 3d 89 47 fe 3b d3 51 41 3d
       -0.057051238 0.031479247 0.0077599925 0.047197174
000260 9b 27 85 bb 35 93 c0 bd 3b 78 b0 3d 1e 66 80 bd
       -0.004063559 -0.094030775 0.08616682 -0.06269477
000270 9f 7e af 3c 99 20 d3 bc f1 f5 21 3c aa 62 dc 3c
       0.021422682 -0.02577238 0.009885297 0.026902515
000280 73 d5 6a bd 2e ef e7 3c e7 16 81 3d 24 9b da bd
       -0.057332467 0.028312292 0.063031964 -0.10674122
000290 e7 bf fb bd 82 0e 6c bd 8a 28 d2 3c 38 04 94 bd
       -0.12292462 -0.057631023 0.025654096 -0.07227367
0002a0 01 ad 0c 3c c4 da 73 be 69 12 76 3d ea 32 0e be
       0.008586169 -0.23813921 0.06007615 -0.1388661
0002b0 2a 3b b2 bd 21 23 6e bd 82 29 98 3d 74 37 1c bb
       -0.08702691 -0.05813897 0.07429792 -0.0023836764
0002c0 81 f1 a5 3c 95 1f 03 be ed 77 36 3e 3a bd 5a 3d
       0.02025676 -0.12805016 0.17819186 0.053403117
0002d0 44 f9 8f bd 59 b7 6f 3d ef 4e c9 3d 24 59 ba 3d
       -0.070299655 0.058524463 0.098295085 0.090990335
0002e0 c1 c6 f4 bd f6 f7 47 be 5a 07 5e be 90 74 93 3c
       -0.11951972 -0.19528183 -0.21682492 0.017999917
0002f0 c7 f0 f7 bc eb 6c f3 3d 27 d0 ee bd 23 0e dc 3d
       -0.030266179 0.11886009 -0.11660796 0.10744884
000300 72 88 05 bd 16 39 fb 3d c3 3e 10 bd 8c ac bc bd
       -0.032600828 0.12266748 -0.035216104 -0.09212598
000310 f4 dc e7 3d 15 0c 22 3d 89 71 cb bd b7 03 a2 bd
       0.1132144 0.039562304 -0.099337645 -0.07910865
000320 91 1d ed 3d 22 f9 33 39 5a 95 41 3c 3d 5d 59 3d
       0.11577905 0.0001716358 0.011815393 0.053067435
000330 f9 27 b6 3d c5 b9 99 bd 38 c3 74 3d 54 90 92 bd
       0.08894343 -0.07506136 0.059756488 -0.07156435
000340 ab 17 a2 bd cc c4 25 3d dc a8 49 3b 44 e6 a5 3c
       -0.079146706 0.040470883 0.0030770814 0.0202514
000350 37 c5 a9 3d e2 48 c5 3d 52 a5 3d bd 77 cb 14 bc
       0.08289569 0.09633042 -0.04630024 -0.009081713
000360 41 d1 98 bd e4 89 4d bd 9e 05 29 be 6d 20 25 3b
       -0.07461787 -0.05018033 -0.16506049 0.002519633
000370 89 8e c3 3d 2d 10 a3 bd 88 82 15 be fe e8 69 bd
       0.09548671 -0.0796207 -0.14600575 -0.057106964
000380 d0 77 d5 3d 7f 78 0c be 44 52 8a bc 83 53 23 3d
       0.10423243 -0.1371784 -0.01688493 0.039874565
000390 f1 3e 17 bc 4e 57 00 3c d7 d7 b0 bc 33 70 09 bd
       -0.009231315 0.007833315 -0.021587295 -0.033554267
0003a0 e6 ef d0 3d c2 68 9f bc a7 ee 80 3e 89 0c a7 3d
       0.10202007 -0.019459132 0.25182077 0.08156688
0003b0 57 8a b3 bc df d3 ae bd 7b 76 10 3e 8e 5f ec 3d
       -0.021916552 -0.08536505 0.14107697 0.11541663
0003c0 6a fd b8 3b e9 44 88 bd b6 e3 b0 3d b3 54 2d bd
       0.0056454437 -0.066537686 0.086371824 -0.042317104
0003d0 61 d2 f9 bc d9 32 bb 3c 7c 1e 93 3c 59 f3 bd 3c
       -0.030495824 0.022851394 0.017958872 0.023187326
0003e0 1c cd 69 bd 79 39 59 3d c4 a8 74 3d 1e 26 14 bd
       -0.057080373 0.053033326 0.05973126 -0.036169164
0003f0 71 16 43 3b 59 e8 35 bc f1 ef d6 3d 7c 19 c6 3c
       0.0029768015 -0.011102759 0.10494984 0.024182074

fcs1.bias f4 [128]
000000 69 90 35 be 48 43 56 be 87 dc 32 3e c2 40 d8 3d
       -0.1773087 -0.20924103 0.17466937 0.105592266
000010 f1 f7 d4 bd f3 c6 22 be dc 6a f9 bd 5f c4 e2 bd
       -0.103988536 -0.15896206 -0.12178585 -0.11072611
000020 b0 a4 1b 3d dc e9 bc bd 92 f5 05 3d fe 93 fb 3c
       0.037998855 -0.09224293 0.032704897 0.030710217
000030 4b 7f d1 3d ff 1a 91 3d 25 1f 75 3d 9a 89 6d bd
       0.10229357 0.07085227 0.059844155 -0.057992555
000040 d2 c7 2f 3c c6 2d b5 bc c3 79 02 3e 7e 25 b8 bd
       0.010728793 -0.022116553 0.12741761 -0.08991526
000050 55 0e a4 3d 80 67 0f bd b1 50 a0 3d cd 64 19 be
       0.08010546 -0.035010815 0.07827891 -0.14979859
000060 0d be da bd ea d0 d9 bc 21 3f e7 3d 9e 79 7d 3d
       -0.106807806 -0.026588876 0.11291338 0.06188356
000070 d0 c6 f9 3c db 8f 89 3c 7c 82 11 3e c1 1d 1b be
       0.030490309 0.016792228 0.14209932 -0.15148069
000080 14 9a bd 3c 94 98 ee 3d c7 af 49 3e e0 e9 21 3a
       0.02314476 0.11650196 0.1969596 0.00061765127
000090 61 69 c3 bd 21 8b b4 3d 31 22 2a 3e 36 de 0f be
       -0.09541584 0.08815599 0.16614605 -0.1404961
0000a0 41 30 50 be 50 d6 e7 bc c5 bf 95 bd 00 f1 79 bd
       -0.20330907 -0.028300434 -0.07311968 -0.06102085
0000b0 aa 27 16 be 63 9c 94 3d 8e 62 ab bd f4 85 b5 3d
       -0.14663568 0.07256391 -0.08368407 0.0886344
0000c0 27 73 2a 3e 6f 80 2d be a9 21 8b 3c 84 18 2f 3e
       0.1664549 -0.16943525 0.016983824 0.17099196
0000d0 92 5b 55 3e 8e aa 97 bd fd 5b 07 3e 06 75 9f 3d
       0.20835713 -0.074055776 0.13218684 0.07785992
0000e0 82 d9 34 3e a3 bb 42 bc 79 e9 74 bd 58 6a aa bd
       0.17661098 -0.011885556 -0.05979297 -0.08321065
0000f0 0d ea 93 3d ad bf ed 3c 74 48 13 be d6 b6 13 be
       0.07222376 0.029022062 -0.14383107 -0.14425215
000100 cd ac 34 3e d8 2c 08 be 1b 80 6e bd 82 42 c3 bc
       0.17644043 -0.13298357 -0.05822764 -0.023835424
000110 a4 39 ac bd 9d 5d 54 be 6a 06 b6 bd 06 35 99 3d
       -0.084094316 -0.20738836 -0.08887942 0.074808165
000120 f9 71 0e 3e 04 32 4b 3e 14 cb 74 bd c6 03 ca bd
       0.13910665 0.19843298 -0.059763983 -0.09864001
000130 f2 31 26 be 95 74 26 be b9 de 25 be 13 b3 d4 bd
       -0.1622999 -0.1625541 -0.16198243 -0.10385718
000140 b2 16 96 bd 4c 72 41 3e d5 99 1d be 07 77 93 bd
       -0.073285475 0.18891257 -0.15390714 -0.07200437
000150 9a 74 97 bd 7d 14 e2 3d a6 fb 09 bd e8 2b 0f 3d
       -0.07395287 0.11039064 -0.033687256 0.03495398
000160 88 08 fd 3d 35 ef 0a 3e cc df 16 3e d6 d5 3e bc
       0.12355143 0.13567813 0.14733809 -0.011647662
000170 25 ad 1a 3e 37 3f 37 be 4a b1 a3 bd 72 c9 be bc
       0.15105112 -0.17895208 -0.079927996 -0.023289416
000180 6c e6 78 3d ac f5 81 3c c8 42 61 3e 57 5c c6 bc
       0.060766622 0.015864216 0.21998131 -0.024213953
000190 46 a6 7e bd e2 0a 0b bd 27 99 30 bd 60 4c 80 3c
       -0.06217029 -0.033945926 -0.043114807 0.015661418
0001a0 34 f9 07 3e a3 d0 21 be e5 a5 bd 3c 93 51 4f 3e
       0.13278657 -0.15802245 0.023150394 0.20245962
0001b0 2c de 2f bc 11 7a b4 3d 50 f4 27 3b be 70 26 3e
       -0.010734122 0.08812345 0.00256278 0.16253945
0001c0 44 37 03 3b 4c 51 df 3d d7 da 8f bd f3 cb 72 be
       0.0020021955 0.10904178 -0.07024162 -0.23710613
0001d0 07 1b 81 bd ee 52 12 3e 59 46 07 3b 7c de 80 3c
       -0.06303983 0.14289448 0.0020641296 0.015731089
0001e0 f5 9a 1e 3e e8 1b f6 bd a2 42 3c be ee 02 60 3d
       0.15488799 -0.120170414 -0.18384793 0.054690294
0001f0 d6 95 40 3e b9 e2 29 3d 21 0e dc bd 34 4a c8 3d
       0.18807158 0.041475985 -0.107448824 0.09779778

bn1.weight f4 [128]
000000 ac 7b 3c 3f 68 12 a0 3d 20 35 70 3f 26 83 0a 3f
       0.7362621 0.07816011 0.9383106 0.54106367
000010 bc f7 95 3e 00 5d 40 3c c6 49 1e 3f 60 e9 bd 3e
       0.2929057 0.011740923 0.6183132 0.37092113
000020 58 ea 1a 3f e8 d3 dd 3d 4b a6 31 3f 70 cd f1 3d
       0.6051383 0.108314335 0.6939437 0.11806762
000030 cb 88 65 3f da ea 07 3f 95 5c 3e 3f 03 ff 4b 3f
       0.89661855 0.5309273 0.7436002 0.7968599
000040 58 6d 73 3f 0f b1 13 3f 49 c7 66 3f e8 cc ac 3d
       0.9508872 0.57692045 0.90147835 0.0843752
000050 9a e8 5b 3f 97 e5 5d 3f 9c 62 78 3e b8 94 76 3e
       0.85901797 0.8667845 0.24256366 0.24080169
000060 b8 9d 69 3f ae dd 66 3f 48 b6 ab 3d 5c 5f 01 3f
       0.91256285 0.90182006 0.08384377 0.5053613
000070 10 e1 fd 3d e5 11 45 3f e8 4a a5 3d 9c 8b 83 3e
       0.12396443 0.7698043 0.08070928 0.2569245
000080 b4 44 61 3f fb f2 6b 3f 59 6c 71 3f 6a 38 0d 3f
       0.8799546 0.92167634 0.9430595 0.55164206
000090 80 0c 6c 3d f6 88 50 3f d9 cd 69 3f 15 a3 62 3f
       0.05762911 0.81458986 0.91329724 0.88530093
0000a0 9d 7e 50 3f c8 95 eb 3e 18 4c 40 3f 1a 04 1c 3f
       0.81443197 0.46012712 0.7511611 0.6094376
0000b0 4a 9b 87 3e 81 2b 53 3f 40 4a a1 3e 27 e9 4a 3f
       0.26485664 0.82488257 0.3150196 0.7926201
0000c0 20 ab e8 3e c8 02 e9 3e 4c 4b 36 3f 60 6b de 3e
       0.45443058 0.45509934 0.71208644 0.43441296
0000d0 35 df 34 3f a0 71 87 3d c0 2d 7d 3c a1 06 11 3f
       0.70653087 0.06613469 0.015452802 0.5665074
0000e0 02 57 c9 3e e0 eb 90 3e f0 d8 54 3d 03 64 0c 3f
       0.39324194 0.28304958 0.0519647 0.54840106
0000f0 54 d3 82 3e 8d ba 73 3f 70 9d ea 3d e2 25 a5 3e
       0.25551856 0.9520653 0.1145581 0.32255465
000100 9a 21 cf 3e 90 21 17 3f d0 d0 27 3d 43 39 46 3f
       0.40455323 0.5903559 0.040970623 0.77431124
000110 10 94 01 3d 58 21 6f 3e fe 6c 19 3f e2 46 da 3e
       0.031635344 0.23352563 0.59931934 0.42632204
000120 bc 9b 0f 3f 00 e9 5d 3b 54 d3 17 3e 85 61 55 3f
       0.56097007 0.0033860803 0.14826709 0.8335193
000130 56 d3 31 3f 44 cd 37 3f ad e0 47 3f 79 82 59 3f
       0.694631 0.71797585 0.78077203 0.8496471
000140 b2 0a 3f 3f d8 5f b1 3e 04 a3 80 3e f4 ff 22 3e
       0.74625695 0.34643435 0.2512437 0.15917951
000150 5d d9 25 3f 9e e5 f8 3e b0 01 85 3e e1 1e 4e 3f
       0.64784795 0.48612684 0.2597785 0.8051587
000160 7b 38 05 3f 02 a5 e4 3e bc 29 be 3e 74 48 0c 3e
       0.5203931 0.4465714 0.37141216 0.13699514
000170 e2 b4 69 3f 40 49 5b 3c a0 e7 2d 3d ad a0 19 3f
       0.9129163 0.013384163 0.042457223 0.60010797
000180 82 cd 8c 3e c5 0b 5f 3f ae 27 f7 3e 46 a2 87 3e
       0.2750054 0.87127334 0.4827246 0.26490992
000190 eb 14 00 3f c0 ba d7 3e cc 8f d7 3e 62 a6 e3 3e
       0.5003192 0.42134666 0.42101896 0.44462878
0001a0 d8 e8 2e 3e a2 a7 ae 3e a0 6f 92 3c 5c 63 36 3e
       0.1708101 0.3411227 0.017875493 0.1781134
0001b0 01 63 09 3f 87 dd 53 3f be 53 f4 3e 75 e6 63 3f
       0.5366669 0.827599 0.4772014 0.89023525
0001c0 30 6a d7 3d da c2 2d 3f e8 5b 1e 3f 82 ad 98 3e
       0.105183005 0.67875445 0.6185899 0.29819876
0001d0 8e 97 34 3f d0 04 3d 3e fa f8 08 3f 5d 99 2b 3f
       0.70543754 0.18458867 0.5350491 0.6703089
0001e0 68 1b 89 3e 28 3a 17 3e e2 1a 52 3f 38 85 c5 3d
       0.26778722 0.14768279 0.8207227 0.0964455
0001f0 43 4c 7e 3f 70 4b a3 3e 36 f2 d7 3e 40 ea 6f 3e
       0.99335116 0.31893492 0.4217698 0.23429203

bn1.bias f4 [128]
000000 00 00 00 00 00 00 00 00 00 00 00 00 00 00 00 00
       0.0 0.0 0.0 0.0
000010 00 00 00 00 00 00 00 00 00 00 00 00 00 00 00 00
       0.0 0.0 0.0 0.0
000020 00 00 00 00 00 00 00 00 00 00 00 00 00 00 00 00
       0.0 0.0 0.0 0.0
000030 00 00 00 00 00 00 00 00 00 00 00 00 00 00 00 00
       0.0 0.0 0.0 0.0
000040 00 00 00 00 00 00 00 00 00 00 00 00 00 00 00 00
       0.0 0.0 0.0 0.0
000050 00 00 00 00 00 00 00 00 00 00 00 00 00 00 00 00
       0.0 0.0 0.0 0.0
000060 00 00 00 00 00 00 00 00 00 00 00 00 00 00 00 00
       0.0 0.0 0.0 0.0
000070 00 00 00 00 00 00 00 00 00 00 00 00 00 00 00 00
       0.0 0.0 0.0 0.0
000080 00 00 00 00 00 00 00 00 00 00 00 00 00 00 00 00
       0.0 0.0 0.0 0.0
000090 00 00 00 00 00 00 00 00 00 00 00 00 00 00 00 00
       0.0 0.0 0.0 0.0
0000a0 00 00 00 00 00 00 00 00 00 00 00 00 00 00 00 00
       0.0 0.0 0.0 0.0
0000b0 00 00 00 00 00 00 00 00 00 00 00 00 00 00 00 00
       0.0 0.0 0.0 0.0
0000c0 00 00 00 00 00 00 00 00 00 00 00 00 00 00 00 00
       0.0 0.0 0.0 0.0
0000d0 00 00 00 00 00 00 00 00 00 00 00 00 00 00 00 00
       0.0 0.0 0.0 0.0
0000e0 00 00 00 00 00 00 00 00 00 00 00 00 00 00 00 00
       0.0 0.0 0.0 0.0
0000f0 00 00 00 00 00 00 00 00 00 00 00 00 00 00 00 00
       0.0 0.0 0.0 0.0
000100 00 00 00 00 00 00 00 00 00 00 00 00 00 00 00 00
       0.0 0.0 0.0 0.0
000110 00 00 00 00 00 00 00 00 00 00 00 00 00 00 00 00
       0.0 0.0 0.0 0.0
000120 00 00 00 00 00 00 00 00 00 00 00 00 00 00 00 00
       0.0 0.0 0.0 0.0
000130 00 00 00 00 00 00 00 00 00 00 00 00 00 00 00 00
       0.0 0.0 0.0 0.0
000140 00 00 00 00 00 00 00 00 00 00 00 00 00 00 00 00
       0.0 0.0 0.0 0.0
000150 00 00 00 00 00 00 00 00 00 00 00 00 00 00 00 00
       0.0 0.0 0.0 0.0
000160 00 00 00 00 00 00 00 00 00 00 00 00 00 00 00 00
       0.0 0.0 0.0 0.0
000170 00 00 00 00 00 00 00 00 00 00 00 00 00 00 00 00
       0.0 0.0 0.0 0.0
000180 00 00 00 00 00 00 00 00 00 00 00 00 00 00 00 00
       0.0 0.0 0.0 0.0
000190 00 00 00 00 00 00 00 00 00 00 00 00 00 00 00 00
       0.0 0.0 0.0 0.0
0001a0 00 00 00 00 00 00 00 00 00 00 00 00 00 00 00 00
       0.0 0.0 0.0 0.0
0001b0 00 00 00 00 00 00 00 00 00 00 00 00 00 00 00 00
       0.0 0.0 0.0 0.0
0001c0 00 00 00 00 00 00 00 00 00 00 00 00 00 00 00 00
       0.0 0.0 0.0 0.0
0001d0 00 00 00 00 00 00 00 00 00 00 00 00 00 00 00 00
       0.0 0.0 0.0 0.0
0001e0 00 00 00 00 00 00 00 00 00 00 00 00 00 00 00 00
       0.0 0.0 0.0 0.0
0001f0 00 00 00 00 00 00 00 00 00 00 00 00 00 00 00 00
       0.0 0.0 0.0 0.0

bn1.running_mean f4 [128]
000000 00 00 00 00 00 00 00 00 00 00 00 00 00 00 00 00
       0.0 0.0 0.0 0.0
000010 00 00 00 00 00 00 00 00 00 00 00 00 00 00 00 00
       0.0 0.0 0.0 0.0
000020 00 00 00 00 00 00 00 00 00 00 00 00 00 00 00 00
       0.0 0.0 0.0 0.0
000030 00 00 00 00 00 00 00 00 00 00 00 00 00 00 00 00
       0.0 0.0 0.0 0.0
000040 00 00 00 00 00 00 00 00 00 00 00 00 00 00 00 00
       0.0 0.0 0.0 0.0
000050 00 00 00 00 00 00 00 00 00 00 00 00 00 00 00 00
       0.0 0.0 0.0 0.0
000060 00 00 00 00 00 00 00 00 00 00 00 00 00 00 00 00
       0.0 0.0 0.0 0.0
000070 00 00 00 00 00 00 00 00 00 00 00 00 00 00 00 00
       0.0 0.0 0.0 0.0
000080 00 00 00 00 00 00 00 00 00 00 00 00 00 00 00 00
       0.0 0.0 0.0 0.0
000090 00 00 00 00 00 00 00 00 00 00 00 00 00 00 00 00
       0.0 0.0 0.0 0.0
0000a0 00 00 00 00 00 00 00 00 00 00 00 00 00 00 00 00
       0.0 0.0 0.0 0.0
0000b0 00 00 00 00 00 00 00 00 00 00 00 00 00 00 00 00
       0.0 0.0 0.0 0.0
0000c0 00 00 00 00 00 00 00 00 00 00 00 00 00 00 00 00
       0.0 0.0 0.0 0.0
0000d0 00 00 00 00 00 00 00 00 00 00 00 00 00 00 00 00
       0.0 0.0 0.0 0.0
0000e0 00 00 00 00 00 00 00 00 00 00 00 00 00 00 00 00
       0.0 0.0 0.0 0.0
0000f0 00 00 00 00 00 00 00 00 00 00 00 00 00 00 00 00
       0.0 0.0 0.0 0.0
000100 00 00 00 00 00 00 00 00 00 00 00 00 00 00 00 00
       0.0 0.0 0.0 0.0
000110 00 00 00 00 00 00 00 00 00 00 00 00 00 00 00 00
       0.0 0.0 0.0 0.0
000120 00 00 00 00 00 00 00 00 00 00 00 00 00 00 00 00
       0.0 0.0 0.0 0.0
000130 00 00 00 00 00 00 00 00 00 00 00 00 00 00 00 00
       0.0 0.0 0.0 0.0
000140 00 00 00 00 00 00 00 00 00 00 00 00 00 00 00 00
       0.0 0.0 0.0 0.0
000150 00 00 00 00 00 00 00 00 00 00 00 00 00 00 00 00
       0.0 0.0 0.0 0.0
000160 00 00 00 00 00 00 00 00 00 00 00 00 00 00 00 00
       0.0 0.0 0.0 0.0
000170 00 00 00 00 00 00 00 00 00 00 00 00 00 00 00 00
       0.0 0.0 0.0 0.0
000180 00 00 00 00 00 00 00 00 00 00 00 00 00 00 00 00
       0.0 0.0 0.0 0.0
000190 00 00 00 00 00 00 00 00 00 00 00 00 00 00 00 00
       0.0 0.0 0.0 0.0
0001a0 00 00 00 00 00 00 00 00 00 00 00 00 00 00 00 00
       0.0 0.0 0.0 0.0
0001b0 00 00 00 00 00 00 00 00 00 00 00 00 00 00 00 00
       0.0 0.0 0.0 0.0
0001c0 00 00 00 00 00 00 00 00 00 00 00 00 00 00 00 00
       0.0 0.0 0.0 0.0
0001d0 00 00 00 00 00 00 00 00 00 00 00 00 00 00 00 00
       0.0 0.0 0.0 0.0
0001e0 00 00 00 00 00 00 00 00 00 00 00 00 00 00 00 00
       0.0 0.0 0.0 0.0
0001f0 00 00 00 00 00 00 00 00 00 00 00 00 00 00 00 00
       0.0 0.0 0.0 0.0

bn1.running_var f4 [128]
000000 00 00 80 3f 00 00 80 3f 00 00 80 3f 00 00 80 3f
       1.0 1.0 1.0 1.0
000010 00 00 80 3f 00 00 80 3f 00 00 80 3f 00 00 80 3f
       1.0 1.0 1.0 1.0
000020 00 00 80 3f 00 00 80 3f 00 00 80 3f 00 00 80 3f
       1.0 1.0 1.0 1.0
000030 00 00 80 3f 00 00 80 3f 00 00 80 3f 00 00 80 3f
       1.0 1.0 1.0 1.0
000040 00 00 80 3f 00 00 80 3f 00 00 80 3f 00 00 80 3f
       1.0 1.0 1.0 1.0
000050 00 00 80 3f 00 00 80 3f 00 00 80 3f 00 00 80 3f
       1.0 1.0 1.0 1.0
000060 00 00 80 3f 00 00 80 3f 00 00 80 3f 00 00 80 3f
       1.0 1.0 1.0 1.0
000070 00 00 80 3f 00 00 80 3f 00 00 80 3f 00 00 80 3f
       1.0 1.0 1.0 1.0
000080 00 00 80 3f 00 00 80 3f 00 00 80 3f 00 00 80 3f
       1.0 1.0 1.0 1.0
000090 00 00 80 3f 00 00 80 3f 00 00 80 3f 00 00 80 3f
       1.0 1.0 1.0 1.0
0000a0 00 00 80 3f 00 00 80 3f 00 00 80 3f 00 00 80 3f
       1.0 1.0 1.0 1.0
0000b0 00 00 80 3f 00 00 80 3f 00 00 80 3f 00 00 80 3f
       1.0 1.0 1.0 1.0
0000c0 00 00 80 3f 00 00 80 3f 00 00 80 3f 00 00 80 3f
       1.0 1.0 1.0 1.0
0000d0 00 00 80 3f 00 00 80 3f 00 00 80 3f 00 00 80 3f
       1.0 1.0 1.0 1.0
0000e0 00 00 80 3f 00 00 80 3f 00 00 80 3f 00 00 80 3f
       1.0 1.0 1.0 1.0
0000f0 00 00 80 3f 00 00 80 3f 00 00 80 3f 00 00 80 3f
       1.0 1.0 1.0 1.0
000100 00 00 80 3f 00 00 80 3f 00 00 80 3f 00 00 80 3f
       1.0 1.0 1.0 1.0
000110 00 00 80 3f 00 00 80 3f 00 00 80 3f 00 00 80 3f
       1.0 1.0 1.0 1.0
000120 00 00 80 3f 00 00 80 3f 00 00 80 3f 00 00 80 3f
       1.0 1.0 1.0 1.0
000130 00 00 80 3f 00 00 80 3f 00 00 80 3f 00 00 80 3f
       1.0 1.0 1.0 1.0
000140 00 00 80 3f 00 00 80 3f 00 00 80 3f 00 00 80 3f
       1.0 1.0 1.0 1.0
000150 00 00 80 3f 00 00 80 3f 00 00 80 3f 00 00 80 3f
       1.0 1.0 1.0 1.0
000160 00 00 80 3f 00 00 80 3f 00 00 80 3f 00 00 80 3f
       1.0 1.0 1.0 1.0
000170 00 00 80 3f 00 00 80 3f 00 00 80 3f 00 00 80 3f
       1.0 1.0 1.0 1.0
000180 00 00 80 3f 00 00 80 3f 00 00 80 3f 00 00 80 3f
       1.0 1.0 1.0 1.0
000190 00 00 80 3f 00 00 80 3f 00 00 80 3f 00 00 80 3f
       1.0 1.0 1.0 1.0
0001a0 00 00 80 3f 00 00 80 3f 00 00 80 3f 00 00 80 3f
       1.0 1.0 1.0 1.0
0001b0 00 00 80 3f 00 00 80 3f 00 00 80 3f 00 00 80 3f
       1.0 1.0 1.0 1.0
0001c0 00 00 80 3f 00 00 80 3f 00 00 80 3f 00 00 80 3f
       1.0 1.0 1.0 1.0
0001d0 00 00 80 3f 00 00 80 3f 00 00 80 3f 00 00 80 3f
       1.0 1.0 1.0 1.0
0001e0 00 00 80 3f 00 00 80 3f 00 00 80 3f 00 00 80 3f
       1.0 1.0 1.0 1.0
0001f0 00 00 80 3f 00 00 80 3f 00 00 80 3f 00 00 80 3f
       1.0 1.0 1.0 1.0

fc2.weight f4 [64, 130]
000000 2d 49 cf 3c 7b 7e 9c 3d ec 5e 5f bd fe ce ee 3d
       0.025303448 0.07641312 -0.054533884 0.116605744
000010 64 67 12 bc b9 3a 5a 3d ae ff 7e bd f0 08 4a 3d
       -0.008935783 0.05327866 -0.062255554 0.04932493
000020 e0 f6 46 3d 8e 66 2b 3d 4a ec 95 bd ed ad a7 3d
       0.048575282 0.04184585 -0.07320459 0.081874706
000030 0f 5a c7 3a fc 94 bf bd 29 5e a7 3d 59 1c 5b bb
       0.0015209335 -0.093545884 0.081722565 -0.0033433645
000040 9b a8 0b bd 4e 38 91 3d cb eb 33 bc 15 f7 d5 bd
       -0.03409634 0.070908174 -0.01098151 -0.10447518
000050 0b 37 5b bd a6 41 c7 3d b2 6b b9 3d b4 8d 0e bc
       -0.05351929 0.09729318 0.090537444 -0.008700777
000060 83 0a 07 be 6f e4 0b bd 96 cc dc bd 73 54 79 bd
       -0.13187604 -0.034153398 -0.10781209 -0.060871553
000070 9e c4 a4 3d 9d 7f 29 be 74 20 ba bd 41 2e 29 be
       0.08045314 -0.16552587 -0.09088221 -0.1652155
000080 f1 a5 08 3c ff 6c c0 3d b0 bd 1b 3d 52 73 0c bb
       0.008340345 0.09395789 0.038022697 -0.002143104
000090 f4 57 b1 bd 62 e8 73 3d 3f 9f 02 be 31 2d 9f bd
       -0.08659354 0.05954779 -0.1275606 -0.077722915
0000a0 81 e4 0c be 47 a9 50 bc 80 bb cd bd 28 df c6 3c
       -0.13759042 -0.012735671 -0.100455284 0.024276331
0000b0 b2 27 45 bd ec 62 1c bd 5d 9f 2e 3d 7e bf bf 3d
       -0.04813356 -0.038180277 0.04263245 0.09362696
0000c0 38 4e 06 be 58 0d 5c 3c 8e 30 0c bd 06 06 bb bd
       -0.13115776 0.013430916 -0.034225993 -0.09132008
0000d0 7f 03 97 bc 86 75 67 3d 36 88 8d bd 06 6a e6 3c
       -0.018434284 0.056508563 -0.06910746 0.028126728
0000e0 00 e6 c9 3d c0 5a 67 3d 2b b3 f0 bc 57 81 c3 3d
       0.09858322 0.05648303 -0.029382309 0.09546154
0000f0 0d 23 c3 bd 52 e8 c3 bd e3 f8 8b 3d 1c b5 dd bd
       -0.0952817 -0.09565796 0.06834581 -0.108255595
000100 96 34 d5 bc 87 98 c2 3b 43 82 23 bd c2 89 87 3b
       -0.026026051 0.005938593 -0.03991915 0.004136295
000110 39 3b ce 3d fc 0e b5 3d 36 0d d2 bd 88 f7 0a 3d
       0.100698896 0.08840749 -0.10256426 0.03392747
000120 92 78 17 bd 08 3b af 3d 77 33 a0 3d f5 26 b5 bd
       -0.03698022 0.08556181 0.07822316 -0.08845321
000130 81 08 5e 3d f5 e1 79 bc 22 d5 c4 3d 9f 0a 92 bd
       0.05420733 -0.015251626 0.09610964 -0.07130932
000140 c0 d2 29 3d 4e 68 8f bd f9 ac 43 3b cd ff cb bc
       0.041460752 -0.070023164 0.0029857738 -0.024902249
000150 f3 95 91 3c dc e5 02 3e b2 03 5f bd 1d 54 bc bc
       0.017771697 0.12782997 -0.054446883 -0.022989327
000160 04 76 5b 3d 98 bd bc bc e3 a1 52 bd cc f9 ef bc
       0.053579345 -0.023039624 -0.05142392 -0.029293917
000170 50 5f 81 bd c5 cf 41 bd 53 b9 7e bb 1c 2d 6c bd
       -0.063170075 -0.047317285 -0.0038867786 -0.057660207
000180 4f be 52 bd 35 69 93 bc b3 79 e0 3b 79 06 a7 bc
       -0.051451024 -0.017994503 0.006850445 -0.020388829
000190 e2 f5 fa bd f5 71 01 bd 7a 9a 8c bd b3 82 ee bd
       -0.1225393 -0.03160282 -0.068654016 -0.11646023
0001a0 1b 01 33 bd f9 58 9b bc ec 1d 29 3d e2 6a 64 bd
       -0.043702226 -0.018963324 0.0412883 -0.055765994
0001b0 e1 95 9d ba 6f c9 32 3d 5a 4a 4b bb 09 ce 9e 3d
       -0.0012022817 0.043649133 -0.0031019659 0.07754142
0001c0 32 c0 bc 3d 81 66 3d bd 69 17 07 be 1c 75 ac 3d
       0.09216346 -0.046240333 -0.13192524 0.08420774
0001d0 80 61 89 3d a4 eb 12 3d 5c 07 75 bd a3 55 af bd
       0.0670805 0.035869256 -0.05982147 -0.08561256
0001e0 a5 64 42 3d 07 42 b8 3d fb 2d f8 bd e4 cf 57 3d
       0.047459263 0.08996969 -0.12118145 0.052688494
0001f0 7f 74 eb 3c f8 8d c5 3d 81 93 b9 bd 48 f1 b6 3d
       0.028742073 0.09646219 -0.09061337 0.089327395
000200 53 80 28 be f9 fb bc bd 2d 9a 1e 3d 8d 80 73 3c
       -0.16455202 -0.092277475 0.038721252 0.014862192
000210 5b c7 36 bc 76 e0 69 3d 90 3d 5d bd 38 96 86 3d
       -0.0111559285 0.05709883 -0.05401379 0.06571621
000220 64 27 ae bd 95 42 7d bc 40 a2 ee bd e5 8f ca 3d
       -0.08503607 -0.015457769 -0.116520405 0.09890727
000230 67 6b 5a bd bd 1e 90 bd 5c 01 9a 3d bd b9 20 be
       -0.053325083 -0.07037113 0.075197905 -0.15695854
000240 79 59 13 3d 56 de 98 3d 02 7b 8b bd 6b ff 9f bc
       0.035974 0.07464282 -0.06810571 -0.019530972
000250 2e 28 19 bd 45 25 6b 3c ac 5b c4 3d c9 9e 77 bd
       -0.037391834 0.0143521475 0.095877975 -0.060454164
000260 35 84 77 bd a9 14 85 3c 5a 93 cd 3d 24 c3 45 3c
       -0.060428817 0.016245203 0.10037871 0.012070451
000270 e4 a2 04 3e f2 40 ee 3c a1 e0 44 bd d6 5a c2 bd
       0.12952763 0.029083703 -0.048065785 -0.09489982
000280 23 0c 2f bd 5f 55 ca bd 1b bc 9a bd f3 d6 3a bd
       -0.042736184 -0.098795645 -0.075554095 -0.045615148
000290 7b bf 0b be 32 41 af bd 9b 17 87 bd a5 51 ec 3c
       -0.13647263 -0.08557357 -0.06596299 0.028847525
0002a0 4c ff aa 3d 1e c8 da bd 24 03 49 bd a2 41 ce 3c
       0.08349475 -0.106827006 -0.04907526 0.02517778
0002b0 c4 0d 38 be e3 fd 56 bd c2 ff 53 3d 7d ba b0 bd
       -0.17974001 -0.05248822 0.05175758 -0.0862932
0002c0 c0 5c c6 bd be 5e e1 bd 4f 1d 9c 3d 51 11 38 bc
       -0.096856594 -0.11004399 0.07622778 -0.011234597
0002d0 fe c5 b0 3d a5 41 52 bd f1 35 3d bd 38 73 e8 3d
       0.08631514 -0.051332135 -0.04619402 0.11350101
0002e0 cd 2c 26 3d 41 7e 8a bd 04 15 df bd 1d 2a 69 bd
       0.04057007 -0.06762362 -0.1089268 -0.056924928
0002f0 40 3d 29 3d 00 09 a6 3c cc fe 05 bd 49 98 8e 3d
       0.04131818 0.020267963 -0.032713696 0.0696264
000300 7d e8 bc 3d 4d ed 62 bc d0 21 95 bd 1a 45 89 bd
       0.09224031 -0.013850522 -0.0728184 -0.06702633
000310 5a 5f be bd 7d a0 d9 3c 81 57 6a 3d 12 f7 9a bd
       -0.092955306 0.026565785 0.057212356 -0.07566656
000320 e0 df 56 bd 85 01 1c be ec 0a a9 bd dd 13 81 3d
       -0.052459598 -0.15234955 -0.08254036 0.06302617
000330 d2 4a 8a bc 03 bd 6e 3d 67 fa 9a 3c d2 e8 25 3d
       -0.01688138 0.058285724 0.01891823 0.040505238
000340 6b ce 0d be 61 a4 1e be f5 c5 a9 bd b3 69 b6 bd
       -0.13848273 -0.15492393 -0.082897104 -0.08906879
000350 a2 60 d1 bc e6 61 15 bd ba 22 c0 3d fb 73 e5 39
       -0.025558773 -0.036470316 0.093816236 0.00043764696
000360 d2 f7 5c 3d 69 a5 17 be a3 60 14 3d 6a 27 92 bc
       0.053947277 -0.14809193 0.036224972 -0.01784106
000370 bb f4 52 3c ba ba 70 bd 3c 11 4a 3d b4 b9 b6 bd
       0.012875731 -0.058771826 0.049332842 -0.08922139
000380 8f a1 8f 3d 2b 62 4e bc 11 d2 41 3d 42 0f 47 3d
       0.07013237 -0.012596647 0.047319476 0.048598535
000390 d0 89 19 be 5e b5 65 bb d4 a7 ae bc f2 49 9b bc
       -0.14993978 -0.003505073 -0.021320261 -0.018956158
0003a0 4e f8 ae 3d 11 a9 90 3d 60 e9 77 3d 3f 34 8f bd
       0.08543454 0.07063497 0.060525298 -0.06992387
0003b0 fd 3a 3c 3d 52 b4 d6 bd 7e ee fe 3a 29 f7 68 3d
       0.045954693 -0.10483612 0.0019449738 0.056876335
0003c0 49 00 2e be fb 6c a0 3c b5 d6 1a 3d 5f 5a aa 3d
       -0.16992296 0.019583216 0.037802417 0.08318018
0003d0 96 cb 84 bd 74 9c b3 bc 34 e4 1e bc 30 c1 98 3c
       -0.064841434 -0.021925189 -0.009697963 0.018646806
0003e0 22 1a cd bc 50 7e 15 bd 66 a4 be 3c 11 d2 f7 3c
       -0.025036875 -0.036497414 0.02327175 0.030251535
0003f0 80 b7 69 3d 4b 57 49 3d 34 63 7b bd e3 da 96 bc
       0.057059765 0.049155515 -0.061373904 -0.01841492

fc2.bias f4 [64]
000000 db 55 19 3d 17 c9 1a 3d 62 5b e9 bc 8e eb ef bc
       0.037435394 0.03778943 -0.028485958 -0.029287126
000010 1f 4e c7 bd d2 ec 9d bb 2a 59 46 bd 83 d0 c9 bb
       -0.09731697 -0.004819491 -0.048424877 -0.0061588897
000020 9b d2 66 bd e0 ac a8 3d 68 59 49 bc 1d 79 59 bd
       -0.056353193 0.08236098 -0.0122893825 -0.05309402
000030 6e a2 63 3d 99 68 7b bd ae 1a 83 3d 16 c1 8f bc
       0.055574827 -0.06137905 0.06401573 -0.017548125
000040 ee 83 1b 3d 0d 2d 1e 3c 11 ea 4b 3c e6 30 3b 3d
       0.037967615 0.009654296 0.0124459425 0.04570093
000050 74 43 11 3d ed 3b bc 3c c3 dd ea bc 58 4f 06 3d
       0.03546472 0.022977794 -0.028670197 0.03279051
000060 0a 8e 1d bd 04 a3 db 3c 3e 56 15 3d 96 a3 06 3d
       -0.038465537 0.02681113 0.0364592 0.03287085
000070 a3 bc 95 3c 24 e7 b2 bb 78 c3 a4 3c 4c ad b2 bd
       0.018278426 -0.005459683 0.020112738 -0.0872446
000080 7c 78 9f bd 7a ae cc bd 7c 13 2e 3d 27 f9 38 bd
       -0.077866524 -0.09994216 0.04249905 -0.045159485
000090 98 f8 1d bd a6 8a 9c 3c 5c e3 22 3b f1 9f 21 bd
       -0.038567156 0.019109081 0.0024854755 -0.039459173
0000a0 8f da 6a bd a1 45 8c bd bb 39 d4 bd 64 20 2c 3d
       -0.05733734 -0.06849218 -0.10362574 0.042023078
0000b0 8b 2f 19 bc 09 f8 90 3d 9b a1 c2 3c e4 b7 46 3d
       -0.009349714 0.07078559 0.0237587 0.048515216
0000c0 18 be 65 bd 9c 62 e8 ba 23 df 2e bd 92 2d 51 bd
       -0.05608949 -0.0017729583 -0.04269327 -0.05106885
0000d0 fc e1 25 3d f7 50 8e bb 15 1e 55 3d b5 a0 6b 3d
       0.04049872 -0.004343148 0.05203064 0.05752631
0000e0 8d bb ec bd 2b e7 8f bd f8 61 94 3d 65 a4 f7 bc
       -0.1155921 -0.07026514 0.072452486 -0.030229757
0000f0 64 85 a8 bc bc 13 16 bd c9 34 80 3d ac e5 ba bd
       -0.020571418 -0.036639914 0.06260068 -0.09125838

bn2.weight f4 [64]
000000 b8 ad 9c 3d 00 8c a3 3d 2d 6f 1d 3f 70 f5 98 3e
       0.07650322 0.07985687 0.61497766 0.29874754
000010 ce 48 f0 3e 30 8d 35 3e 9a 64 23 3f f3 88 6c 3f
       0.46930546 0.1772964 0.6382538 0.9239647
000020 48 29 70 3e 6f bb 0a 3f c0 af e7 3e 16 27 e2 3e
       0.23453248 0.5419225 0.45251274 0.44170445
000030 20 c6 9a 3c 28 2d d8 3d 8e f2 b9 3e 16 f0 3e 3f
       0.018893301 0.10555488 0.36317867 0.7458509
000040 6e fa 05 3f b0 7a 47 3d a2 c8 76 3f a8 76 96 3e
       0.5233525 0.04870099 0.9639989 0.29387403
000050 78 72 aa 3d 52 b5 07 3f a4 02 65 3e 83 ba 71 3f
       0.083226144 0.5301105 0.22364289 0.9442522
000060 2a 71 9c 3e f3 b8 0e 3f 18 3b fd 3d a0 5c c2 3c
       0.30555087 0.5575096 0.12364787 0.023725808
000070 32 84 d3 3e a0 b6 72 3f 1b e1 5d 3f da a6 0d 3f
       0.41311795 0.94809914 0.8667161 0.5533272
000080 7c 54 20 3f a9 e6 21 3f 4e 2f 04 3f 18 c4 ba 3e
       0.6262891 0.63242584 0.5163468 0.36477733
000090 40 ee 99 3e 88 39 0a 3e a4 59 22 3e 09 4e 1d 3f
       0.30064583 0.13498509 0.15854508 0.614472
0000a0 10 c4 6d 3e 6d 9e 00 3f 2d 06 0a 3f 78 97 1d 3f
       0.23219323 0.5024174 0.53915673 0.6155925
0000b0 a0 68 2f 3e 7a fe 68 3f ef 72 5d 3f 73 e6 7a 3f
       0.17129755 0.910133 0.865035 0.9800789
0000c0 e0 5e 4e 3e 48 d4 79 3e d5 7e 64 3f 35 08 1c 3f
       0.2015338 0.24397385 0.8925603 0.6095002
0000d0 40 65 0f 3c 7d 53 0c 3f b6 ef 19 3f 14 10 e7 3e
       0.008752167 0.54814893 0.60131395 0.45129454
0000e0 2c 0f b6 3e a0 43 15 3d 00 9a 86 3a 01 10 4a 3f
       0.3555845 0.036441445 0.0010269284 0.7893067
0000f0 02 52 8c 3e b8 f5 5a 3f 50 ce 59 3f 8c b5 73 3e
       0.27406317 0.8553119 0.8508043 0.23799723

bn2.bias f4 [64]
000000 00 00 00 00 00 00 00 00 00 00 00 00 00 00 00 00
       0.0 0.0 0.0 0.0
000010 00 00 00 00 00 00 00 00 00 00 00 00 00 00 00 00
       0.0 0.0 0.0 0.0
000020 00 00 00 00 00 00 00 00 00 00 00 00 00 00 00 00
       0.0 0.0 0.0 0.0
000030 00 00 00 00 00 00 00 00 00 00 00 00 00 00 00 00
       0.0 0.0 0.0 0.0
000040 00 00 00 00 00 00 00 00 00 00 00 00 00 00 00 00
       0.0 0.0 0.0 0.0
000050 00 00 00 00 00 00 00 00 00 00 00 00 00 00 00 00
       0.0 0.0 0.0 0.0
000060 00 00 00 00 00 00 00 00 00 00 00 00 00 00 00 00
       0.0 0.0 0.0 0.0
000070 00 00 00 00 00 00 00 00 00 00 00 00 00 00 00 00
       0.0 0.0 0.0 0.0
000080 00 00 00 00 00 00 00 00 00 00 00 00 00 00 00 00
       0.0 0.0 0.0 0.0
000090 00 00 00 00 00 00 00 00 00 00 00 00 00 00 00 00
       0.0 0.0 0.0 0.0
0000a0 00 00 00 00 00 00 00 00 00 00 00 00 00 00 00 00
       0.0 0.0 0.0 0.0
0000b0 00 00 00 00 00 00 00 00 00 00 00 00 00 00 00 00
       0.0 0.0 0.0 0.0
0000c0 00 00 00 00 00 00 00 00 00 00 00 00 00 00 00 00
       0.0 0.0 0.0 0.0
0000d0 00 00 00 00 00 00 00 00 00 00 00 00 00 00 00 00
       0.0 0.0 0.0 0.0
0000e0 00 00 00 00 00 00 00 00 00 00 00 00 00 00 00 00
       0.0 0.0 0.0 0.0
0000f0 00 00 00 00 00 00 00 00 00 00 00 00 00 00 00 00
       0.0 0.0 0.0 0.0

bn2.running_mean f4 [64]
000000 00 00 00 00 00 00 00 00 00 00 00 00 00 00 00 00
       0.0 0.0 0.0 0.0
000010 00 00 00 00 00 00 00 00 00 00 00 00 00 00 00 00
       0.0 0.0 0.0 0.0
000020 00 00 00 00 00 00 00 00 00 00 00 00 00 00 00 00
       0.0 0.0 0.0 0.0
000030 00 00 00 00 00 00 00 00 00 00 00 00 00 00 00 00
       0.0 0.0 0.0 0.0
000040 00 00 00 00 00 00 00 00 00 00 00 00 00 00 00 00
       0.0 0.0 0.0 0.0
000050 00 00 00 00 00 00 00 00 00 00 00 00 00 00 00 00
       0.0 0.0 0.0 0.0
000060 00 00 00 00 00 00 00 00 00 00 00 00 00 00 00 00
       0.0 0.0 0.0 0.0
000070 00 00 00 00 00 00 00 00 00 00 00 00 00 00 00 00
       0.0 0.0 0.0 0.0
000080 00 00 00 00 00 00 00 00 00 00 00 00 00 00 00 00
       0.0 0.0 0.0 0.0
000090 00 00 00 00 00 00 00 00 00 00 00 00 00 00 00 00
       0.0 0.0 0.0 0.0
0000a0 00 00 00 00 00 00 00 00 00 00 00 00 00 00 00 00
       0.0 0.0 0.0 0.0
0000b0 00 00 00 00 00 00 00 00 00 00 00 00 00 00 00 00
       0.0 0.0 0.0 0.0
0000c0 00 00 00 00 00 00 00 00 00 00 00 00 00 00 00 00
       0.0 0.0 0.0 0.0
0000d0 00 00 00 00 00 00 00 00 00 00 00 00 00 00 00 00
       0.0 0.0 0.0 0.0
0000e0 00 00 00 00 00 00 00 00 00 00 00 00 00 00 00 00
       0.0 0.0 0.0 0.0
0000f0 00 00 00 00 00 00 00 00 00 00 00 00 00 00 00 00
       0.0 0.0 0.0 0.0

bn2.running_var f4 [64]
000000 00 00 80 3f 00 00 80 3f 00 00 80 3f 00 00 80 3f
       1.0 1.0 1.0 1.0
000010 00 00 80 3f 00 00 80 3f 00 00 80 3f 00 00 80 3f
       1.0 1.0 1.0 1.0
000020 00 00 80 3f 00 00 80 3f 00 00 80 3f 00 00 80 3f
       1.0 1.0 1.0 1.0
000030 00 00 80 3f 00 00 80 3f 00 00 80 3f 00 00 80 3f
       1.0 1.0 1.0 1.0
000040 00 00 80 3f 00 00 80 3f 00 00 80 3f 00 00 80 3f
       1.0 1.0 1.0 1.0
000050 00 00 80 3f 00 00 80 3f 00 00 80 3f 00 00 80 3f
       1.0 1.0 1.0 1.0
000060 00 00 80 3f 00 00 80 3f 00 00 80 3f 00 00 80 3f
       1.0 1.0 1.0 1.0
000070 00 00 80 3f 00 00 80 3f 00 00 80 3f 00 00 80 3f
       1.0 1.0 1.0 1.0
000080 00 00 80 3f 00 00 80 3f 00 00 80 3f 00 00 80 3f
       1.0 1.0 1.0 1.0
000090 00 00 80 3f 00 00 80 3f 00 00 80 3f 00 00 80 3f
       1.0 1.0 1.0 1.0
0000a0 00 00 80 3f 00 00 80 3f 00 00 80 3f 00 00 80 3f
       1.0 1.0 1.0 1.0
0000b0 00 00 80 3f 00 00 80 3f 00 00 80 3f 00 00 80 3f
       1.0 1.0 1.0 1.0
0000c0 00 00 80 3f 00 00 80 3f 00 00 80 3f 00 00 80 3f
       1.0 1.0 1.0 1.0
0000d0 00 00 80 3f 00 00 80 3f 00 00 80 3f 00 00 80 3f
       1.0 1.0 1.0 1.0
0000e0 00 00 80 3f 00 00 80 3f 00 00 80 3f 00 00 80 3f
       1.0 1.0 1.0 1.0
0000f0 00 00 80 3f 00 00 80 3f 00 00 80 3f 00 00 80 3f
       1.0 1.0 1.0 1.0

fc3.weight f4 [1, 64]
000000 df d3 03 3c 8e 0e 0c bc ca 4c 8d bb 46 58 2b 3d
       0.0080461195 -0.008548392 -0.0043121325 0.04183223
000010 06 0e ca 3c 91 0a 89 bc 69 56 66 39 a6 15 24 3b
       0.02466489 -0.016728671 0.000219667 0.0025037318
000020 fd 88 54 bd b1 49 11 bc 2b 3a 47 bb 91 9c 8e 3d
       -0.051888455 -0.008867667 -0.003039966 0.069634564
000030 8a 64 8c bb 86 34 8b b9 a0 04 dd bb 22 f0 85 bb
       -0.004284446 -0.0002655128 -0.006744936 -0.004087464
000040 fc 7d 8a bb 98 03 16 3c 69 8a 75 bb e9 81 f8 bb
       -0.0042264443 0.00915613 -0.0037466532 -0.007583846
000050 21 eb e2 3c 91 5d d1 bc 04 b9 35 bc d2 19 61 bc
       0.027700009 -0.025557311 -0.011091474 -0.013739066
000060 ba ba 1c bc cc 98 e8 bb bf 0c 05 3d c1 8f a8 bb
       -0.009566003 -0.007098293 0.03248286 -0.00514409
000070 cf 3b 12 bc a7 f4 f1 3d 37 92 26 3b 02 22 14 bc
       -0.008925392 0.11814242 0.002541674 -0.009041311
000080 d5 86 3d bd 7d cd 4d bd 71 16 a2 bb 2f a7 d4 bd
       -0.046271164 -0.050244797 -0.004946523 -0.1038345
000090 b2 58 76 ba b6 dd 03 bd eb 99 a4 bc e6 0b 06 3d
       -0.0009397372 -0.032193862 -0.020092925 0.03272619
0000a0 c3 b9 4c bc 11 d0 00 bb 93 39 91 3c 3b 11 4a 3d
       -0.012495461 -0.0019655267 0.017727649 0.04933284
0000b0 22 af 18 3c 16 3a 87 3c 3a c6 4f 3c fb 30 e7 3c
       0.009319099 0.01650719 0.012681538 0.028221598
0000c0 7e e3 23 bd 26 55 86 bc a3 27 d9 bb d5 a0 88 3d
       -0.040011875 -0.016398024 -0.0066270395 0.06671301
0000d0 3e 88 73 bc 31 76 e9 3d 19 93 60 bc d1 1c 6c 3c
       -0.014864026 0.11399496 -0.013706946 0.014411167
0000e0 e6 7f a0 bc 5b 6b 5e 3c d0 26 f7 bb b8 a3 2f 3c
       -0.019592237 0.0135754 -0.0075424686 0.010720186
0000f0 4a 2b 1f 3c f8 20 c7 bb bb e3 86 bd 92 39 c7 3c
       0.009714911 -0.006076928 -0.06586405 0.024319444
