p3_collaboration_and_competition/weights/critic_1_1100.pth (torch_old, 52380 bytes, 17 tensors)

bn0.weight f4 [24]
0	0x3eb52fbc	0.3538798
1	0x3ebe1394	0.37124312
2	0x3e53c3fc	0.20680231
3	0x3eaee6be	0.34160417
4	0x3f7d6d17	0.9899458
5	0x3f2989e9	0.6622606
6	0x3dcfe2c1	0.10150672
7	0x3ce3f0ac	0.027824722
8	0x3e72cf2c	0.23711842
9	0x3e0267b9	0.1273488
10	0x3e5a5573	0.21321659
11	0x3e4fcad1	0.20292212
12	0x3ec84a7e	0.39119333
13	0x3f4ad4c6	0.79230917
14	0x3e5ef12e	0.2177169
15	0x3e6d0f1e	0.23150298
16	0x3f16d0fe	0.58912647
17	0x3e544458	0.20729196
18	0x3d093416	0.03349694
19	0x3f0a7896	0.5409025
20	0x3f5ae422	0.85504353
21	0x3f459521	0.7718068
22	0x3effa17f	0.499279
23	0x3ec40b97	0.38290092

bn0.bias f4 [24]
0	0x3d06aafb	0.032877903
1	0xbda3398d	-0.07969961
2	0x3d4b5d5c	0.04964958
3	0xbda16d2b	-0.0788215
4	0x3e0f339f	0.13984536
5	0x3c5cfc64	0.013487909
6	0x3d813000	0.063079834
7	0x3b409839	0.0029387607
8	0xbcbc59cf	-0.022992043
9	0x3c457f6d	0.012054306
10	0x3d88ff70	0.06689346
11	0xbd9e3adb	-0.077260695
12	0x3e8779fe	0.2646026
13	0x3d6e10df	0.05812156
14	0x3d76b2e4	0.060229197
15	0xbcbd4044	-0.023101933
16	0x38f4ea16	0.000116784286
17	0x3d9dcfa7	0.07705622
18	0x3c77fac0	0.015135467
19	0xbe17b3a9	-0.14814629
20	0x3e405088	0.1878072
21	0x3dded86b	0.10881122
22	0x3cd81369	0.026376443
23	0xbdd0d6ed	-0.10197244

bn0.running_mean f4 [24]
0	0xc09628c1	-4.692475
1	0xbec9ce09	-0.39415005
2	0x40db7a49	6.8586774
3	0x3e34ab12	0.17643383
4	0xbd77568a	-0.060385264
5	0x4051d83e	3.2788234
6	0x40db7a49	6.8586774
7	0x3e34ab12	0.17643383
8	0xc09c0985	-4.876162
9	0xbed7a700	-0.42119598
10	0x40e61f9c	7.1913586
11	0x3e1f7fc6	0.15576085
12	0xbd3316c5	-0.043722887
13	0x40525d5f	3.286949
14	0x40e61f9c	7.1913586
15	0x3e1f7fc6	0.15576085
16	0xc0a1dd4e	-5.0582647
17	0xbee5db6e	-0.44893974
18	0x40ea8b74	7.329523
19	0x3de841fc	0.113407105
20	0xbd2d561f	-0.04231846
21	0x40513982	3.269135
22	0x40ea8b74	7.329523
23	0x3de841fc	0.113407105

bn0.running_var f4 [24]
0	0x4182cb62	16.349308
1	0x3f7c1fbf	0.9848594
2	0x4394663a	296.79865
3	0x4142a8bd	12.166196
4	0x420f5016	35.82821
5	0x40824eb2	4.0721064
6	0x4394663a	296.79865
7	0x4142a8bd	12.166196
8	0x4180026c	16.001183
9	0x3f81d3bb	1.014274
10	0x4396f2c7	301.8967
11	0x414af82e	12.685591
12	0x421b6fb6	38.859093
13	0x4087796d	4.2335725
14	0x4396f2c7	301.8967
15	0x414af82e	12.685591
16	0x41791567	15.567725
17	0x3f852d91	1.0404531
18	0x439ef53d	317.91592
19	0x41585685	13.521123
20	0x422890f4	42.141556
21	0x40934a1c	4.6027966
22	0x439ef53d	317.91592
23	0x41585685	13.521123

fcs1.weight f4 [128, 24]
0	0x3ce9503f	0.028480647
1	0xbd3e4a76	-0.04645773
2	0xbedab4fe	-0.4271621
3	0xbe24ad8d	-0.1608183
4	0x3e0992de	0.13434932
5	0xbe6d904f	-0.2319958
6	0xbe9be369	-0.30446938
7	0x39026fc8	0.00012439408
8	0x3d0a62e3	0.033785712
9	0x3d5ea0bb	0.054352503
10	0xbe2cf320	-0.1688962
11	0xbc06cde4	-0.008227799
12	0x3d9e3917	0.07725733
13	0x3d07e104	0.033173576
14	0xbe16f670	-0.14742446
15	0xbdb62827	-0.08894377
16	0x3d3c1c8b	0.04592566
17	0x3ea51fdd	0.32250872
18	0xbc90e8d9	-0.017689155
19	0xbd937cff	-0.072015755
20	0xbecc19e7	-0.39863512
21	0x3e5ba37b	0.21449082
22	0xbdf14759	-0.117811866
23	0x3d654768	0.0559763
24	0x3e36f021	0.1786504
25	0x3e91cf17	0.2847831
26	0x3d65b2a7	0.05607858
27	0x3da73ec7	0.08166271
28	0x3d907991	0.07054437
29	0x3d54ca32	0.05195064
30	0xbd4383b8	-0.04773304
31	0x3b525a72	0.0032097367
32	0x3e7922be	0.2432966
33	0x3e1dc109	0.15405668
34	0x3dd55503	0.10416605
35	0x3d08cb7f	0.033397194
36	0xbe87224f	-0.26393363
37	0x3c870c5d	0.016485387
38	0x3e4ed8f8	0.20199955
39	0xbd6d5202	-0.057939537
40	0x3e6cc9d8	0.23123872
41	0x3d1956cf	0.037436303
42	0x3db34257	0.08752888
43	0x3d948737	0.07252353
44	0xbf271150	-0.6526079
45	0xbeb9a100	-0.36255646
46	0x3e593853	0.21212892
47	0x3e0a2965	0.13492353
48	0x3ded0103	0.115724586
49	0x3d4d6924	0.050149098
50	0xbcf3f84b	-0.029781481
51	0x3d95472f	0.07288968
52	0x3e4c06de	0.19924495
53	0x3da4f270	0.08054054
54	0xbdb6617e	-0.08905314
55	0xbda58c74	-0.0808343
56	0x3e14bb5d	0.14524598
57	0x3da30903	0.07960703
58	0x3e989539	0.29801348
59	0x3e46c5ec	0.19411439
60	0x3e55b0fc	0.20868295
61	0x3e05fee3	0.13085513
62	0x3e805c4c	0.25070417
63	0x3e5fa421	0.21839954
64	0xbbeac7e9	-0.0071649444
65	0x37cfc790	2.4769251e-05
66	0xbe653490	-0.22383332
67	0x3e11ff40	0.14257526
68	0xbdb3b4e9	-0.0877474
69	0xbeb880ce	-0.3603577
70	0xbe7efe77	-0.24901758
71	0x3e37fce4	0.17967564
72	0x3e2dedde	0.1698527
73	0xbd103af1	-0.03521246
74	0x3d623236	0.055223666
75	0x3e05cce1	0.13066436
76	0x3c96355a	0.018335987
77	0x3e98ffad	0.29882565
78	0xbc316b18	-0.010828756
79	0x3daa56e9	0.08317358
80	0xbd77edd8	-0.06052956
81	0xbe718a68	-0.23587954
82	0xbe896cc6	-0.268408
83	0x3e3674ba	0.17817965
84	0xbbf953e1	-0.007608876
85	0x3e2f0a80	0.17093849
86	0xbea40e14	-0.3204199
87	0x3e30408c	0.17212123
88	0x3c512eff	0.012767552
89	0xbe283dff	-0.164299
90	0xbded6de3	-0.11593225
91	0xbda6a471	-0.081368335
92	0x3dd806fd	0.10548208
93	0xbe359db8	-0.17735946
94	0xbe40c943	-0.18826775
95	0xbde3c79f	-0.11122059
96	0x3ae08980	0.0017130822
97	0x3e8921a4	0.26783478
98	0x3e25686e	0.16153118
99	0x3e1a3b4a	0.1506168
100	0xbe25eb4d	-0.16203041
101	0x3edb6677	0.42851612
102	0x3ca8fba3	0.020627802
103	0xbd20022f	-0.039064582
104	0x3c43eff0	0.011959061
105	0x3e9777a9	0.2958348
106	0xbc85f678	-0.016352877
107	0x3e6b999c	0.23007816
108	0xbd65acff	-0.056073185
109	0x3d72ed51	0.059308354
110	0x3c25d64e	0.010121895
111	0x3d7dc3a8	0.06195417
112	0x3e51e7a1	0.20498516
113	0x3e8361fa	0.25660688
114	0xbcdc9aec	-0.026929341
115	0x3e86ebc1	0.2635174
116	0x3e5bd283	0.21467023
117	0xbdc88090	-0.09790146
118	0x3b174b06	0.002308549
119	0x3e20f28b	0.15717523
120	0x3e64c8d2	0.22342232
121	0xbaebb608	-0.0017983327
122	0x3dc58306	0.09644131
123	0x3dfbbac8	0.12291485
124	0x3e2a1d4c	0.16612738
125	0x3d8f72d9	0.07004327
126	0x3e16e5e0	0.14736128
127	0x3d8b60f7	0.06805604
128	0x3c4be052	0.012443619
129	0xbd1f8a0d	-0.038950015
130	0xbe2f1335	-0.1709717
131	0x3e0011b0	0.12506747
132	0x3bfb25a0	0.0076643974
133	0x3dad9c0f	0.084770314
134	0xbe15970c	-0.14608401
135	0x3ba7bc0f	0.005118854
136	0xbc7e47ca	-0.0155200455
137	0xbdb07dd7	-0.08617752
138	0x3d27975a	0.040915824
139	0x3e5217eb	0.20516936
140	0xbe83dde5	-0.2575523
141	0xbeab191a	-0.33417588
142	0x3db897f7	0.0901336
143	0x3e4fa30e	0.20277044
144	0xbe0265f8	-0.1273421
145	0x3ee96c2b	0.45590338
146	0xbce1e555	-0.027575174
147	0xbeb532fb	-0.35390458
148	0xbdf047ec	-0.11732468
149	0xbed14c33	-0.40878448
150	0xbddf9589	-0.109171934
151	0xbe545478	-0.20735347
152	0x3e00c82d	0.12576361
153	0x3e637f6e	0.2221658
154	0x3d2889c9	0.041147027
155	0xbe6f8fc4	-0.23394686
156	0x3d9daa62	0.076985136
157	0x3e04befc	0.1296348
158	0xbd16260c	-0.036657378
159	0xbe665e95	-0.22497018
160	0xbdd058eb	-0.1017321
161	0x3d859bca	0.06523855
162	0x3d1d688d	0.038429786
163	0xbe916aa7	-0.28401682
164	0x3e0d4658	0.13796365
165	0x3f34aadf	0.7057323
166	0x3d48ebb3	0.049052905
167	0xbe773f16	-0.24145159
168	0x3c4c62ad	0.012474698
169	0xbdbf0cea	-0.09328635
170	0x3d2be3f5	0.041965444
171	0x3da54a12	0.080707684
172	0xbe8820b2	-0.26587445
173	0xbdbc82e8	-0.09204656
174	0x3d21bb17	0.039485063
175	0x3e1cb392	0.15302876
176	0x3d8eda4a	0.06975229
177	0xbdfddea4	-0.12395981
178	0x3e8f6156	0.2800395
179	0x3bf5522f	0.0074866037
180	0xbe393d4f	-0.18089794
181	0x3c85305a	0.016258407
182	0x3e5a8f69	0.21343769
183	0x3d63a6e4	0.05557908
184	0x3e8fea23	0.2810832
185	0xbdeae567	-0.11469536
186	0x3c185ad7	0.009299002
187	0xbe70c355	-0.23512013
188	0x3ddefca9	0.10888035
189	0x3d222c22	0.03959287
190	0x3e16a9f5	0.14713271
191	0xbe142191	-0.1446593
192	0xbe837e5b	-0.2568234
193	0xbc2a1845	-0.010381763
194	0xbde1ded7	-0.110288315
195	0xbd8dce63	-0.06924131
196	0xbcfd4da7	-0.030920817
197	0xbd7ef532	-0.062245555
198	0xbe2b5b58	-0.16734064
199	0xbd9b347c	-0.0757837
200	0x3c2f3198	0.010692976
201	0xbe9a1215	-0.3009192
202	0x3ddcd3b8	0.1078257
203	0xbe37f965	-0.1796623
204	0x3d8ad50e	0.06778918
205	0xbe5abc4e	-0.21360895
206	0x3e22c57b	0.15895645
207	0xbeb392b6	-0.3507287
208	0x3c95168c	0.018199228
209	0xbeeffdbc	-0.4687327
210	0x3e2fa825	0.17153986
211	0x3da2ea11	0.07954801
212	0x3e87245c	0.26394928
213	0x3edf5db4	0.43626177
214	0x3e49155d	0.19637056
215	0x3d41d8b8	0.04732582
216	0xbe1cc068	-0.15307772
217	0x3e2a57b1	0.16635014
218	0xbe647e0d	-0.2231371
219	0x3d0b2eb9	0.033980105
220	0x3e0b354f	0.13594554
221	0x3d875777	0.066084795
222	0xbe627237	-0.22113882
223	0xbd3eb465	-0.046558756
224	0xbd2f97f7	-0.042869534
225	0x3c853d80	0.016264677
226	0xbeb23255	-0.34804025
227	0x3e09e4df	0.13466214
228	0x3e35b79b	0.17745821
229	0x3d518f08	0.051161796
230	0xbebac5d9	-0.3647907
231	0x3d8e2393	0.06940379
232	0x3e001616	0.12508425
233	0x3d85c729	0.065321274
234	0x3f033975	0.5125955
235	0xb9cdc918	-0.00039250473
236	0x3da52d8f	0.0806533
237	0xbe12d3c0	-0.14338589
238	0x3eea86ed	0.45806065
239	0x3d1289d7	0.035775986
240	0xbd40b43e	-0.047046892
241	0xbe8d4406	-0.2759096
242	0x3e5eb1cf	0.21747516
243	0x3cc2803b	0.023742786
244	0xbe662d79	-0.22478284
245	0x3a9de8e8	0.0012047561
246	0x3e07b70b	0.13253419
247	0x3d200bb1	0.03907365
248	0x3da4ca69	0.08046419
249	0xbebcb72e	-0.36858505
250	0x3dbbda82	0.091725364
251	0xbde8ce27	-0.113674454
252	0x3c77c07f	0.015121578
253	0x3da7b7fe	0.081893906
254	0x3e182af1	0.14860131
255	0xbd803f8a	-0.06262119

fcs1.bias f4 [128]
0	0xbe0e456e	-0.13893673
1	0xbeda0419	-0.4258125
2	0xbd5be0af	-0.05368107
3	0x3d49d988	0.04927972
4	0xbe5f6a7d	-0.21817966
5	0xbe4555c7	-0.19271003
6	0xbe8201ad	-0.25391904
7	0xbe3dd0bb	-0.18536656
8	0x3cd04830	0.025425047
9	0xbdffdd0d	-0.12493334
10	0xbdcbd8aa	-0.09953435
11	0xbe7b0a8f	-0.24515747
12	0xbd6d8edd	-0.057997573
13	0xbe722c0f	-0.2364962
14	0xbd1633c2	-0.036670454
15	0xbea3332a	-0.31874973
16	0xbca74cf8	-0.020422444
17	0xbe838bc0	-0.25692558
18	0x3e5c367b	0.21505158
19	0x3d06d5dc	0.032918796
20	0x3c02606b	0.007957558
21	0xbe534f1a	-0.20635644
22	0xbb8ebbf7	-0.0043559032
23	0xbeca1783	-0.39471063
24	0xbda94ba6	-0.08266382
25	0xbdf5988f	-0.11991989
26	0xbe8d3674	-0.27580607
27	0xbd5110fe	-0.051041596
28	0xbe72dcae	-0.23716995
29	0xbda6fa25	-0.0815318
30	0x3e015f51	0.12634017
31	0xbec5cecf	-0.38634345
32	0x3d3808cb	0.04493026
33	0xbdd691e7	-0.104770474
34	0x3d49dff6	0.04928585
35	0xbe42b148	-0.1901294
36	0xbd9e1e55	-0.07720629
37	0xbd33d9db	-0.043908935
38	0x3d6f8db6	0.058484755
39	0xbefcb39e	-0.49355787
40	0xbea4a8ce	-0.32160038
41	0xbe3f2664	-0.18666989
42	0xbe05466a	-0.13015142
43	0xbd1aad53	-0.03776295
44	0xbe720c5c	-0.23637527
45	0x3d3a8abe	0.04554247
46	0xbeb9d1e4	-0.36292946
47	0xbd7c4fac	-0.06159942
48	0x3ddeaf06	0.10873227
49	0xbe609a2e	-0.21933815
50	0xbe3ee922	-0.1864362
51	0xbd7c7021	-0.061630372
52	0x3dc890c6	0.09793238
53	0xbe49ced3	-0.19707803
54	0xbe0cc65d	-0.13747545
55	0xbdf0495c	-0.11732742
56	0xbe02d3c4	-0.12776095
57	0xbe3599aa	-0.177344
58	0xbd760358	-0.060061783
59	0xbc7e3b94	-0.015517134
60	0x3d26af58	0.040694565
61	0x3e06fa8d	0.13181515
62	0xbe92702e	-0.2860121
63	0xbe51b6d9	-0.20479907
64	0x3deffab9	0.117177434
65	0xbe4b1e93	-0.19835882
66	0xbdc08ee7	-0.094022565
67	0xbe3a9b73	-0.18223362
68	0xbe166e6a	-0.14690557
69	0xbe8a11d8	-0.2696674
70	0xbd5846f9	-0.05280206
71	0xbde9cdcf	-0.11416208
72	0xbba17b38	-0.004928019
73	0x3b7e940a	0.0038845562
74	0xbe30afc3	-0.17254548
75	0xbe8e0f66	-0.27746123
76	0xbe88eb93	-0.2674223
77	0xbe8de766	-0.27715605
78	0xbed1c409	-0.40969875
79	0xbe55fea8	-0.20897925
80	0xbe0f0eb1	-0.13970448
81	0x3d1485d0	0.036260426
82	0xbe04a940	-0.12955189
83	0xbea69c05	-0.32540908
84	0xbe813e81	-0.25243
85	0x3d9eaedb	0.07748195
86	0xbe03a9d6	-0.12857756
87	0xbe0d73dd	-0.1381373
88	0x3be7ddcf	0.007076002
89	0xbd633f2e	-0.055480175
90	0x3e1bbecc	0.15209502
91	0xbe6b8d66	-0.23003158
92	0x3dc79d49	0.09746797
93	0xbe8a5516	-0.2701804
94	0xbe758669	-0.23977055
95	0xbd23e194	-0.04001005
96	0xbdc25d5a	-0.09490462
97	0xbea73c45	-0.3266317
98	0xbba9ac91	-0.005178042
99	0xbe83cdca	-0.25742942
100	0xbdd291b3	-0.10281696
101	0xbe6bf910	-0.23044229
102	0xbda4da5e	-0.08049463
103	0x3baf8e80	0.0053575635
104	0x3e1a6ee2	0.15081361
105	0xbef3e7a9	-0.4763768
106	0xbe01a195	-0.12659295
107	0xbcbdf11c	-0.023186259
108	0xbe2d7f69	-0.16943134
109	0xbdac6268	-0.08417207
110	0xbe164e8c	-0.14678401
111	0x3d7f928e	0.062395625
112	0x3d81f043	0.063446544
113	0xbe33988c	-0.17538661
114	0xbe8fff23	-0.2812434
115	0xbea88691	-0.32915166
116	0xbe4690ea	-0.19391218
117	0xbe04f8ed	-0.12985583
118	0xbe3f29c5	-0.18668278
119	0xbd3c6bea	-0.046001352
120	0x3d249431	0.04018039
121	0xbc8c404e	-0.017120507
122	0xbec93bc3	-0.39303407
123	0xbd99fc1c	-0.07518789
124	0xbd658676	-0.056036435
125	0xbde162c2	-0.11005165
126	0xbdd2b0ec	-0.102876514
127	0xbc531312	-0.012882965

bn1.weight f4 [128]
0	0x3f3c7bac	0.7362621
1	0x3da01268	0.07816011
2	0x3f703520	0.9383106
3	0x3f0a8326	0.54106367
4	0x3e95f7bc	0.2929057
5	0x3c405d00	0.011740923
6	0x3f1e49c6	0.6183132
7	0x3ebde960	0.37092113
8	0x3f1aea58	0.6051383
9	0x3dddd3e8	0.108314335
10	0x3f31a64b	0.6939437
11	0x3df1cd70	0.11806762
12	0x3f6588cb	0.89661855
13	0x3f07eada	0.5309273
14	0x3f3e5c95	0.7436002
15	0x3f4bff03	0.7968599
16	0x3f736d58	0.9508872
17	0x3f13b10f	0.57692045
18	0x3f66c749	0.90147835
19	0x3daccce8	0.0843752
20	0x3f5be89a	0.85901797
21	0x3f5de597	0.8667845
22	0x3e78629c	0.24256366
23	0x3e7694b8	0.24080169
24	0x3f699db8	0.91256285
25	0x3f66ddae	0.90182006
26	0x3dabb648	0.08384377
27	0x3f015f5c	0.5053613
28	0x3dfde110	0.12396443
29	0x3f4511e5	0.7698043
30	0x3da54ae8	0.08070928
31	0x3e838b9c	0.2569245
32	0x3f6144b4	0.8799546
33	0x3f6bf2fb	0.92167634
34	0x3f716c59	0.9430595
35	0x3f0d386a	0.55164206
36	0x3d6c0c80	0.05762911
37	0x3f5088f6	0.81458986
38	0x3f69cdd9	0.91329724
39	0x3f62a315	0.88530093
40	0x3f507e9d	0.81443197
41	0x3eeb95c8	0.46012712
42	0x3f404c18	0.7511611
43	0x3f1c041a	0.6094376
44	0x3e879b4a	0.26485664
45	0x3f532b81	0.82488257
46	0x3ea14a40	0.3150196
47	0x3f4ae927	0.7926201
48	0x3ee8ab20	0.45443058
49	0x3ee902c8	0.45509934
50	0x3f364b4c	0.71208644
51	0x3ede6b60	0.43441296
52	0x3f34df35	0.70653087
53	0x3d8771a0	0.06613469
54	0x3c7d2dc0	0.015452802
55	0x3f1106a1	0.5665074
56	0x3ec95702	0.39324194
57	0x3e90ebe0	0.28304958
58	0x3d54d8f0	0.0519647
59	0x3f0c6403	0.54840106
60	0x3e82d354	0.25551856
61	0x3f73ba8d	0.9520653
62	0x3dea9d70	0.1145581
63	0x3ea525e2	0.32255465
64	0x3ecf219a	0.40455323
65	0x3f172190	0.5903559
66	0x3d27d0d0	0.040970623
67	0x3f463943	0.77431124
68	0x3d019410	0.031635344
69	0x3e6f2158	0.23352563
70	0x3f196cfe	0.59931934
71	0x3eda46e2	0.42632204
72	0x3f0f9bbc	0.56097007
73	0x3b5de900	0.0033860803
74	0x3e17d354	0.14826709
75	0x3f556185	0.8335193
76	0x3f31d356	0.694631
77	0x3f37cd44	0.71797585
78	0x3f47e0ad	0.78077203
79	0x3f598279	0.8496471
80	0x3f3f0ab2	0.74625695
81	0x3eb15fd8	0.34643435
82	0x3e80a304	0.2512437
83	0x3e22fff4	0.15917951
84	0x3f25d95d	0.64784795
85	0x3ef8e59e	0.48612684
86	0x3e8501b0	0.2597785
87	0x3f4e1ee1	0.8051587
88	0x3f05387b	0.5203931
89	0x3ee4a502	0.4465714
90	0x3ebe29bc	0.37141216
91	0x3e0c4874	0.13699514
92	0x3f69b4e2	0.9129163
93	0x3c5b4940	0.013384163
94	0x3d2de7a0	0.042457223
95	0x3f19a0ad	0.60010797
96	0x3e8ccd82	0.2750054
97	0x3f5f0bc5	0.87127334
98	0x3ef727ae	0.4827246
99	0x3e87a246	0.26490992
100	0x3f0014eb	0.5003192
101	0x3ed7bac0	0.42134666
102	0x3ed78fcc	0.42101896
103	0x3ee3a662	0.44462878
104	0x3e2ee8d8	0.1708101
105	0x3eaea7a2	0.3411227
106	0x3c926fa0	0.017875493
107	0x3e36635c	0.1781134
108	0x3f096301	0.5366669
109	0x3f53dd87	0.827599
110	0x3ef453be	0.4772014
111	0x3f63e675	0.89023525
112	0x3dd76a30	0.105183005
113	0x3f2dc2da	0.67875445
114	0x3f1e5be8	0.6185899
115	0x3e98ad82	0.29819876
116	0x3f34978e	0.70543754
117	0x3e3d04d0	0.18458867
118	0x3f08f8fa	0.5350491
119	0x3f2b995d	0.6703089
120	0x3e891b68	0.26778722
121	0x3e173a28	0.14768279
122	0x3f521ae2	0.8207227
123	0x3dc58538	0.0964455
124	0x3f7e4c43	0.99335116
125	0x3ea34b70	0.31893492
126	0x3ed7f236	0.4217698
127	0x3e6fea40	0.23429203

bn1.bias f4 [128]
0	0x00000000	0.0
1	0x00000000	0.0
2	0x00000000	0.0
3	0x00000000	0.0
4	0x00000000	0.0
5	0x00000000	0.0
6	0x00000000	0.0
7	0x00000000	0.0
8	0x00000000	0.0
9	0x00000000	0.0
10	0x00000000	0.0
11	0x00000000	0.0
12	0x00000000	0.0
13	0x00000000	0.0
14	0x00000000	0.0
15	0x00000000	0.0
16	0x00000000	0.0
17	0x00000000	0.0
18	0x00000000	0.0
19	0x00000000	0.0
20	0x00000000	0.0
21	0x00000000	0.0
22	0x00000000	0.0
23	0x00000000	0.0
24	0x00000000	0.0
25	0x00000000	0.0
26	0x00000000	0.0
27	0x00000000	0.0
28	0x00000000	0.0
29	0x00000000	0.0
30	0x00000000	0.0
31	0x00000000	0.0
32	0x00000000	0.0
33	0x00000000	0.0
34	0x00000000	0.0
35	0x00000000	0.0
36	0x00000000	0.0
37	0x00000000	0.0
38	0x00000000	0.0
39	0x00000000	0.0
40	0x00000000	0.0
41	0x00000000	0.0
42	0x00000000	0.0
43	0x00000000	0.0
44	0x00000000	0.0
45	0x00000000	0.0
46	0x00000000	0.0
47	0x00000000	0.0
48	0x00000000	0.0
49	0x00000000	0.0
50	0x00000000	0.0
51	0x00000000	0.0
52	0x00000000	0.0
53	0x00000000	0.0
54	0x00000000	0.0
55	0x00000000	0.0
56	0x00000000	0.0
57	0x00000000	0.0
58	0x00000000	0.0
59	0x00000000	0.0
60	0x00000000	0.0
61	0x00000000	0.0
62	0x00000000	0.0
63	0x00000000	0.0
64	0x00000000	0.0
65	0x00000000	0.0
66	0x00000000	0.0
67	0x00000000	0.0
68	0x00000000	0.0
69	0x00000000	0.0
70	0x00000000	0.0
71	0x00000000	0.0
72	0x00000000	0.0
73	0x00000000	0.0
74	0x00000000	0.0
75	0x00000000	0.0
76	0x00000000	0.0
77	0x00000000	0.0
78	0x00000000	0.0
79	0x00000000	0.0
80	0x00000000	0.0
81	0x00000000	0.0
82	0x00000000	0.0
83	0x00000000	0.0
84	0x00000000	0.0
85	0x00000000	0.0
86	0x00000000	0.0
87	0x00000000	0.0
88	0x00000000	0.0
89	0x00000000	0.0
90	0x00000000	0.0
91	0x00000000	0.0
92	0x00000000	0.0
93	0x00000000	0.0
94	0x00000000	0.0
95	0x00000000	0.0
96	0x00000000	0.0
97	0x00000000	0.0
98	0x00000000	0.0
99	0x00000000	0.0
100	0x00000000	0.0
101	0x00000000	0.0
102	0x00000000	0.0
103	0x00000000	0.0
104	0x00000000	0.0
105	0x00000000	0.0
106	0x00000000	0.0
107	0x00000000	0.0
108	0x00000000	0.0
109	0x00000000	0.0
110	0x00000000	0.0
111	0x00000000	0.0
112	0x00000000	0.0
113	0x00000000	0.0
114	0x00000000	0.0
115	0x00000000	0.0
116	0x00000000	0.0
117	0x00000000	0.0
118	0x00000000	0.0
119	0x00000000	0.0
120	0x00000000	0.0
121	0x00000000	0.0
122	0x00000000	0.0
123	0x00000000	0.0
124	0x00000000	0.0
125	0x00000000	0.0
126	0x00000000	0.0
127	0x00000000	0.0

bn1.running_mean f4 [128]
0	0x00000000	0.0
1	0x00000000	0.0
2	0x00000000	0.0
3	0x00000000	0.0
4	0x00000000	0.0
5	0x00000000	0.0
6	0x00000000	0.0
7	0x00000000	0.0
8	0x00000000	0.0
9	0x00000000	0.0
10	0x00000000	0.0
11	0x00000000	0.0
12	0x00000000	0.0
13	0x00000000	0.0
14	0x00000000	0.0
15	0x00000000	0.0
16	0x00000000	0.0
17	0x00000000	0.0
18	0x00000000	0.0
19	0x00000000	0.0
20	0x00000000	0.0
21	0x00000000	0.0
22	0x00000000	0.0
23	0x00000000	0.0
24	0x00000000	0.0
25	0x00000000	0.0
26	0x00000000	0.0
27	0x00000000	0.0
28	0x00000000	0.0
29	0x00000000	0.0
30	0x00000000	0.0
31	0x00000000	0.0
32	0x00000000	0.0
33	0x00000000	0.0
34	0x00000000	0.0
35	0x00000000	0.0
36	0x00000000	0.0
37	0x00000000	0.0
38	0x00000000	0.0
39	0x00000000	0.0
40	0x00000000	0.0
41	0x00000000	0.0
42	0x00000000	0.0
43	0x00000000	0.0
44	0x00000000	0.0
45	0x00000000	0.0
46	0x00000000	0.0
47	0x00000000	0.0
48	0x00000000	0.0
49	0x00000000	0.0
50	0x00000000	0.0
51	0x00000000	0.0
52	0x00000000	0.0
53	0x00000000	0.0
54	0x00000000	0.0
55	0x00000000	0.0
56	0x00000000	0.0
57	0x00000000	0.0
58	0x00000000	0.0
59	0x00000000	0.0
60	0x00000000	0.0
61	0x00000000	0.0
62	0x00000000	0.0
63	0x00000000	0.0
64	0x00000000	0.0
65	0x00000000	0.0
66	0x00000000	0.0
67	0x00000000	0.0
68	0x00000000	0.0
69	0x00000000	0.0
70	0x00000000	0.0
71	0x00000000	0.0
72	0x00000000	0.0
73	0x00000000	0.0
74	0x00000000	0.0
75	0x00000000	0.0
76	0x00000000	0.0
77	0x00000000	0.0
78	0x00000000	0.0
79	0x00000000	0.0
80	0x00000000	0.0
81	0x00000000	0.0
82	0x00000000	0.0
83	0x00000000	0.0
84	0x00000000	0.0
85	0x00000000	0.0
86	0x00000000	0.0
87	0x00000000	0.0
88	0x00000000	0.0
89	0x00000000	0.0
90	0x00000000	0.0
91	0x00000000	0.0
92	0x00000000	0.0
93	0x00000000	0.0
94	0x00000000	0.0
95	0x00000000	0.0
96	0x00000000	0.0
97	0x00000000	0.0
98	0x00000000	0.0
99	0x00000000	0.0
100	0x00000000	0.0
101	0x00000000	0.0
102	0x00000000	0.0
103	0x00000000	0.0
104	0x00000000	0.0
105	0x00000000	0.0
106	0x00000000	0.0
107	0x00000000	0.0
108	0x00000000	0.0
109	0x00000000	0.0
110	0x00000000	0.0
111	0x00000000	0.0
112	0x00000000	0.0
113	0x00000000	0.0
114	0x00000000	0.0
115	0x00000000	0.0
116	0x00000000	0.0
117	0x00000000	0.0
118	0x00000000	0.0
119	0x00000000	0.0
120	0x00000000	0.0
121	0x00000000	0.0
122	0x00000000	0.0
123	0x00000000	0.0
124	0x00000000	0.0
125	0x00000000	0.0
126	0x00000000	0.0
127	0x00000000	0.0

bn1.running_var f4 [128]
0	0x3f800000	1.0
1	0x3f800000	1.0
2	0x3f800000	1.0
3	0x3f800000	1.0
4	0x3f800000	1.0
5	0x3f800000	1.0
6	0x3f800000	1.0
7	0x3f800000	1.0
8	0x3f800000	1.0
9	0x3f800000	1.0
10	0x3f800000	1.0
11	0x3f800000	1.0
12	0x3f800000	1.0
13	0x3f800000	1.0
14	0x3f800000	1.0
15	0x3f800000	1.0
16	0x3f800000	1.0
17	0x3f800000	1.0
18	0x3f800000	1.0
19	0x3f800000	1.0
20	0x3f800000	1.0
21	0x3f800000	1.0
22	0x3f800000	1.0
23	0x3f800000	1.0
24	0x3f800000	1.0
25	0x3f800000	1.0
26	0x3f800000	1.0
27	0x3f800000	1.0
28	0x3f800000	1.0
29	0x3f800000	1.0
30	0x3f800000	1.0
31	0x3f800000	1.0
32	0x3f800000	1.0
33	0x3f800000	1.0
34	0x3f800000	1.0
35	0x3f800000	1.0
36	0x3f800000	1.0
37	0x3f800000	1.0
38	0x3f800000	1.0
39	0x3f800000	1.0
40	0x3f800000	1.0
41	0x3f800000	1.0
42	0x3f800000	1.0
43	0x3f800000	1.0
44	0x3f800000	1.0
45	0x3f800000	1.0
46	0x3f800000	1.0
47	0x3f800000	1.0
48	0x3f800000	1.0
49	0x3f800000	1.0
50	0x3f800000	1.0
51	0x3f800000	1.0
52	0x3f800000	1.0
53	0x3f800000	1.0
54	0x3f800000	1.0
55	0x3f800000	1.0
56	0x3f800000	1.0
57	0x3f800000	1.0
58	0x3f800000	1.0
59	0x3f800000	1.0
60	0x3f800000	1.0
61	0x3f800000	1.0
62	0x3f800000	1.0
63	0x3f800000	1.0
64	0x3f800000	1.0
65	0x3f800000	1.0
66	0x3f800000	1.0
67	0x3f800000	1.0
68	0x3f800000	1.0
69	0x3f800000	1.0
70	0x3f800000	1.0
71	0x3f800000	1.0
72	0x3f800000	1.0
73	0x3f800000	1.0
74	0x3f800000	1.0
75	0x3f800000	1.0
76	0x3f800000	1.0
77	0x3f800000	1.0
78	0x3f800000	1.0
79	0x3f800000	1.0
80	0x3f800000	1.0
81	0x3f800000	1.0
82	0x3f800000	1.0
83	0x3f800000	1.0
84	0x3f800000	1.0
85	0x3f800000	1.0
86	0x3f800000	1.0
87	0x3f800000	1.0
88	0x3f800000	1.0
89	0x3f800000	1.0
90	0x3f800000	1.0
91	0x3f800000	1.0
92	0x3f800000	1.0
93	0x3f800000	1.0
94	0x3f800000	1.0
95	0x3f800000	1.0
96	0x3f800000	1.0
97	0x3f800000	1.0
98	0x3f800000	1.0
99	0x3f800000	1.0
100	0x3f800000	1.0
101	0x3f800000	1.0
102	0x3f800000	1.0
103	0x3f800000	1.0
104	0x3f800000	1.0
105	0x3f800000	1.0
106	0x3f800000	1.0
107	0x3f800000	1.0
108	0x3f800000	1.0
109	0x3f800000	1.0
110	0x3f800000	1.0
111	0x3f800000	1.0
112	0x3f800000	1.0
113	0x3f800000	1.0
114	0x3f800000	1.0
115	0x3f800000	1.0
116	0x3f800000	1.0
117	0x3f800000	1.0
118	0x3f800000	1.0
119	0x3f800000	1.0
120	0x3f800000	1.0
121	0x3f800000	1.0
122	0x3f800000	1.0
123	0x3f800000	1.0
124	0x3f800000	1.0
125	0x3f800000	1.0
126	0x3f800000	1.0
127	0x3f800000	1.0

fc2.weight f4 [64, 130]
0	0xbe74fb25	-0.23923929
1	0xbeed987d	-0.46405402
2	0xbdc07a30	-0.093983054
3	0x3cd9e6d4	0.026599325
4	0xbe8d2423	-0.27566633
5	0xbe50ccec	-0.20390671
6	0xbf1dd427	-0.61651844
7	0xbe078250	-0.13233304
8	0xbc6a5847	-0.0143032735
9	0x3d8e8f20	0.06960893
10	0xbe2f6442	-0.17128089
11	0x3eaa5fa9	0.33276108
12	0xbe9e75f3	-0.30949363
13	0xbe806b6e	-0.25081962
14	0x3ca61535	0.020273784
15	0x3d44bb42	0.048030145
16	0xbe7af451	-0.24507262
17	0x3e8b0111	0.2714925
18	0x3e3c6f37	0.184018
19	0xbec48c0f	-0.38388106
20	0x3ce4679d	0.027881438
21	0xbd8fe2a3	-0.070256494
22	0x3d896daf	0.067103736
23	0x3d20e7dd	0.039283622
24	0xbe167824	-0.14694268
25	0x3eee6999	0.4656494
26	0xbe9e7a51	-0.30952695
27	0x3d8f13d3	0.06986203
28	0x3c3109a1	0.010805518
29	0xbdd24083	-0.10266211
30	0xbe3ad9aa	-0.18247095
31	0xbe0a14b8	-0.13484466
32	0x3c1a9903	0.009435895
33	0x3e4df700	0.20113754
34	0x3dab542a	0.083656624
35	0xbf26be24	-0.6513388
36	0x3d817b4a	0.06322344
37	0x3dbf7ac3	0.09349587
38	0xbdb598e2	-0.08867051
39	0xbef7e525	-0.4841701
40	0xbefa32d1	-0.48866895
41	0x3f24f9fc	0.64443946
42	0xbdb4768f	-0.08811676
43	0xbf0ff389	-0.5623098
44	0x3ec9d9b4	0.39423907
45	0xbdc15b40	-0.09441233
46	0xbe08c27d	-0.13355441
47	0xbc8cf418	-0.017206237
48	0xbd4dc0a8	-0.05023256
49	0x3eacc6d9	0.3374546
50	0xbe10fc4e	-0.14158747
51	0xbe177442	-0.14790443
52	0x3da63bbf	0.081168644
53	0x3bcc3684	0.0062320847
54	0x3ddb11a2	0.106967226
55	0x3e255db8	0.16149032
56	0xbdb51606	-0.08842091
57	0xbe568da4	-0.20952469
58	0x3e63dd95	0.22252496
59	0xbd809f59	-0.06280393
60	0xbdfd6cf8	-0.123743
61	0xbe5b16b5	-0.21395381
62	0x3e4cfe0d	0.20018788
63	0xbfc8b1c7	-1.5679253
64	0x3e37fc92	0.17967442
65	0x3ddb91e9	0.107211895
66	0xbef8f3af	-0.48623416
67	0xbe52637b	-0.20545761
68	0xbebd1087	-0.36926672
69	0xbed20db9	-0.41026095
70	0xbe04be41	-0.12963201
71	0xbc1a7e81	-0.009429575
72	0x3eb5d1cf	0.35511634
73	0x3d873d3c	0.066034764
74	0x3e70652e	0.23476097
75	0xbd50b250	-0.050951302
76	0xbdc22fa3	-0.09481742
77	0x3e72b014	0.23699981
78	0x3c6fb797	0.014631174
79	0xbccc6072	-0.024948332
80	0xbe8f03c4	-0.2793256
81	0xbe9c1296	-0.3048293
82	0xbfae93da	-1.3638871
83	0x3ee8d783	0.45476922
84	0x3c605f0e	0.013694538
85	0x3eb914be	0.36148638
86	0xbf222460	-0.63336754
87	0xbdd1adaa	-0.10238202
88	0x3d9e3368	0.07724649
89	0xbdf541ab	-0.11975416
90	0xbd84a4dc	-0.06476757
91	0x3cae0505	0.021242628
92	0xbd82f46c	-0.06394276
93	0x3ec7dbdf	0.39034936
94	0xbe038c92	-0.12846592
95	0xbf2a2c8d	-0.6647423
96	0x3e00f2bd	0.12592597
97	0x3dbf1350	0.093298554
98	0x3d56ed24	0.05247225
99	0xbec817a3	-0.39080533
100	0xbf496f11	-0.786851
101	0x3a86d442	0.0010286646
102	0x3d1bfa42	0.03808046
103	0x3d96b8f9	0.073594995
104	0xbd9eb96f	-0.077502124
105	0xbf5dce67	-0.8664307
106	0xbdc3da0e	-0.09563075
107	0xbe129686	-0.14315233
108	0x3d053e20	0.03252995
109	0x3e584e7c	0.2112369
110	0xbeda35dd	-0.4261922
111	0x3e86e677	0.26347706
112	0x3d9d6c2e	0.07686649
113	0xbf24a453	-0.6431324
114	0xbe26a5d2	-0.16274193
115	0xbf12b23a	-0.573032
116	0xbe29e87d	-0.16592593
117	0xbe7674ef	-0.24068044
118	0xbedb680f	-0.42852828
119	0x3d804df1	0.06264866
120	0x3dcf9090	0.10134995
121	0x3e81e160	0.2536726
122	0x3de5ee7b	0.11227127
123	0x3e021d3e	0.12706468
124	0xbe132b40	-0.14371967
125	0xbda6281a	-0.081131175
126	0x3d8e777c	0.069563836
127	0x3e0edf1a	0.13952294
128	0xbc8ce30f	-0.017198114
129	0xbb590e93	-0.003312026
130	0xbe3457b9	-0.17611589
131	0x3e861afe	0.26192468
132	0x3d73f8e1	0.05956352
133	0xbe15ef2d	-0.1464202
134	0xbdac95b8	-0.08426994
135	0xbeb1c1b1	-0.34718087
136	0xbed4e96b	-0.41584334
137	0xbe038d6a	-0.12846914
138	0x3c96951f	0.018381653
139	0xbd4c7730	-0.049918354
140	0x3d800bbb	0.062522374
141	0xbecf884d	-0.40533677
142	0x3ddafcdc	0.1069276
143	0xbf02519d	-0.5090578
144	0x3d97fc94	0.07421222
145	0x3dc7eac6	0.09761576
146	0xbdab1514	-0.0835363
147	0x3e50b3a4	0.20381027
148	0xbe016e58	-0.12639749
149	0x3e86c266	0.2632019
150	0x3e07c12a	0.1325728
151	0xbdae3296	-0.08505742
152	0xbe6a505a	-0.22882214
153	0x3d5511a9	0.052018795
154	0x3dbd3a43	0.09239628
155	0x3e0c68ef	0.13711904
156	0x3dfbb7da	0.12290926
157	0xbe75c412	-0.24000576
158	0xbdc2131c	-0.09476301
159	0xbcc459b5	-0.023968557
160	0x3d66f2c5	0.056383867
161	0x3db9f5b1	0.09080065
162	0x3b6aed1b	0.0035846892
163	0x3dda2240	0.10651064
164	0xbe53e059	-0.2069105
165	0xbdcae037	-0.09906047
166	0x3df7d098	0.12100333
167	0xbdd3320d	-0.10312281
168	0x3c18128f	0.009281768
169	0xbdfb65ec	-0.122752994
170	0xbeb1b770	-0.34710264
171	0xbe9cc153	-0.30616245
172	0x3dba43d1	0.09094966
173	0x3d8d4f95	0.06899945
174	0xbdeb3fbb	-0.11486765
175	0xbe16271f	-0.14663361
176	0xbd67e395	-0.056613524
177	0xbf26c702	-0.6514741
178	0xbcd2581a	-0.025676776
179	0xbdccd941	-0.100023754
180	0x3e104ec7	0.14092551
181	0x3d8f4b2b	0.06996759
182	0x3da1d788	0.079024374
183	0x3d9540a7	0.07287722
184	0x3eb6728f	0.35634276
185	0xbcfaf283	-0.030633217
186	0xbe80203d	-0.25024596
187	0xbe4eb442	-0.2018595
188	0xbe9dd59c	-0.30827034
189	0x3e0342cc	0.1281845
190	0x3ed02d41	0.40659526
191	0x3d27a2a1	0.04092658
192	0x3e0e5170	0.13898253
193	0xbd568d0d	-0.05238061
194	0xbea3f534	-0.32023013
195	0xbe115a8a	-0.14194694
196	0x3d856ff7	0.06515496
197	0x3e59bbbe	0.21263024
198	0x3d3488b2	0.044075675
199	0x3e3673e5	0.17817648
200	0x3c86549c	0.016397767
201	0x3e0e3fcc	0.13891524
202	0xbee5b658	-0.4486568
203	0x3db78f0f	0.08962833
204	0xbdc2c3fd	-0.09510038
205	0x3e23244c	0.15931815
206	0xbe910cbc	-0.28330028
207	0x3e2faabb	0.17154972
208	0xbec19738	-0.37810683
209	0xbea3cb4c	-0.3199104
210	0xbe5627d8	-0.20913637
211	0xbe52e344	-0.20594507
212	0xbe48c216	-0.19605288
213	0x3d9deeff	0.077116005
214	0x3daa8986	0.08327012
215	0x3e2e4d99	0.17021789
216	0xbd458240	-0.04821992
217	0xbd4a23b4	-0.049350455
218	0x3e22d9a7	0.1590334
219	0x3e613361	0.21992256
220	0x3bc0e43b	0.005886582
221	0xbbfed7df	-0.0077771987
222	0x3e3cdb08	0.18442929
223	0x3d8c2ce1	0.068444975
224	0x3da6a2b3	0.08136501
225	0xbe796617	-0.2435535
226	0xbde76378	-0.11298269
227	0x3e0d0b89	0.13773932
228	0x3d98292a	0.074297264
229	0xbea7660a	-0.32695037
230	0x3d5647b4	0.052314475
231	0xbdfc922b	-0.12332567
232	0xbd89879c	-0.067153186
233	0x3e1a1aaa	0.15049234
234	0x3d9fd176	0.078036234
235	0xbf11bcad	-0.5692852
236	0x3e1c5e71	0.15270402
237	0xbdd7eb39	-0.10542912
238	0x3b74b725	0.0037340608
239	0xbe6f07f6	-0.2334288
240	0xbe443696	-0.19161448
241	0xbcd28d19	-0.025702046
242	0x3d93995c	0.07206985
243	0xbe604098	-0.2189964
244	0xbbe3869b	-0.0069435365
245	0xbdd3e816	-0.10347001
246	0xbe3017a2	-0.17196515
247	0xbd1e599b	-0.038659673
248	0x3da3117b	0.079623185
249	0xbd87ce23	-0.06631114
250	0x3ccfec3a	0.025381196
251	0x3d37cbf9	0.044872258
252	0x3da547da	0.08070345
253	0x3e283ae9	0.16428722
254	0xbcee5aa3	-0.029095953
255	0xbe12aa72	-0.14322832

fc2.bias f4 [64]
0	0x3df80884	0.12110999
1	0x3e1da736	0.15395817
2	0x3d235d6d	0.03988402
3	0x3a498cfc	0.000768855
4	0xbdccbceb	-0.09996971
5	0x3d640d9e	0.05567705
6	0xbdee23b1	-0.11627901
7	0xbd6f0eb6	-0.05836364
8	0xbddf660c	-0.10908136
9	0x3d1a2913	0.037636828
10	0xbda38801	-0.07984925
11	0x3d13d6d4	0.036093548
12	0x3e89de30	0.26927328
13	0xbe00b931	-0.12570645
14	0x3db368c8	0.0876022
15	0xbd6a33e9	-0.05717841
16	0x3e363eff	0.17797469
17	0x3debc5e1	0.11512352
18	0x3da24db0	0.07924974
19	0x3d2b3a12	0.041803427
20	0x3d8a9a1f	0.067676775
21	0x3db4bfb6	0.088256285
22	0xbcd46739	-0.025928127
23	0x3d8c453b	0.06849142
24	0x3dc30567	0.09522515
25	0x3dcd21b9	0.10016198
26	0x3d7ff661	0.062490825
27	0x3da83a65	0.08214263
28	0x3da2a2fa	0.079412416
29	0x3cc8f37c	0.024530165
30	0x3e1e412c	0.15454549
31	0x3ba9eec6	0.0051859347
32	0xbe13451d	-0.14381833
33	0x3da7c794	0.081923634
34	0x3e78869e	0.24270102
35	0xbe539972	-0.20664003
36	0x3dad82cc	0.08472213
37	0x3d5850d4	0.05281146
38	0xbc879582	-0.016550783
39	0x3d52b3ed	0.05144112
40	0x3d663e46	0.056211732
41	0xbde54375	-0.11194507
42	0xbe39b16a	-0.18134084
43	0x3c70e0a7	0.014701999
44	0x3d10741b	0.035266977
45	0x3e2e8117	0.17041431
46	0x3e260a40	0.16214848
47	0x3da882a3	0.08228042
48	0xbe04e4d7	-0.1297792
49	0x3dafc996	0.08583371
50	0x3b1101f9	0.002212642
51	0xbd590102	-0.052979477
52	0xbd181910	-0.037133276
53	0xbd98df9b	-0.07464524
54	0x3dc1f73d	0.09470985
55	0x3d2b817a	0.041871525
56	0xbc9fe0b3	-0.019516325
57	0xbc767d24	-0.015044484
58	0x3e3ccdc2	0.18437865
59	0xbdb85246	-0.090000674
60	0xbce5e774	-0.028064467
61	0x3b6d7e6f	0.003623869
62	0x3db1b8e5	0.08677844
63	0x3d40c83a	0.04706595

bn2.weight f4 [64]
0	0x3d9cadb8	0.07650322
1	0x3da38c00	0.07985687
2	0x3f1d6f2d	0.61497766
3	0x3e98f570	0.29874754
4	0x3ef048ce	0.46930546
5	0x3e358d30	0.1772964
6	0x3f23649a	0.6382538
7	0x3f6c88f3	0.9239647
8	0x3e702948	0.23453248
9	0x3f0abb6f	0.5419225
10	0x3ee7afc0	0.45251274
11	0x3ee22716	0.44170445
12	0x3c9ac620	0.018893301
13	0x3dd82d28	0.10555488
14	0x3eb9f28e	0.36317867
15	0x3f3ef016	0.7458509
16	0x3f05fa6e	0.5233525
17	0x3d477ab0	0.04870099
18	0x3f76c8a2	0.9639989
19	0x3e9676a8	0.29387403
20	0x3daa7278	0.083226144
21	0x3f07b552	0.5301105
22	0x3e6502a4	0.22364289
23	0x3f71ba83	0.9442522
24	0x3e9c712a	0.30555087
25	0x3f0eb8f3	0.5575096
26	0x3dfd3b18	0.12364787
27	0x3cc25ca0	0.023725808
28	0x3ed38432	0.41311795
29	0x3f72b6a0	0.94809914
30	0x3f5de11b	0.8667161
31	0x3f0da6da	0.5533272
32	0x3f20547c	0.6262891
33	0x3f21e6a9	0.63242584
34	0x3f042f4e	0.5163468
35	0x3ebac418	0.36477733
36	0x3e99ee40	0.30064583
37	0x3e0a3988	0.13498509
38	0x3e2259a4	0.15854508
39	0x3f1d4e09	0.614472
40	0x3e6dc410	0.23219323
41	0x3f009e6d	0.5024174
42	0x3f0a062d	0.53915673
43	0x3f1d9778	0.6155925
44	0x3e2f68a0	0.17129755
45	0x3f68fe7a	0.910133
46	0x3f5d72ef	0.865035
47	0x3f7ae673	0.9800789
48	0x3e4e5ee0	0.2015338
49	0x3e79d448	0.24397385
50	0x3f647ed5	0.8925603
51	0x3f1c0835	0.6095002
52	0x3c0f6540	0.008752167
53	0x3f0c537d	0.54814893
54	0x3f19efb6	0.60131395
55	0x3ee71014	0.45129454
56	0x3eb60f2c	0.3555845
57	0x3d1543a0	0.036441445
58	0x3a869a00	0.0010269284
59	0x3f4a1001	0.7893067
60	0x3e8c5202	0.27406317
61	0x3f5af5b8	0.8553119
62	0x3f59ce50	0.8508043
63	0x3e73b58c	0.23799723

bn2.bias f4 [64]
0	0x00000000	0.0
1	0x00000000	0.0
2	0x00000000	0.0
3	0x00000000	0.0
4	0x00000000	0.0
5	0x00000000	0.0
6	0x00000000	0.0
7	0x00000000	0.0
8	0x00000000	0.0
9	0x00000000	0.0
10	0x00000000	0.0
11	0x00000000	0.0
12	0x00000000	0.0
13	0x00000000	0.0
14	0x00000000	0.0
15	0x00000000	0.0
16	0x00000000	0.0
17	0x00000000	0.0
18	0x00000000	0.0
19	0x00000000	0.0
20	0x00000000	0.0
21	0x00000000	0.0
22	0x00000000	0.0
23	0x00000000	0.0
24	0x00000000	0.0
25	0x00000000	0.0
26	0x00000000	0.0
27	0x00000000	0.0
28	0x00000000	0.0
29	0x00000000	0.0
30	0x00000000	0.0
31	0x00000000	0.0
32	0x00000000	0.0
33	0x00000000	0.0
34	0x00000000	0.0
35	0x00000000	0.0
36	0x00000000	0.0
37	0x00000000	0.0
38	0x00000000	0.0
39	0x00000000	0.0
40	0x00000000	0.0
41	0x00000000	0.0
42	0x00000000	0.0
43	0x00000000	0.0
44	0x00000000	0.0
45	0x00000000	0.0
46	0x00000000	0.0
47	0x00000000	0.0
48	0x00000000	0.0
49	0x00000000	0.0
50	0x00000000	0.0
51	0x00000000	0.0
52	0x00000000	0.0
53	0x00000000	0.0
54	0x00000000	0.0
55	0x00000000	0.0
56	0x00000000	0.0
57	0x00000000	0.0
58	0x00000000	0.0
59	0x00000000	0.0
60	0x00000000	0.0
61	0x00000000	0.0
62	0x00000000	0.0
63	0x00000000	0.0

bn2.running_mean f4 [64]
0	0x00000000	0.0
1	0x00000000	0.0
2	0x00000000	0.0
3	0x00000000	0.0
4	0x00000000	0.0
5	0x00000000	0.0
6	0x00000000	0.0
7	0x00000000	0.0
8	0x00000000	0.0
9	0x00000000	0.0
10	0x00000000	0.0
11	0x00000000	0.0
12	0x00000000	0.0
13	0x00000000	0.0
14	0x00000000	0.0
15	0x00000000	0.0
16	0x00000000	0.0
17	0x00000000	0.0
18	0x00000000	0.0
19	0x00000000	0.0
20	0x00000000	0.0
21	0x00000000	0.0
22	0x00000000	0.0
23	0x00000000	0.0
24	0x00000000	0.0
25	0x00000000	0.0
26	0x00000000	0.0
27	0x00000000	0.0
28	0x00000000	0.0
29	0x00000000	0.0
30	0x00000000	0.0
31	0x00000000	0.0
32	0x00000000	0.0
33	0x00000000	0.0
34	0x00000000	0.0
35	0x00000000	0.0
36	0x00000000	0.0
37	0x00000000	0.0
38	0x00000000	0.0
39	0x00000000	0.0
40	0x00000000	0.0
41	0x00000000	0.0
42	0x00000000	0.0
43	0x00000000	0.0
44	0x00000000	0.0
45	0x00000000	0.0
46	0x00000000	0.0
47	0x00000000	0.0
48	0x00000000	0.0
49	0x00000000	0.0
50	0x00000000	0.0
51	0x00000000	0.0
52	0x00000000	0.0
53	0x00000000	0.0
54	0x00000000	0.0
55	0x00000000	0.0
56	0x00000000	0.0
57	0x00000000	0.0
58	0x00000000	0.0
59	0x00000000	0.0
60	0x00000000	0.0
61	0x00000000	0.0
62	0x00000000	0.0
63	0x00000000	0.0

bn2.running_var f4 [64]
0	0x3f800000	1.0
1	0x3f800000	1.0
2	0x3f800000	1.0
3	0x3f800000	1.0
4	0x3f800000	1.0
5	0x3f800000	1.0
6	0x3f800000	1.0
7	0x3f800000	1.0
8	0x3f800000	1.0
9	0x3f800000	1.0
10	0x3f800000	1.0
11	0x3f800000	1.0
12	0x3f800000	1.0
13	0x3f800000	1.0
14	0x3f800000	1.0
15	0x3f800000	1.0
16	0x3f800000	1.0
17	0x3f800000	1.0
18	0x3f800000	1.0
19	0x3f800000	1.0
20	0x3f800000	1.0
21	0x3f800000	1.0
22	0x3f800000	1.0
23	0x3f800000	1.0
24	0x3f800000	1.0
25	0x3f800000	1.0
26	0x3f800000	1.0
27	0x3f800000	1.0
28	0x3f800000	1.0
29	0x3f800000	1.0
30	0x3f800000	1.0
31	0x3f800000	1.0
32	0x3f800000	1.0
33	0x3f800000	1.0
34	0x3f800000	1.0
35	0x3f800000	1.0
36	0x3f800000	1.0
37	0x3f800000	1.0
38	0x3f800000	1.0
39	0x3f800000	1.0
40	0x3f800000	1.0
41	0x3f800000	1.0
42	0x3f800000	1.0
43	0x3f800000	1.0
44	0x3f800000	1.0
45	0x3f800000	1.0
46	0x3f800000	1.0
47	0x3f800000	1.0
48	0x3f800000	1.0
49	0x3f800000	1.0
50	0x3f800000	1.0
51	0x3f800000	1.0
52	0x3f800000	1.0
53	0x3f800000	1.0
54	0x3f800000	1.0
55	0x3f800000	1.0
56	0x3f800000	1.0
57	0x3f800000	1.0
58	0x3f800000	1.0
59	0x3f800000	1.0
60	0x3f800000	1.0
61	0x3f800000	1.0
62	0x3f800000	1.0
63	0x3f800000	1.0

fc3.weight f4 [1, 64]
0	0x3e92f31e	0.2870111
1	0xbd7e99a4	-0.062158242
2	0x3e3e1d18	0.18565786
3	0x3f1397a5	0.57653266
4	0xbe2c2869	-0.1681229
5	0xbdb3364a	-0.08750589
6	0x3e5d3113	0.21600752
7	0x3c851ba7	0.016248537
8	0x3c99a699	0.018756198
9	0xbdd6570c	-0.104658216
10	0x3d65a965	0.05606975
11	0x3e02a907	0.12759791
12	0xbda7d0bc	-0.0819411
13	0xbe84d914	-0.25946867
14	0xbdf35d40	-0.118830204
15	0x3d43fe14	0.04784973
16	0xbdcf1d7d	-0.10113046
17	0xbdc999b6	-0.09843771
18	0xbdc637da	-0.096786216
19	0xbdf22f7d	-0.11825464
20	0xbdae21e0	-0.08502555
21	0xbe91e9c0	-0.2849865
22	0x3e26f41f	0.16304062
23	0x3e947599	0.2899597
24	0xbd976842	-0.073929325
25	0x3e3bfc6b	0.18358009
26	0x3dc49d99	0.09600372
27	0xbda66869	-0.081253834
28	0xbd845f65	-0.064635076
29	0xbdc9946f	-0.098427646
30	0x3eb3d0ea	0.35120326
31	0x3e48d5ca	0.19612804
32	0xbefdfe3a	-0.49608022
33	0xbdb63aa9	-0.08897907
34	0xbd74e289	-0.059786353
35	0xbe38f56b	-0.1806237
36	0xbd9a290d	-0.07527361
37	0xbe96872c	-0.29400003
38	0xbdacea10	-0.084430814
39	0x3de506e9	0.11182959
40	0xbecaff0d	-0.39647713
41	0x3d9f8a47	0.07790046
42	0x3ca6baab	0.020352682
43	0xbdc02bdc	-0.093833655
44	0x3dfa9a49	0.12236459
45	0x3e67c2a2	0.2263284
46	0x3e17eeee	0.14837238
47	0x3ec740db	0.38916668
48	0x3e337b9f	0.17527626
49	0xbdb83f9a	-0.08996506
50	0xbdb8a65e	-0.09016107
51	0x3e05b796	0.13058314
52	0xbecccb75	-0.39998975
53	0x3cff51a9	0.031166868
54	0xbe27d2b6	-0.16388974
55	0x3e3a0195	0.18164666
56	0x3ddd4f19	0.10806102
57	0xbe646e57	-0.22307716
58	0xbe7d0f03	-0.24712758
59	0x3b2cfda6	0.0026396303
60	0xbe798723	-0.24367957
61	0x3e0def13	0.13860731
62	0xbe975270	-0.29555082
63	0x3e95e6f4	0.29277766
